Soft-Module-main/log/model10_0/model_vf_best.pth (torch, 280037 bytes, 5 tensors)

base.seq_fcs.0.weight f4 [256, 12]
00000000: ac95 8ebe 14af ae3c afa3 0ebf 1a08 c5bf
00000010: edae 8c3e ccdf 393f 10a3 8b3b c4aa 433d
00000020: 3ac4 783d 38aa 2dbe 7411 103f 16db 043f
00000030: edb5 bbbe 55e5 3dbb 7d98 dfbe 6d77 bebf
00000040: 0db2 9e3e 6cb1 323f d888 af3c 68f5 5a3d
00000050: d049 4bbd 489b 60be b4a3 1e3f d6e5 2b3f
00000060: ab84 e9be ce42 faba e206 e4be 256b c3bf
00000070: 9198 613e 4d57 4a3f acd8 fe3c 9e3d 2c3d
00000080: 68fd 323d 224c 5cbe 8ed5 283f fd9a 2c3f
00000090: ac86 b63b a3e8 3dbb bb63 91be b753 babf
000000a0: 1eae 6a3e ef28 383f 5065 dabb dcab 84bc
000000b0: 8082 60bc d2f6 53be 79c9 0c3f 2185 0d3f
000000c0: 493b c4bd cd1c 4f3c c56e d3be debf c2bf
000000d0: 7a84 473e 1257 1f3f cef1 7e3d d8c7 183d
000000e0: 00d1 983c e262 8fbe 1431 053f ed63 033f
000000f0: 5fd6 4c3b 0b4c 59bd da46 a2be 5bf5 bcbf
00000100: b418 4c3e 3eee 333f 704c 7e3d 5c31 41bd
00000110: c67e 233d dad6 48be 996a 163f c9a7 1e3f
00000120: b43e bcbe 0cdc b73c 5f7e c5be 1b9f c1bf
00000130: b294 8f3e 3e61 2c3f 38a3 9bbc a013 7d3d
00000140: 5489 c23c 1b97 57be 32a1 0d3f b141 1f3f
00000150: 9195 4d3f a1fe 28bf 19f7 23c0 111e 06c0
00000160: 4149 1abd 7926 1e3e 5618 60bd 202e e23c
00000170: 9090 ce3b 84a0 c33e c518 263e 66ad 293e
00000180: 7911 a9bd dde3 ab3c fa54 b9be 1cbf bcbf
00000190: 2c9d 623e 4915 2a3f 1eef 573d 46eb 0fbd
000001a0: 1ad3 06bd b8a9 7ebe 3e2c 083f 90eb 113f
000001b0: 5a7f fc3b f241 033d 1f25 8abe 1b74 c5bf
000001c0: 67a0 a23e ed7b 333f 6e8f 263d 1cfd 743d
000001d0: 0068 fe39 aef1 98be 9491 113f 727c 1f3f
000001e0: 0685 c2be fc5e 10bc b191 dbbe d34f c4bf
000001f0: 0b91 743e 5e14 453f 3a76 1d3d 8214 2a3d
00000200: 8cce 483d 9b17 4cbe 6ff5 213f ce6a 0e3f
00000210: be82 e0be 61e1 a0bc 0b70 d2be 7e7b c5bf
00000220: 305b 843e e730 253f 90bc eebc ec7e f6bc
00000230: 6836 5bbd 9066 47be 0c65 033f 9869 143f
00000240: f761 693d 481b 833d 680f 9abe 5aa6 b6bf
00000250: b24a 913e 80cd 353f d4d0 e8bc 2ac5 55bd
00000260: 1204 19bd 8e54 64be 31ad 213f 3f6e 2a3f
00000270: df89 90be 8d5a 473d e305 d9be ceee bebf
00000280: 66b8 993e d120 2e3f c090 16bb 28b1 1bbd
00000290: c09f d9ba 3c25 94be 2c23 0a3f a730 133f
000002a0: a07e ccbe 6751 39bd b688 d2be a3bc bfbf
000002b0: 3335 a63e 17f4 4b3f 0811 653d fc3f 75bd
000002c0: b488 72bd c065 27be 39dd 0f3f 80f0 0e3f
000002d0: 5ed8 ec3d 7342 4fbc 03d1 a8be c310 babf
000002e0: 3b23 ab3e 9440 3e3f a8a1 5a3d 1040 1d3c
000002f0: 2028 633b c7da 88be 66ea 273f 91bc 1b3f
00000300: 0d4b 7bbe 531d 89bd a555 adbe 0c62 bdbf
00000310: bac1 503e 8c7b 323f c042 39bc f8c4 073d
00000320: 6612 35bd a217 8fbe c695 183f 36a5 083f
00000330: f255 dcbe 880a 5a3d 1bce f2be e4e4 c6bf
00000340: 8ccb 983e 1266 313f a068 3d3b 58c8 ea3c
00000350: fa5a 423d 140f 53be 9e12 163f 504e 133f
00000360: 1c11 2840 49df 333e 0d3a a5bf 70f9 e2bf
00000370: dd1d ed3c c489 0f3f e25b 03bd 80a0 cb3a
00000380: 14fc 0fbd a48a 98bd 6114 c83e 0b4e e33e
00000390: 133a f7be ba87 0bbd 2be7 d8be 8eb6 bcbf
000003a0: f75a 973e 4b1b 3f3f d22e 383d e222 663d
000003b0: e4ec 77bd 3735 22be b853 2e3f ff63 1e3f
000003c0: e4c5 e7be 008c b23d 400e ccbe ba6c c0bf
000003d0: 78d2 623e 340b 2f3f bea4 6ebd 420f 373d
000003e0: 3cfc 9b3c f4d3 44be 6fbc 213f cd45 103f
000003f0: f120 d1be 0290 75bc 5eb7 ddbe 32c3 bebf
-0.27848566 0.021323718 -0.5571851 -1.5393097 0.27477208 0.7260711 0.004261382 0.047770277
0.06073401 -0.16959465 0.5627663 0.518968 -0.36662236 -0.0028975804 -0.43671027 -1.4880196
0.30995217 0.69801974 0.021427557 0.053456694 -0.04963094 -0.21934235 0.6196854 0.67147577
-0.4560903 -0.0019093396 -0.445365 -1.5267073 0.22030856 0.7903946 0.031109177 0.04205095
0.0436987 -0.21513417 0.6595086 0.67423993 0.0055702534 -0.0028977774 -0.283964 -1.4556798
0.22917983 0.7193746 -0.0066649094 -0.01619523 -0.013702989 -0.20699623 0.5499492 0.55281264
-0.0958162 0.012641144 -0.41295448 -1.5214803 0.1948413 0.62242234 0.06224232 0.03729996
0.018654346 -0.2800513 0.5202801 0.5132435 0.0031255705 -0.053051036 -0.3169468 -1.4762377
0.19931298 0.70285404 0.062084615 -0.047166213 0.039915822 -0.1961321 0.58756405 0.6197477
-0.3676659 0.022443794 -0.38572976 -1.512668 0.28043133 0.6733588 -0.018998727 0.061786294
0.023747124 -0.21053736 0.5532409 0.6220961 0.80306345 -0.6601353 -2.5619566 -2.095585
-0.037667517 0.15444364 -0.05471071 0.027609885 0.0063038543 0.382084 0.16220386 0.16570053
-0.08255286 0.020982677 -0.36197644 -1.4745822 0.22130269 0.6643873 0.052718274 -0.035136484
-0.032916166 -0.2486943 0.5319251 0.57000065 0.007705611 0.032045312 -0.26981446 -1.5426058
0.31763002 0.7011097 0.04066413 0.059811696 0.0004852414 -0.29871887 0.5686276 0.62299263
-0.37992114 -0.008811709 -0.4288459 -1.533686 0.23883455 0.769842 0.038442828 0.041523464
0.049025103 -0.1993088 0.63265127 0.5563172 -0.43849748 -0.019638719 -0.41101107 -1.5428312
0.2585082 0.64527744 -0.029142648 -0.030089818 -0.053518683 -0.19472718 0.5132606 0.57973623
0.056978192 0.06401688 -0.3008988 -1.4269516 0.283773 0.71016693 -0.02841989 -0.052189983
-0.037357397 -0.2229788 0.63154894 0.6657447 -0.28230187 0.04867034 -0.42387304 -1.4916627
0.30023497 0.68018824 -0.0022974461 -0.038010746 -0.0016603395 -0.28934658 0.5395992 0.5749611
-0.39940357 -0.045243647 -0.41119927 -1.4979442 0.32462463 0.79669327 0.055924445 -0.059875473
-0.0592124 -0.16347408 0.56196934 0.55835724 0.11564706 -0.01265012 -0.32971963 -1.4536365
0.33425316 0.7431729 0.053376824 0.009597793 0.0034661368 -0.26729414 0.6559204 0.60834605
-0.24540348 -0.06695046 -0.33854404 -1.4795547 0.20386401 0.6971977 -0.011307418 0.03314683
-0.044207 -0.27947718 0.59603536 0.5337709 -0.4303432 0.0532327 -0.4742287 -1.5538602
0.29842794 0.6929637 0.0028901473 0.028659984 0.047450043 -0.2061122 0.5862216 0.5754137
2.6260443 0.17565645 -1.2908341 -1.7732372 0.028944904 0.5606959 -0.03207005 0.0015535504
-0.03515251 -0.074483186 0.39078048 0.4439548 -0.48286495 -0.034064986 -0.42363867 -1.4743211
0.29561588 0.7465102 0.044966526 0.05618561 -0.06052865 -0.15840612 0.68096495 0.6187133
-0.45268166 0.08718109 -0.39854622 -1.5033181 0.221506 0.6837647 -0.05826258 0.044692285
0.019041173 -0.19221479 0.6317815 0.5635651 -0.40845445 -0.014987947 -0.4330396 -1.4903319

base.seq_fcs.0.bias f4 [256]
00000000: 6cb7 293f cb20 373f 82b0 363f 21eb 2e3f
00000010: 5347 293f 7654 2f3f ec92 323f dc5e a13e
00000020: 389c 2e3f 376f 393f 5aff 323f 0686 2c3f
00000030: 495a 3e3f 72b4 333f fce4 353f 683d 403f
00000040: 85bd 303f 10bb 313f e18b 043f 6a23 3c3f
00000050: 164d 363f 7007 353f 60fe 313f 4c53 3c3f
00000060: ead4 2a3f 9940 293f 8969 413f 40f9 253f
00000070: 7f7e 303f 653c 253f dc4e 353f 2bb2 333f
00000080: 85d0 313f 3575 353f 2d82 383f 3343 5e3f
00000090: c20e 343f f866 303f d132 5f3f 0425 333f
000000a0: 36d7 5e3f 2322 313f 438a 233f 378a 313f
000000b0: 6e59 313f ceb0 363f cf2e 023f a87a 393f
000000c0: 6b5b 283f 256d 5e3f 1e60 603f 41dd 243f
000000d0: 9d61 2c3f 2078 ef3e f000 2f3f f23e 5e3f
000000e0: 250e 343f 6fec 0d3f b131 223f edde 273f
000000f0: a5f4 2f3f fe6f 5f3f 2089 5e3f a63c 5f3f
00000100: 45b9 343f 6db5 3cbe e123 3d3f d1d6 333f
00000110: b31c 603f fdaf 433f 5ae8 333f 8e7b 583f
00000120: b184 3d3f ae9b 123f 46c9 263f 7d3f 863e
00000130: f5ec 293f 8880 3a3f 1dc9 363f d188 363f
00000140: 11c7 343f c386 333f c323 313f 95af 083f
00000150: ab2a c5bd 17b1 293f dcba 403f fb48 5d3f
00000160: 8717 373f 8280 3e3f 7356 3e3f f457 2a3e
00000170: cb68 363f d5f3 573f 9150 383f 60a1 5f3f
00000180: aaea 303f 869e 113f 39db 563f f60c 043f
00000190: 2a1a 0d3f 6565 3f3f ba56 573f 7ce9 11be
000001a0: d50a 333f c898 3e3f ae27 3e3f 2b46 583f
000001b0: 92b5 233f cadf 3a3f a30c 383f d39b 323f
000001c0: d12b 2b3f 84ad 333f 61a8 403f cb97 4c3f
000001d0: bc32 313f edb6 313f 76f4 5d3f cf33 ca3f
000001e0: 7b4f 5c3f 0d95 fa3e 42cb 2f3f f896 5c3f
000001f0: 0383 3d3f 9f65 353f 3794 373f d726 2d3f
00000200: 5ed8 ddbe 6e57 383f 96f4 1c3f 5690 3a3f
00000210: 9026 403f f3a8 113f 4d9a 353f df6a 313f
00000220: 4385 163f 699d 3b3f 4756 5f3f a987 a03d
00000230: f382 273f bfc0 5e3f a912 363f 39c8 3a3f
00000240: bfde b23d 0cb6 993e b550 263f 32f2 553f
00000250: be0b 5e3f bfc9 b53d 643a 393f dbed 173f
00000260: 5e3a 303f d7c4 5e3f 3fb4 223f 55d4 ce3e
00000270: 94d7 2f3f f655 323f 581e 253f b09e 3c3f
00000280: fac4 293f dbf1 3f3f e4ac 5c3f c628 5d3f
00000290: 6f2d 333f f1d6 693e db2c 5d3f 5b4f 3c3f
000002a0: 8d61 543f f611 323f 14c0 5f3f 7c93 5d3f
000002b0: c6c4 563f 225a ff3e 6a4b 333f ade0 353e
000002c0: 95aa 5c3f 7431 3a3f ef76 85bd fe75 3c3f
000002d0: af4b 583f 47aa 323e 6f6c 383f 630c 413f
000002e0: cf52 393f e5c4 383f 8d52 473f 21ff 053f
000002f0: 52ed 343f e326 353f 9735 353f ab05 85be
00000300: 7fe1 553f b1b1 423f 5b38 5c3f e2c9 3b3f
00000310: 05a3 aabe f41b 313f a325 353f 1e12 2f3f
00000320: 836a 343f 724e 433f e494 393f 069c 323f
00000330: a3c5 3d3f 113f 403f 0198 343f 7ca8 363f
00000340: 4c4b 283f e6e9 233f 3359 3c3f f2e5 343f
00000350: 6765 393f bc54 5f3f 71c3 3e3f 20c4 3d3f
00000360: 666e 333f f652 393f 7e64 2e3f d108 333f
00000370: 96c2 2d3f 3031 443f 17a0 5e3f b156 2e3f
00000380: 9621 363f ca81 2c3e 872a 5b3f 88b2 4a3f
00000390: f77a 1e3f d1a4 ce3e 893c e63e 2a31 373f
000003a0: a435 5d3f 4988 313f 85e2 573f f387 2e3f
000003b0: 78fa 313f 71e6 303f f81f 3e3f b992 3e3f
000003c0: 70dd 2f3f 93bd 5f3f 97a1 cebd 9cbb 603f
000003d0: e22f 5e3f 1712 313f 79dd 353f 157d 353f
000003e0: ec06 3c3f c9c2 813f 835d 563f 6515 373f
000003f0: 8b70 413f 236d 2f3f 251c 363f 1ecc 373f
0.66295505 0.71534413 0.7136308 0.6832753 0.6612446 0.6848825 0.69755435 0.31517684
0.6820712 0.72435325 0.69920886 0.67392004 0.74356514 0.7019721 0.7105253 0.750937
0.69039184 0.6942606 0.5177594 0.7349154 0.71211374 0.70714474 0.6952877 0.735646
0.6673113 0.66114193 0.7555166 0.6483345 0.6894302 0.6454528 0.70823455 0.7019374
0.694588 0.7088197 0.7207363 0.8682129 0.7033502 0.6890712 0.87186915 0.69978356
0.87047136 0.69192713 0.63882846 0.69351524 0.69277084 0.7136353 0.50852674 0.72452784
0.6576449 0.8688529 0.87646663 0.64400107 0.67336446 0.46771336 0.68360806 0.86814797
0.7033408 0.55438894 0.63357073 0.6557453 0.6873267 0.8728026 0.86927986 0.8720192
0.705952 -0.18428583 0.7388287 0.7024966 0.8754379 0.7644041 0.70276415 0.8456353
0.74030596 0.572688 0.6515087 0.26220313 0.6637719 0.72852373 0.71400625 0.71302515
0.7061625 0.70127505 0.69195193 0.53392917 -0.09627279 0.6628584 0.75285125 0.86439484
0.71520275 0.7441484 0.7435066 0.16635114 0.7125365 0.84356433 0.71997935 0.87355614
0.6910807 0.5688251 0.8392826 0.51582277 0.5511805 0.7476409 0.8411671 -0.14249223
0.69938403 0.74451876 0.74279296 0.8448207 0.6394893 0.72997725 0.7189428 0.6976902
0.66863734 0.7018664 0.75256926 0.7991912 0.6921804 0.6941975 0.8670114 1.5797061
0.8605878 0.48941842 0.6866952 0.8616786 0.74028033 0.70858186 0.7171053 0.6763739
-0.43329138 0.7200841 0.6131071 0.7287649 0.7505884 0.5689842 0.7093857 0.693037
0.5879709 0.73287064 0.87241024 0.07838375 0.6543419 0.8701286 0.71122223 0.72961766
0.08733892 0.30021703 0.649669 0.83572686 0.8673667 0.08876371 0.7235472 0.59347314
0.6883906 0.87019104 0.63556284 0.4039637 0.6868832 0.69662416 0.64499426 0.7367964
0.6631619 0.7497842 0.8620131 0.8639034 0.699912 0.228359 0.8639657 0.73558587
0.8296135 0.69558656 0.8740246 0.8655317 0.83894 0.49873453 0.7003695 0.17761488
0.8619779 0.7273171 -0.065168254 0.7361754 0.84490484 0.17447768 0.72040457 0.75409526
0.7239198 0.7217544 0.7786034 0.5234242 0.7067462 0.7076246 0.70784897 -0.25980887
0.83547205 0.76052386 0.8602349 0.73354924 -0.333275 0.6918328 0.70760554 0.6838702
0.70475024 0.76291573 0.72492814 0.6976932 0.74129695 0.7509623 0.7054444 0.71350837
0.65739894 0.64028776 0.7357361 0.7066337 0.7242035 0.8723867 0.7451697 0.7412739
0.7009033 0.72392213 0.6812209 0.6993533 0.6787504 0.76637554 0.8696303 0.6810103
0.71145 0.16846386 0.85611767 0.7917867 0.6190638 0.4036012 0.4496806 0.71559393
0.86409974 0.6934858 0.84330016 0.6817619 0.6952281 0.69101626 0.7426753 0.7444263
0.6869726 0.8739864 -0.100894146 0.8778627 0.86791813 0.6916823 0.71041065 0.70893985
0.7344806 1.0137569 0.8373644 0.7151702 0.7556235 0.68525904 0.71136695 0.71795833

base.seq_fcs.2.weight f4 [256, 256]
00000000: c99e 373f 2818 4b3f 7ff1 5b3f 36dc 303f
00000010: 0429 493f c956 563f 69bd 493f db92 40c0
00000020: 03b5 543f cb06 553f 4510 573f 5cac 663f
00000030: cac2 413f a4c3 5a3f 373c 473f 67f8 3e3f
00000040: 4e87 513f 67fb 4e3f 6e1e d23f e1a9 603f
00000050: 5d6b 433f cada 503f 9217 413f 2999 4f3f
00000060: bff3 603f e447 4e3f 52d0 4f3f e116 4b3f
00000070: 41b2 683f d816 423f b585 3f3f f3bb 4e3f
00000080: 9c36 4a3f 45ab 3b3f ddf8 5c3f a045 453f
00000090: 3fb5 3d3f d628 423f 5632 453f 7559 443f
000000a0: 5644 453f b4c6 453f 5adb 613f 6206 653f
000000b0: 4a36 543f cdf2 3e3f 2775 bc3f f0d7 483f
000000c0: 23a6 733f 619b 343f e068 363f dee6 3b3f
000000d0: 53a9 5e3f 3acd a03f 0f1d 4e3f 26be 383f
000000e0: c697 473f 4f57 523f a38b 403f 7d75 333f
000000f0: 1357 323f 2e6c 543f 0409 353f 9da9 4d3f
00000100: 3c0a 413f 7e91 0240 48bf 403f 7f04 453f
00000110: 85a8 4b3f 6724 473f b802 673f 1c51 453f
00000120: a02c 493f 525e 423f 7213 663f 867d 453f
00000130: d266 4e3f 07f6 543f d980 583f 2c18 3c3f
00000140: e9a8 423f 2ec7 36c1 f882 483f 6826 293f
00000150: b2b0 8e40 f088 4f3f 7fbb 3d3f 60ec 393f
00000160: 683f 433f cbda 333f 9587 543f 9dce bc3f
00000170: 6216 523f 110b 3d3f d31a 563f d2a1 4b3f
00000180: 009f 453f 34d5 323f 86cd 4b3f 21ec c73f
00000190: c3fc 333f 7093 393f 8e1e 3f3f eec5 0441
000001a0: ce01 4a3f 5e94 3d3f 1a6c 383f 3698 443f
000001b0: 1f59 4f3f 7dcc 453f fffb 4f3f 79ed 4c3f
000001c0: a13e 513f 1ccf 563f 69c3 483f 4cec 3b3f
000001d0: 4a51 443f 45d7 5e3f 319c 3a3f 2485 76c1
000001e0: fab6 523f 4250 dc3f 9a13 4f3f f6ae 503f
000001f0: 813c 573f a84c 3e3f dc68 4a3f b6c1 4a3f
00000200: d660 3bc1 f122 5c3f 747f 433f 68e6 353f
00000210: 2248 443f 890a 5640 4b5f 4f3f 138d 603f
00000220: f319 383f df7e 523f c74b 383f 1fa4 fdbc
00000230: 384d 3e3f 74ac 3c3f 1e8b 553f 066b 493f
00000240: 3fe6 c6bc fd5a 77c1 5b4d 453f 9fa7 443f
00000250: 8e6f 403f 818d e3ba bf0d 5c3f f822 4b3f
00000260: 1d29 6f3f ceb5 3f3f 8257 6b3f c1b3 b3c0
00000270: 59c0 3e3f d6c8 4e3f 872b 553f 9798 483f
00000280: e85e 6e3f fe09 3c3f 89a7 393f 88c3 553f
00000290: ef77 5e3f 6224 a6c0 b6f5 3e3f e445 513f
000002a0: 12a5 483f a5fb 513f d5c2 483f ce8d 3d3f
000002b0: c7eb 323f f923 c83f d28b 523f 78b2 1a3f
000002c0: 1d4c 363f c45e 593f c692 ac40 5ac9 403f
000002d0: 904d 493f 7348 ba3f c345 4f3f ce32 4b3f
000002e0: 0ede 373f cdcb 513f 8290 483f 1c17 a43f
000002f0: 528c 563f 96d7 573f 616c 3b3f 6154 9d40
00000300: db0d 4c3f aea4 403f cee5 383f da2b 413f
00000310: 8e57 88c0 f27f 3c3f 950b 483f c067 573f
00000320: 56e7 4e3f be2e 473f 859b 503f 1987 563f
00000330: 0acd 4d3f 9fe0 353f 1b8e 643f 5017 4c3f
00000340: e0af 363f 9b4a 5b3f 001a 463f 492e 563f
00000350: 5034 5a3f 79a5 303f 927a 523f 081c 553f
00000360: 7483 6d3f 05de 493f 3caf 5f3f 2a7a 5b3f
00000370: fc5f 4f3f 966f 433f e0ef 483f 21a9 623f
00000380: 46d7 573f cae3 c73f 7d7f 473f 9070 363f
00000390: 864f 3e3f 585d 613f 58da ad3f b510 353f
000003a0: 5dfd 4e3f 816a 383f f8a3 503f 2dd8 653f
000003b0: bed1 643f 5ed3 523f 14d1 333f 4c04 493f
000003c0: 0fa1 433f dc0d 403f 9516 bf40 74fe 2d3f
000003d0: 558b 453f 8a62 463f ca78 513f ecdb 3f3f
000003e0: 6885 393f 8cd2 19c1 c9fe 303f fb4e 543f
000003f0: c8e3 493f 87de 393f 6886 393f 56db 3f3f
0.7172666 0.79333735 0.8591537 0.69086015 0.7857821 0.83726174 0.7880464 -3.0089633
0.830887 0.8321349 0.840092 0.9010675 0.7568785 0.85454774 0.77826256 0.7459778
0.81847084 0.8085236 1.6415536 0.87759215 0.763357 0.81583846 0.7542659 0.8109308
0.8787193 0.80578446 0.81177247 0.79331785 0.90896994 0.75816107 0.74813396 0.8075554
0.7898958 0.7330821 0.86317235 0.77059364 0.74104685 0.7584356 0.7702993 0.76699
0.770574 0.7725632 0.8822533 0.89462864 0.8289534 0.74589235 1.4723252 0.78454494
0.9517538 0.7054959 0.71253777 0.7339915 0.8697712 1.256263 0.8051309 0.72165143
0.7796596 0.8216447 0.7521307 0.7010115 0.69664115 0.8297757 0.7071688 0.80336934
0.7540624 2.0401301 0.7529187 0.76959985 0.79554015 0.7778992 0.90238523 0.7707689
0.7858372 0.7592517 0.8987342 0.7714466 0.8062564 0.8318791 0.84571606 0.73474383
0.76038986 -11.423628 0.7832484 0.6607423 4.4590693 0.81068325 0.7411422 0.72626305
0.76268625 0.70255727 0.8301938 1.4750553 0.82065403 0.7384501 0.8363468 0.79543793
0.7719574 0.6985657 0.7961048 1.5618936 0.7030756 0.72490597 0.74656 8.298323
0.78909004 0.74054515 0.7203995 0.76794755 0.80995363 0.7726515 0.8124389 0.80049855
0.8173619 0.83909774 0.7842317 0.73407435 0.7668654 0.87047225 0.7289458 -15.407505
0.8231045 1.7211993 0.80889285 0.8151697 0.84076697 0.7433572 0.7906625 0.7920183
-11.711142 0.85990816 0.76366353 0.710547 0.76672566 3.344393 0.8100478 0.8771526
0.71914595 0.8222484 0.7199063 -0.030962048 0.74336576 0.7370064 0.834154 0.7867893
-0.024279712 -15.459714 0.7707116 0.7681827 0.7517022 -0.0017360897 0.85958475 0.79350233
0.9342211 0.74886787 0.919304 -5.6156926 0.7451225 0.807752 0.8326954 0.78357834
0.93113565 0.73452747 0.72521263 0.8350148 0.86901754 -5.1919413 0.74593675 0.8174727
0.7837688 0.82024604 0.7842229 0.740445 0.6989102 1.5635978 0.822446 0.6042857
0.7120989 0.84910226 5.3929167 0.7530724 0.78633976 1.455336 0.8096582 0.79374397
0.71823204 0.819516 0.783455 1.2819552 0.8380786 0.84313333 0.7321225 4.91655
0.7970864 0.7525128 0.72225654 0.7545754 -4.260688 0.7363273 0.7814267 0.84142685
0.8082174 0.778057 0.81487304 0.8379989 0.8039099 0.7104587 0.89279336 0.7972307
0.71362114 0.85660714 0.7738342 0.83664376 0.8523607 0.6900249 0.8221828 0.832459
0.92778707 0.788544 0.8737676 0.8573328 0.81005836 0.7634214 0.7849102 0.8853932
0.84312856 1.5616391 0.77928907 0.71265507 0.74340093 0.88033056 1.3582258 0.7072862
0.8085535 0.7203751 0.81500196 0.89782983 0.8938254 0.8235377 0.702409 0.7852218
0.7641763 0.7502115 5.9715066 0.6796639 0.7716573 0.7749411 0.81824934 0.7494495
0.72469187 -9.613903 0.6913877 0.82933015 0.7886319 0.72605175 0.7247071 0.74944055

base.seq_fcs.2.bias f4 [256]
00000000: f1d7 4d3f cd17 4e3f 31bc 4c3f 135a 7c3f
00000010: 34e3 aa3f 51ee 4c3f 712b 4e3f 8658 4d3f
00000020: 5b06 4e3f 3327 4e3f 16cd 4d3f 1e36 4e3f
00000030: b016 4e3f 7ec2 4c3f 5bc0 4d3f cfea 4d3f
00000040: b263 cb3f 6bc8 4d3f 5509 4e3f 80f5 4d3f
00000050: 5bd5 4d3f f516 4e3f 18c6 4c3f b50a 4d3f
00000060: 4ecf 4d3f ef01 4e3f 8fd8 4d3f 670a 4e3f
00000070: 8a18 4e3f 4ae2 4d3f c81f 4e3f 5586 4d3f
00000080: 66af 4d3f 42e1 4d3f 759f 4d3f b6f0 4d3f
00000090: d90a 4e3f dbe1 4d3f baf8 4c3f b333 4e3f
000000a0: 7cb9 4d3f c353 a33f 4bb9 4d3f 95b8 4d3f
000000b0: 281f 4d3f 8723 4d3f 2533 4e3f 30bd 4d3f
000000c0: c931 4e3f c1c5 4c3f 5ec9 4d3f add0 c93f
000000d0: dd81 4d3f be83 4d3f 0b23 4e3f 6361 a93f
000000e0: 09f0 4d3f 830f 4e3f cd2f 4e3f cf0b 4d3f
000000f0: a7ed 4d3f 4d02 4e3f e15d 9e3f ede2 c73f
00000100: dbcc 4d3f 7a4d 4d3f 5690 c83f bef2 4d3f
00000110: 6c01 4e3f 4d3d 4d3f 3b2b a33f 7b19 4e3f
00000120: 5fc6 a13f 69ed 4d3f d105 4e3f 9391 4d3f
00000130: 37a5 4d3f 14dd 4d3f da08 4e3f 12ff 4d3f
00000140: 6cd1 4d3f 71e8 4d3f 6ad1 4d3f 3fde 4d3f
00000150: cebf 4d3f a4e4 4c3f 57f0 4d3f 7426 953f
00000160: ab5a 4d3f 203a 4e3f c240 4d3f 4b14 4e3f
00000170: 2a2d 4e3f d436 4e3f 2b8d 4d3f fcf8 4d3f
00000180: bbb3 4d3f 57f8 4d3f 92e2 4d3f 42e3 4c3f
00000190: 85b5 4d3f e41b 4d3f 9bd0 4d3f 68a1 bf3f
000001a0: 8c41 4d3f 40f2 4d3f 30a8 4d3f 250a 4e3f
000001b0: 2036 4e3f 982f 4e3f 9514 c43f 11af 4d3f
000001c0: e9ec 4d3f ea30 4e3f 49c8 4d3f 7d31 4e3f
000001d0: 2db7 4d3f c4f3 4d3f 7667 4d3f 1039 4e3f
000001e0: 88b6 4d3f edba 4c3f 61de 4d3f 7809 4e3f
000001f0: 16e5 4d3f 4853 a83f 390d 4e3f f673 4d3f
00000200: 3dfc b43f 9a1c 4e3f ea0b 4e3f 4b07 4e3f
00000210: 842b 4d3f ba33 c13f db05 4e3f 72ec 4d3f
00000220: e121 c73f 0940 a03f cda2 4d3f 1cd7 a93f
00000230: fd31 4d3f 2375 b03f dac5 4d3f 34c5 4d3f
00000240: 5d40 4d3f 99cb 4d3f eaa1 4d3f c432 4e3f
00000250: 71e2 4c3f 3002 4e3f 6934 4e3f 6b2a 4e3f
00000260: 7f26 cb3f 11a2 4c3f 7303 4d3f 55c0 4d3f
00000270: 1ade 4d3f 6ff3 4d3f b4df 4d3f 412c 4e3f
00000280: a952 a33f bad7 4d3f f49e 4d3f 20bd a33f
00000290: 42cf 4c3f d5b3 4d3f 0d13 4e3f 65d6 4d3f
000002a0: fd0c 4e3f 866c c83f 40ae 4d3f 7e9d be3f
000002b0: 6f0d 4e3f c9bc 4d3f dccd 4d3f 6239 a43f
000002c0: dbf8 4d3f 6140 4d3f 3001 4e3f 21ae 4d3f
000002d0: 5f18 a23f 1f4d c33f e125 c73f 9dfe 4d3f
000002e0: 3b10 4e3f 58d2 4d3f 8573 7d3f 2cea 4d3f
000002f0: d6cf 4d3f 1007 4e3f f878 4d3f 04f8 4d3f
00000300: 0da4 bf3f 1707 4e3f 7b09 4e3f b594 aa3f
00000310: 46b2 4d3f 9028 4d3f 7a66 4d3f a7a4 4d3f
00000320: 2d98 c33f 8d3b 4d3f 2126 4e3f 6e82 c73f
00000330: 558e 4c3f 78c3 4d3f 3e99 4d3f 94b5 4d3f
00000340: 2599 4d3f c124 4e3f 0628 4e3f 7e35 4e3f
00000350: 69e2 4d3f 6943 c13f 61c9 4d3f a37c 4d3f
00000360: 4db1 4d3f 9ce4 4c3f d6fc 4c3f c56c 4d3f
00000370: d24d 4d3f 082d 4e3f bb4b 4d3f ce1b ae3f
00000380: c909 4e3f 1ff7 4d3f d6c1 4d3f a73f 4d3f
00000390: f627 4e3f 2813 4d3f fbd1 963f cd44 4d3f
000003a0: 48de 4d3f 2774 a83f cdd1 4d3f cd09 4e3f
000003b0: 3538 c33f 9953 4d3f 8d21 4e3f 2fda 4d3f
000003c0: fdaa 4d3f 69e8 813f 01c4 4d3f c5a0 4d3f
000003d0: 8fb1 4d3f 5200 4d3f 7120 c63f 6514 4e3f
000003e0: a2b7 4d3f 2322 4e3f bec7 4d3f 5c7f a33f
000003f0: 760f 4d3f 85bc 4d3f 389f 4c3f 2c6e 9b3f
0.80407625 0.8050507 0.7997466 0.9857494 1.3350587 0.8005114 0.80535036 0.802132
0.8047845 0.80528563 0.8039106 0.80551326 0.8050337 0.7998427 0.80371636 0.80436414
1.58898 0.8038394 0.8048299 0.8045273 0.8040368 0.8050378 0.7998977 0.8009446
0.80394447 0.804717 0.8040857 0.8048462 0.80506194 0.80423415 0.80517244 0.802831
0.8034576 0.8042184 0.8032144 0.8044542 0.804853 0.80422753 0.80067027 0.80547637
0.8036115 1.2759937 0.8036086 0.80359775 0.80125666 0.80132335 0.8054679 0.803668
0.80544716 0.7998925 0.80385387 1.5766808 0.8027628 0.8027915 0.8052222 1.3232845
0.8044439 0.8049242 0.8054169 0.80096143 0.80440754 0.8047226 1.23724 1.5616127
0.8039071 0.80196345 1.5669048 0.8044852 0.8047092 0.8017166 1.2747568 0.8050763
1.2638663 0.80440384 0.80477625 0.80300254 0.8033022 0.80415463 0.80482256 0.8046733
0.8039768 0.804328 0.80397666 0.80417246 0.80370796 0.8003638 0.80444854 1.165236
0.80216473 0.8055744 0.8017694 0.80499715 0.80537665 0.8055241 0.8029353 0.80458045
0.8035237 0.8045706 0.80423844 0.8003427 0.803551 0.8012068 0.8039643 1.4971132
0.8017814 0.8044777 0.8033476 0.8048423 0.8055134 0.8054137 1.5318781 0.80345255
0.8043962 0.80543387 0.80383736 0.80544263 0.8035763 0.8045008 0.80235994 0.8055582
0.80356646 0.79972726 0.8041745 0.804832 0.8042768 1.3150415 0.80488926 0.8025507
1.4139477 0.8051239 0.8048693 0.8047988 0.80144525 1.5093911 0.80477685 0.8043891
1.5557214 1.2519542 0.8032654 1.3268771 0.801544 1.3785747 0.8038002 0.80379033
0.80176336 0.8038879 0.80325186 0.8054621 0.8003302 0.8047209 0.8054872 0.80533475
1.5871123 0.79934794 0.8008339 0.803716 0.80417025 0.80449575 0.8041947 0.80536276
1.2759601 0.804073 0.8032067 1.2792091 0.8000375 0.80352527 0.8049782 0.80405265
0.8048857 1.5658119 0.8034401 1.4891813 0.8048925 0.8036619 0.8039224 1.2830012
0.8045785 0.8017636 0.8047056 0.80343825 1.2663687 1.525791 1.5558435 0.80466634
0.80493516 0.80399084 0.99004394 0.8043544 0.8039526 0.80479527 0.8026271 0.80456567
1.4971939 0.8047957 0.80483216 1.3326632 0.8035015 0.8014002 0.8023449 0.80329365
1.5280815 0.8016899 0.8052693 1.5586679 0.7990468 0.80376387 0.80311954 0.8035519
0.80311805 0.8052483 0.8052982 0.8055037 0.804236 1.5098697 0.80385405 0.80268306
0.80348665 0.8003633 0.800733 0.80244094 0.8019687 0.8053746 0.8019368 1.3602235
0.8048368 0.804552 0.80373895 0.8017525 0.80529726 0.80107355 1.1782831 0.80183107
0.804173 1.3160447 0.80398256 0.80483705 1.5251528 0.80205685 0.80519944 0.80411047
0.8033903 1.0149051 0.80377203 0.8032344 0.8034906 0.80078614 1.547865 0.8049987
0.80358326 0.8052084 0.8038291 1.2773242 0.80101717 0.8036578 0.7993045 1.2142997

last.weight f4 [1, 256]
00000000: da59 9b3f dd94 9b3f 97a4 9b3f 0ccf 2a40
00000010: 834f e140 5324 9b3f 910e 9b3f 75bd 9b3f
00000020: febe 9b3f 1dca 9a3f 2a7b 9b3f 26b0 9b3f
00000030: dd13 9b3f 7fd1 9b3f a2ee 9b3f 5bb4 9a3f
00000040: 6de6 e840 97bc 9b3f cb38 9b3f 234d 9b3f
00000050: e25c 9b3f 4346 9b3f ef5e 9b3f 320a 9b3f
00000060: 4f6c 9a3f 69d6 9a3f 1d61 9a3f 5a6f 9b3f
00000070: f7d6 9a3f 67dc 9b3f 06cd 9b3f 0903 9b3f
00000080: f2bf 9b3f 5b73 9b3f c6d9 9a3f 4f43 9a3f
00000090: 7bf1 9a3f bc24 9b3f 8771 9b3f 2db8 9b3f
000000a0: ce07 9b3f d91c e140 299e 9b3f 4ef2 9a3f
000000b0: 54c4 9b3f 1686 9b3f 6422 9b3f 989a 9b3f
000000c0: 4440 9b3f 040a 9c3f 9d78 9b3f d8b8 dd40
000000d0: 6919 9b3f 08fe 9a3f 6c24 9b3f 8640 e040
000000e0: 1d14 9b3f 3e41 9b3f af89 9a3f c430 9b3f
000000f0: 362d 9b3f 59d4 9a3f 3f6a d640 8548 ac40
00000100: 235f 9b3f 2617 9c3f 50a5 e040 af5d 9b3f
00000110: 6471 9b3f 3cdd 9a3f 1335 e140 aa82 9b3f
00000120: 8ee4 d740 c00c 9c3f 25ca 9b3f 1ede 9b3f
00000130: fdf2 9a3f 6aa7 9b3f a86d 9b3f f50b 9b3f
00000140: c922 9b3f b551 9a3f e430 9c3f d0ee 9b3f
00000150: 8c2d 9b3f c166 9b3f 016b 9a3f 331f cb40
00000160: 0154 9b3f aa88 9b3f 1eed 9b3f 3758 9b3f
00000170: 3669 9b3f 167b 9b3f 2684 9b3f 1070 9b3f
00000180: d231 9b3f 2c9c 9b3f cc2a 9b3f b9b2 9b3f
00000190: 9523 9b3f 1628 9b3f d3a6 9b3f 5265 aa40
000001a0: 95f9 9a3f 8026 9b3f 8aad 9b3f 3add 9a3f
000001b0: a145 9c3f 2cd9 9a3f 960a ab40 5b12 9b3f
000001c0: 7a7b 9b3f bd08 9b3f 04ff 9a3f 4f4b 9b3f
000001d0: 2ec0 9b3f 0b8a 9b3f 6cc1 9b3f 19b3 9b3f
000001e0: 5e66 9b3f 23ef 9b3f 3a9b 9b3f 1391 9b3f
000001f0: 2530 9c3f f73d d340 7ebc 9b3f f775 9b3f
00000200: ae93 c340 f7a1 9b3f 2cdc 9a3f 5261 9b3f
00000210: 1bb7 9b3f 994d aa40 ddaa 9a3f 32b4 9b3f
00000220: ce55 e240 e118 f840 b169 9b3f 9aa6 dd40
00000230: 02bc 9b3f dd5e dc40 8ef9 9b3f c892 9b3f
00000240: 73db 9a3f 4d92 9b3f 483e 9b3f 085f 9b3f
00000250: 5c11 9c3f 453c 9c3f 4d22 9b3f a8b0 9a3f
00000260: a841 e640 5cc4 9b3f fce9 9b3f 61fe 9b3f
00000270: 5366 9b3f fc24 9a3f e47d 9b3f cc1a 9b3f
00000280: 7e20 df40 bca3 9b3f 2f81 9b3f c092 e440
00000290: dc9a 9b3f 3552 9c3f 3ced 9a3f c65d 9b3f
000002a0: 3c5a 9b3f 077c e440 19db 9b3f d322 aa40
000002b0: 05ba 9b3f 912d 9b3f af76 9b3f 4a6e de40
000002c0: 1057 9b3f 57c9 9b3f 71f2 9b3f fdbb 9b3f
000002d0: d4f6 dc40 841f ac40 cba5 aa40 37fa 9a3f
000002e0: 1261 9b3f d6c7 9b3f 90e1 2440 d71e 9b3f
000002f0: 4271 9b3f 559c 9b3f 7dd2 9a3f 45bf 9a3f
00000300: 4e97 aa40 d5fa 9a3f c2d0 9b3f 12af da40
00000310: 0392 9b3f 70b5 9b3f 783f 9b3f 7602 9b3f
00000320: 42ec a940 14e3 9a3f bf81 9b3f e1ff e640
00000330: 0aa2 9b3f 8721 9b3f ee08 9b3f 49c1 9b3f
00000340: cf0f 9c3f cfa6 9a3f 2ca9 9b3f cf91 9b3f
00000350: 10a2 9a3f d79a a940 4a76 9a3f 1659 9a3f
00000360: 6a2f 9b3f 8aab 9b3f 7c03 9c3f fa78 9b3f
00000370: 6317 9c3f cf57 9c3f 5fa8 9b3f f46a dc40
00000380: 7f6b 9a3f 5d34 9b3f 40b4 9b3f 3ab0 9b3f
00000390: 1f88 9b3f 74b7 9a3f 9246 cd40 4d70 9b3f
000003a0: cf10 9c3f 0a48 d240 b897 9b3f 3f42 9b3f
000003b0: 6d1d ab40 acc8 9b3f e19a 9b3f f54a 9b3f
000003c0: d1f3 9b3f 4fb0 2840 3fa2 9b3f 5624 9b3f
000003d0: 3c03 9b3f f19e 9a3f 3f89 ab40 0a32 9a3f
000003e0: 4957 9b3f 8759 9b3f 81ef 9a3f 5fc4 df40
000003f0: efcd 9b3f 70ea 9b3f de43 9c3f e0e4 cf40
1.2136796 1.2154804 1.2159604 2.6688871 7.040956 1.212046 1.211382 1.2167193
1.2167661 1.209293 1.2146962 1.2163131 1.2115437 1.2173308 1.21822 1.208629
7.278128 1.2166928 1.2126707 1.2132915 1.213772 1.2130817 1.2138346 1.2112486
1.2064303 1.2096683 1.2060887 1.2143357 1.2096852 1.2176636 1.2171943 1.2110301
1.2167952 1.2144579 1.2097709 1.2051791 1.2104944 1.2120585 1.2144021 1.2165581
1.2111757 7.0347714 1.2157642 1.2105196 1.216929 1.2150295 1.211987 1.2156553
1.2128987 1.2190557 1.2146183 6.928814 1.211713 1.2108774 1.212049 7.0078764
1.2115513 1.2129285 1.2073268 1.2124257 1.2123172 1.2096053 6.7004695 5.3838525
1.2138408 1.2194564 7.0201797 1.2137965 1.2143979 1.2098765 7.037729 1.214925
6.7466497 1.2191391 1.2171065 1.217716 1.2105404 1.2160466 1.214284 1.2113024
1.211999 1.2056185 1.220242 1.2182255 1.2123275 1.2140733 1.2063905 6.3475585
1.2135011 1.2151082 1.2181737 1.2136296 1.2141483 1.2146938 1.2149704 1.2143574
1.2124579 1.2157035 1.2122436 1.2163917 1.2120234 1.2121608 1.2160286 5.324868
1.2107416 1.2121124 1.2162335 1.2098763 1.2208749 1.2097526 5.345042 1.2114977
1.2147057 1.2112042 1.2109075 1.2132357 1.2168024 1.2151502 1.2168403 1.2164031
1.2140615 1.2182354 1.2156746 1.2153648 1.2202193 6.601314 1.2166898 1.2145375
6.1117773 1.2158803 1.2098441 1.2139075 1.2165254 5.3219724 1.2083393 1.2164366
7.072974 7.753037 1.214163 6.926587 1.216675 6.88658 1.2185533 1.2154169
1.209822 1.2154022 1.2128382 1.2138376 1.2192798 1.2205893 1.2119843 1.2085161
7.1955147 1.2169299 1.2180781 1.2187005 1.2140602 1.2042537 1.2147794 1.2117553
6.9727163 1.2159343 1.2148799 7.142914 1.2156634 1.2212588 1.2103648 1.2137992
1.2136912 7.14014 1.2176238 5.316751 1.2166144 1.2123281 1.2145594 6.950963
1.2135944 1.2170819 1.2183362 1.2166744 6.9051304 5.378847 5.3327384 1.210761
1.2138999 1.217036 2.5762672 1.2118787 1.2143939 1.2157084 1.2095486 1.2089621
5.33097 1.2107798 1.2173083 6.833871 1.2153934 1.2164745 1.2128744 1.2110126
5.31009 1.2100549 1.214897 7.218735 1.2158825 1.2119607 1.21121 1.2168361
1.2192324 1.2082156 1.2161002 1.2153872 1.2080708 5.3001513 1.2067349 1.2058437
1.2123845 1.2161725 1.2188563 1.2146294 1.2194637 1.2214297 1.2160758 6.888056
1.2064055 1.2125355 1.2164383 1.2163155 1.2150916 1.2087235 6.4148645 1.2143646
1.219263 6.571294 1.2155676 1.2129592 5.347342 1.2170615 1.215664 1.213225
1.2183782 2.635761 1.2158889 1.2120464 1.2110362 1.2079755 5.3605037 1.2046521
1.2136012 1.2136697 1.2104341 6.992721 1.2172221 1.218092 1.2208211 6.496689
