Soft-Module-main/log/model50_49/model_pf_best.pth (torch, 287205 bytes, 6 tensors)

base.seq_fcs.0.weight f4 [256, 12]
0	0xbac744d4	-0.0015203007
1	0xbcaf6c5e	-0.021413978
2	0xbc88d66d	-0.016703809
3	0x3d4b5aec	0.049647257
4	0xbcc52e59	-0.024069952
5	0xbda854a8	-0.08219272
6	0xbd3e9be4	-0.046535388
7	0xbc49d6f0	-0.0123193115
8	0xbd326d70	-0.0435614
9	0xbce18b3b	-0.02753221
10	0xbd2b3ce3	-0.041806113
11	0xbbafc2fb	-0.0053638197
12	0x3fa40b95	1.2816035
13	0x3e4595d5	0.19295438
14	0x3dd20870	0.102555156
15	0x3d84eb03	0.064901374
16	0x3dffd90b	0.124925695
17	0x3e2654eb	0.16243331
18	0x3cbfd160	0.023415267
19	0x3ce5a6b4	0.028033592
20	0x3c9fc554	0.019503273
21	0x3d26787e	0.040642254
22	0x3d80968a	0.06278713
23	0x3de6c94f	0.11268865
24	0x3f2a4fd7	0.66528076
25	0xbdd25d21	-0.10271669
26	0x3e09c542	0.13454154
27	0x3e3602f8	0.1777457
28	0xbded1e82	-0.115780845
29	0xbde764b0	-0.112985015
30	0xbc347d58	-0.011016212
31	0xbc202bd0	-0.009776071
32	0x3d1f0842	0.038826235
33	0xbdd1562f	-0.10221516
34	0xbd80fd36	-0.06298296
35	0xbe21f272	-0.15815142
36	0x3f1826fa	0.59434474
37	0xbde03e73	-0.10949411
38	0xbdf919c6	-0.12163119
39	0x3d1e7189	0.038682494
40	0xbca142c7	-0.019685162
41	0x3cabc450	0.020967633
42	0x3d1c047a	0.038090207
43	0xbd35dcc0	-0.044399977
44	0xbd3423bc	-0.04397939
45	0x3ca0987d	0.019603962
46	0xbd99b25d	-0.07504723
47	0x3d1230fb	0.035691243
48	0x3d1cddd4	0.03829749
49	0xbcbde6a5	-0.023181269
50	0x3c0749eb	0.0082573695
51	0x3d8676e8	0.06565648
52	0xbda06bed	-0.07833085
53	0xbd93c7e6	-0.07215862
54	0xbc6b6520	-0.014367372
55	0x3d1d244a	0.038364686
56	0xbd37dbf0	-0.044887483
57	0xbc17e9ba	-0.009272033
58	0xbd3813ec	-0.044940874
59	0x3bb48541	0.005509049
60	0xbd4def67	-0.05027714
61	0xbd2953ad	-0.041339565
62	0xbda11562	-0.078654066
63	0x3d8f5a9f	0.069997065
64	0xbd3c4676	-0.045965634
65	0xbd9bc189	-0.07605273
66	0xbd06a696	-0.032873712
67	0x3cff5a14	0.031170882
68	0xbd2310fc	-0.03981112
69	0xbd067feb	-0.032836836
70	0xbc6e2591	-0.014535324
71	0xbd53b4d4	-0.051686123
72	0x3e921b3f	0.28536412
73	0x3d016bb1	0.031596843
74	0xbe82ee37	-0.25572369
75	0x3e793b63	0.2433906
76	0xbda4ba27	-0.08043318
77	0xbd92c35e	-0.071661696
78	0xbd525d7a	-0.051358677
79	0x3cad0658	0.021121189
80	0x3d1f5dc6	0.03890779
81	0xbcf09375	-0.029367188
82	0xbd43bc3c	-0.047786936
83	0xbd9a994e	-0.07548772
84	0x3e9aee51	0.30259946
85	0xbbb0fc76	-0.0054011894
86	0x3eb2e5bd	0.349409
87	0x3d8ed22d	0.069736816
88	0xbdb33a17	-0.08751314
89	0xbe3964fb	-0.18104927
90	0xbd123a44	-0.035700098
91	0x3d6e9792	0.058250017
92	0x3d3fa69c	0.04678975
93	0xbdbac21b	-0.09119054
94	0xbe184e7b	-0.14873688
95	0xbe0146a0	-0.12624598
96	0x3e9b16e6	0.30290908
97	0xbe8072dd	-0.25087634
98	0xbb5a8c98	-0.003334796
99	0x3db40499	0.087899394
100	0xbce4c11e	-0.027924117
101	0xbd1152fc	-0.03547953
102	0xbd19977c	-0.037497982
103	0x3cc0b4bc	0.02352368
104	0x3d032446	0.032017015
105	0xbda14ace	-0.07875596
106	0xbd1c82ff	-0.038210865
107	0xbd8e0df5	-0.06936256
108	0xbd75091c	-0.05982314
109	0xbc97846a	-0.018495757
110	0xbcdb9453	-0.026804125
111	0x3d45f7f1	0.04833216
112	0xbd21bcf8	-0.039486855
113	0xbd8a996e	-0.06767546
114	0x3cff6fcc	0.031181239
115	0x3c144980	0.009050727
116	0xbd35b644	-0.044363275
117	0xbcc3d913	-0.02390722
118	0xbd4ae7d9	-0.049537513
119	0x3b35aff3	0.0027723282
120	0x3cc9969d	0.02460795
121	0xbcdaf56d	-0.026728356
122	0xbd1d6df8	-0.038434952
123	0x3c4a62a2	0.012352617
124	0xbd8af229	-0.0678447
125	0xbd371b20	-0.044703603
126	0x3d5b6acc	0.053568646
127	0x3d125ec0	0.035734892
128	0xbd53b852	-0.051689453
129	0xbcfdd3a1	-0.030984702
130	0xbd65da03	-0.056116115
131	0xbcd56688	-0.026049867
132	0x3f1ec50e	0.6201943
133	0xbdd21135	-0.10257188
134	0xbe1303b2	-0.14356878
135	0x3df34175	0.11877719
136	0xbcf94cce	-0.030432131
137	0xbd59f8ce	-0.053215794
138	0x3a45bb00	0.0007542819
139	0xbd19f0a2	-0.037583
140	0xbce25f18	-0.027633235
141	0xbbe6d9c4	-0.0070450027
142	0xbd17990a	-0.037011184
143	0xbb24f79c	-0.0025172
144	0x3f9116d9	1.1335098
145	0x3ddf375a	0.10899229
146	0x3e5a94d1	0.21345831
147	0x3d35b0ce	0.044358067
148	0x3ccf498a	0.02530362
149	0x3daa9d6c	0.08330807
150	0xbd49932a	-0.049212612
151	0xbd718650	-0.05896598
152	0xbd40338c	-0.04692416
153	0x3e10ffd9	0.14160098
154	0x3de288dd	0.11061261
155	0x3d1bf0b9	0.038071368
156	0xbcba6cd9	-0.02275698
157	0xbe48f530	-0.19624782
158	0x3e2bf1d3	0.16791467
159	0x3df2e783	0.118605636
160	0xbd1461fb	-0.036226254
161	0xbd82a5e8	-0.063793
162	0xbd09a394	-0.033603266
163	0x3d3d948a	0.046284236
164	0x3bee2de0	0.0072686523
165	0xbb83c88b	-0.0040217093
166	0xbd699e3e	-0.057035677
167	0x3c01fb0d	0.00793339
168	0x3ec9793b	0.39350304
169	0x3e6e212a	0.23254839
170	0xbe59fc06	-0.21287546
171	0x3e094c83	0.13408093
172	0x3d11819e	0.035524003
173	0x3d0dedb2	0.034650512
174	0x3c4861a0	0.012230307
175	0xbd45d148	-0.04829529
176	0x397c8400	0.00024081767
177	0x3d1e0037	0.038574424
178	0x3db0badd	0.08629391
179	0x3d2a4e31	0.041578475
180	0xbea58de6	-0.32334822
181	0x3d1df874	0.03856702
182	0xbdabfd7f	-0.0839796
183	0x3d97f483	0.07419684
184	0x3d725754	0.059165314
185	0x3cc7ac7e	0.024374243
186	0xbd335f5e	-0.04379212
187	0xbd345884	-0.044029728
188	0x3d10cdd2	0.035352536
189	0xbb1774af	-0.002311032
190	0x3db2d690	0.08732331
191	0xbc671ee4	-0.014106486
192	0x3b9000b1	0.0043946137
193	0x3bc8518f	0.006113238
194	0xbc249c5c	-0.010047045
195	0x3c231e5b	0.009955968
196	0xbd9e1952	-0.07719673
197	0xbd8b972a	-0.06815942
198	0x3d4723e4	0.048618212
199	0x3d6e2b3c	0.0581467
200	0x3d34c570	0.044133604
201	0x3c807dd3	0.015684998
202	0xbd04abda	-0.032390453
203	0xba9f9d31	-0.0012177584
204	0x3d2f9d68	0.042874724
205	0x3c833a22	0.01601893
206	0xbb7b7b0f	-0.003837291
207	0x3d9ee973	0.07759371
208	0xbdbba475	-0.09162227
209	0xbd4026dc	-0.04691206
210	0x3c579d80	0.0131601095
211	0x3d0b07a0	0.03394282
212	0x3d24f7d6	0.040275417
213	0xbce6eb5b	-0.028188398
214	0xbd8fe2d7	-0.07025688
215	0xbd074857	-0.033027973
216	0x3f0d7486	0.55255926
217	0x3bfad55d	0.0076548294
218	0xbebaffc3	-0.36523256
219	0x3e135f73	0.1439188
220	0x3abd679f	0.0014450437
221	0xbd914dd6	-0.07094924
222	0x3c86fb44	0.016477235
223	0xbcfa7034	-0.03057108
224	0xbbd6bcd0	-0.00655327
225	0xbdc19c82	-0.094536796
226	0xbca99414	-0.020700492
227	0xbdee06cb	-0.116223894
228	0xbd2a7dcc	-0.041623875
229	0xbd81cf83	-0.06338408
230	0xbd55d2d2	-0.052203007
231	0x3d813f7a	0.06310935
232	0xbd57357b	-0.052541237
233	0xbcf5ba3d	-0.029996032
234	0xbcec5260	-0.028847873
235	0x3b6e1880	0.003633052
236	0xbd62eda4	-0.055402413
237	0xbc9aadb1	-0.01888165
238	0xbc756c68	-0.014979459
239	0x3b9e2a5d	0.0048268274
240	0x3d2b2d75	0.041791398
241	0xbc8e7d82	-0.017393831
242	0xbdd1e3ec	-0.10248551
243	0x3cc26597	0.023730082
244	0xbb875fd5	-0.004131297
245	0xbdb8d36a	-0.09024699
246	0x3a9d6f00	0.001201123
247	0x3c0187e8	0.007905938
248	0xbd115de0	-0.035489917
249	0xbdf34b1f	-0.118795626
250	0xbd836a53	-0.06416764
251	0xbd14b9e9	-0.03631011
252	0x3fbdc920	1.4827003
253	0x3e257659	0.16158427
254	0xbd8ea8fa	-0.069658235
255	0x3e324671	0.17409684

base.seq_fcs.0.bias f4 [256]
0	0x3d86b778	0.06577963
1	0x3e4ea1fd	0.20178981
2	0x3a6e72d6	0.00090960914
3	0x3db1b06d	0.08676229
4	0x3da2ce99	0.079495616
5	0x3d546817	0.05185708
6	0x3d108e1f	0.035291787
7	0xbcd4c0e2	-0.02597088
8	0x3c8ec026	0.017425608
9	0x3d7c4c23	0.061596047
10	0x3dc0362a	0.09385331
11	0x3d8dccb7	0.06923812
12	0x3e3c9c39	0.18418969
13	0x3d9f25c3	0.07770874
14	0x3e255b0f	0.16148017
15	0x3e0a7ed1	0.13524939
16	0x3da2444c	0.07923183
17	0x3d83e5ce	0.06440316
18	0x3d205b1f	0.0391494
19	0x3da10bed	0.07863603
20	0x3d277236	0.040880404
21	0x3e6408dd	0.22269006
22	0x3e85689b	0.2605637
23	0x3d9e3037	0.0772404
24	0x3d639d9c	0.05557023
25	0x3e636810	0.22207665
26	0x3db8b315	0.09018532
27	0x3d9a3559	0.075297065
28	0x3d7e287c	0.062050328
29	0x3d68abf5	0.056804616
30	0x3d51bfb6	0.05120822
31	0x3d37ef1f	0.044905778
32	0x3d81e3ee	0.06342302
33	0x3d89c7ca	0.0672756
34	0x3e762ea1	0.24041225
35	0x3d80ed85	0.06295303
36	0x3d997dd5	0.07494704
37	0x3e34e060	0.17663717
38	0x3dcccccd	0.1
39	0xbbe453fe	-0.0069680205
40	0x3c373d5b	0.011184062
41	0x3d6ac4da	0.05731664
42	0x3e2ace83	0.1668034
43	0x3d86ffe8	0.06591779
44	0x3d58b454	0.05290635
45	0x3d3fa53c	0.04678844
46	0x3d7450e2	0.05964745
47	0x3c9a510e	0.018837478
48	0x3d4f6956	0.050637566
49	0x3d841323	0.064489625
50	0x3da970d4	0.082734734
51	0xbc02da4b	-0.007986615
52	0x3ce0d629	0.02744587
53	0x3d819225	0.06326703
54	0x3e0ecb0c	0.13944644
55	0x3dfe5655	0.1241881
56	0x3d898313	0.067144535
57	0x3e43bfb4	0.19116098
58	0x3d1a5c84	0.037685886
59	0x3d8ad441	0.067787655
60	0xba4ba334	-0.00077681546
61	0x3e52159a	0.20516053
62	0x3d89f28b	0.067357145
63	0x3d94da1e	0.07268165
64	0xbc6be333	-0.01439743
65	0x3cc6b3a7	0.024255587
66	0x3d630b8b	0.05543093
67	0x3cb9ca36	0.02267943
68	0x3de49de8	0.11162931
69	0x3dacabd7	0.08431213
70	0x3d056395	0.032565672
71	0x3d48f00a	0.049057044
72	0x3e7edeac	0.2488963
73	0x3d833de0	0.06408286
74	0x3d86a753	0.06574883
75	0x3d80f3f2	0.06296529
76	0x3e0c760d	0.13716908
77	0x3e4be085	0.19909866
78	0x3dae1b1d	0.08501265
79	0x3c8f618d	0.01750257
80	0x3e574566	0.21022567
81	0x3db043bb	0.086066686
82	0x3d96532d	0.07340083
83	0x3d079c70	0.033108175
84	0x3d8f813b	0.07007071
85	0x3d98a619	0.074535556
86	0x3d082e35	0.03324719
87	0x3d7b427f	0.061342712
88	0x3d0d3969	0.03447858
89	0x3d889021	0.066681154
90	0x3da88088	0.082276404
91	0x3d3a1f44	0.045439973
92	0xbc31ea76	-0.0108591225
93	0x3d190aaa	0.037363686
94	0x3d740a4b	0.05958013
95	0x3e743a88	0.23850453
96	0x3d63d003	0.055618297
97	0x3d7aab45	0.06119849
98	0x3d6fdb06	0.058558486
99	0x3d66fdfc	0.056394562
100	0x3d029171	0.031876985
101	0x3d5c36c7	0.053763177
102	0x3d7fd685	0.06246044
103	0x3e516cb0	0.20451617
104	0x3db51d41	0.0884347
105	0x3e071354	0.13190967
106	0x3d3b369c	0.045706376
107	0x3d60de9c	0.054899797
108	0x3e2b4e47	0.16729079
109	0x3da392f5	0.07987014
110	0x3dbeab95	0.093100704
111	0x3d290597	0.041265097
112	0x3d733a9b	0.059382062
113	0x3d729935	0.05922814
114	0x3d708047	0.058716085
115	0xbaed7625	-0.0018116875
116	0x3d8e4f3f	0.06948709
117	0x3c69300c	0.014232647
118	0x3d6180ca	0.055054463
119	0x3d634d2a	0.05549351
120	0x3bb05961	0.0053817485
121	0x3dcaa9aa	0.09895642
122	0x3d68241e	0.05667507
123	0x3c6a703e	0.014308987
124	0x3d9a1aa6	0.07524614
125	0xbc033d40	-0.008010209
126	0x3d6a8d65	0.05726375
127	0x3d5d9cd4	0.05410464
128	0x3d93662a	0.071972206
129	0x3daea97b	0.085284196
130	0xbca82ccd	-0.020529175
131	0x3e67b4bc	0.22627538
132	0x3d83b92f	0.06431805
133	0x3e1abdec	0.15111512
134	0x3c176270	0.009239778
135	0x3d92b53e	0.071634755
136	0x3e647bb5	0.22312815
137	0x3d8c01ec	0.06836304
138	0x3d93fabf	0.072255604
139	0x3c6f4b41	0.014605344
140	0x3d7c8019	0.0616456
141	0x3a9da1b4	0.0012026341
142	0x3d86566b	0.06559452
143	0x3d88bc12	0.066764966
144	0x3d99fc15	0.07518784
145	0x3c376aab	0.011194865
146	0x3d8b422e	0.06799732
147	0x3d7c3b87	0.061580207
148	0x3d487855	0.048942883
149	0x3db04b18	0.08608073
150	0x3c83471d	0.01602512
151	0x3d812150	0.06305182
152	0x3d8f9b72	0.07012071
153	0x3d847eb0	0.06469476
154	0x3d9b9017	0.07595842
155	0x3e47d800	0.19515991
156	0x3d8aa55b	0.0676982
157	0x3e142451	0.14466979
158	0x3e490588	0.19631016
159	0x3da1e183	0.07904341
160	0x3d8d1467	0.06888657
161	0x3d80f6f9	0.06297106
162	0x3d66899e	0.056283586
163	0x3d886088	0.06659037
164	0x3d9bb298	0.076024234
165	0x3d9812e7	0.0742548
166	0xbc94f90f	-0.018185167
167	0x3e390907	0.1806985
168	0x3d826c9a	0.0636837
169	0x3d4d229c	0.050081834
170	0x3de0c709	0.10975463
171	0x3e1c3cd7	0.15257584
172	0x3d8f96a2	0.07011153
173	0x3d6c185d	0.057640422
174	0x3d93522d	0.07193408
175	0x3c889310	0.016671687
176	0x3d5715f3	0.052511167
177	0x3c766b6f	0.015040263
178	0x3d8162d8	0.06317681
179	0xbb995e81	-0.004680455
180	0x3d4f4f47	0.050612714
181	0x3d8aadca	0.06771429
182	0xbbbed38e	-0.005823559
183	0x3e37cca6	0.17949161
184	0x3d8d1718	0.068891704
185	0x3d9a1645	0.07523779
186	0xbc011b44	-0.007880036
187	0x3d4124d0	0.047154248
188	0x3c8483fe	0.01617622
189	0x3e09f143	0.1347094
190	0x3d8fa874	0.07014552
191	0x3bf4e44d	0.0074735046
192	0x3d946633	0.072460555
193	0x3d6aef92	0.05735738
194	0x3d98657c	0.074412316
195	0x3db23688	0.08701807
196	0x3d852104	0.06500438
197	0x3da8831c	0.08228132
198	0x3e38eb44	0.18058497
199	0x3d99a8ea	0.07502921
200	0x3d81a114	0.06329551
201	0x3d107491	0.035267416
202	0x3d594ba9	0.05305067
203	0x3a9696b8	0.001148901
204	0x3d612ce8	0.054974467
205	0x3d6ee0b6	0.05831977
206	0x3da28fb4	0.079375654
207	0x3d9cc028	0.076538384
208	0x3d6f86c5	0.058478136
209	0x3d79e077	0.061005082
210	0x3d63f634	0.05565472
211	0x3beff1d0	0.0073225275
212	0x3da2e577	0.07953923
213	0x3d1bd99e	0.038049333
214	0x3e12de12	0.14342526
215	0x3d6ade09	0.057340655
216	0x3c994d5c	0.018713646
217	0x3d8acc52	0.06777252
218	0x3d91ecb3	0.07125225
219	0x3d5d52f0	0.054034173
220	0x3d347cdd	0.04406439
221	0x3dee7898	0.11644095
222	0x3d1f36ed	0.03887074
223	0xbc27e6c2	-0.010247888
224	0x3d8e9f3c	0.06963965
225	0x3e41c1b6	0.18921551
226	0x3e11346e	0.14180157
227	0x3d8d3722	0.068952814
228	0xbc8faa26	-0.017537188
229	0x3d9f1c4b	0.07769068
230	0x3d74b1d6	0.05973991
231	0x3d88dd31	0.06682814
232	0x3d7bc974	0.061471418
233	0x3d84d94a	0.06486757
234	0x3dc91c3b	0.09819838
235	0x3c171fca	0.009223888
236	0x3db45d27	0.0880683
237	0x3d5ad85e	0.053429
238	0x3e1c9c22	0.15293935
239	0x3e453497	0.19258343
240	0x3d35fbe7	0.044429686
241	0x3e4483ed	0.1919095
242	0x3d960a56	0.0732619
243	0x3d1b2f01	0.037886623
244	0x3d11793a	0.035516
245	0x3d88e975	0.066851534
246	0x3da8e507	0.082468085
247	0x3d63eb29	0.055644188
248	0xbb1eaaea	-0.002421076
249	0x3dd930a3	0.1060498
250	0x3e384307	0.17994319
251	0x3d9115e9	0.07084257
252	0x3d5ec8d1	0.054390732
253	0x3d87ad5e	0.06624864
254	0x3ca55e65	0.020186612
255	0x3dca19bf	0.09868192

base.seq_fcs.2.weight f4 [256, 256]
0	0xbd88f119	-0.06686611
1	0xbdc2f23b	-0.09518858
2	0x3ba60b67	0.0050672772
3	0x3c8ea2c1	0.017411591
4	0xbca5500b	-0.020179769
5	0xbc867fe7	-0.01641841
6	0xbd76182c	-0.060081646
7	0xbcdaeba6	-0.026723694
8	0xbd3597fe	-0.044334404
9	0x3d5bf69c	0.053701982
10	0x3c227278	0.009914987
11	0xbb8b9315	-0.004259477
12	0x3c72c734	0.014818002
13	0x3d082185	0.03323509
14	0xbd139069	-0.036026392
15	0xbd34d5dc	-0.044149265
16	0xbd2e8f71	-0.042617265
17	0x3d6591cf	0.056047257
18	0xbd5f1bb5	-0.054469783
19	0x3cff6193	0.031174457
20	0x3c6fd362	0.0146378
21	0x3c93ef74	0.018058516
22	0xbbd54996	-0.0065090163
23	0x3d1ab0c5	0.037766237
24	0xbd09693f	-0.033547636
25	0x3d248b4b	0.040171903
26	0xbd675cfe	-0.05648517
27	0xbd69db63	-0.05709399
28	0x3b214ed6	0.002461364
29	0x3cfda992	0.030964646
30	0x3d342b74	0.043986753
31	0xbc83bcdb	-0.016081264
32	0xbd2bcdd5	-0.041944344
33	0xbd3181e0	-0.04333675
34	0x3cbd6256	0.02311818
35	0xbd16e3b8	-0.036838263
36	0xbce10244	-0.0274669
37	0xbd858ec1	-0.06521369
38	0x3cb4c1d8	0.022065088
39	0x3b54db89	0.0032479486
40	0x3c72c274	0.014816869
41	0x3c035ade	0.00801727
42	0x3d0a57e1	0.033775214
43	0xbcb5c07a	-0.022186507
44	0x3d4d6cd2	0.050152607
45	0xbcfe16ef	-0.031016795
46	0x3cb7a582	0.022417787
47	0xbdbdfca1	-0.09276701
48	0xbd4881b9	-0.04895184
49	0xbd637f3b	-0.05554126
50	0x3d2b4acc	0.04181938
51	0xbd43de06	-0.04781916
52	0xbd8677bf	-0.065658085
53	0xbd64744d	-0.055774976
54	0x3d28ff35	0.04125901
55	0xbd130033	-0.035888862
56	0x3cd3c0ce	0.025848772
57	0xbb07d3f8	-0.0020725708
58	0xbd25a7d6	-0.040443264
59	0xbd21c9b5	-0.039499003
60	0xbd3461a4	-0.04403843
61	0x3a33929a	0.00068501534
62	0x3cac3205	0.021019945
63	0xbc8a7b8d	-0.016904617
64	0xbd7754ac	-0.060383484
65	0x3c2b65f4	0.010461319
66	0xbd966360	-0.07343173
67	0xbdcaafa7	-0.09896784
68	0xbdf74567	-0.12073784
69	0xbd0b4ff5	-0.0340118
70	0xbdccaaaf	-0.09993493
71	0x3cd5e235	0.02610884
72	0xbbc34095	-0.0059586265
73	0x3bc2658b	0.005932515
74	0x3cbde426	0.023180079
75	0xbd48846d	-0.048954416
76	0xbbd9fe7e	-0.0066526523
77	0x3ced2af1	0.02895114
78	0x3cd28a3f	0.025700686
79	0x3d18ff4e	0.037352853
80	0xbcba7679	-0.02276157
81	0x3b0b2c11	0.0021235982
82	0xbbcabec7	-0.006187293
83	0xbdbdeb31	-0.09273375
84	0x3d1ac6be	0.03778719
85	0xbcf9ec85	-0.03050829
86	0xbc2131d3	-0.009838539
87	0x3c80e706	0.01573516
88	0xbcb75939	-0.022381412
89	0x3b8da36b	0.0043224595
90	0xba5b6fed	-0.0008370865
91	0x3cf9ae58	0.030478641
92	0xbda582de	-0.080816016
93	0xbd1c4b61	-0.038157824
94	0xbd76d7f5	-0.060264546
95	0xbe43bd6a	-0.19115224
96	0xbd80bdff	-0.06286239
97	0xbcbafebb	-0.022826543
98	0xbd786230	-0.060640514
99	0x3d14425c	0.036196098
100	0xbc69b286	-0.014263755
101	0xbcca2504	-0.024675854
102	0xbca95991	-0.020672591
103	0xbca90c7c	-0.020635836
104	0xbccf23d8	-0.025285646
105	0x3ba4498f	0.0050136517
106	0xbd382383	-0.04495574
107	0xbd7a327d	-0.061083306
108	0xbcdbd55d	-0.026835138
109	0x3cca8abc	0.024724357
110	0x3bf61e68	0.007510949
111	0xbd80472f	-0.06263577
112	0xbca537be	-0.020168182
113	0x3d12aff5	0.035812337
114	0x3b97e42c	0.0046353545
115	0xbd3f5bba	-0.046718337
116	0xbca236bb	-0.019801488
117	0x3d05fd73	0.03271241
118	0xbc476684	-0.012170438
119	0xbdabf74e	-0.08396779
120	0xbc811609	-0.015757577
121	0x3c9cc38b	0.01913621
122	0x3d2fbf36	0.042906962
123	0x3cb0e311	0.021592649
124	0xbc10861f	-0.008821039
125	0xbdba85b7	-0.09107535
126	0x3d270179	0.04077289
127	0xbd8567f6	-0.065139696
128	0x3b4b1400	0.0030987263
129	0xbdf40813	-0.119156025
130	0x3c1e277d	0.009652969
131	0xbd7e8b31	-0.062144462
132	0xbcdaa877	-0.026691658
133	0xbb33d1ea	-0.002743835
134	0x3bf06628	0.0073363967
135	0x3d394d32	0.045239635
136	0xbd38aa13	-0.04508407
137	0xbd0266bb	-0.031836253
138	0xbc8d4b02	-0.01724768
139	0xbd96dfe0	-0.073669195
140	0x3cf26c48	0.029592648
141	0xbd846922	-0.06465365
142	0x3c9e45d8	0.019320413
143	0x3ce86600	0.02836895
144	0x3be00636	0.006836678
145	0xbda4ae5d	-0.0804107
146	0x3ce168fc	0.02751588
147	0x3cda62ed	0.0266585
148	0xbd6e9bb0	-0.058253944
149	0xbd0e4ff6	-0.034744225
150	0xbcba81de	-0.022767004
151	0xbd40808f	-0.046997603
152	0xbd43d26e	-0.047808103
153	0x3ce6ee71	0.02818987
154	0xbd6582a3	-0.056032788
155	0xbc88dceb	-0.016706904
156	0x3c4778c7	0.012174792
157	0xbc194804	-0.009355549
158	0x3d1bb5b4	0.038015082
159	0x3d018265	0.031618495
160	0xbc689b29	-0.014197149
161	0x3d4b5351	0.049640004
162	0xbc3561b1	-0.011070655
163	0x3be49e21	0.0069768582
164	0xbb6186b6	-0.003441257
165	0x3c83bf9f	0.016082583
166	0xbcba24ef	-0.02272269
167	0xbd8e70d0	-0.06955111
168	0x3aca9f98	0.001545894
169	0x3c40e3a9	0.011773028
170	0xbc305f58	-0.010764919
171	0xbcbdfeef	-0.02319285
172	0xbd6b50fc	-0.05745028
173	0xbd3e5590	-0.046468318
174	0xbbe47e93	-0.0069730966
175	0xbd7a6421	-0.061130647
176	0x3cbb9a60	0.02290076
177	0xbd45df5f	-0.048308726
178	0x3d5262c9	0.05136374
179	0xbd69fef6	-0.057127915
180	0xbcc42600	-0.023943901
181	0x3c8cf539	0.017206775
182	0xbd341863	-0.04396857
183	0xbcb2022f	-0.021729557
184	0xbd830382	-0.063971534
185	0xbc0f3680	-0.008741021
186	0xbd4a9374	-0.04945703
187	0x3bb9430b	0.005653744
188	0x3d822665	0.063549794
189	0xbd526aba	-0.051371314
190	0xbd50bc2e	-0.050960712
191	0xbc649f10	-0.013953939
192	0x3c47b50a	0.012189159
193	0xbd72aceb	-0.05924694
194	0xbd391890	-0.04518944
195	0xbd3bd74b	-0.045859616
196	0x3d5fb3cb	0.054614823
197	0x3c81fa4c	0.015866421
198	0xbca0c5e5	-0.019625613
199	0x3b49dc22	0.0030801375
200	0x3c84caf7	0.016210062
201	0xbd5009b2	-0.050790496
202	0xbd45908d	-0.048233557
203	0xbd0d4500	-0.03448963
204	0xbcff7972	-0.03118584
205	0xbd3b34c0	-0.045704603
206	0x3c0fa5e9	0.008767583
207	0x39b9c94a	0.00035435922
208	0xbcfb9627	-0.030711247
209	0x3c5f318c	0.013622653
210	0xbc90e527	-0.017687393
211	0xbd7290f1	-0.05922026
212	0xbd080320	-0.033206105
213	0xbc256f81	-0.010097385
214	0x3cb9f807	0.022701276
215	0xbd7b872c	-0.061408207
216	0xbda5f449	-0.08103234
217	0xbd385a0f	-0.04500776
218	0xbc2f1e0e	-0.010688318
219	0x3bc95edc	0.0061453413
220	0xbdad4f5b	-0.084624015
221	0x3c55e237	0.013054422
222	0x3bd70a36	0.0065624965
223	0xba0339e9	-0.00050058827
224	0x3d10ad90	0.035321772
225	0x3d12b022	0.035812505
226	0x3c0e9aca	0.008703897
227	0xbd483b3f	-0.048884626
228	0x3c7ae3dd	0.015313116
229	0xbc87f73a	-0.016597379
230	0x3d64add6	0.055829845
231	0x3d112343	0.03543402
232	0xbd806bc8	-0.06270558
233	0x3bf0caed	0.0073484094
234	0x3c3f2a68	0.011667825
235	0xbb761a7c	-0.0037552407
236	0x3d1af684	0.037832752
237	0xbd79df29	-0.061003838
238	0x3d0130b5	0.03154059
239	0xbcaa6737	-0.02080117
240	0xbd18a904	-0.03727056
241	0xbd132bf6	-0.035930596
242	0xbd206d90	-0.039166987
243	0x3c2ea6fd	0.01065993
244	0xbdb78f36	-0.08962862
245	0x39c71cf4	0.0003797781
246	0xbcf909eb	-0.030400237
247	0xbd54945a	-0.05189929
248	0xbbc54d72	-0.006021195
249	0xbd7cbbd7	-0.061702576
250	0xbcb66c02	-0.022268299
251	0x3d109c2d	0.03530519
252	0x3d308c7e	0.043102734
253	0xbd312700	-0.043250084
254	0xbd8dca27	-0.06923323
255	0xbd16f7f2	-0.036857553

base.seq_fcs.2.bias f4 [256]
0	0x3d308f2a	0.043105282
1	0x3d80648b	0.06269177
2	0x3d210629	0.039312515
3	0x3e3b9722	0.18319371
4	0x3dfb5301	0.12271691
5	0x3d184ebe	0.03718447
6	0x3d9d69f1	0.07686222
7	0x3d2a7336	0.04161378
8	0x3d3b4e9b	0.04572926
9	0x3d8759a2	0.06608893
10	0x3d5b384d	0.05352049
11	0x3d8aaa7b	0.06770798
12	0x3da8f0b3	0.08249035
13	0x3d749268	0.059709936
14	0x3d7cde63	0.061735522
15	0x3d816264	0.06317595
16	0x3d5cd4dc	0.053913936
17	0x3d415104	0.047196403
18	0x3d342988	0.04398492
19	0x3d89f0a4	0.06735352
20	0x3d7754d5	0.060383637
21	0x3da55c35	0.08074228
22	0x3d43fea0	0.04785025
23	0x3dc553b9	0.096351095
24	0x3d25b131	0.040452186
25	0x3d712cbb	0.05888055
26	0x3d19c88e	0.03754478
27	0x3d22c1ca	0.039735593
28	0x3d3a2d61	0.045453433
29	0x3e18aa2c	0.14908665
30	0x3d6657c6	0.05623605
31	0x3d5c9f7c	0.053863034
32	0x3d6cf157	0.057847347
33	0x3e096d0a	0.13420501
34	0x3d62da45	0.05538394
35	0x3d1c70f4	0.038193658
36	0x3db3ad65	0.08773307
37	0x3d69ef5b	0.057113033
38	0x3de8be2e	0.11364399
39	0x3d809505	0.06278423
40	0x3d9f396b	0.077746235
41	0x3d714aff	0.058909412
42	0x3d753847	0.059868123
43	0x3d5e93cf	0.05434018
44	0x3daecc49	0.08535058
45	0x3cfc3356	0.030786198
46	0x3daf780a	0.085678175
47	0x3cc4bb2d	0.024015034
48	0x3d2b6c71	0.041851465
49	0x3dc1a73b	0.09455725
50	0x3d73d00c	0.05952458
51	0x3d95f009	0.07321174
52	0x3d765da5	0.0601479
53	0x3dc957ea	0.098312214
54	0x3d6a5bae	0.05721634
55	0x3d261e02	0.04055596
56	0x3d801c55	0.06255404
57	0x3d3c5bf8	0.045986146
58	0x3d336938	0.043801516
59	0x3d0486c9	0.032355104
60	0x3d7d1f9c	0.061797723
61	0x3d19faf4	0.037592843
62	0x3d42d41a	0.047565557
63	0x3d8869e3	0.06660821
64	0x3d309a6c	0.04311602
65	0x3d555e94	0.05209215
66	0x3d64ea60	0.05588758
67	0x3d807f0d	0.06274233
68	0x3d9056bf	0.070477955
69	0x3d3dbd65	0.0463232
70	0x3d3012ba	0.04298661
71	0x3dad29d8	0.08455247
72	0x3d744c21	0.059642915
73	0x3d151f7f	0.03640699
74	0x3d3c9d77	0.046048608
75	0x3d8751d8	0.06607407
76	0x3d8cd92e	0.06877361
77	0x3d898ac4	0.067159206
78	0x3d301c31	0.042995635
79	0x3d41b0d5	0.04728778
80	0x3d8eba36	0.06969111
81	0x3d6dd2c9	0.05806235
82	0x3d899afa	0.067190126
83	0x3d1d8df5	0.03846546
84	0x3dac3e7e	0.08410357
85	0x3d5b8d25	0.053601403
86	0x3d7baa83	0.06144191
87	0x3d86dc11	0.06584943
88	0x3e3e0734	0.18557435
89	0x3cd2e537	0.025744064
90	0x3d4b2cfa	0.04960344
91	0x3d8001ef	0.06250369
92	0x3d07d5c1	0.033162836
93	0x3d875962	0.06608845
94	0x3d2d53ce	0.04231625
95	0x3d295d7e	0.041348927
96	0x3d414311	0.0471831
97	0x3d3cb966	0.046075247
98	0x3d6da49e	0.05801832
99	0x3d5bd657	0.053671207
100	0x3d81c3ce	0.06336175
101	0x3d8de3da	0.06928225
102	0x3e859e59	0.26097372
103	0x3d9ab4b4	0.07553998
104	0x3d32dcd2	0.043667622
105	0x3d5f1dcc	0.054471776
106	0x3d161d3f	0.036648985
107	0x3d92044c	0.07129726
108	0x3d258877	0.040413346
109	0x3d2a92cf	0.041643914
110	0x3d72d8ef	0.059288915
111	0x3d817120	0.06320405
112	0x3d18206a	0.037140287
113	0x3d3736c9	0.04472998
114	0x3d6cdd65	0.057828326
115	0x3d06f33f	0.03294682
116	0x3d7adc55	0.06124528
117	0x3d85eec8	0.065396845
118	0x3d7a1034	0.06105061
119	0x3d4205d5	0.047368843
120	0x3d8fa89d	0.07014582
121	0x3d4c8611	0.049932543
122	0x3d8d2e7d	0.068936326
123	0x3d1fb9ea	0.03899566
124	0x3d3ace3e	0.045606844
125	0x3d0b61a6	0.03402867
126	0x3dba1143	0.09085324
127	0x3d69aef0	0.0570516
128	0x3cc94f73	0.024574017
129	0x3d801502	0.06254007
130	0x3d7ea204	0.06216623
131	0x3d1c3b8d	0.03814273
132	0x3d52bf33	0.051451873
133	0x3d810695	0.063000835
134	0x3d342ad9	0.043986175
135	0x3d3ba160	0.045808196
136	0x3db700f5	0.089357294
137	0x3d77ed06	0.060528778
138	0x3dba5a61	0.0909927
139	0x3d8411b1	0.06448687
140	0x3dcb5dab	0.09929975
141	0x3d5ce86c	0.053932592
142	0x3e5a5e11	0.21324946
143	0x3d811273	0.06302347
144	0x3d42e3d4	0.047580555
145	0x3d5ed210	0.05439955
146	0x3d06b3d0	0.032886326
147	0x3d974b30	0.07387388
148	0x3d0b0e98	0.033949465
149	0x3d7e8826	0.06214156
150	0x3cb99c0a	0.022657413
151	0x3d5737f0	0.05254358
152	0x3d29773d	0.04137348
153	0x3d5bee0d	0.05369382
154	0x3d2800b5	0.0410163
155	0x3d60867b	0.05481575
156	0x3d435df3	0.04769702
157	0x3da48c79	0.080346055
158	0x3d70a5f5	0.05875202
159	0x3d2fa974	0.042886212
160	0x3d917870	0.0710305
161	0x3da4a5e7	0.08039456
162	0x3d7e6ab4	0.06211348
163	0x3d3299e6	0.0436038
164	0x3d095370	0.033526838
165	0x3d6854b3	0.0567214
166	0x3d3147e3	0.043281447
167	0x3d5bdc0e	0.053676657
168	0x3d3a9923	0.0455562
169	0x3d42f47e	0.047596447
170	0x3d500bff	0.05079269
171	0x3d843951	0.06456245
172	0x3d944100	0.0723896
173	0x3d508e98	0.050917238
174	0x3d5e19fe	0.054224007
175	0x3d01d73d	0.031699408
176	0x3d1df50a	0.038563766
177	0x3d88a76f	0.066725604
178	0x3d2cef38	0.042220324
179	0x3d50d9e9	0.050989065
180	0x3d8267d7	0.06367462
181	0x3e2ef5f1	0.17086007
182	0x3dc94b94	0.098288685
183	0x3d859e34	0.065243155
184	0x3de222a7	0.11041766
185	0x3df86202	0.121280685
186	0x3da8368f	0.08213531
187	0x3d3bfd76	0.045896016
188	0x3d0d152d	0.034444023
189	0x3d244faf	0.040115055
190	0x3e738023	0.23779349
191	0x3d8557ba	0.06510873
192	0x3d25e703	0.040503513
193	0x3d8fc4d7	0.07019966
194	0x3d1ebc50	0.038753808
195	0x3d1f95b1	0.038961116
196	0x3d857455	0.06516329
197	0x3d0ca2d5	0.034334976
198	0x3d8d86f7	0.06910508
199	0x3d1eeb58	0.03879866
200	0x3d38ba12	0.045099325
201	0x3df2b471	0.11850823
202	0x3d3b6ea6	0.04575982
203	0x3d5371b9	0.051622126
204	0x3d5b6725	0.053565163
205	0x3cea8e81	0.028632404
206	0x3d8850b2	0.066560164
207	0x3d684d98	0.056714624
208	0x3d7b0ee1	0.061293487
209	0x3d993368	0.07480508
210	0x3d26cdf2	0.04072375
211	0x3d203511	0.039113108
212	0x3d9a2f19	0.075285144
213	0x3d07106b	0.03297464
214	0x3d81c88b	0.06337079
215	0x3dbf4839	0.09339947
216	0x3d900e7d	0.070340134
217	0x3d3bf7df	0.045890685
218	0x3d56b253	0.052416157
219	0x3d282018	0.041046232
220	0x3d26046e	0.04053157
221	0x3d7bbf8d	0.061461974
222	0x3d0f7357	0.035022106
223	0x3d2429fb	0.0400791
224	0x3d60d9f1	0.054895345
225	0x3d74db6a	0.059779562
226	0x3d256594	0.040380076
227	0x3d0c331e	0.034228437
228	0x3d43167a	0.047628857
229	0x3d256e42	0.040388353
230	0x3d34ae18	0.04411134
231	0x3d315318	0.043292135
232	0x3d79bec0	0.06097293
233	0x3d357ef5	0.04431053
234	0x3d1f236e	0.038852148
235	0xbbe0db02	-0.0068620453
236	0x3d6a2ef8	0.0571737
237	0x3bc44c69	0.005990554
238	0x3d0a7492	0.033802576
239	0x3d81caf7	0.063375406
240	0x3d33305a	0.043747284
241	0x3d118d26	0.035535
242	0x3d2fd7ea	0.04293052
243	0x3d2402b9	0.04004166
244	0x3d49f542	0.04930616
245	0x3d1d3429	0.038379822
246	0x3d22fce4	0.039791957
247	0x3dc05c00	0.093925476
248	0x3cfdc33c	0.030976884
249	0x3d26b3b9	0.04069874
250	0x3d780eca	0.06056098
251	0x3d80928f	0.06277954
252	0x3d87e91a	0.066362575
253	0x3d3b7db8	0.04577419
254	0x3d6ce587	0.05783608
255	0x3d1503c2	0.036380537

last.weight f4 [8, 256]
0	0x3d725a82	0.059168346
1	0x3ba94eb5	0.0051668533
2	0x3e8a09fe	0.26960748
3	0xbe257ff2	-0.16162089
4	0x3e3ff73a	0.18746653
5	0x3c7d75b7	0.01546996
6	0xbb2818e6	-0.0025649606
7	0x3e59af83	0.21258359
8	0xbc7c283d	-0.015390453
9	0x3c35a25e	0.011086075
10	0xbd4d9a0c	-0.05019574
11	0x3d5c1b08	0.053736717
12	0x3c2f06be	0.01068276
13	0xbd6ed7db	-0.058311325
14	0xbd21f09b	-0.0395361
15	0x3bb9f683	0.0056751384
16	0xbd00407a	-0.03131149
17	0x3d4812ac	0.048845932
18	0xbcbbe795	-0.022937575
19	0x3c40ef1c	0.011775758
20	0xbd5b1a33	-0.053491782
21	0x3d0783d2	0.033084698
22	0xbd113fc6	-0.03546121
23	0x3cd42273	0.025895333
24	0xbb8a125d	-0.004213615
25	0xbd0e92e8	-0.03480807
26	0x3c97b3da	0.018518377
27	0x3d3727dc	0.044715747
28	0xbc2b58b9	-0.010458165
29	0x3dac28fd	0.084062554
30	0x3d340822	0.04395307
31	0x3d10bfae	0.03533905
32	0x3bcc9f15	0.00624455
33	0xbe84313b	-0.2581881
34	0x3c1ff389	0.009762653
35	0x3c678965	0.0141318785
36	0xbdc1569f	-0.0944035
37	0x3d8f9068	0.07009965
38	0x3c73484e	0.014848782
39	0x3c7315e2	0.01483676
40	0x3cdad923	0.026714867
41	0x3c867b1f	0.01641613
42	0x3c950b9c	0.018194012
43	0xbc4de207	-0.012566096
44	0x3d057404	0.032581344
45	0xba4b7f16	-0.0007762773
46	0xbca269df	-0.019825874
47	0x3cee2f1c	0.029075198
48	0x3cba25d9	0.022723125
49	0x3d858930	0.06520307
50	0xbd2ec4bd	-0.042668093
51	0x3c9eb226	0.019372057
52	0xbd3c2a33	-0.04593868
53	0x3d2b33d9	0.041797493
54	0x3c396c4f	0.011317327
55	0x3c3751b3	0.011188912
56	0xbd6c27a8	-0.057655007
57	0xbc13a75e	-0.009012071
58	0x3d18fbfc	0.037349686
59	0x3c6e608e	0.014549388
60	0x3cb8146e	0.02247068
61	0x3da78c96	0.081811115
62	0xbcaa45de	-0.020785268
63	0x3d15a8b1	0.03653783
64	0x3d3ee7bf	0.04660773
65	0x3d089c62	0.033352263
66	0x3c2946c6	0.010331815
67	0x3c45fc30	0.012084052
68	0x3c19192c	0.00934438
69	0x3b16a42b	0.0022986035
70	0x3d04642c	0.032322094
71	0x3c1b311c	0.009472158
72	0x3d83b811	0.06431592
73	0x3cdbb52a	0.026819784
74	0x3c1f15ed	0.009709817
75	0xbd7786ca	-0.06043128
76	0x3d62f135	0.055405814
77	0x3ca6b33a	0.020349134
78	0xbc882506	-0.016619217
79	0xbc997c0c	-0.018735908
80	0x3ca175dc	0.01970952
81	0xbc875be4	-0.016523309
82	0x3c5b2438	0.013375334
83	0x3cc97330	0.024591058
84	0x3dea93f0	0.11453998
85	0xbd1ac6ee	-0.03778737
86	0xbd4ef610	-0.050527632
87	0x3c1d8738	0.009614758
88	0x3ecb7cb4	0.39743578
89	0xbb93f82d	-0.004515669
90	0xbd074c34	-0.033031657
91	0x3c99c6ac	0.018771492
92	0x3d47bd0a	0.048764266
93	0x3c745f1c	0.014915254
94	0xbc4eedf3	-0.012629974
95	0x3c82d4ab	0.015970549
96	0x3c97853a	0.018496145
97	0x3d443716	0.047904097
98	0xbd0b26e2	-0.03397263
99	0xbc9ffad4	-0.019528784
100	0xbc978e54	-0.018500485
101	0x3cc26736	0.023730855
102	0xbea16a42	-0.3152638
103	0x3dd2334f	0.102636926
104	0xbce5de37	-0.028060062
105	0x3b0be540	0.002134636
106	0x3cb7b30c	0.022424243
107	0x3da616ba	0.081098035
108	0x3aa7067a	0.0012743019
109	0xbc24727b	-0.01003706
110	0x3e4686ff	0.19387434
111	0x3c8a7453	0.01690117
112	0x3cfcc1d6	0.030854147
113	0x3d9b9092	0.07595934
114	0xbd3ba4a7	-0.04581132
115	0x3cfbfbd6	0.030759733
116	0xbbdd92a6	-0.0067618666
117	0xbd57b313	-0.052661013
118	0x3c7dc393	0.015488523
119	0x3d229c9b	0.039700132
120	0x3caf72c9	0.021417039
121	0x3e614924	0.22000557
122	0x3bedbbca	0.007255052
123	0x3d55f783	0.052238
124	0x3d2e9e63	0.042631518
125	0x3d076d9d	0.03306352
126	0xbda9715e	-0.08273576
127	0xbd1dc0a6	-0.038513802
128	0x3bd29420	0.0064263493
129	0x3c7f628b	0.015587459
130	0xbd092824	-0.033485547
131	0x3cce1a34	0.025158979
132	0xbd11dc39	-0.03561041
133	0xbd2074ed	-0.03917401
134	0x3d6e6011	0.058197085
135	0x3d1df2ca	0.03856162
136	0xbd847dca	-0.06469305
137	0x3c32b367	0.010907031
138	0xbd8795c6	-0.06620364
139	0x3c751cd5	0.014960487
140	0x3cc87fb0	0.024474949
141	0xbd528bf5	-0.051403005
142	0xbe82c9b9	-0.25544527
143	0xb9a947d3	-0.00032287705
144	0x3d6ad90b	0.057335895
145	0xbd2f4173	-0.042787027
146	0x3c3e9c26	0.011633908
147	0xbd62da9f	-0.055384275
148	0x3d0d87ae	0.034553222
149	0x3c7434ff	0.014905213
150	0xba76f833	-0.000942114
151	0xbcf6304d	-0.030052328
152	0x3d4634b5	0.04839011
153	0xbd57ba21	-0.05266774
154	0xbb840106	-0.0040284423
155	0xbc09d947	-0.008413619
156	0xbca7aa74	-0.02046702
157	0x3d289612	0.041158743
158	0x3c343616	0.010999223
159	0x3d493596	0.04912337
160	0x3c116d7c	0.008876201
161	0xbc0d0a60	-0.008608431
162	0xbbfa04fa	-0.007629988
163	0x3d34ea87	0.044168975
164	0xbb9e55fe	-0.0048320284
165	0x3cb4b4f4	0.022058941
166	0x3aa56a9a	0.0012620271
167	0x3ba29e40	0.0049627125
168	0xbcd88bf0	-0.026433915
169	0x3d7e70a4	0.06211914
170	0xbd1161cb	-0.035493653
171	0x3c9a4362	0.018830959
172	0x3b2b8749	0.0026173166
173	0xbd05463b	-0.03253768
174	0xbcbf0cc5	-0.023321519
175	0x3cac6f79	0.021049248
176	0xba43cdea	-0.0007469343
177	0x3c0192e7	0.007908559
178	0x3ce9f257	0.02855794
179	0xbcadb53a	-0.02120458
180	0x3c906fb3	0.017631387
181	0x3eb9e495	0.36307207
182	0x3cdb4afc	0.026769154
183	0x3ca2534e	0.019815113
184	0x3cd8a548	0.026446
185	0xbe49ddcd	-0.19713517
186	0xbcc03600	-0.02346325
187	0x3c4679b0	0.0121139735
188	0x3d289b49	0.041163716
189	0x3d54db53	0.051966976
190	0x3ee2ce93	0.4429823
191	0x3c6f23cd	0.014595938
192	0x3d10f766	0.035392188
193	0x3d8b1d63	0.067927144
194	0x3a807545	0.0009800574
195	0xbbdaf266	-0.006681728
196	0x3c59e327	0.013298786
197	0x3c07f664	0.00829849
198	0xbd83cd35	-0.064356245
199	0x3cc045f8	0.023470864
200	0xbc3240f3	-0.010879743
201	0x3e126cec	0.14299363
202	0xbcb54874	-0.022129275
203	0x3d3f39a3	0.046685826
204	0xbd1cf603	-0.038320553
205	0xba5692bf	-0.0008185319
206	0x3c78f47d	0.015195009
207	0xbd558556	-0.052129112
208	0x3c66da18	0.014090084
209	0x3c4ed32e	0.012623591
210	0xbc1a94cb	-0.009434889
211	0x3d315b4e	0.043299966
212	0x3d329e20	0.04360783
213	0x3bbbd010	0.00573159
214	0x3c7cd683	0.015432003
215	0x3cb0a482	0.021562818
216	0xbd49e4ca	-0.049290456
217	0x3d7f67d3	0.062354874
218	0xbcc6c03d	-0.024261588
219	0x3d260d54	0.040540054
220	0x3d002256	0.031282745
221	0x3ca584b7	0.020204885
222	0x3cfd8997	0.030949397
223	0x3d5fca5c	0.054636344
224	0x3d77b870	0.060478628
225	0xbd5379b8	-0.051629752
226	0x3d168689	0.036749396
227	0x3ce3092c	0.027714334
228	0x3d119cbf	0.035549875
229	0xbccd199b	-0.025036624
230	0xbbc06edb	-0.00587259
231	0x3d1437ea	0.036186136
232	0xbd18990e	-0.03725534
233	0x3d4383ae	0.047733
234	0x3b941b7d	0.0045198784
235	0x3e946269	0.2898133
236	0xbcd27bd8	-0.025693819
237	0x3e988347	0.29787657
238	0x3bba6adb	0.0056890077
239	0x3c62c32e	0.01384048
240	0xbcae2461	-0.021257581
241	0x3ccb64ba	0.024828304
242	0x3d0df06d	0.034653116
243	0x3d0ad8bd	0.033898104
244	0xbd0cc7ee	-0.034370355
245	0x3d2d2a64	0.042276755
246	0xbc9f1404	-0.019418724
247	0x3f668ce5	0.9005874
248	0x3beabf8c	0.0071639474
249	0xbb63d368	-0.003476346
250	0xbca5d9c5	-0.020245442
251	0x3c4efd69	0.01263366
252	0x3c639aea	0.013891915
253	0x3d1b99ca	0.03798846
254	0xbcc546c8	-0.024081603
255	0x3d19c0b3	0.037537288

last.bias f4 [8]
0	0xbe0825d2	-0.13295677
1	0x3d0bd1f0	0.03413576
2	0xbdb41dec	-0.0879477
3	0xbc8fac7a	-0.017538298
4	0xbe0b743a	-0.13618556
5	0xbe187921	-0.14889957
6	0xbdef51a6	-0.11685495
7	0xbd823e58	-0.063595474
