Soft-Module-main/log/model50_new_16/model_vf_best.pth (torch, 280037 bytes, 5 tensors)

base.seq_fcs.0.weight f4 [256, 12]
-0.019745486 0.07808974 -0.011972702 -0.01842518 -0.022085844 0.05622757 -0.034050472 -0.008344173
0.0004104972 0.032179717 0.034904893 0.0035970341 0.06194807 0.06434925 -0.0036565436 -0.0826536
0.0018203285 0.042870674 0.05087249 -0.0093706325 -0.010145411 -0.0029024922 0.0804406 0.023916595
0.006784679 -0.005374705 0.007247498 -0.042248964 0.07567297 0.038214993 0.052141637 0.028528623
-0.0042714328 -0.000835278 -0.020652829 0.06136478 0.06660003 0.047372654 0.04027357 -0.02633469
0.050993428 0.009335642 -0.021304592 0.04779035 0.03842874 0.013405039 0.075859435 -0.007323735
-0.03432603 -0.019946732 0.020151295 -0.07483448 -0.009701521 0.0918021 -0.041129753 -0.03376557
-0.025122434 -0.062179435 0.053850494 0.026498051 0.091169566 -0.0020631412 -0.037911505 -0.08406339
-0.014663932 0.051841743 0.026264459 0.011597082 0.052583136 -0.07155152 0.03755863 0.006625568
0.065172166 -0.0036298041 0.05836675 -0.07802434 0.065786555 -0.0074819634 -0.055776216 -0.035953067
-0.022894047 -0.0178428 -0.02443186 -0.026613126 -0.006012969 -0.0074315304 0.06584431 0.01386411
0.037206262 0.03347471 -0.045200244 0.002871409 0.00083599985 -0.05274194 -0.012360118 0.07341902
0.051318504 0.016167564 -0.03945209 -0.001551766 -0.01590617 0.00629927 -0.026145019 -0.048690364
0.050317757 -0.0004329786 0.011456025 0.03129469 0.010712871 -0.01631141 0.049109247 -0.031113159
0.019215185 0.086621016 -0.009194955 0.05476521 0.009861976 -0.020504728 -0.0033275334 -0.018625306
0.011794843 -0.0065331203 0.0005719122 -0.09330702 0.08974041 0.045497186 0.016641192 -0.05352088
-0.039345384 -0.061611675 0.013654307 0.025404809 0.048723284 0.02420602 -0.030514458 0.008636284
-0.02338565 0.08599168 -0.054053962 -0.010099128 0.05283892 -0.06334235 0.059767008 0.010712325
-0.0007558276 0.057746578 0.062230967 0.029131591 0.022401502 -0.012655352 -0.03786993 -0.023849785
-0.027928278 -0.0059631295 0.054941814 0.055577032 -0.016018907 0.09458377 -0.022271512 -0.0033485412
0.0030642978 0.07776277 0.048846766 0.0041561723 0.009179585 -0.0439307 -0.019023107 0.07748243
0.066480294 0.05252514 -0.026505081 -0.0012147115 0.061984632 0.058203477 -0.053331465 0.04203923
0.02526486 -0.074637055 0.007240807 -0.022269024 0.07546811 0.07243611 0.05689617 -0.062195167
0.011248351 -0.022229368 0.04724977 0.03946411 -0.0034258962 -0.07763657 0.05808943 0.067953065
0.04570508 0.0748632 -0.01448096 -0.039561965 0.06108314 0.046635125 0.01771015 -0.013707623
0.033937044 -0.07574087 0.086527176 0.016130256 0.011312557 0.022688448 0.018390423 0.017547382
-0.017411826 -0.024995763 0.03224098 -0.036499232 0.03152696 0.018629706 0.068113096 -0.010759834
0.053560633 0.008474493 0.021063633 0.029496636 0.03180966 0.05388887 -0.044300385 0.025873072
0.010000326 -0.026620885 0.022257125 0.057949398 -0.0339672 0.017138269 0.024258971 -0.022384567
0.05159745 0.030684242 -0.057461143 0.04514622 -0.035278313 -0.06292255 0.08321209 0.05209501
-0.0017956088 0.019332936 0.042695567 -0.0021107222 0.06588897 0.0052558486 0.05250267 -0.0074030086
0.03663993 -0.01747031 0.06431521 0.02029188 0.042358123 0.09738572 -0.0015939798 -0.07859608
00000000: 49c1 a1bc 83ed 9f3d 2729 44bc 67f0 96bc
00000010: 5fed b4bc e14e 663d 8278 0bbd 00b6 08bc
00000020: 0038 d739 e1ce 033d 6ff8 0e3d 38bc 6b3b
00000030: 42bd 7d3d 8ac9 833d 9fa2 6fbb 4a46 a9bd
00000040: 1798 ee3a 2999 2f3d ac5f 503d 4887 19bc
00000050: f038 26bc bd37 3ebb 0bbe a43d bcec c33c
00000060: 0352 de3b 4b1e b0bb 6b7c ed3b 400d 2dbd
00000070: 6efa 9a3d 5387 1c3d 7892 553d dcb4 e93c
00000080: 60f7 8bbb 8ff6 5aba 1f30 a9bc a359 7b3d
00000090: 9965 883d d409 423d e6f5 243d d9bb d7bc
000000a0: 7cde 503d 85f4 183c f886 aebc d0bf 433d
000000b0: 7467 1d3d cfa0 5b3c 315c 9b3d f1fb efbb
000000c0: 7499 0cbd 5467 a3bc 5414 a53c d242 99bd
000000d0: 21f3 1ebc bd02 bc3d ac77 28bd c44d 0abd
000000e0: 90cd cdbc ddaf 7ebd 5692 5c3d 7112 d93c
000000f0: 1cb7 ba3d c435 07bb 1849 1bbd 6d29 acbd
00000100: fd40 70bc 0258 543d 9028 d73c b001 3e3c
00000110: 6a61 573d 9a89 92bd 14d7 193d 4b1b d93b
00000120: fc78 853d 02e2 6dbb f911 6f3d 3acb 9fbd
00000130: 1abb 863d 422b f5bb 9a75 64bd 8643 13bd
00000140: 4c8c bbbc 102b 92bc 5325 c8bc c503 dabc
00000150: 7108 c5bb 3284 f3bb 62d9 863d 4b26 633c
00000160: 9865 183d c71c 093d e423 39bd 402e 3c3b
00000170: 0027 5b3a ef07 58bd 1882 4abc b65c 963d
00000180: 5a33 523d d771 843c 8498 21bd a064 cbba
00000190: a84d 82bc 1b6a ce3b 142e d6bc 8c6f 47bd
000001a0: fe19 4e3d 6701 e3b9 0db2 3b3c dc2e 003d
000001b0: 0a85 2f3c 829f 85bc c726 493d 06e1 febc
000001c0: 2a69 9d3c 5c66 b13d 70a6 16bc 7c51 603d
000001d0: 2094 213c 88f9 a7bc bf12 5abb 1994 98bc
000001e0: 283f 413c c913 d6bb 61ec 153a c017 bfbd
000001f0: d2c9 b73d 425b 3a3d 1c53 883c b638 5bbd
00000200: a028 21bd 865c 7cbd 51b6 5f3c bf1d d03c
00000210: 1192 473d b44b c63c 75f9 f9bc 337f 0d3c
00000220: 4393 bfbc 681c b03d b067 5dbd d076 25bc
00000230: a06d 583d a2b9 81bd 40ce 743d bf82 2f3c
00000240: bb22 46ba ad87 6c3d e6e5 7e3d 60a5 ee3c
00000250: 5b83 b73c 6558 4fbc 801d 1bbd a060 c3bc
00000260: d8c9 e4bc 5b66 c3bb ab0a 613d bea4 633d
00000270: 153a 83bc 23b5 c13d bf72 b6bc 3373 5bbb
00000280: 63d2 483b 1642 9f3d 8c13 483d 8030 883b
00000290: f865 163c adf0 33bd 59d6 9bbc 1caf 9e3d
000002a0: d226 883d 9a24 573d 2f21 d9bc f436 9fba
000002b0: 99e3 7d3d c566 6e3d 1872 5abd 5431 2c3d
000002c0: 40f8 ce3c 50db 98bd 4b44 ed3b 876d b6bc
000002d0: 068f 9a3d 6259 943d f50b 693d 5cc0 7ebd
000002e0: 014b 383c 5d1a b6bc fa88 413d 1ea5 213d
000002f0: 0085 60bb ecff 9ebd 2fef 6d3d fa2a 8b3d
00000300: 4035 3b3d e151 993d 8c41 6dbc ba0b 22bd
00000310: 5132 7a3d 7904 3f3d e014 913c f095 60bc
00000320: 9201 0b3d 071e 9bbd 2935 b13d 9923 843c
00000330: 4e58 393c 20dd b93c 83a7 963c 87bf 8f3c
00000340: 3fa3 8ebc eac3 ccbc 1e0f 043d 3880 15bd
00000350: 6a22 013d 539d 983c e17e 8b3d 044a 30bc
00000360: 6562 5b3d 9ad8 0a3c a48d ac3c eea2 f13c
00000370: d94a 023d 93ba 5c3d 5274 35bd c4f3 d33c
00000380: 68d8 233c 0b14 dabc 9354 b63c 595c 6d3d
00000390: 3121 0bbd 8e65 8c3c c0ba c63c d75f b7bc
000003a0: d957 533d 855d fb3c 605c 6bbd 3eeb 383d
000003b0: fe7f 10bd 8add 80bd 1a6b aa3d 9461 553d
000003c0: a25a ebba 1b60 9e3c 8ce1 2e3d 0b54 0abb
000003d0: ccf0 863d 4139 ac3b 0a0d 573d f094 f2bb
000003e0: c013 163d e51d 8fbc b1b7 833d 283b a63c
000003f0: b67f 2d3d 2a72 c73d 16ed d0ba fbf6 a0bd

base.seq_fcs.0.bias f4 [256]
0.12968448 0.13215993 0.1310671 0.12772352 0.13596612 0.14198501 0.1322591 0.13323905
0.13581462 0.13320604 0.13519235 0.13471651 0.12877378 0.12957118 0.13110119 0.12490347
0.1286669 0.13069925 0.1252999 0.13341767 0.13419108 0.13683096 0.13660306 0.13406402
0.13281204 0.12798646 0.1275012 0.12548847 0.13625957 0.13292015 0.12642346 0.12916252
0.1320654 0.12808251 0.13190989 0.1346904 0.13213399 0.1318959 0.13263433 0.12948474
0.1270307 0.13294594 0.1 0.12821731 0.1327879 0.13350217 0.12765922 0.13181256
0.1325607 0.13515665 0.13341115 0.13209666 0.13007456 0.13610797 0.13507542 0.13186759
0.13162968 0.13103509 0.13025439 0.1357272 0.12837479 0.13120826 0.12855558 0.1344261
0.13400768 0.13183583 0.13471071 0.1328064 0.1272602 0.13249849 0.1349629 0.13048828
0.13495417 0.135271 0.12841755 0.0982004 0.13117296 0.12770957 0.13759024 0.12728547
0.13251102 0.13220766 0.13346338 0.13474667 0.12937982 0.13138863 0.12620033 0.13198298
0.13698155 0.13151173 0.13300535 0.12681347 0.13023457 0.13059244 0.13437128 0.12496938
0.13446839 0.12910078 0.1357846 0.13803005 0.13070206 0.13326734 0.13311839 0.1325599
0.13649447 0.13281663 0.13277212 0.13404302 0.12986043 0.1336809 0.13472657 0.13331616
0.13320677 0.1329847 0.13324644 0.13059606 0.13433252 0.13292973 0.13433965 0.13354902
0.12851176 0.13315636 0.13179281 0.13142842 0.13343573 0.13449179 0.135999 0.12839472
0.1294535 0.12953812 0.12908837 0.1313008 0.12191554 0.1296288 0.12924878 0.13612303
0.13397488 0.13385046 0.1273346 0.13380195 0.12821583 0.13522622 0.13562424 0.1
0.1340197 0.13218896 0.12764147 0.12785281 0.09349406 0.13421929 0.13527234 0.13156971
0.12900947 0.12796168 0.1293199 0.1286351 0.13290346 0.13455756 0.134214 0.12969556
0.13410224 0.13628109 0.1364777 0.1 0.12905645 0.13632225 0.13344556 0.130212
0.1327876 0.1319512 0.13492121 0.13460092 0.12803352 0.12855229 0.13590418 0.12884682
0.13122368 0.12752749 0.13513388 0.13193229 0.13265847 0.13369915 0.1300742 0.13467968
0.13511585 0.12994362 0.133922 0.1244242 0.12992558 0.12891415 0.1285765 0.13227066
0.12081868 0.13164307 0.13350435 0.13242383 0.12951165 0.13625722 0.13325188 0.13233602
0.13504954 0.13374881 0.1267032 0.12458327 0.12919162 0.13150516 0.13245606 0.13453493
0.13338391 0.1351708 0.13240047 0.13277872 0.12693192 0.13363715 0.12831852 0.12886968
0.13510723 0.12656805 0.12628034 0.13294147 0.13357507 0.13209978 0.13396041 0.12627462
0.13015245 0.12695386 0.1337675 0.12762105 0.13637418 0.12562451 0.13407776 0.13474436
0.1324721 0.13463852 0.13012743 0.13168848 0.13234305 0.12936187 0.1335033 0.13065024
0.12632209 0.13492621 0.13618493 0.12852173 0.1323018 0.13302971 0.12249424 0.12996896
0.13443026 0.12905 0.1339801 0.13090408 0.133872 0.12655008 0.13625093 0.13249157
00000000: 02cc 043e ef54 073e 7436 063e f4c9 023e
00000010: b43a 0b3e 8564 113e ee6e 073e d16f 083e
00000020: fd12 0b3e 2a67 083e dd6f 0a3e 20f3 093e
00000030: 46dd 033e 4fae 043e 643f 063e 64cd ff3d
00000040: 41c1 033e 06d6 053e 9e4e 003e a49e 083e
00000050: 6369 093e 6a1d 0c3e ace1 0b3e 1448 093e
00000060: e1ff 073e e20e 033e ad8f 023e 0d80 003e
00000070: a187 0b3e 381c 083e 2775 013e 2e43 043e
00000080: 273c 073e 1028 033e 6313 073e 48ec 093e
00000090: 224e 073e b80f 073e 4bd1 073e a697 043e
000000a0: 5614 023e fb22 083e cdcc cc3d 664b 033e
000000b0: 8df9 073e cbb4 083e 19b9 023e dff9 063e
000000c0: febd 073e 8166 0a3e ef9c 083e 5944 073e
000000d0: 4432 053e e35f 0b3e 3651 0a3e 4c08 073e
000000e0: eec9 063e 102e 063e 6861 053e 12fc 0a3e
000000f0: ae74 033e 755b 063e 13a4 033e ffa6 093e
00000100: 4f39 093e f9ff 063e 9bf1 093e 67fe 073e
00000110: 7f50 023e afad 073e b733 0a3e b89e 053e
00000120: 6d31 0a3e 7b84 0a3e e47f 033e 4b1d c93d
00000130: 3452 063e 4cc6 023e 75e4 0c3e 1f57 023e
00000140: f8b0 073e 7261 073e a0aa 083e 08fb 093e
00000150: 257c 043e be8a 063e a93a 013e 8c26 073e
00000160: e444 0c3e 03ab 063e 8e32 083e 64db 013e
00000170: 365c 053e 06ba 053e a098 093e f2ef ff3d
00000180: 15b2 093e ff32 043e 1e0b 0b3e c057 0d3e
00000190: c3d6 053e 3c77 083e 3050 083e c8bd 073e
000001a0: 35c5 0b3e 1501 083e 6af5 073e 9342 093e
000001b0: 22fa 043e a5e3 083e c3f5 093e 0884 083e
000001c0: 5b67 083e 242d 083e c171 083e f9ba 053e
000001d0: 778e 093e bb1e 083e 5590 093e 13c1 083e
000001e0: 9698 033e 245a 083e b2f4 063e 2c95 063e
000001f0: 60a3 083e 37b8 093e 5243 0b3e e879 033e
00000200: 758f 043e a4a5 043e be2f 043e b873 063e
00000210: dbae f93d 6abd 043e cb59 043e d663 0b3e
00000220: b630 093e 1810 093e 0064 023e 6103 093e
00000230: 034b 033e be78 0a3e 15e1 0a3e cdcc cc3d
00000240: 763c 093e 8b5c 073e 72b4 023e d9eb 023e
00000250: d079 bf3d c870 093e d584 0a3e 36ba 063e
00000260: 0f1b 043e 6308 033e 706c 043e ebb8 033e
00000270: d817 083e 75c9 093e 656f 093e eace 043e
00000280: 1952 093e 458d 0b3e cfc0 0b3e cdcc cc3d
00000290: 6027 043e 0f98 0b3e f4a5 083e 4b56 053e
000002a0: 79f9 073e 371e 073e c928 0a3e d3d4 093e
000002b0: 381b 033e 36a3 033e 772a 0b3e 6cf0 033e
000002c0: 805f 063e 9196 023e 8960 0a3e 4219 073e
000002d0: 9fd7 073e 6ee8 083e 2c32 053e 78e9 093e
000002e0: cf5b 0a3e f10f 053e d922 093e 1dd2 fe3d
000002f0: 360b 053e 1202 043e 8fa9 033e f671 073e
00000300: c96f f73d 71cd 063e 5db5 083e 1d9a 073e
00000310: b49e 043e 0387 0b3e 2e73 083e 1883 073e
00000320: 6d4a 0a3e 73f5 083e 7cbe 013e 8325 ff3d
00000330: cf4a 043e 4aa9 063e 90a2 073e 86c3 093e
00000340: cb95 083e 376a 0a3e fd93 073e 25f7 073e
00000350: 71fa 013e 2dd8 083e ee65 033e 6af6 033e
00000360: 8d59 0a3e 0e9b 013e a24f 013e cf21 083e
00000370: e7c7 083e 2a45 073e eb2c 093e 224e 013e
00000380: af46 053e 3100 023e 59fa 083e 18af 023e
00000390: aca5 0b3e b6a3 003e ae4b 093e 6dfa 093e
000003a0: c4a6 073e aede 093e 2040 053e 58d9 063e
000003b0: f084 073e 7077 043e 17b5 083e 2dc9 053e
000003c0: 945a 013e 192a 0a3e 1074 0b3e 339b 033e
000003d0: 207a 073e f138 083e 43de fa3d 9516 053e
000003e0: 16a8 093e af25 043e 1432 093e b80b 063e
000003f0: be15 093e 5896 013e 5d85 0b3e dfab 073e

base.seq_fcs.2.weight f4 [256, 256]
0.06361576 0.05035628 0.021641357 -0.021247689 0.077616684 0.006536037 -0.0030260715 0.0196923
0.00498073 0.046830095 0.04240961 0.059131164 -0.031807024 0.013830652 0.06692922 0.029468797
0.018302351 -0.00879386 0.047666322 0.0010163563 0.077526204 0.08207388 -0.030839495 0.058682192
0.0792382 0.05030768 0.040318046 0.04742623 0.0378825 -0.027743084 0.06980434 -0.0125439195
-0.015859952 -0.0054758405 0.004193281 0.0050664735 0.049842104 0.043950215 0.018609589 0.06197805
0.057630148 -0.03332253 0.059983514 0.0388619 0.04213688 0.060252186 0.03743243 -0.0005156605
0.05860434 0.07397185 -0.012909676 -0.016041083 -0.024968531 0.06826805 -0.014488388 0.08339013
0.050281055 -0.029727466 0.07238179 0.056391884 0.08261297 0.0787025 0.04362609 0.020708462
0.036941707 0.028127942 0.038934804 0.05011353 0.050632592 0.03701342 0.080669366 -0.0064194957
0.0074204486 0.06591301 -0.0181173 0.0073507354 0.014458629 0.040870104 0.035760507 -0.014959103
0.047870502 0.012024184 0.0059547606 0.0535238 0.04930893 0.00960657 0.027797936 0.073293515
-0.015455587 -0.02111847 0.014286593 0.013457561 0.030649653 0.023539577 0.07422238 0.009010667
0.06151486 0.0761316 0.04133541 -0.008043948 0.08325613 0.0788262 0.08664809 -0.01582883
0.04019747 0.05781716 0.07470127 -0.018811999 -0.006143682 0.0034010524 0.024685295 0.058682654
0.027974 0.07976673 0.0522767 0.05655071 -0.0246092 0.01358162 0.05576127 0.007425703
0.0148597555 0.047654055 0.06098824 0.03406134 0.034607314 0.06166292 0.014428314 0.013671701
0.01800668 0.07775795 0.027272692 0.06964766 -0.0025603191 0.08207461 0.044415537 0.055636764
0.08454381 0.05156069 -0.010327754 0.032785464 0.04777923 -0.03201218 0.083152324 -0.05627407
0.034703188 0.041174587 0.03324845 0.026419388 0.007889457 -0.008310092 0.053050015 -0.024799151
0.01592372 0.0039600255 0.0021936048 0.0041502453 -0.0037840444 0.083983324 0.0850647 -0.0024842138
0.0069876146 0.033068206 -0.009541337 -0.059108414 0.007883058 0.022223951 0.031726208 0.007237619
0.063522786 -0.011697705 -0.021437453 0.027833946 0.04687324 0.052098166 0.041703694 0.061984945
0.05634798 -0.020430706 0.031025017 0.005525722 -0.010778067 -0.0012381057 -0.021564616 0.032132488
0.03628875 0.009125682 -0.016453963 -0.016669542 0.025300978 0.0830371 -0.015693123 0.062155493
0.08475866 0.06404487 0.06225862 0.057385765 0.057789177 -0.004006036 0.0020387901 0.00688624
0.055746526 0.08047969 -0.01763328 -0.032989915 0.08117879 0.086852126 0.013301618 0.056886505
0.0034325412 0.07257918 -0.006201352 -0.021392895 0.009481518 0.042803854 0.024223411 0.052069932
0.082773216 -0.01193815 0.006657347 0.02621066 0.0098576965 -0.0012775268 0.016905293 0.015356024
-0.020222005 0.039404243 -0.0059085595 0.06962244 0.0010769299 0.019488465 0.053650916 0.060666345
0.015207798 0.07807284 0.055703316 0.06557675 0.017713854 0.07228652 0.07503579 0.07868773
0.007843537 0.017027633 0.075704515 -0.01696335 0.012665673 -0.0098592965 -0.026046783 -0.005061501
0.031380974 0.026870232 -0.01638582 0.081734404 0.04031847 0.05909579 -0.01476002 -0.013100305
00000000: fb48 823d 6342 4e3d 3749 b13c a20f aebc
00000010: 7ff5 9e3d 412c d63b 0e51 46bb bf51 a13c
00000020: 6435 a33b ead0 3f3d b3b5 2d3d 8533 723d
00000030: 1548 02bd f699 623c 3012 893d 8c68 f13c
00000040: d0ee 953c 1f14 10bc c33d 433d 4237 853a
00000050: 0fc6 9e3d 5a16 a83d 1ca3 fcbc bd5c 703d
00000060: a347 a23d 6d0f 4e3d 8924 253d 0242 423d
00000070: ae2a 1b3d 7745 e3bc 94f5 8e3d 0385 4dbc
00000080: bbec 81bc ae6e b3bb ca67 893b a904 a63b
00000090: 3c27 4c3d 2405 343d 2373 983c b2dc 7d3d
000000a0: 970d 6c3d 357d 08bd 46b1 753d a82d 1f3d
000000b0: b997 2c3d ffca 763d bf52 193d 642d 07ba
000000c0: 1b0b 703d 8e7e 973d 1b83 53bc 9768 83bc
000000d0: ce8a ccbc 1fd0 8b3d b460 6dbc 72c8 aa3d
000000e0: 82f3 4d3d 0487 f3bc e73c 943d 2dfb 663d
000000f0: fd30 a93d c72e a13d 45b1 323d cba4 a93c
00000100: 3050 173d 926c e63c 1a7a 1f3d d843 4d3d
00000110: 1f64 4f3d 629b 173d fb35 a53d a25a d2bb
00000120: 3c27 f33b 66fd 863d bb6a 94bc 70de f03b
00000130: e3e3 6c3c 6967 273d 9c79 123d 0717 75bc
00000140: dc13 443d 1501 453c 2720 c33b c63b 5b3d
00000150: 29f8 493d e064 1d3c 7fb8 e33c e91a 963d
00000160: 6e39 7dbc a400 adbc 5012 6a3c 1a7d 5c3c
00000170: fb14 fb3c 12d6 c03c e701 983d 7aa1 133c
00000180: 01f7 7b3d e2ea 9b3d 524f 293d c3ca 03bc
00000190: 3182 aa3d a16f a13d 8e74 b13d 76ab 81bc
000001a0: 1aa6 243d b0d1 6c3d fbfc 983d 9f1b 9abc
000001b0: f150 c9bb 31e4 5e3b d138 ca3c 395d 703d
000001c0: bb29 e53c bd5c a33d 1820 563d b8a1 673d
000001d0: 3c99 c9bc 7185 5e3c ee65 643d 5053 f33b
000001e0: 5576 733c e630 433d cece 793d e783 0b3d
000001f0: 66c0 0d3d 4292 7c3d bc64 6c3c 45ff 5f3c
00000200: bf82 933c 8f3f 9f3d fb6a df3c 6fa3 8e3d
00000210: 07cb 27bb bc16 a83d 11ed 353d 60e3 633d
00000220: 4e25 ad3d 4d31 533d bd35 29bc 0d4a 063d
00000230: 27b4 433d 341f 03bd c44b aa3d a47f 66bd
00000240: ee24 0e3d afa6 283d 872f 083d 796d d83c
00000250: c842 013c 0d27 08bc f94a 593d 9727 cbbc
00000260: 7672 823c 1ac3 813b 95c2 0f3b c8fe 873b
00000270: bbfd 77bb 73ff ab3d 6736 ae3d 31ce 22bb
00000280: 5cf8 e43b 8772 073d 4553 1cbc aa1b 72bd
00000290: f127 013c 010f b63c 57f3 013d 8c29 ed3b
000002a0: 3c18 823d bba7 3fbc 999d afbc 0404 e43c
000002b0: 28fe 3f3d e364 553d 7ed1 2a3d ede3 7d3d
000002c0: 24cd 663d 4c5e a7bc 2d28 fe3c 1e11 b53b
000002d0: 7d96 30bc ef47 a2ba 47a8 b0bc 5b9d 033d
000002e0: 83a3 143d e283 153c 76ca 86bc 908e 88bc
000002f0: ff43 cf3c 5b0f aa3d dd8e 80bc c296 7e3d
00000300: f395 ad3d f529 833d e502 7f3d 560d 6b3d
00000310: 58b4 6c3d 1145 83bb 399d 053b f8a5 e13b
00000320: 7856 643d 89d2 a43d ab73 90bc 6f20 07bd
00000330: 1141 a63d 87df b13d 08ef 593c d301 693d
00000340: 7cf4 603b 65a4 943d b634 cbbb 2740 afbc
00000350: 5e58 1b3c 1853 2f3d 2d70 c63c 4847 553d
00000360: 0185 a93d 3b98 43bc e025 da3b bdb7 d63c
00000370: 2d82 213c b072 a7ba f87c 8a3c d597 7b3c
00000380: 9ea8 a5bc 5866 213d 979c c1bb 3696 8e3d
00000390: c527 8d3a 46a6 9f3c 10c1 5b3d 467d 783d
000003a0: 212a 793c a7e4 9f3d 2929 643d 1a4d 863d
000003b0: a51c 913c f40a 943d 5dac 993d 0827 a13d
000003c0: 2e82 003c 897d 8b3c f80a 9b3d b9f6 8abc
000003d0: af83 4f3c e388 21bc 1060 d5bc f3da a5bb
000003e0: 5689 003d f61e dc3c 8e3b 86bc 5e64 a73d
000003f0: fb24 253d 6d0e 723d 03d4 71bc a9a2 56bc

base.seq_fcs.2.bias f4 [256]
0.12432459 0.120135956 0.123211 0.12398464 0.12192595 0.096990265 0.12390742 0.12535976
0.12451122 0.12024023 0.12427929 0.12454289 0.12152501 0.122435555 0.121921554 0.12484475
0.098153666 0.09566658 0.11959621 0.12414615 0.0961043 0.12295917 0.123562686 0.12384352
0.118657306 0.12524714 0.120318964 0.12430309 0.12134748 0.12380088 0.09592078 0.12320241
0.09749241 0.1 0.12334865 0.12497259 0.12224353 0.123459786 0.12457247 0.12409015
0.12320141 0.12393219 0.12450229 0.12424046 0.124453194 0.117765136 0.12504555 0.12466131
0.09533522 0.12113146 0.123268954 0.12140805 0.12164518 0.12417044 0.11845806 0.118381724
0.12293568 0.12341166 0.12380708 0.12212371 0.12520075 0.12442689 0.12168533 0.1237446
0.12434803 0.12346962 0.09713763 0.1 0.120289 0.12313783 0.12140919 0.1
0.11796624 0.124288335 0.123482 0.12333547 0.09542862 0.1252219 0.12312632 0.12441312
0.12451319 0.12361052 0.12033154 0.124405585 0.12177919 0.12417083 0.12438904 0.09819838
0.12476772 0.12005692 0.09529839 0.124200515 0.1231191 0.12002419 0.12353695 0.122996554
0.12455476 0.12309979 0.12303206 0.1 0.09530925 0.12298486 0.12350083 0.12315352
0.122923724 0.123645164 0.12128882 0.12412467 0.096706234 0.12376996 0.1232554 0.12388807
0.1221396 0.12473487 0.1 0.124052286 0.124800496 0.12350541 0.12399078 0.12385215
0.12406726 0.12448859 0.12322337 0.12149749 0.12388973 0.12513097 0.12372524 0.12390027
0.12462229 0.124490604 0.12459521 0.12006146 0.12329397 0.12122238 0.123483576 0.12392786
0.11947184 0.12456241 0.09565569 0.12502314 0.1191253 0.12477466 0.12308947 0.122847795
0.12125998 0.09552858 0.096981734 0.12383873 0.096943624 0.09610872 0.123252444 0.12449702
0.12338622 0.09606871 0.12377572 0.12511796 0.12449301 0.12351397 0.12468947 0.119409785
0.123686984 0.09695304 0.123310916 0.12362205 0.12358175 0.1242992 0.12332749 0.123990044
0.1 0.12413229 0.12462581 0.12115307 0.12036665 0.120117925 0.122769535 0.11882684
0.12228677 0.1 0.12295891 0.09819838 0.12373412 0.12439675 0.12443998 0.12420197
0.12124366 0.1215504 0.12104631 0.121612094 0.097482145 0.1207495 0.09521076 0.12437065
0.12354942 0.123574995 0.123880014 0.12278169 0.12377128 0.12482333 0.12375373 0.12335551
0.09819838 0.12445019 0.12181556 0.09497741 0.124348074 0.12421726 0.12271275 0.123470746
0.121344805 0.096134745 0.124991044 0.12334831 0.123307616 0.124209136 0.12309275 0.1
0.1 0.124294706 0.12313837 0.12272897 0.12520187 0.09699795 0.12401356 0.1
0.12302917 0.124042526 0.12285843 0.119462274 0.123661764 0.12181845 0.12407659 0.124532975
0.12373701 0.12414778 0.1234277 0.12390865 0.12379473 0.12373696 0.12150681 0.12510498
0.12367215 0.12363722 0.12427059 0.1245643 0.123520285 0.09819838 0.12199146 0.11727571
0.12298315 0.12365519 0.124546774 0.1 0.12411059 0.12087281 0.12328355 0.12135677
00000000: e49d fe3d d709 f63d 0c56 fc3d a9eb fd3d
00000010: 50b4 f93d d5a2 c63d 2cc3 fd3d 4f5e 003e
00000020: bdff fe3d 8240 f63d 2486 fe3d 5810 ff3d
00000030: 1be2 f83d 7ebf fa3d 02b2 f93d 9bae ff3d
00000040: ca04 c93d d7ec c33d dcee f43d 5640 fe3d
00000050: 55d2 c43d 04d2 fb3d 6f0e fd3d aca1 fd3d
00000060: 9a02 f33d c940 003e ca69 f63d 9e92 fe3d
00000070: 0785 f83d 518b fd3d 1d72 c43d 8c51 fc3d
00000080: 1aaa c73d cdcc cc3d 389e fc3d a1f1 ff3d
00000090: d15a fa3d 7cd8 fc3d da1f ff3d fa22 fe3d
000000a0: 0551 fc3d 29d0 fd3d 0efb fe3d c871 fe3d
000000b0: 51e1 fe3d d92e f13d f10b 003e 6e4e ff3d
000000c0: 1d3f c33d c513 f83d 6f74 fc3d c9a4 f83d
000000d0: 1c21 f93d 124d fe3d 249a f23d 1e72 f23d
000000e0: b4c5 fb3d 41bf fc3d 918e fd3d ff1b fa3d
000000f0: a034 003e 86d3 fe3d 2936 f93d cf6d fd3d
00000100: 2eaa fe3d a4dd fc3d 18f0 c63d cdcc cc3d
00000110: 145a f63d b02f fc3d 62a5 f83d cdcc cc3d
00000120: 4998 f13d e28a fe3d 21e4 fc3d 4f97 fc3d
00000130: 1570 c33d 2b3a 003e a729 fc3d 4ecc fe3d
00000140: c500 ff3d 8327 fd3d 6270 f63d 5bc8 fe3d
00000150: 5e67 f93d 474d fe3d aebf fe3d 3b1c c93d
00000160: 3886 ff3d 67e0 f53d cd2b c33d d75c fe3d
00000170: de25 fc3d 3ecf f53d f100 fd3d 9ee5 fb3d
00000180: 9116 ff3d be1b fc3d 3cf8 fb3d cdcc cc3d
00000190: 7f31 c33d 7cdf fb3d 01ee fc3d ea37 fc3d
000001a0: 6fbf fb3d ad39 fd3d 4666 f83d 1335 fe3d
000001b0: eb0d c63d 1b7b fd3d 546d fc3d 07b9 fd3d
000001c0: 5424 fa3d ff74 ff3d cdcc cc3d 200f fe3d
000001d0: 6797 ff3d 68f0 fc3d e1ee fd3d 32a6 fd3d
000001e0: fa16 fe3d e0f3 fe3d 895c fc3d add3 f83d
000001f0: e6b9 fd3d 5522 003e a963 fd3d 6dbf fd3d
00000200: f939 ff3d eef4 fe3d c62b ff3d c8e2 f53d
00000210: 8d81 fc3d 7043 f83d f5e4 fc3d e4cd fd3d
00000220: a7ad f43d 941a ff3d 21e7 c33d 1106 003e
00000230: f7f7 f33d db89 ff3d 5516 fc3d a097 fb3d
00000240: 2757 f83d 7da4 c33d 5c9e c63d 299f fd3d
00000250: 618a c63d a6d4 c43d c76b fc3d 4bf8 fe3d
00000260: eab1 fc3d acbf c43d 207e fd3d ec1e 003e
00000270: 31f6 fe3d e4f4 fc3d 315d ff3d 1e8d f43d
00000280: 9a4f fd3d 518f c63d 6f8a fc3d 8f2d fd3d
00000290: 6e18 fd3d 9490 fe3d 2093 fc3d 7eee fd3d
000002a0: cdcc cc3d 1239 fe3d d13b ff3d 1a1f f83d
000002b0: ca82 f63d 6300 f63d 986e fb3d 7c5b f33d
000002c0: 7c71 fa3d cdcc cc3d e2d1 fb3d 3b1c c93d
000002d0: 5068 fd3d b9c3 fe3d 63da fe3d 9a5d fe3d
000002e0: 994e f83d 6bef f83d 21e7 f73d c30f f93d
000002f0: b8a4 c73d 844b f73d dcfd c23d 0ab6 fe3d
00000300: 7a07 fd3d e314 fd3d ceb4 fd3d f774 fb3d
00000310: cc7b fd3d 60a3 ff3d 9872 fd3d d0a1 fc3d
00000320: 3b1c c93d bedf fe3d 707a f93d 8483 c23d
00000330: 34aa fe3d 9e65 fe3d d350 fb3d 3bde fc3d
00000340: a083 f83d 4be2 c43d 4efb ff3d 0a9e fc3d
00000350: b488 fc3d 5c61 fe3d 0d18 fc3d cdcc cc3d
00000360: cdcc cc3d 398e fe3d f82f fc3d 5459 fb3d
00000370: eb34 003e dca6 c63d d2fa fd3d cdcc cc3d
00000380: b8f6 fb3d 020a fe3d 339d fb3d a3a8 f43d
00000390: 6142 fd3d f47b f93d de1b fe3d 250b ff3d
000003a0: d469 fd3d 3141 fe3d a9c7 fc3d d1c3 fd3d
000003b0: 1788 fd3d ce69 fd3d 90d8 f83d 851b 003e
000003c0: d347 fd3d 8335 fd3d 9481 fe3d 911b ff3d
000003d0: 34f8 fc3d 3b1c c93d a9d6 f93d 3f2e f03d
000003e0: 97de fb3d ef3e fd3d 6112 ff3d cdcc cc3d
000003f0: b12d fe3d 2a8c f73d 167c fc3d e689 f83d

last.weight f4 [1, 256]
0.026836272 0.02493063 0.027550502 0.024796562 0.02407894 -0.0003403835 0.02641781 0.028346846
0.024243057 0.028566634 0.026572406 0.026461713 0.027473625 0.025615921 0.028697882 0.026871493
0.0020568995 0.0014405628 0.026134785 0.029222079 0.0019504802 0.027686741 0.028567947 0.0308806
0.025692033 0.027546503 0.025584284 0.027047591 0.03043731 0.030556522 0.0026711149 0.030638084
0.0009138086 -0.00016689133 0.028484078 0.025344132 0.02561234 0.028049685 0.02567149 0.02883201
0.028306073 0.02622877 0.024834272 0.025954133 0.024123175 0.021782761 0.025898272 0.027199838
0.0024223155 0.024837784 0.026579993 0.030092934 0.026136601 0.02397709 0.0214796 0.026481431
0.028716512 0.028139947 0.02639053 0.024847584 0.029294409 0.027816078 0.025848955 0.024763096
0.026638435 0.02871883 0.0013710944 0.00092952204 0.027215058 0.027601348 0.026364278 -0.0012642725
0.022481073 0.026350126 0.028997136 0.027738316 0.0021608716 0.027801614 0.0287341 0.028255463
0.028392587 0.026589017 0.02292058 0.026797796 0.031040763 0.025818493 0.028364146 0.0004354433
0.028459752 0.029327922 0.0012645215 0.025614558 0.026862642 0.024591349 0.027621862 0.028023804
0.025747383 0.028189132 0.026014384 0.00060259225 0.0020745976 0.025746288 0.027307255 0.02564936
0.031061804 0.026437331 0.029876921 0.027361877 0.0023609612 0.026440993 0.029946962 0.028802393
0.027447037 0.025876824 -0.00082692824 0.029585997 0.024297943 0.026768774 0.027675178 0.029174205
0.029050335 0.024093864 0.028429 0.03038968 0.02504822 0.029311378 0.028307103 0.027077127
0.028339874 0.025869345 0.025936924 0.02761688 0.026873605 0.028551994 0.029745113 0.026622389
0.024430797 0.026156878 0.001529243 0.025778074 0.025978062 0.026741488 0.027668275 0.027177665
0.026975203 0.0021450832 0.0010348455 0.030113135 0.00057450833 0.0019459364 0.026824754 0.030376723
0.025744919 0.0016644639 0.025481043 0.026520621 0.02445618 0.026077524 0.02792847 0.025817795
0.026570866 0.0007274105 0.030511776 0.027397754 0.030940508 0.02803847 0.027271895 0.028183144
-0.0026876663 0.028251367 0.029003976 0.0286909 0.028679514 0.027312886 0.02495762 0.022734262
0.025471414 -0.0014250996 0.026418483 -0.0004205974 0.02840747 0.02984703 0.027670996 0.028244307
0.028050384 0.026046373 0.027958067 0.02665927 0.00042827788 0.024854934 0.0016542722 0.029437272
0.028258152 0.026907846 0.02595915 0.030733835 0.027745146 0.026998466 0.027005997 0.028539527
0.000974761 0.02862853 0.023971742 0.0020128356 0.026958508 0.024483396 0.0291348 0.027245803
0.027407436 0.0012623786 0.025574587 0.028712682 0.025546223 0.025445025 0.028854432 -0.00034802698
0.0026860002 0.025151389 0.026504878 0.028982079 0.027281322 0.0013573683 0.02582673 -0.0024808298
0.025831265 0.027409848 0.027280437 0.027102454 0.030646559 0.02619994 0.026383039 0.027643535
0.023857232 0.024786333 0.02528542 0.02985174 0.028329192 0.026023317 0.030199585 0.028170723
0.026178971 0.028703006 0.026051534 0.029081292 0.029404892 -0.0005545544 0.025302302 0.022569176
0.02702739 0.02684537 0.028177485 0.0016835161 0.025843611 0.025040539 0.027885783 0.026773738
00000000: bed7 db3c 523b cc3c 97b1 e13c 2922 cb3c
00000010: 3241 c53c 8075 b2b9 2a6a d83c a537 e83c
00000020: 6099 c63c 9304 ea3c 60ae d93c 3cc6 d83c
00000030: 5e10 e13c 7bd8 d13c d217 eb3c 9b21 dc3c
00000040: 0ccd 063b 44d1 bc3a 9e18 d63c 2463 ef3c
00000050: 41a7 ff3a 4ecf e23c 5407 ea3c 50f9 fc3c
00000060: 1978 d23c 34a9 e13c 2296 d13c e992 dd3c
00000070: aa57 f93c ac51 fa3c df0d 2f3b b8fc fa3c
00000080: a88c 6f3a 8dff 2eb9 7157 e93c 7f9e cf3c
00000090: f8d0 d13c 74c8 e53c 044d d23c 1c31 ec3c
000000a0: 23e2 e73c b8dd d63c 3e71 cb3c c39d d43c
000000b0: f79d c53c c371 b23c 9d28 d43c 32d2 de3c
000000c0: b6bf 1e3b 9c78 cb3c 49be d93c 7585 f63c
000000d0: 6d1c d63c 9a6b c43c fcf5 af3c 96ef d83c
000000e0: e43e eb3c bf85 e63c f430 d83c 298d cb3c
000000f0: d4fa ef3c 8bde e33c 30c1 d33c fadb ca3c
00000100: d938 da3c c043 eb3c 4bb6 b33a 2bab 733a
00000110: 1df2 de3c 391c e23c e6f9 d73c f2b5 a5ba
00000120: 3a2a b83c 38dc d73c 678b ed3c 773b e33c
00000130: 699d 0d3b 36c0 e33c c663 eb3c 0078 e73c
00000140: 9297 e83c 36d1 d93c f1c3 bb3c 0d87 db3c
00000150: 3349 fe3c 4e81 d33c ed5b e83c 364c e439
00000160: 6d24 e93c 1c41 f03c 4dbe a53a 9fd5 d13c
00000170: 0b0f dc3c cc73 c93c 3e47 e23c 2d92 e53c
00000180: 2dec d23c e5ec e63c 1e1c d53c 48f7 1d3a
00000190: f9f5 073b e1e9 d23c 77b3 df3c 9b1e d23c
000001a0: 5375 fe3c 1a93 d83c 72c0 f43c 0426 e03c
000001b0: 5bba 1a3b c89a d83c 5553 f53c fff2 eb3c
000001c0: 9cd8 e03c a2fb d33c 37c6 58ba 555e f23c
000001d0: 7b0c c73c 304a db3c 0eb7 e23c befe ee3c
000001e0: f8fa ed3c 7f60 c53c efe3 e83c c7f3 f83c
000001f0: ed31 cd3c 6a1e f03c 4ce4 e73c dad0 dd3c
00000200: 0629 e83c f3eb d33c ac79 d43c cc3c e23c
00000210: 0926 dc3c dfe5 e93c 06ac f33c 3217 da3c
00000220: 1823 c83c f346 d63c e170 c83a 8a2c d33c
00000230: f2cf d43c f710 db3c 94a8 e23c b2a3 de3c
00000240: 1afb dc3c 8694 0c3b a7a3 873a d2af f63c
00000250: 9a9a 163a ca0e ff3a 96bf db3c 9bd8 f83c
00000260: 02e7 d23c 242a da3a 9fbd d03c c641 d93c
00000270: 5458 c83c 88a0 d53c 3fca e43c d77f d33c
00000280: 25ab d93c b1af 3e3a d5f3 f93c 4171 e03c
00000290: f376 fd3c efb0 e53c 4f69 df3c 56e0 e63c
000002a0: 8f23 30bb 696f e73c bf99 ed3c 2e09 eb3c
000002b0: 4df1 ea3c 46bf df3c ec73 cc3c 343d ba3c
000002c0: 6da9 d03c 68ca baba 936b d83c a183 dcb9
000002d0: c8b6 e83c c281 f43c 49ae e23c 9b60 e73c
000002e0: ebc9 e53c 345f d53c 5108 e53c 8b64 da3c
000002f0: 7c8a e039 939c cb3c 2ad4 d83a 6f26 f13c
00000300: a47d e73c d86d dc3c 49a8 d43c 86c5 fb3c
00000310: ca49 e33c e32b dd3c ae3b dd3c bacb e93c
00000320: 1a87 7f3a 6186 ea3c 6360 c43c c7e9 033b
00000330: 17d8 dc3c 6791 c83c 1bac ee3c 9732 df3c
00000340: 8f85 e03c 6676 a53a cc81 d13c dc36 eb3c
00000350: 5046 d13c 1672 d03c 2160 ec3c 6477 b6b9
00000360: 9b07 303b 490a ce3c c220 d93c d36b ed3c
00000370: 147d df3c b9e9 b13a 9492 d33c 6b95 22bb
00000380: 179c d33c 9e8a e03c 397b df3c f705 de3c
00000390: 7e0e fb3c 42a1 d63c 3e21 d83c b274 e23c
000003a0: 3e70 c33c b50c cb3c 5e23 cf3c a38b f43c
000003b0: 9f12 e83c da2e d53c 1f65 f73c 4ac6 e63c
000003c0: 4875 d63c 9122 eb3c 076a d53c e43b ee3c
000003d0: 87e2 f03c 845f 11ba c646 cf3c fee2 b83c
000003e0: 8c68 dd3c d2ea db3c 78d4 e63c 6da9 dc3a
000003f0: fbb5 d33c d121 cd3c ba70 e43c 9954 db3c
