Soft-Module-main/log/model50_new_4/model_qf_best.pth (torch, 284133 bytes, 5 tensors)

base.seq_fcs.0.weight f4 [256, 16]
0	0x3d9a741d	0.07541678
1	0x3cfc8ca3	0.03082878
2	0x3d1d56d3	0.03841288
3	0x3d9b2556	0.07575481
4	0x3b1fb590	0.0024369694
5	0x3d1cbe61	0.038267497
6	0x3ab55180	0.0013833493
7	0x3d55b0da	0.052170612
8	0x3c8eed30	0.017447084
9	0x3c8cbfb8	0.017181262
10	0x3c848565	0.016176889
11	0x3d86bf79	0.06579489
12	0xbd3b843f	-0.045780417
13	0x3d648e29	0.055799637
14	0xbce522c2	-0.027970675
15	0x3ac2c52e	0.001485979
16	0x3c747364	0.014920089
17	0x3c477099	0.0121728415
18	0xbd534f8f	-0.051589545
19	0x3c3e7190	0.011623755
20	0x3d7a33b7	0.061084475
21	0x3db59bf4	0.08867636
22	0x3cb27374	0.021783568
23	0x3c505300	0.012715101
24	0x3c6ebdc0	0.014571607
25	0x3d6d2d06	0.057904266
26	0x3d8d9d72	0.06914796
27	0xbc4e949a	-0.012608672
28	0xbcdf4431	-0.027254196
29	0x3d5eec11	0.05442435
30	0x3d97e5fa	0.074169114
31	0xba938346	-0.0011254332
32	0x3dcffa36	0.10155146
33	0x3d4b882b	0.049690407
34	0xbd274dfa	-0.04084585
35	0x3dd54f00	0.10415459
36	0x3cfbb1a6	0.030724358
37	0x3d9743b8	0.07385963
38	0xba822080	-0.0009927899
39	0xbd763c58	-0.060116142
40	0x3d5611a8	0.052262932
41	0x3db41521	0.087930925
42	0x3c1365ef	0.008996471
43	0x3d1e89a6	0.03870549
44	0xbd0c5504	-0.034260765
45	0x3d3c3219	0.045946214
46	0xbd5b34cf	-0.05351716
47	0xbcfb1340	-0.030648828
48	0x3d2755bc	0.040853247
49	0x3ca59a6c	0.020215236
50	0x3cc00c5b	0.023443392
51	0xbc2420c1	-0.010017575
52	0x3d55a96c	0.052163526
53	0xbd482e60	-0.04887235
54	0xbd6cf678	-0.05785224
55	0x3d15caf8	0.03657052
56	0xbd159054	-0.036514595
57	0xbd457cda	-0.04821477
58	0xbcbccf93	-0.023048198
59	0x3b0202d0	0.0019838102
60	0x3ab69561	0.0013930016
61	0x3d06979a	0.032859422
62	0xbd5158a4	-0.051109925
63	0x3c852f75	0.01625798
64	0x3e2a168d	0.16610165
65	0x3caa436e	0.020784106
66	0xbd4e1e7f	-0.050322052
67	0x3c5edb55	0.0136020975
68	0x3de7aa3c	0.113117665
69	0x3db6716b	0.089083515
70	0x3d28d808	0.04122165
71	0xbc6a98c0	-0.014318645
72	0x3c7a2d70	0.015269622
73	0x3d0a8910	0.03382212
74	0x3d59abcd	0.053142358
75	0x3dac8721	0.08424211
76	0x3c9c5988	0.01908566
77	0x3c9f4290	0.01944092
78	0x3cd5605e	0.026046928
79	0xbda363d5	-0.07978026
80	0x3e078c6d	0.13237162
81	0xbd39cd34	-0.045361713
82	0xbe142504	-0.14467245
83	0xbc400b7e	-0.01172149
84	0xbd43f4d7	-0.04784092
85	0xbd410c9c	-0.047131166
86	0xbc7c27a0	-0.015390307
87	0x3d1c770e	0.038199477
88	0x3d4c3c60	0.049862266
89	0xbd357ced	-0.04430859
90	0xbc32d279	-0.010914438
91	0xbd0739a6	-0.033013962
92	0xbc47146b	-0.012150864
93	0x3d203f1c	0.039122686
94	0xbc32bc40	-0.01090914
95	0xbb856858	-0.0040712766
96	0x3c6d3d24	0.014479909
97	0x3dc3e949	0.0956598
98	0x3d084654	0.033270195
99	0x3c8f9da2	0.01753122
100	0x3ccd22e0	0.025041044
101	0x3bfe511e	0.0077611348
102	0xbd6fe708	-0.058569938
103	0x3cf43208	0.029809013
104	0xbc527e68	-0.01284752
105	0x3baaf0b8	0.005216684
106	0x3dc330dd	0.09530804
107	0x3d70d8db	0.05880056
108	0xbd15c66b	-0.03656618
109	0x3d78ee47	0.060774114
110	0xbc44cf28	-0.0120122805
111	0xbd850c79	-0.064965196
112	0x3d913e68	0.07091981
113	0x3d505351	0.050860707
114	0xbd8cf77b	-0.06883141
115	0x3d707d7d	0.058713425
116	0x37b41a45	2.1469905e-05
117	0x3d466695	0.048437674
118	0x3d215cc0	0.039395094
119	0x3cf36d70	0.02971527
120	0x3bf623c0	0.007511586
121	0xbc31481a	-0.010820413
122	0x3cc67e23	0.024230069
123	0x3cb9a22f	0.022660343
124	0xbc7f037b	-0.015564795
125	0x3b618e51	0.0034417103
126	0x3cd316c4	0.025767691
127	0xbce89239	-0.028390037
128	0x3d536dc8	0.051618367
129	0xbc4b1e58	-0.012397371
130	0x3d425599	0.047444914
131	0x3d9ec471	0.07752312
132	0x3d58b158	0.052903503
133	0xbc770700	-0.0150773525
134	0xbd5b1118	-0.0534831
135	0x3c01fb70	0.0079334825
136	0xbd102a18	-0.035196394
137	0x3c4681a0	0.012115866
138	0x3d49927f	0.049211975
139	0x3d098db6	0.03358241
140	0xbc32f674	-0.010923017
141	0xbcee0c5a	-0.029058624
142	0xbcf66137	-0.030075653
143	0x3cd0a3c2	0.02546871
144	0x3cc80b8a	0.024419565
145	0x3d5d6199	0.054048155
146	0x3d65ab30	0.05607146
147	0xbbf63344	-0.0075134356
148	0x3dbacd50	0.091211915
149	0x3dac7f97	0.08422773
150	0xbc9d8138	-0.019226655
151	0xbb866980	-0.004101932
152	0x3d19dfa4	0.037566796
153	0x3d3f2e55	0.046675045
154	0x3d0fcbab	0.035106342
155	0x3d5325f4	0.051549867
156	0xbcfbacf3	-0.030722117
157	0x3cd3c238	0.025849447
158	0x3bae0242	0.0053103277
159	0x3caddb66	0.021222781
160	0x3d02990f	0.03188425
161	0x3d2263d5	0.03964599
162	0x3cc2a3e8	0.023759797
163	0x3c12e145	0.008964841
164	0x3d1918f7	0.037377324
165	0x3db13b44	0.08653882
166	0xbd17bff8	-0.03704831
167	0x3ce28b78	0.027654395
168	0x3bd52a20	0.006505266
169	0x3db5e477	0.08881467
170	0x3d1e5657	0.03865656
171	0x3bbda6de	0.0057877144
172	0xbd2fc40e	-0.04291158
173	0xbc817441	-0.015802504
174	0xbc2b967d	-0.010472891
175	0xbd60428d	-0.054750968
176	0x3dff4d23	0.124658845
177	0x3d299131	0.04139823
178	0xbc78899c	-0.015169527
179	0x3dd6cd4a	0.104883745
180	0x3bed67fb	0.0072450615
181	0x3ce5fba7	0.028074099
182	0x3c5bebb0	0.0134228915
183	0xbb607fc0	-0.0034255832
184	0xbd42c11c	-0.047547445
185	0x3ddceb52	0.10787071
186	0x3d9a761d	0.075420596
187	0x3c612497	0.013741634
188	0x3d58cd5b	0.052930217
189	0x3ca62040	0.02027905
190	0x3cfea669	0.03108521
191	0xbcaf973e	-0.021434423
192	0x3da9956d	0.08280454
193	0x3dce686a	0.10078509
194	0xbcccf92a	-0.025021154
195	0x3cb09e4c	0.021559857
196	0xbc3938bc	-0.01130503
197	0x3c3e8279	0.011627787
198	0xbc0d1a08	-0.008612163
199	0xbd1e1fc2	-0.038604505
200	0xbd25a6ea	-0.040442385
201	0x3d1c4203	0.03814889
202	0x3da1715c	0.0788295
203	0x3d950234	0.07275811
204	0xbcb207c7	-0.021732224
205	0x3b45eefc	0.003020226
206	0x3c09213e	0.008369742
207	0x3c6a8afa	0.014315361
208	0xbd670200	-0.05639839
209	0xbcfcb745	-0.030849108
210	0x3c2b2a2e	0.010447068
211	0x3d304478	0.043034047
212	0xbb710fa0	-0.0036782995
213	0x3da8686c	0.08223042
214	0xbd59b8d6	-0.05315479
215	0x3d384666	0.044989012
216	0x3d55b13c	0.052170977
217	0xbcb03100	-0.02150774
218	0xbd127421	-0.03575528
219	0xbd0ad681	-0.033895973
220	0xbcf06ae0	-0.029347837
221	0xbcaa682b	-0.020801624
222	0x3d2bb26b	0.0419182
223	0x3dca47e4	0.09876993
224	0x3d937647	0.07200294
225	0x3d83a924	0.064287454
226	0x3cac0e5b	0.021002939
227	0x3c191052	0.00934227
228	0x3cad41f6	0.021149617
229	0x3d76fed2	0.06030161
230	0xbd4f3646	-0.05058887
231	0xbbc29b90	-0.0059389547
232	0xbd56ddec	-0.052457735
233	0xbcbf7241	-0.02336991
234	0x3bee21b3	0.007267201
235	0xbc2a42cb	-0.010391901
236	0x3d5de928	0.054177433
237	0xbc87440e	-0.016511943
238	0x3d12aeee	0.035811357
239	0xbbccfb8c	-0.0062555727
240	0x3dbfb626	0.09360914
241	0x3d825c1a	0.06365223
242	0xbcc62efc	-0.024192326
243	0x3d8b537e	0.06803034
244	0x3d00d2b1	0.03145093
245	0x3d7e1863	0.062034976
246	0x3c48ef18	0.012264036
247	0xbd60daf4	-0.05489631
248	0x3c99cb20	0.018773615
249	0x3d9b7a60	0.075917006
250	0x3d31839b	0.0433384
251	0x3cba32e5	0.022729347
252	0x3bb5d705	0.005549314
253	0xbd3c509f	-0.045975324
254	0x3d87f73b	0.06638952
255	0x3c22ab5e	0.009928552

base.seq_fcs.0.bias f4 [256]
0	0x3e0ae8ca	0.13565364
1	0x3e0924e8	0.13392985
2	0x3e1966ac	0.14980572
3	0x3ddfcf02	0.109281555
4	0x3e1c8241	0.15284063
5	0x3dad9054	0.08474794
6	0x3e0e43c5	0.1389304
7	0x3e001ddf	0.12511395
8	0x3e076f37	0.13226019
9	0x3e0cc576	0.137472
10	0x3e10c194	0.14136344
11	0x3e1be2f8	0.152233
12	0x3e12dcdd	0.14342065
13	0x3e018c45	0.12651165
14	0x3e043d51	0.12914015
15	0x3e0806e0	0.13283873
16	0x3e1114ae	0.14168045
17	0x3e10d88a	0.14145103
18	0x3df88100	0.1213398
19	0x3e15e9cc	0.14639968
20	0x3e0f1a8d	0.13974972
21	0x3e1d8e02	0.15386203
22	0x3dec5cfe	0.11541174
23	0x3e0a01d0	0.13477254
24	0x3e03393a	0.12814799
25	0x3df29b62	0.11846043
26	0x3e1ae260	0.15125418
27	0x3e1a06a7	0.150416
28	0x3e185cf8	0.14879215
29	0x3e1a0f51	0.15044905
30	0x3e10aaed	0.14127703
31	0x3e1a44f6	0.15065369
32	0x3e08bd3e	0.1335344
33	0x3dad4a69	0.08461458
34	0x3e13197a	0.14365187
35	0x3e0cf070	0.13763595
36	0x3e0215da	0.12703648
37	0x3e1a6443	0.1507731
38	0x3dc92de2	0.098232046
39	0x3e1b2f54	0.15154773
40	0x3ddc6f3a	0.10763402
41	0x3e13d691	0.1443732
42	0x3e0e9fba	0.13928118
43	0x3e171f78	0.14758098
44	0x3e10368e	0.14083311
45	0x3dfdbe87	0.12389856
46	0x3e1643f2	0.14674357
47	0x3e14e870	0.14541793
48	0x3df45fdd	0.11932347
49	0x3dd730b7	0.105073385
50	0x3dee8b7c	0.11647698
51	0x3e1049ce	0.14090654
52	0x3e1c53eb	0.15266387
53	0x3e002e25	0.12517603
54	0x3e0d5b04	0.13804251
55	0x3e03d260	0.1287322
56	0x3e200e6d	0.15630503
57	0x3e092cfb	0.13396065
58	0x3e0deebe	0.13860604
59	0x3dd9cb18	0.1063444
60	0x3dd5f87b	0.104477845
61	0x3e0fbe2d	0.1403739
62	0x3e0ed9cd	0.13950272
63	0x3e105ca2	0.14097837
64	0x3e1ec1fd	0.15503688
65	0x3e040bec	0.12895173
66	0x3e0608f7	0.13089357
67	0x3e1f200d	0.1553957
68	0x3e1499ef	0.14511846
69	0x3e10c6e5	0.14138372
70	0x3e0b307f	0.13592719
71	0x3e0a7dcf	0.13524555
72	0x3e0d91e5	0.13825186
73	0x3ddf3ed7	0.109006576
74	0x3e0eabd4	0.13932735
75	0x3e019e02	0.12657931
76	0x3e1ac47e	0.15114018
77	0x3e116661	0.1419921
78	0x3e10666e	0.14101574
79	0x3e059e7f	0.13048743
80	0x3e0eccad	0.13945265
81	0x3e1c9571	0.15291382
82	0x3df0393f	0.11729669
83	0x3df2ef79	0.11862082
84	0x3e0aa1da	0.13538304
85	0x3e1196b3	0.14217643
86	0x3e120926	0.14261302
87	0x3e0619a3	0.13095717
88	0x3e075477	0.13215815
89	0x3e035f6c	0.1282937
90	0x3e16ee94	0.14739448
91	0x3e0d5496	0.13801798
92	0x3e1595b0	0.14607882
93	0x3e161989	0.14658178
94	0x3dbb2a9e	0.09138988
95	0x3e15cf00	0.14629745
96	0x3e14a30c	0.14515322
97	0x3e0da362	0.13831857
98	0x3dc97d3a	0.09838338
99	0x3e1436b2	0.1447399
100	0x3e02f9ac	0.12790555
101	0x3e06aafe	0.13151166
102	0x3e11fb55	0.14256032
103	0x3e0cde09	0.13756575
104	0x3e0e8678	0.13918483
105	0x3e17e979	0.14835157
106	0x3e10341d	0.1408238
107	0x3e2a9c62	0.16661218
108	0x3e0e5bf1	0.1390226
109	0x3e1279cf	0.14304279
110	0x3dd6cd68	0.10488397
111	0x3e0f2a0a	0.1398088
112	0x3e0f3ef4	0.13988858
113	0x3e11c17a	0.14233962
114	0x3e193218	0.14960515
115	0x3e09fe89	0.13476004
116	0x3da1655a	0.078806594
117	0x3e0e6db1	0.13909031
118	0x3deb4e3a	0.1148953
119	0x3e02f420	0.12788439
120	0x3e0da682	0.13833049
121	0x3e18326f	0.14862989
122	0x3df8e323	0.12152698
123	0x3e035837	0.1282662
124	0x3de7c20b	0.11316308
125	0x3e181d83	0.14855008
126	0x3e107159	0.14105739
127	0x3e0033b5	0.12519725
128	0x3e146ed2	0.144954
129	0x3df4b8f9	0.11949343
130	0x3e15f787	0.14645205
131	0x3dec5b44	0.11540845
132	0x3e0a8233	0.1352623
133	0x3de8d289	0.113682814
134	0x3e114b3d	0.14188857
135	0x3de9bae4	0.114126
136	0x3ddca7e9	0.10774214
137	0x3e0ab275	0.13544638
138	0x3e01b939	0.12668313
139	0x3e207aae	0.15671799
140	0x3dff922e	0.124790534
141	0x3e1e86e5	0.15481146
142	0x3e02433c	0.1272096
143	0x3e19f3a4	0.15034348
144	0x3e02bd99	0.12767638
145	0x3df2bdca	0.11852606
146	0x3dfcd810	0.12345898
147	0x3e0b47ba	0.1360158
148	0x3e133575	0.14375861
149	0x3dfc5ba4	0.123221666
150	0x3e19441c	0.14967388
151	0x3e102d4a	0.14079776
152	0x3e0e6642	0.13906196
153	0x3e1efea7	0.1552683
154	0x3dfc6b9e	0.12325214
155	0x3e0961b0	0.13416171
156	0x3e0fe0b9	0.14050569
157	0x3e1b6803	0.15176396
158	0x3e0ef3d5	0.13960202
159	0x3e13f5a7	0.14449178
160	0x3e01fc50	0.12693906
161	0x3df201c1	0.11816741
162	0x3e163439	0.14668359
163	0x3e14889d	0.14505239
164	0x3e118bbd	0.14213462
165	0x3e1bb19b	0.1520447
166	0x3e0dc693	0.13845281
167	0x3e106ac2	0.14103225
168	0x3e07e685	0.1327153
169	0x3e12c5af	0.14333223
170	0x3e09fe3f	0.13475893
171	0x3e10cfba	0.14141741
172	0x3e0b4f3d	0.13604446
173	0x3e1919aa	0.14951196
174	0x3e11aa09	0.1422502
175	0x3dcb9b94	0.099417835
176	0x3e0ccd4a	0.13750187
177	0x3e0d5a06	0.13803872
178	0x3e0eb5a3	0.13936476
179	0x3e178db4	0.14800149
180	0x3e041a56	0.12900671
181	0x3e0aec25	0.13566644
182	0x3e1885b4	0.14894754
183	0x3e109157	0.14117943
184	0x3e10338c	0.14082164
185	0x3e0b2427	0.1358801
186	0x3e12bd8c	0.14330119
187	0x3dfbd0a2	0.12295653
188	0x3e125e42	0.14293769
189	0x3de55d3b	0.11199423
190	0x3e0625f8	0.13100421
191	0x3e0dc50a	0.13844696
192	0x3e15157d	0.14558978
193	0x3e1a6ebc	0.15081304
194	0x3e0144e6	0.12623939
195	0x3e08b279	0.13349332
196	0x3e09d919	0.13461722
197	0x3e163a98	0.14670789
198	0x3e0e256c	0.13881463
199	0x3e101ff2	0.14074686
200	0x3e02264b	0.1270992
201	0x3e0afcdb	0.13573019
202	0x3e1e3ecb	0.15453641
203	0x3dd80f66	0.10549812
204	0x3e10a264	0.14124447
205	0x3e1cacdf	0.1530032
206	0x3e0d0141	0.1377001
207	0x3e080743	0.1328402
208	0x3e1a0bd4	0.15043575
209	0x3d9b6c59	0.07589025
210	0x3e0e6657	0.13906227
211	0x3dd5f53a	0.10447164
212	0x3e00bd10	0.12572122
213	0x3e215938	0.1575669
214	0x3e0e6b2e	0.13908073
215	0x3e0c5a34	0.13706285
216	0x3e1690a1	0.14703609
217	0x3e1c364e	0.1525509
218	0x3df9fd87	0.1220656
219	0x3e0d772e	0.13814995
220	0x3e0a129f	0.13483666
221	0x3e11cf12	0.14239147
222	0x3e0df567	0.13863145
223	0x3e1444b2	0.1447933
224	0x3e0405dd	0.12892862
225	0x3e0e2425	0.13880976
226	0x3e10bb5f	0.14133976
227	0x3e11e35e	0.1424689
228	0x3e08a722	0.13345006
229	0x3e0f40e9	0.13989605
230	0x3e250445	0.1611491
231	0x3e1329ce	0.14371416
232	0x3e0a5baa	0.1351153
233	0x3e1c027a	0.1523532
234	0x3e04ec6e	0.12980816
235	0x3dc62ca6	0.09676485
236	0x3e0f344b	0.13984792
237	0x3de71b5b	0.112845145
238	0x3dee7be9	0.11644728
239	0x3e135aa9	0.14390053
240	0x3e156ecf	0.14593051
241	0x3e074749	0.13210787
242	0x3e10091e	0.14065978
243	0x3e13b8ac	0.14425915
244	0x3dec2a15	0.11531464
245	0x3dea192c	0.114305824
246	0x3e0fe505	0.14052208
247	0x3de5fce7	0.11229878
248	0x3df6f9f7	0.12059396
249	0x3e135a3c	0.1438989
250	0x3e055699	0.13021316
251	0x3e06d7ce	0.1316826
252	0x3e0f4c65	0.13993986
253	0x3d8892bb	0.066686116
254	0x3e03f235	0.12885363
255	0x3e24f131	0.16107632

base.seq_fcs.2.weight f4 [256, 256]
0	0xbc9fba3c	-0.019497983
1	0x3d11941e	0.035541646
2	0x3a8565d0	0.0010177437
3	0xbca35b47	-0.019940985
4	0xbbe5328e	-0.006994552
5	0x3c58e352	0.013237791
6	0x3c40d304	0.01176906
7	0x3ba10579	0.0049139825
8	0x3c49f933	0.01232748
9	0xbd7c0a03	-0.061532985
10	0xbd1643fa	-0.03668592
11	0xbd0a9806	-0.033836387
12	0x3d4e3df2	0.050352044
13	0xbd3c6da7	-0.04600301
14	0xbcda225b	-0.02662771
15	0xbd7dc254	-0.061952904
16	0x3bdd16e4	0.0067471135
17	0x3c78c09b	0.0151826395
18	0xbbcd6c6d	-0.006269029
19	0x3c54c66a	0.012986759
20	0x3d2fbf45	0.04290702
21	0x3d0f2097	0.03494319
22	0xbd7d747b	-0.061878663
23	0x3c93d069	0.018043714
24	0xbd56bb71	-0.05242485
25	0x3d0b8dcf	0.034070786
26	0xbd552f0f	-0.05204683
27	0x3c21aba7	0.009867585
28	0x3d393b28	0.04522243
29	0xbd89d8e4	-0.06730822
30	0xbd263517	-0.040577974
31	0x3d0e3d17	0.03472623
32	0xbd0a2ed9	-0.033736084
33	0xbcd3f653	-0.025874292
34	0x3d210946	0.039315484
35	0xbcad0be4	-0.021123834
36	0x3ace772c	0.0015752069
37	0xbd7f24b3	-0.06229086
38	0x3cd3d7b8	0.025859699
39	0xbd0fffb6	-0.035155974
40	0xbd7bc02f	-0.061462577
41	0x3d3a6660	0.04550779
42	0xbd6e594a	-0.05819062
43	0xbce1792f	-0.027523605
44	0x3cc75f83	0.024337536
45	0xbc3f25e2	-0.011666747
46	0xbbc71fc5	-0.0060767853
47	0xbd285351	-0.04109508
48	0x3d061b2f	0.032740768
49	0x3c1f66c1	0.009729088
50	0xbd4088c0	-0.047005415
51	0xbd83a9ba	-0.06428857
52	0x3d00154a	0.031270303
53	0x3d26bc08	0.040706664
54	0xbd61b191	-0.05510098
55	0xbc71b1bc	-0.014751848
56	0xbd1ff3a5	-0.039050717
57	0x3c909d0e	0.017653015
58	0xbcd9ee7e	-0.02660298
59	0x3d5a8d80	0.0533576
60	0x3cd69151	0.02619234
61	0x3d5db779	0.05413005
62	0xbd1107a8	-0.035407692
63	0xbc1f79b9	-0.009733611
64	0x3d2f4b53	0.042796444
65	0xbd6dd050	-0.05805999
66	0x3d31da03	0.043420803
67	0x3a371dfa	0.0006985363
68	0xbc93dd24	-0.018049784
69	0xbca5fd9b	-0.02026253
70	0xbd13a549	-0.0360463
71	0x3d4c20d2	0.049835987
72	0xbce4516b	-0.027870854
73	0x3cdb4624	0.026766844
74	0x3cdeae78	0.027182803
75	0xbc35313d	-0.011059103
76	0xbd11ac2d	-0.03556459
77	0xbcba4613	-0.022738492
78	0x3d43509c	0.047684297
79	0x3d04cc68	0.0324215
80	0x3c8c4202	0.017121319
81	0x3d519150	0.05116397
82	0x3ba93836	0.0051641716
83	0x393fa776	0.00018277564
84	0xbc61a910	-0.013773218
85	0x3cfb3951	0.030666979
86	0x3d3597ea	0.04433433
87	0x3c9af6a0	0.018916428
88	0xbc91001c	-0.017700247
89	0xbc012f77	-0.007884852
90	0x3ba02c81	0.004888118
91	0xbcd1b944	-0.025601037
92	0xbd105e6f	-0.03524631
93	0xbd522376	-0.05130335
94	0x3d366e3f	0.044538733
95	0x3c8826ca	0.016620059
96	0x3d2fd776	0.04293009
97	0xbd016060	-0.03158605
98	0x3ce8843c	0.028383367
99	0x3d40677c	0.04697369
100	0xbd0b17ae	-0.03395813
101	0xbd8a1734	-0.06742707
102	0xbcd37824	-0.025814123
103	0xbcb35fff	-0.02189636
104	0x3d2b14cc	0.04176788
105	0x3ad9c455	0.0016614298
106	0xbcb0ac34	-0.021566488
107	0xbd0a03f7	-0.033695187
108	0x3be67ae7	0.007033694
109	0x3c112580	0.008859038
110	0xbd4bccaa	-0.04975573
111	0x3d587a77	0.052851167
112	0x3d55ed97	0.052228536
113	0xbd0cd26e	-0.03438037
114	0xbd1daa43	-0.038492452
115	0x3cfa86a9	0.03058179
116	0x3cd3198e	0.025769021
117	0xbd89de92	-0.06731905
118	0x3d61737e	0.055041783
119	0x3cbe4df7	0.023230536
120	0x3d00d34e	0.031451516
121	0xbd2aa79f	-0.041663762
122	0xbd01b3a4	-0.03166546
123	0x3d5f5a94	0.05452974
124	0xbd1bcb28	-0.03803554
125	0xbd22fabe	-0.039789908
126	0x3d2d7fde	0.04235827
127	0xbd074001	-0.033020023
128	0xbd8219b8	-0.06352562
129	0x3d4be8a0	0.049782395
130	0xbd222129	-0.039582405
131	0xbd3f4c0b	-0.04670338
132	0x3bb36928	0.005475182
133	0x3bcb9585	0.0062128925
134	0x3cdbaa3d	0.026814574
135	0x3d5dbfa2	0.054137833
136	0xbc221dc8	-0.009894796
137	0xbd591b4b	-0.053004544
138	0xbcf926c3	-0.03041399
139	0xbd0f4e18	-0.034986585
140	0xbb789452	-0.0037930203
141	0xbc006e51	-0.0078388015
142	0xbd5426af	-0.051794704
143	0xbd25084c	-0.040291116
144	0x3cd7a889	0.026325481
145	0xbcad127e	-0.021126982
146	0xbce9bbf5	-0.028532008
147	0x3ba930f9	0.0051633087
148	0x3d20b7e8	0.039237887
149	0x3d5e3d7a	0.054257847
150	0xbc5e5970	-0.013571128
151	0x3cbf08e2	0.023319665
152	0xbc8063cd	-0.015672589
153	0x3c8debb5	0.017324308
154	0xbc99399f	-0.018704234
155	0xbc24e8c0	-0.010065258
156	0xbc5aa1aa	-0.013344208
157	0xbb996bcc	-0.00468204
158	0x3af36fdb	0.0018572764
159	0x3c985f6f	0.018600194
160	0xbca36479	-0.01994537
161	0xbc18d1c0	-0.009327352
162	0x3ae731d2	0.0017638749
163	0xbd0cd9f8	-0.03438756
164	0x3cf6bcba	0.030119289
165	0xbb32012e	-0.0027161348
166	0xbd80f992	-0.06297602
167	0xbd2b3d65	-0.041806597
168	0xbd15b810	-0.03655249
169	0x3d260d7f	0.040540215
170	0xbc47765e	-0.012174217
171	0xbcd311ce	-0.025765326
172	0xbd2568d9	-0.040383194
173	0xbc65bbae	-0.014021797
174	0xbd112705	-0.035437603
175	0x3d07f1b9	0.03318951
176	0x3d44e559	0.048070285
177	0xbc33fe96	-0.010985991
178	0xbcaad121	-0.020851674
179	0x3bda2f05	0.006658437
180	0x3c5b4cdb	0.013385023
181	0x3d521e12	0.05129821
182	0xbd76f5f8	-0.060293168
183	0xbc386f6e	-0.011257036
184	0xbd14f88a	-0.036369838
185	0x3d170522	0.03687013
186	0x3d0d9674	0.03456731
187	0x3c302c23	0.0107527105
188	0x3ae4108f	0.0017399954
189	0xbd2744c9	-0.040837083
190	0x3cf02434	0.029314138
191	0x3d4b6195	0.04965361
192	0xbcc60736	-0.02417336
193	0x3c7828ab	0.015146415
194	0xbd2a3d1d	-0.04156219
195	0xbcd966ff	-0.02653837
196	0xbcedf06b	-0.029045304
197	0xbce78656	-0.028262299
198	0x3c9af5af	0.01891598
199	0x3d2d43cf	0.042300995
200	0xbcc82e91	-0.024436267
201	0x3cb39470	0.021921366
202	0x3c9b9ba7	0.01899512
203	0xbc82d6a9	-0.015971499
204	0xbb8b08fd	-0.004243015
205	0x3c1d8765	0.0096148
206	0xbb4fe88d	-0.0031724304
207	0x3cb30afe	0.021855827
208	0x3d617e71	0.055052225
209	0x3d4f7734	0.05065079
210	0xbcea3e54	-0.028594173
211	0xbd4e864c	-0.050421044
212	0xbd56f8e1	-0.052483443
213	0xbc567b34	-0.013090897
214	0x3cb587f5	0.022159556
215	0x3c86c4f0	0.016451329
216	0xbd8a59f5	-0.06755439
217	0xbc10027e	-0.008789657
218	0x3bd2ef51	0.00643722
219	0xbd116351	-0.035495106
220	0x3c5b747a	0.013394469
221	0x3ce1bd3e	0.027556058
222	0x3c603701	0.013684989
223	0xbcac2fb5	-0.021018842
224	0x3bd10978	0.0063793026
225	0x3bbd472a	0.0057763057
226	0xbc51b308	-0.012799032
227	0xbd70be5b	-0.058775287
228	0x3d566911	0.052346293
229	0x3d4ca4d1	0.04996187
230	0x3bd27a63	0.006423281
231	0xbcae51a6	-0.021279167
232	0xbd487c4d	-0.048946667
233	0xbc93b1bf	-0.018029092
234	0xbb84d7d2	-0.004054048
235	0xbd20bde8	-0.03924361
236	0x3c133d0b	0.008986722
237	0x3c47ff66	0.012206888
238	0x3cb7365d	0.02236479
239	0x3ca36c39	0.019949066
240	0x3c461e8d	0.012092245
241	0xbd319f7b	-0.043364983
242	0xbce3939c	-0.027780347
243	0xbb6f26d3	-0.0036491647
244	0xbd667bda	-0.056270458
245	0x3cc14b29	0.02359541
246	0xbd6a53f3	-0.057208966
247	0xbd7d0e25	-0.061781067
248	0xbd4d53f7	-0.050128903
249	0xbc9871f5	-0.018609026
250	0xbd882658	-0.066479385
251	0xbd3f0cd8	-0.046643108
252	0x3abe777b	0.0014531458
253	0x3d23c657	0.039984073
254	0xbbebbf02	-0.0071944008
255	0xbcc389ce	-0.023869421

base.seq_fcs.2.bias f4 [256]
0	0x3dbfb31d	0.09360335
1	0x3e02c92a	0.1277205
2	0x3dbb1271	0.09134377
3	0x3df33e3b	0.11877104
4	0x3dd81e9c	0.10552713
5	0x3dc6e5d0	0.09711802
6	0x3dc76318	0.097356975
7	0x3db5a0a9	0.08868534
8	0x3dc55729	0.09635765
9	0x3dc08590	0.09400475
10	0x3de25d63	0.11052968
11	0x3e09ab11	0.13444163
12	0x3dc481e3	0.095950864
13	0x3dc1a95b	0.0945613
14	0x3dc113bb	0.094275914
15	0x3dbee2ca	0.093206
16	0x3db7e70f	0.08979618
17	0x3dc4093c	0.09572074
18	0x3dc3a9fb	0.095539056
19	0x3dbdd088	0.0926829
20	0x3dbaf6b0	0.09129083
21	0x3dc10b91	0.09426034
22	0x3dc392ec	0.095495075
23	0x3dc1278f	0.09431373
24	0x3dc3f0ee	0.09567438
25	0x3e054f23	0.1301847
26	0x3e000d85	0.12505157
27	0x3dc54422	0.09632136
28	0x3e047a68	0.1293732
29	0x3df20399	0.118170924
30	0x3df6466b	0.1202515
31	0x3e0a0586	0.1347867
32	0x3dc3f273	0.09567728
33	0x3dbc5940	0.091967106
34	0x3dc11b73	0.09429064
35	0x3e0e87bd	0.13918968
36	0x3e08543e	0.13313386
37	0x3df364eb	0.11884483
38	0x3dc35588	0.09537798
39	0x3dc94b71	0.098288424
40	0x3dfaeca1	0.12252165
41	0x3e023fe9	0.12719692
42	0x3de8c112	0.1136495
43	0x3e0fa259	0.14026774
44	0x3dc5edf9	0.0966453
45	0x3dbb9155	0.09158579
46	0x3df42e04	0.11922839
47	0x3e068ea6	0.13140354
48	0x3e0f171f	0.13973664
49	0x3dc2cae8	0.095113575
50	0x3dc61a19	0.096729465
51	0x3dc29cf0	0.0950259
52	0x3dc3cfaa	0.09561093
53	0x3e030bc5	0.12797458
54	0x3e0d7fdb	0.13818304
55	0x3e05b602	0.13057712
56	0x3de57df1	0.11205662
57	0x3dbc894f	0.09205877
58	0x3dfab0fb	0.122407876
59	0x3e00f7fc	0.12594599
60	0x3dc77740	0.09739542
61	0x3df557e6	0.11979656
62	0x3dfc92b8	0.12332672
63	0x3dc263a5	0.09491662
64	0x3dbd62fb	0.09247395
65	0x3e03635f	0.12830876
66	0x3dc305a5	0.09522561
67	0x3df813bf	0.12113141
68	0x3dbfe9e5	0.09370784
69	0x3e055c50	0.13023496
70	0x3dbe7c3e	0.09301041
71	0x3db956df	0.090497725
72	0x3e011853	0.12606935
73	0x3dfac409	0.12244422
74	0x3dba7ea0	0.09106183
75	0x3dc13173	0.0943326
76	0x3e07f94d	0.13278694
77	0x3db95988	0.0905028
78	0x3dbd3af1	0.09239758
79	0x3e0581c8	0.13037789
80	0x3dc66bf6	0.09688561
81	0x3dc3c351	0.09558738
82	0x3dbfc938	0.09364551
83	0x3dbcc27e	0.09216784
84	0x3ddfdfc6	0.10931353
85	0x3dda4b54	0.10658899
86	0x3e052040	0.13000584
87	0x3dc5cb0d	0.096578695
88	0x3e014227	0.12622891
89	0x3dc70ad6	0.09718864
90	0x3dfbe139	0.12298817
91	0x3e05f6ca	0.13082424
92	0x3e0bfb3a	0.13670054
93	0x3e00a297	0.12562023
94	0x3dc2da1f	0.095142595
95	0x3dc05f26	0.09393148
96	0x3de49315	0.11160866
97	0x3dc5ed17	0.09664362
98	0x3e0d9013	0.13824491
99	0x3de9d865	0.11418227
100	0x3df2c280	0.11853504
101	0x3daf34b2	0.08554973
102	0x3dc445c6	0.09583621
103	0x3e028745	0.12746914
104	0x3dc1836d	0.094488956
105	0x3e030170	0.12793517
106	0x3dbe0d1f	0.092798464
107	0x3e004e8f	0.12529968
108	0x3df0494e	0.11732732
109	0x3dc61a14	0.09672943
110	0x3dbe475f	0.09290957
111	0x3e09af39	0.13445748
112	0x3e0b34f3	0.13594417
113	0x3dfffc3e	0.12499283
114	0x3e13b5db	0.14424841
115	0x3e02bd89	0.12767614
116	0x3dbebf26	0.093138024
117	0x3e0627fe	0.13101193
118	0x3e06e07c	0.13171571
119	0x3dbfe23f	0.09369325
120	0x3dc2188a	0.09477337
121	0x3e0599f4	0.1304701
122	0x3dbadf52	0.09124626
123	0x3dfe5aa1	0.1241963
124	0x3dbd937a	0.092566445
125	0x3e09c033	0.13452224
126	0x3dbf9bf6	0.09355919
127	0x3e0d0375	0.1377085
128	0x3dbaef71	0.09127701
129	0x3dfd55d3	0.12369885
130	0x3e09179c	0.13387913
131	0x3e083dcf	0.13304828
132	0x3dc56fab	0.096404396
133	0x3e0c1a22	0.13681844
134	0x3dc2b3af	0.09506928
135	0x3e0ed447	0.13948165
136	0x3dbe11f0	0.09280765
137	0x3e0553c3	0.13020234
138	0x3e03efca	0.12884441
139	0x3de729f4	0.11287299
140	0x3dbaf798	0.09129256
141	0x3e0c00b9	0.1367215
142	0x3dc486c7	0.09596019
143	0x3dcbde9f	0.09954571
144	0x3df7c8d0	0.12098849
145	0x3db71f90	0.08941567
146	0x3e00addb	0.1256632
147	0x3e050558	0.1299032
148	0x3e0b38cb	0.13595884
149	0x3dbded3d	0.09273765
150	0x3db9fb6a	0.090811566
151	0x3e065d51	0.13121535
152	0x3dbd54b7	0.09244674
153	0x3e0213a4	0.12702805
154	0x3de24c34	0.11049691
155	0x3db94e80	0.09048176
156	0x3e06010a	0.13086334
157	0x3dc05c14	0.093925625
158	0x3dfe5d4a	0.12420137
159	0x3dc610fa	0.09671207
160	0x3e056378	0.13026226
161	0x3e058586	0.13039216
162	0x3dc1d077	0.0946359
163	0x3e03e263	0.12879328
164	0x3dc41c5a	0.0957572
165	0x3dc174a4	0.094460756
166	0x3dc260f4	0.094911486
167	0x3dc2fa18	0.09520358
168	0x3e0a4cc7	0.1350585
169	0x3df5d3be	0.12003277
170	0x3e012e20	0.12615252
171	0x3e014591	0.12624194
172	0x3dfb698a	0.12275989
173	0x3dbd0eb1	0.09231318
174	0x3dc3806e	0.095459804
175	0x3dbf8d1b	0.093530856
176	0x3e014d82	0.12627223
177	0x3dc2c3e0	0.095100164
178	0x3ddef35f	0.10886263
179	0x3df37b17	0.11888712
180	0x3e0c3f37	0.1369599
181	0x3dbf4322	0.093389764
182	0x3dbaa18a	0.091128424
183	0x3df331b0	0.118747115
184	0x3dc19b0c	0.09453401
185	0x3dbd3cad	0.092400886
186	0x3dc2f789	0.0951987
187	0x3e036e85	0.12835129
188	0x3e0cf9a5	0.13767107
189	0x3dfeb71c	0.12437269
190	0x3dc1bbda	0.09459658
191	0x3de42289	0.111393996
192	0x3e004521	0.1252637
193	0x3dc2a612	0.09504332
194	0x3df59b29	0.11992485
195	0x3dc10193	0.094241284
196	0x3e09ba24	0.13449913
197	0x3dfda73c	0.12385413
198	0x3dc7353e	0.09726952
199	0x3defa8e1	0.11702133
200	0x3dc4b537	0.096048765
201	0x3e07b142	0.13251212
202	0x3df265c1	0.11835814
203	0x3e04098b	0.12894265
204	0x3e020af3	0.1269949
205	0x3e002387	0.12513553
206	0x3dc95584	0.09830764
207	0x3dc4d9e6	0.09611873
208	0x3e030ede	0.1279864
209	0x3df80a8d	0.121113874
210	0x3db38015	0.08764664
211	0x3df61a93	0.120167874
212	0x3dc41dcb	0.09575995
213	0x3dbba45a	0.09162207
214	0x3dc1db6b	0.09465679
215	0x3dbe6d9c	0.0929825
216	0x3df0ab16	0.11751382
217	0x3db9cd1d	0.090723254
218	0x3e029b4d	0.12754555
219	0x3e072930	0.13199306
220	0x3dc3ce74	0.09560862
221	0x3dfa9f11	0.12237371
222	0x3dc6cab8	0.09706634
223	0x3de3c980	0.111224174
224	0x3dfd7fdb	0.12377902
225	0x3e043fca	0.12914959
226	0x3dbe958f	0.0930587
227	0x3dbea723	0.093092225
228	0x3dff5aa9	0.12468464
229	0x3ddfa0cb	0.10919341
230	0x3de66aa1	0.112508066
231	0x3e00dbe0	0.12583876
232	0x3df750ce	0.12075959
233	0x3dfab915	0.12242333
234	0x3dbf8a2e	0.093525276
235	0x3dc20763	0.09474065
236	0x3dc40b86	0.095725104
237	0x3e0005b1	0.12502171
238	0x3e0e4d6e	0.13896725
239	0x3dbd1741	0.09232951
240	0x3de18f0a	0.11013611
241	0x3dc259d8	0.094897926
242	0x3dc42fc4	0.09579423
243	0x3e026991	0.12735583
244	0x3e008944	0.12552363
245	0x3df37f89	0.1188956
246	0x3e0a91cc	0.1353218
247	0x3dcbd153	0.09952035
248	0x3e0ac6d4	0.1355241
249	0x3dc5767c	0.0964174
250	0x3e04628b	0.12928216
251	0x3df4c24d	0.119511224
252	0x3dc46a5b	0.09590598
253	0x3de20657	0.110363655
254	0x3dc4e954	0.09614816
255	0x3dc116f6	0.094282076

last.weight f4 [1, 256]
0	0xbb2aaff5	-0.002604482
1	0x3cf56918	0.02995734
2	0xbb1799c9	-0.0023132435
3	0x3cbd8336	0.023133855
4	0x3c33d303	0.010975602
5	0x3aab57ef	0.0013072471
6	0x3a924de0	0.0011162125
7	0xba92f2e1	-0.00112113
8	0xba0d9e6e	-0.0005402331
9	0xbab99227	-0.0014157937
10	0x3c836190	0.016037732
11	0x3d22448f	0.039616164
12	0x3a9e816b	0.0012093013
13	0xbb1dd7ed	-0.0024085
14	0xbb17a461	-0.002313875
15	0xbb1b485e	-0.0023694257
16	0xb9392d00	-0.00017659739
17	0xbafd0aa5	-0.001930554
18	0xba329694	-0.0006812599
19	0xbb2b0266	-0.002609396
20	0xbaca1815	-0.0015418554
21	0xbb35e473	-0.0027754575
22	0x39c9faa5	0.00038524452
23	0xbb3e87d1	-0.0029072652
24	0xba9b07fa	-0.0011827939
25	0x3cff7520	0.03118378
26	0x3cdcb183	0.026940113
27	0xba4469e3	-0.0007492585
28	0x3d1751ce	0.03694325
29	0x3cc1a447	0.023637904
30	0x3cb4cfe6	0.02207179
31	0x3d195fd4	0.037444904
32	0xba5b269e	-0.00083599414
33	0xb9f6612f	-0.00046993184
34	0xbb079f2a	-0.0020694234
35	0x3d43b449	0.047779355
36	0x3d0f723b	0.035021048
37	0x3ccb0fe4	0.02478785
38	0xbb3df162	-0.0028982987
39	0x393421db	0.0001717875
40	0x3cbf1579	0.023325669
41	0x3d0bb279	0.03410575
42	0x3c9dc397	0.019258304
43	0x3d3ee134	0.04660149
44	0xb7ccbe57	-2.4407329e-05
45	0xbb11f42e	-0.0022270787
46	0x3cce5985	0.02518917
47	0x3d0e1a5e	0.034693114
48	0x3d39571b	0.045249086
49	0xbaebbbcd	-0.0017985046
50	0x39f70281	0.00047113377
51	0x3a29cd92	0.0006477471
52	0xbb30ad26	-0.0026958673
53	0x3cfa579d	0.030559355
54	0x3d360987	0.04444268
55	0x3d0040fa	0.031311966
56	0x3c738f21	0.014865668
57	0xbad5054e	-0.0016252191
58	0x3ceb4cc6	0.028723132
59	0x3ce088b2	0.027408931
60	0xbad3cf05	-0.0016159719
61	0x3cd6e1b1	0.026230665
62	0x3cf5d27d	0.030007595
63	0xbb2aaf9b	-0.002604461
64	0xba858919	-0.0010187953
65	0x3d027bfc	0.031856522
66	0xbb45a2f9	-0.0030156954
67	0x3cc160f3	0.0236058
68	0xbaee4aad	-0.0018180214
69	0x3d240c4a	0.040050782
70	0x3910dcbb	0.00013815139
71	0xbae932da	-0.0017791644
72	0x3d0ad95b	0.033898693
73	0x3cdd73a2	0.027032677
74	0xbb0b3325	-0.0021240201
75	0xbb33109d	-0.0027323135
76	0x3d1327be	0.035926573
77	0xbafddfd3	-0.0019369073
78	0xbb1c0216	-0.0023804954
79	0x3d08906f	0.033340868
80	0xbb30378a	-0.0026888573
81	0x3a4ba131	0.0007767855
82	0xbaf43552	-0.0018631613
83	0xbafa13fe	-0.0019079444
84	0x3c73d8f4	0.014883269
85	0x3c4c8951	0.012483911
86	0x3cf3c150	0.029755265
87	0xbaf9d726	-0.0019061312
88	0x3cf499eb	0.02985855
89	0x3ad52ba9	0.0016263622
90	0x3cdf59a3	0.027264422
91	0x3d0ca8fb	0.03434084
92	0x3d3b2561	0.045689944
93	0x3ce15a79	0.027508961
94	0xbabfd22c	-0.001463478
95	0xbb1014d0	-0.0021985061
96	0x3c94bd78	0.018156752
97	0xbb18c610	-0.0023311414
98	0x3d37fc33	0.04491825
99	0x3c9b11b0	0.018929332
100	0x3cbe831f	0.023255883
101	0xb99ddf63	-0.0003011181
102	0xbb138f7d	-0.0022515946
103	0x3ce359af	0.027752725
104	0xba996a89	-0.0011704724
105	0x3d012ad7	0.031534996
106	0xbb276fad	-0.0025548742
107	0x3ce5cc76	0.028051596
108	0x3cc6d4ab	0.02427133
109	0x3a31c355	0.0006781121
110	0xbad7a3e5	-0.0016452043
111	0x3d2f3230	0.042772472
112	0x3d31267f	0.043249603
113	0x3d02bc66	0.031917952
114	0x3d4fddf1	0.05074877
115	0x3cf05956	0.029339474
116	0xbacd4cbb	-0.0015663126
117	0x3d045175	0.032304246
118	0x3d0da21f	0.03457844
119	0xbb0f2d0a	-0.0021846914
120	0xbaa4c615	-0.001257124
121	0x3d1074aa	0.03526751
122	0xba23e76a	-0.000625244
123	0x3cd0f8d2	0.025509272
124	0xbb1b9488	-0.0023739655
125	0x3d1b9a0a	0.0379887
126	0xbb10da48	-0.0022102762
127	0x3d2d0335	0.042239387
128	0xbb204c54	-0.0024459558
129	0x3cee2f18	0.02907519
130	0x3d130aad	0.035898853
131	0x3d11cfcc	0.03559856
132	0xbae22770	-0.0017254185
133	0x3d294e74	0.041334584
134	0xbaad3bcd	-0.0013216675
135	0x3d3fc58f	0.046819266
136	0xbb28bbb3	-0.0025746643
137	0x3d207ebc	0.039183363
138	0x3cee09a5	0.029057333
139	0x3c94c460	0.018160045
140	0xbab241ae	-0.0013599896
141	0x3d2991ad	0.041398693
142	0xbaa8997f	-0.0012863128
143	0x3b272b23	0.002550789
144	0x3cdc69ea	0.026905973
145	0xbb065415	-0.0020496894
146	0x3cd96599	0.026537703
147	0x3cf8924a	0.030343194
148	0x3d21d21a	0.03950701
149	0xba423024	-0.0007407686
150	0xbaa8a6a2	-0.0012867043
151	0x3d22fa73	0.03978963
152	0xbad3fbb8	-0.001617304
153	0x3d0b0b1d	0.033946145
154	0x3c85abcf	0.016317276
155	0xba4afab7	-0.0007743048
156	0x3cfc6ee0	0.030814588
157	0x3a61c87d	0.0008612944
158	0x3ce30ec4	0.027717002
159	0xbabc0631	-0.0014345107
160	0x3d166dab	0.03672568
161	0x3d06efcc	0.032943532
162	0xbb1b33a4	-0.0023681903
163	0x3d1100b2	0.035401054
164	0xbaf8f7da	-0.0018994764
165	0xbb18829b	-0.0023271206
166	0x3a8408f0	0.0010073464
167	0xbadb56c4	-0.0016734232
168	0x3d24387b	0.040092926
169	0x3cc25843	0.023723727
170	0x3ce0c6ce	0.027438547
171	0x3cda2c1f	0.026632367
172	0x3cbdb82e	0.023159113
173	0xbaf3a237	-0.0018587773
174	0xbafac49d	-0.0019132082
175	0xbb24cea1	-0.0025147574
176	0x3d0b3f53	0.033995938
177	0xbb0862f7	-0.002081094
178	0x3c71e5b7	0.014764241
179	0x3ca95f18	0.020675227
180	0x3d3d72c7	0.04625204
181	0xbb322307	-0.0027181522
182	0xba62dc12	-0.0008654009
183	0x3cb40854	0.021976627
184	0xbb1dc912	-0.0024076146
185	0xbb1bcb2a	-0.0023772218
186	0xbac46f7d	-0.0014986839
187	0x3d0b3894	0.033989504
188	0x3d2ecde5	0.042676825
189	0x3cdbfbe8	0.026853517
190	0xbb310f46	-0.002701716
191	0x3c8c185e	0.017101463
192	0x3cdb5b8e	0.026777055
193	0xbadf010f	-0.0017013865
194	0x3cc52460	0.024065197
195	0xbb2fce6f	-0.0026825925
196	0x3d1e17cb	0.03859691
197	0x3ce0380a	0.027370472
198	0x3aa6fca8	0.0012740092
199	0x3cafdef6	0.02146862
200	0xbb0580d4	-0.0020370977
201	0x3d0c0d2e	0.034192257
202	0x3cbffee2	0.023436967
203	0x3d010fb1	0.031509105
204	0x3cdca24b	0.026932856
205	0x3d0a4e7e	0.033766262
206	0x3aa21d37	0.0012368326
207	0xbb361bdd	-0.0027787604
208	0x3cf9b1b0	0.030480236
209	0x3cd5a4d4	0.026079573
210	0xbad9ace6	-0.0016607314
211	0x3cc8d088	0.024513498
212	0xbb2fac25	-0.0026805487
213	0xb91dd80c	-0.0001505317
214	0xbb025b11	-0.0019890706
215	0xbb11fdea	-0.0022276589
216	0x3cbc7e56	0.02300946
217	0xba935a6a	-0.0011242155
218	0x3cf88563	0.030337041
219	0x3d1372f9	0.03599832
220	0xbafe49a2	-0.0019400606
221	0x3cd4c00e	0.025970485
222	0x37fc9985	3.0112229e-05
223	0x3c8f3345	0.017480502
224	0x3ced4f1f	0.028968392
225	0x3cf8953e	0.030344602
226	0xbae57a9f	-0.0017507857
227	0x39984409	0.0002904239
228	0x3cdd3c09	0.027006166
229	0x3c353269	0.011059382
230	0x3c95ef30	0.01830253
231	0x3d087ff0	0.033325136
232	0x3cc6959a	0.024241257
233	0x3cb9936f	0.02265331
234	0xbb29cc03	-0.0025908954
235	0x3917fb94	0.00014494202
236	0xba17c5aa	-0.0005789647
237	0x3cdf4b57	0.027257605
238	0x3d433c57	0.047664966
239	0xbae166f4	-0.001719682
240	0x3c728c82	0.0148040075
241	0xbb2a94a7	-0.0026028545
242	0xba9e3aa3	-0.0012071918
243	0x3ce8d337	0.028421028
244	0x3cea0a91	0.028569492
245	0x3cd40282	0.025880102
246	0x3d303734	0.043021396
247	0x38a4f42f	7.865612e-05
248	0x3d38fbfe	0.045162193
249	0xba055188	-0.00050856965
250	0x3d224539	0.039616797
251	0x3cc1981e	0.023632105
252	0xbb345567	-0.0027516724
253	0x3c7fa6af	0.015603705
254	0xbb395a40	-0.0028282553
255	0xbb32a579	-0.0027259274
