Soft-Module-main/log/model50_new_25/model_pf_best.pth (torch, 287205 bytes, 6 tensors)

base.seq_fcs.0.weight f4 [256, 12]
-0.060761854 -0.05979368 0.03059263 -0.051197506 0.03482931 -0.023006687 0.0335048 0.04914692
-0.006539218 -0.035980176 -0.022069743 -0.020401746 -0.058400538 0.03539364 -0.053460773 -0.009885674
-0.01505246 -0.07049793 0.053720243 0.011066906 0.03902469 0.010361472 0.013269051 -0.05013428
0.029794484 0.020167286 -0.055099286 -0.055731576 0.021635268 -0.0011393946 -0.058177695 -0.05506932
0.02770646 0.048069723 0.0037267117 -0.00991359 0.05026162 -0.006909777 -0.03961389 0.039652813
-0.007229609 -0.002834485 0.029121526 0.008254975 -0.050543316 -0.079015985 0.034565624 -0.026246592
-0.0055507463 0.028273208 -0.03514931 0.0022407607 -0.050142433 -0.06474935 0.0106159 -0.05768378
-0.011466384 0.04647321 -0.021453353 0.052310262 -0.037873536 -0.030948365 0.044264022 -0.02352292
-0.014978967 -0.03662336 -0.037676588 -0.032685116 -0.0052429214 -0.023013769 -0.009809063 -0.061075453
0.062334143 0.00025834813 -0.041175615 -0.06661321 0.018638445 -0.06869462 0.023937248 0.033602342
0.01710336 -0.07308488 0.033716165 -0.044002507 -0.014477621 -0.07308351 0.039296262 0.012715537
0.037398446 0.010012732 0.05702029 -0.020998694 0.00868348 -0.02544813 -0.03723977 -0.04599375
-0.011362367 -0.0028571074 0.0059183044 0.024205554 -0.069931395 0.03512064 0.04264462 0.018085413
0.062117763 0.03805457 -0.06587827 -0.002657559 -0.039976273 -0.011019206 -0.03231819 0.0099190045
-0.045595385 0.01885941 0.045298755 -0.056133606 0.046534576 0.04413546 0.0039347634 -0.03889207
-0.008753801 -0.009984681 -0.019498134 0.016128395 -0.048460897 0.042073973 -0.045176767 0.021112248
-0.035633244 -0.02253909 -0.06942525 -0.009589671 0.041278537 -0.038544666 -0.07821766 0.041821614
-0.00679467 0.04688065 0.004102245 -0.014627524 -0.055430524 -0.01684102 -0.05107963 -0.053715963
-0.016127557 -0.04403322 -0.008243039 -0.059993885 -0.036790308 -0.06602599 0.016490683 0.009621121
-0.05266153 -0.05074598 0.008852182 -0.0072497805 -0.048223976 -0.065961026 0.0034339365 -0.035966974
0.042689614 -0.037066154 -0.04084821 0.007727787 -0.02803164 0.019537175 -0.0662411 0.01342955
0.03487488 -0.048059788 -0.017951872 0.0015313219 -0.052704263 0.042150922 -0.044663407 0.0122683495
0.020529069 0.009438267 -0.057073463 0.050904907 -0.048943754 -0.00825081 -0.058404803 0.023335828
0.028098684 -0.002104866 0.00071971864 -0.0017073303 0.019372828 -0.084987834 0.017971158 0.0060121394
-0.047367778 0.0007006932 0.029894473 -0.04392174 -0.030441964 -0.044202276 0.04635424 0.060398616
0.018523008 -0.012686865 -0.05296487 0.03969375 0.00093899097 -0.00029742645 0.011439481 0.044463143
-0.016412256 -0.01966608 -0.014636733 -0.017300956 0.057727538 -0.024759416 -0.024522556 -0.019396469
-0.029983362 0.00030883998 0.0010089409 0.015810797 -0.07634446 -0.05571654 -0.017395511 0.054804653
-0.028255023 -0.060173325 -0.029422153 -0.0003092944 0.04305427 -0.07182544 -0.01590521 -0.0058715385
0.010191402 0.050895855 0.061577857 -0.0541623 0.04337991 -0.029961754 -0.024678353 0.0026773326
-0.055674985 0.013290155 -0.0044752364 -0.0040349024 -0.0030929795 -0.07026277 -0.04082416 0.04385312
0.024215497 -0.07960726 -0.068399884 -0.032513786 -0.060671743 -0.016081369 0.004865551 -0.024791118
00000000: 6ce1 78bd 38ea 74bd 659d fa3c 7ab4 51bd
00000010: 2ea9 0e3d 8578 bcbc 543c 093d 484e 493d
00000020: f046 d6bb f35f 13bd 9bcb b4bc 9021 a7bc
00000030: 6735 6fbd ecf8 103d aff9 5abd 86f7 21bc
00000040: 989e 76bc 3861 90bd c209 5c3d f851 353c
00000050: 5ad8 1f3d 2ac3 293c 6f66 593c 9a59 4dbd
00000060: 9013 f43c dd35 a53c caaf 61bd cb46 64bd
00000070: 723c b13c bd57 95ba bc4b 6ebd 5e90 61bd
00000080: a8f8 e23c c2e4 443d d93b 743b 9c6c 22bc
00000090: 21df 4d3d 696b e2bb 2d42 22bd fd6a 223d
000000a0: 5be6 ecbb c4c2 39bb 4490 ee3c e03f 073c
000000b0: 8206 4fbd 22d3 a1bd af94 0d3d 1803 d7bc
000000c0: 09e3 b5bb 379d e73c b9f8 0fbd bad9 123b
000000d0: 2762 4dbd 4f9b 84bd 50ee 2d3c d445 6cbd
000000e0: 80dd 3bbc b15a 3e3d f1be afbc 4943 563d
000000f0: 4821 1bbd 6d87 fdbc 314e 353d 24b3 c0bc
00000100: 576a 75bc 6002 16bd c452 1abd d4e0 05bd
00000110: d0cc abbb 5f87 bcbc 31b6 20bc 412a 7abd
00000120: 1652 7f3d e672 8739 c3a7 28bd 826c 88bd
00000130: a7af 983c c4af 8cbd 0c18 c43c 9ca2 093d
00000140: 581c 8c3c 87ad 95bd f619 0a3d f93b 34bd
00000150: 8b33 6dbc cfac 95bd 1ef5 203d d454 503c
00000160: 1d2f 193d 710c 243c 1c8e 693d 7405 acbc
00000170: 2845 0e3c 9978 d0bc bb88 18bd f163 3cbd
00000180: 3929 3abc 4f3e 3bbb 56ee c13b ba4a c63c
00000190: 3138 8fbd a9da 0f3d 20ac 2e3d dc27 943c
000001a0: 326f 7e3d 1cdf 1b3d 30eb 86bd 712a 2ebb
000001b0: 29be 23bd e689 34bc 1460 04bd 5283 223c
000001c0: 3ac2 3abd 0d7f 9a3c 308b 393d 5aec 65bd
000001d0: 0a9b 3e3d 62c7 343d 30ef 803b 4b4d 1fbd
000001e0: 1a6c 0fbc ca96 23bc 8dba 9fbc b21f 843c
000001f0: ef7e 46bd c255 2c3d 460b 39bd 98f3 ac3c
00000200: 2af4 11bd e6a3 b8bc d32e 8ebd ff1d 1dbc
00000210: af13 293d 03e1 1dbd 9530 a0bd 244d 2b3d
00000220: d3a5 debb ed05 403d 206c 863b 48a8 6fbc
00000230: 1e0b 63bd 2ef6 89bc e038 51bd 4505 5cbd
00000240: f01d 84bc 2d5c 34bd d00d 07bc 26bc 75bd
00000250: 6fb1 16bd a238 87bd 7817 873c e8a1 1d3c
00000260: 9eb3 57bd 04db 4fbd be08 113c 918f edbb
00000270: 8186 45bd 9316 87bd e50b 613b 1b52 13bd
00000280: 4edb 2e3d aed2 17bd 7450 27bd 6039 fd3b
00000290: 9ca2 e5bc 6d0c a03c 6aa9 87bd 9e07 5c3c
000002a0: f6d8 0e3d 57da 44bd ce0f 93bc a3b6 c83a
000002b0: 6de0 57bd 72a6 2c3d faf0 36bd 3001 493c
000002c0: 942c a83c f6a2 1a3c ddc5 69bd aa81 503d
000002d0: 3f79 48bd 682e 07bc e039 6fbd c72a bf3c
000002e0: 362f e63c cbf1 09bb 80ab 3c3a 80c8 dfba
000002f0: c4b3 9e3c 1a0e aebd 4038 933c 7b01 c53b
00000300: b704 42bd baae 373a 41e5 f43c 48e7 33bd
00000310: 6d61 f9bc 720d 35bd f2dd 3d3d 8a64 773d
00000320: 90bd 973c 92dc 4fbc b1f1 58bd ea95 223d
00000330: 9e26 763a e7ef 9bb9 a96c 3b3c fc1e 363d
00000340: ff72 86bc c21a a1bc e8ce 6fbc bcba 8dbc
00000350: b673 6c3d 42d4 cabc 87e3 c8bc 58e5 9ebc
00000360: ab9f f5bc cdeb a139 703e 843a a585 813c
00000370: 7c5a 9cbd 0737 64bd 0881 8ebc d87a 603d
00000380: 1477 e7bc 4e78 76bd ba06 f1bc cb28 a2b9
00000390: ad59 303d 3719 93bd a54b 82bc 0966 c0bb
000003a0: d7f9 263c 2c78 503d 1039 7c3d 4ad9 5dbd
000003b0: 22af 313d 5a72 f5bc 422a cabc 3076 2f3b
000003c0: 740b 64bd f3be 593c 01a5 92bb 3737 84bb
000003d0: 96b3 4abb ede5 8fbd 3c37 27bd 549f 333d
000003e0: 945f c63c 2209 a3bd 3d15 8cbd 2d2d 05bd
000003f0: ef82 78bd 13bd 83bc 336f 9f3b be16 cbbc

base.seq_fcs.0.bias f4 [256]
0.08008824 0.088453315 0.08484752 0.081157416 0.0902158 0.09292265 0.08653373 0.082137875
0.091593094 0.09226624 0.08859165 0.0864111 0.07818875 0.08022364 0.093647644 0.0736847
0.08954865 0.09438618 0.08429642 0.09012185 0.078628875 0.08330816 0.08283913 0.08969526
0.095733024 0.08850722 0.09421852 0.089562915 0.07722009 0.09083674 0.09059279 0.09302684
0.09431422 0.08803277 0.091776595 0.09576652 0.079530634 0.08395874 0.08472719 0.08006642
0.09103618 0.09277425 0.077840164 0.08202661 0.078736104 0.093797415 0.09637308 0.0855313
0.09663685 0.08958275 0.07628184 0.08790027 0.09215417 0.092778124 0.08753967 0.09105455
0.08846197 0.086542375 0.08398411 0.079632044 0.08832599 0.08543685 0.0778511 0.09010122
0.09212917 0.08568952 0.09002901 0.08442587 0.08909488 0.085410394 0.08751972 0.092282265
0.0917226 0.07894966 0.0897592 0.08437888 0.09460514 0.084692605 0.09294474 0.07479162
0.0828167 0.08411081 0.08096396 0.08693043 0.09016299 0.09247814 0.08609999 0.08684868
0.08126144 0.08473156 0.07956213 0.08997851 0.083676495 0.08676591 0.078898236 0.09232098
0.09377105 0.077976495 0.074207775 0.08904333 0.0883967 0.088887155 0.09574924 0.081203796
0.09431383 0.08934912 0.08794171 0.08505154 0.094272554 0.084897146 0.08955088 0.09255902
0.08582726 0.08774772 0.09609734 0.09549793 0.07072995 0.081091896 0.07827738 0.082853526
0.09180534 0.08799495 0.08144807 0.08810956 0.087620154 0.0910675 0.08750514 0.08714588
0.07837582 0.09214809 0.09336464 0.08981478 0.08938034 0.08516305 0.09444753 0.07730431
0.082470775 0.0772777 0.083610676 0.0795332 0.08639893 0.08719584 0.094160974 0.09368142
0.08437683 0.087573886 0.07628387 0.07887585 0.09251744 0.08740347 0.086425826 0.07796371
0.0756639 0.08769888 0.089430034 0.0961865 0.08340576 0.08603731 0.091487214 0.09225657
0.08520176 0.09050812 0.08449092 0.0851482 0.09097443 0.08297687 0.09373473 0.09296648
0.086323425 0.09363476 0.09397056 0.07993167 0.093899645 0.087638676 0.08048236 0.08914011
0.08785156 0.07791477 0.09322042 0.07890484 0.0866849 0.08794351 0.07581722 0.087333925
0.08589919 0.084739566 0.093588404 0.0930263 0.0811898 0.080898635 0.091638975 0.07849746
0.089631125 0.08118351 0.08502655 0.08456514 0.08616502 0.081682265 0.094996646 0.081594035
0.09076805 0.08387253 0.080067456 0.09184678 0.07569806 0.08461125 0.07130038 0.08913629
0.084049866 0.093834266 0.08070021 0.087385304 0.09354988 0.0884545 0.085171424 0.09153759
0.08144015 0.09764551 0.08844191 0.09531133 0.09082645 0.07943571 0.07883315 0.092788905
0.090812415 0.08329558 0.08704114 0.08181476 0.08141465 0.07777864 0.08272762 0.08344717
0.094416395 0.07532839 0.080335036 0.089641795 0.09339893 0.08681538 0.080794774 0.088703714
0.08304564 0.084341004 0.07596141 0.0903157 0.081487015 0.08928543 0.08078748 0.07715504
0.09412966 0.093820944 0.083399154 0.07295565 0.08767522 0.080321476 0.090484165 0.086323015
00000000: 4e05 a43d 0327 b53d 89c4 ad3d dc35 a63d
00000010: 10c3 b83d 3b4e be3d 9938 b13d e737 a83d
00000020: 2995 bb3d 15f6 bc3d 8a6f b53d 4ef8 b03d
00000030: 6c21 a03d 4b4c a43d 56ca bf3d 01e8 963d
00000040: 4865 b73d 8b4d c13d 9aa3 ac3d ce91 b83d
00000050: 2d08 a13d 789d aa3d 90a7 a93d 26b2 b73d
00000060: ad0f c43d 4643 b53d a4f5 c03d c36c b73d
00000070: 9125 9e3d 9d08 ba3d b688 b93d db84 be3d
00000080: d027 c13d 864a b43d 5ef5 bb3d 3d21 c43d
00000090: f5e0 a23d 8ff2 ab3d 7385 ad3d ddf9 a33d
000000a0: 2d71 ba3d 6d00 be3d aa6a 9f3d 91fd a73d
000000b0: 6540 a13d dc18 c03d 405f c53d 092b af3d
000000c0: 8ae9 c53d 2977 b73d a739 9c3d 0f05 b43d
000000d0: 53bb bc3d 7502 be3d 0048 b33d cf7a ba3d
000000e0: 8d2b b53d 213d b13d dcff ab3d 2016 a33d
000000f0: 42e4 b43d 84f9 ae3d 6670 9f3d fd86 b83d
00000100: 38ae bc3d fd7d af3d 2161 b83d 78e7 ac3d
00000110: 6077 b63d a5eb ae3d 8a3d b33d 7cfe bc3d
00000120: 0fd9 bb3d 5cb0 a13d acd3 b73d d6ce ac3d
00000130: 57c0 c13d 5173 ad3d d059 be3d 592c 993d
00000140: cd9b a93d 4a42 ac3d 6fd0 a53d 9508 b23d
00000150: 60a7 b83d 2e65 bd3d 3155 b03d b9dd b13d
00000160: 666c a63d bd87 ad3d 78f1 a23d a746 b83d
00000170: 955e ab3d 53b2 b13d 6695 a13d c812 bd3d
00000180: 090b c03d 24b2 9f3d 3ffa 973d 595c b63d
00000190: 5409 b53d 780a b63d 2d18 c43d 2d4e a63d
000001a0: 9c27 c13d acfc b63d c91a b43d 802f ae3d
000001b0: f811 c13d 8ede ad3d 7466 b73d 958f bd3d
000001c0: 34c6 af3d 14b5 b33d afce c43d 6b94 c33d
000001d0: ddda 903d 8213 a63d e44f a03d 1caf a93d
000001e0: 7004 bc3d b236 b43d 3fce a63d c972 b43d
000001f0: 3272 b33d 9981 ba3d e535 b33d 8a79 b23d
00000200: 8083 a03d 23b8 bc3d f635 bf3d d0f0 b73d
00000210: 0a0d b73d f769 ae3d b56d c13d b951 9e3d
00000220: 70e6 a83d c543 9e3d 133c ab3d 4de2 a23d
00000230: ecf1 b03d bc93 b23d 78d7 c03d 0bdc bf3d
00000240: c2cd ac3d f059 b33d b83a 9c3d a989 a13d
00000250: c979 bd3d 9700 b33d 0600 b13d 70ab 9f3d
00000260: adf5 9a3d 789b b33d 1827 b73d 6dfd c43d
00000270: a4d0 aa3d 5434 b03d a65d bb3d 03f1 bc3d
00000280: 437e ae3d 525c b93d 9309 ad3d 2e62 ae3d
00000290: cd50 ba3d c7ef a93d fef7 bf3d 3665 be3d
000002a0: 56ca b03d 95c3 bf3d a373 c03d 37b3 a33d
000002b0: 754e c03d e87b b33d f0d3 a43d 178f b63d
000002c0: 85eb b33d c791 9f3d 59ea be3d dc98 a13d
000002d0: da87 b13d ba1b b43d 0f46 9b3d 21dc b23d
000002e0: eaeb af3d f08b ad3d 47ab bf3d 9384 be3d
000002f0: d646 a63d 2fae a53d 37ad bb3d 47c3 a03d
00000300: 8690 b73d 8a43 a63d 6622 ae3d 7d30 ad3d
00000310: 4977 b03d 0849 a73d 9a8d c23d c61a a73d
00000320: 99e4 b93d 5cc5 ab3d 68fa a33d 2a1a bc3d
00000330: 9607 9b3d aa48 ad3d ef05 923d 168d b63d
00000340: 5622 ac3d 2e2c c03d 2746 a53d 11f7 b23d
00000350: 1497 bf3d a227 b53d 5b6e ae3d 0f78 bb3d
00000360: 18ca a63d 5ffa c73d 0821 b53d 9632 c33d
00000370: 3803 ba3d 31af a23d 4673 a13d 1c08 be3d
00000380: dcfb b93d e096 aa3d a042 b23d 7f8e a73d
00000390: b9bc a63d 684a 9f3d 196d a93d 5ae6 aa3d
000003a0: 625d c13d c545 9a3d b286 a43d 1e96 b73d
000003b0: f047 bf3d 43cc b13d bb77 a53d 4baa b53d
000003c0: d513 aa3d faba ac3d a891 9b3d 70f7 b83d
000003d0: aae2 a63d 48db b63d e873 a53d 7603 9e3d
000003e0: 0dc7 c03d 3225 c03d 2dcd aa3d c669 953d
000003f0: 118f b33d 967f a43d c34f b93d 1fca b03d

base.seq_fcs.2.weight f4 [256, 256]
0.055622034 -0.0062107663 0.045543727 0.009049462 0.04858165 0.05358176 0.05089101 -0.054828268
-0.028508686 0.047325358 0.039931636 0.054937556 -0.016456421 -0.0053721573 0.037321705 -0.021419784
-0.038977265 0.027657177 0.03296564 0.048127197 0.029930172 0.024869338 -0.023185326 0.038719807
0.040206816 0.044628672 -0.028185474 0.03828091 0.06253396 0.055275038 0.02191807 -0.02911202
0.040845897 -0.019418456 0.045596186 -0.036495958 0.031653292 0.046476677 -0.03020703 -0.039677143
-0.055996474 0.028232727 0.013919114 0.01742719 -0.016008224 -0.05518731 0.05127345 0.002995501
0.0034410977 0.026090572 -0.059138145 -0.0025168494 -0.02681031 -0.010188738 0.007000167 0.06552976
0.049078044 0.042236105 0.04440876 0.011995355 -0.040669538 -0.04338915 -0.027184824 -0.052602988
-0.008469634 0.020648396 0.000938245 0.04697109 0.006328437 -0.027286703 -0.0022520921 0.05178183
0.015082696 -0.025637567 -0.025009355 0.04019241 -0.007812672 -0.018158203 0.013641701 0.019509917
-0.037984412 0.048552245 -0.04016402 0.05182767 -0.0009918251 0.034987893 0.03202671 0.0049699894
0.026980828 -0.019012775 0.0128099 -0.04054499 -0.05391024 -0.04328467 0.042097464 -0.031531442
0.016048033 0.023629459 -0.050212577 -0.037923876 -0.05722182 0.0043963897 -0.034999833 -0.025864555
-0.0029032964 0.02698163 0.053853653 0.0071631065 -0.0122255795 -0.0459433 -0.0021832923 0.04784672
0.009036016 0.04588385 0.04555178 0.04978208 -0.0564906 0.004431434 0.040777095 0.019403601
-0.05264066 0.058800638 0.0011643439 0.016146282 0.009225434 0.018236205 0.036044937 0.021679312
0.0006401851 -0.048018496 -0.019599557 0.0379561 0.06034378 0.039044 0.0024182945 -0.058451805
0.03972715 0.022290654 0.010319547 0.050702237 0.05458424 0.013749025 -0.006033426 0.03925852
-0.01853544 -0.020607514 0.037840456 -0.017048672 0.0016768674 0.018352186 0.017267346 0.041835383
0.010559512 -0.031042103 0.027867638 0.016719121 -0.0032805027 0.020144586 -0.03798254 -0.053226035
0.00300345 -0.02118054 0.048499547 -0.0143994 0.037901253 0.058080457 -0.04264122 0.060926914
0.0084473165 -0.05770629 0.055929653 -0.04972039 -0.047893368 0.0010471087 0.019889202 0.01430315
0.010445854 -0.043630626 0.027578253 -0.04263729 0.011823514 -0.057515163 -0.02707184 0.002071289
0.048216727 0.01705079 0.053513575 0.06126261 -0.03477622 0.030237325 0.0007233777 0.004508317
-0.03154304 -0.030247388 0.03727195 0.062484767 -0.03296238 -0.03545687 0.030128332 0.008522115
-0.055803936 -0.04315715 0.033644315 -0.002091393 -0.021276904 0.020470263 -0.020548303 0.057581495
0.035127092 0.057512984 0.056270827 -0.022510707 0.050989237 -0.008933009 0.015488897 0.051032774
-0.040601663 0.02511209 0.0030875355 -0.04168179 0.003244408 0.041373935 0.044944257 0.009583548
-0.022399247 0.04733862 0.04216 0.03485784 -0.0050574266 -0.022277055 0.035231177 0.027506188
-0.019819384 -0.017991483 -0.0030883998 -0.03887637 0.0006994227 0.050804526 -0.054693844 -0.0073588635
-0.019977523 -0.008223697 -0.04817647 0.009486696 0.033865545 -0.034981847 -0.032269947 -0.023864498
-0.0011314027 -0.028581489 0.00046530552 -0.03544509 -0.02896915 0.035227776 -0.039871108 0.06588865
00000000: eed3 633d af83 cbbb 0f8c 3a3d 3244 143c
00000010: 8dfd 463d 8c78 5b3d 1773 503d 9b93 60bd
00000020: 0c8b e9bc 3cd8 413d 5b8f 233d 3406 613d
00000030: 9ecf 86bc ec08 b0bb a5de 183d 8b78 afbc
00000040: a0a6 1fbd 4e91 e23c fb06 073d 0621 453d
00000050: 1f30 f53c c8ba cb3c 27ef bdbc a998 1e3d
00000060: e7af 243d 8ecc 363d 39e5 e6bc 72cc 1c3d
00000070: ce11 803d 1468 623d 868d b33c 557c eebc
00000080: 074e 273d 7413 9fbc 11c3 3a3d c97c 15bd
00000090: e2a6 013d 545e 3e3d bc74 f7bc 8084 22bd
000000a0: 8f5c 65bd 5248 e73c ff0c 643c 77c3 8e3c
000000b0: ae23 83bc 170c 62bd 1c04 523d 2b50 443b
000000c0: 0a84 613b e5bb d53c d73a 72bd baf1 24bb
000000d0: 4ca1 dbbc aaee 26bc a861 e53b 7834 863d
000000e0: 0f06 493d c4ff 2c3d f6e5 353d 2a88 443c
000000f0: 1a95 26bd d2b8 31bd b5b2 debc 3b76 57bd
00000100: 38c4 0abc d326 a93c 8ef4 753a c264 403d
00000110: c75e cf3b 5d88 dfbc d697 13bb 2f19 543d
00000120: 6a1d 773c e005 d2bc 6be0 ccbc cca0 243d
00000130: b900 00bc 83c0 94bc 7181 5f3c 43d3 9f3c
00000140: 8b95 1bbd b8de 463d 0783 24bd 4049 543d
00000150: 2100 82ba 774f 0f3d 712e 033d 4bdb a23b
00000160: e606 dd3c aec0 9bbc 9de0 513c 8112 26bd
00000170: fcd0 5cbd 444b 31bd 646e 2c3d 1d27 01bd
00000180: 2a77 833c 9192 c13c b4ab 4dbd 1156 1bbd
00000190: 6d61 6abd 970f 903b fc5b 0fbd e7e1 d3bc
000001a0: 3b45 3ebb 9408 dd3c a695 5c3d 7eb8 ea3b
000001b0: cc4d 48bc 0b2f 3cbd 9115 0fbb ecfa 433d
000001c0: cc0b 143c b4f0 3b3d 8194 3a3d 4be8 4b3d
000001d0: b062 67bd 9035 913b e205 273d 4df4 9e3c
000001e0: bc9d 57bd f0d8 703d e69c 983a 3545 843c
000001f0: 4626 173c 1864 953c dba3 133d d098 b13c
00000200: 18d2 273a 0baf 44bd 408f a0bc db77 1b3d
00000210: 0a2b 773d 9aec 1f3d 407c 1e3b 296b 6fbd
00000220: f0b8 223d e49a b63c 5113 293c 26ad 4f3d
00000230: b993 5f3d 9743 613c 0cb4 c5bb 8bcd 203d
00000240: a3d7 97bc 17d1 a8bc 98fe 1a3d a8a9 8bbc
00000250: 55ca db3a 5357 963c 4074 8d3c 945b 2b3d
00000260: ce01 2d3c 024c febc ac4a e43c 8af6 883c
00000270: b4fd 56bb 4206 a53c 9493 1bbd 8b03 5abd
00000280: 88d5 443b d082 adbc 76a7 463d 76eb 6bbc
00000290: 583e 1b3d c6e5 6d3d 8fa8 2ebd 808e 793d
000002a0: 9d66 0a3c 6e5d 6cbd 7e16 653d 9ca7 4bbd
000002b0: d62b 44bd 233f 893a aeee a23c c257 6a3c
000002c0: 1625 2b3c 07b6 32bd caeb e13c 70a4 2ebd
000002d0: 69b7 413c 0595 6bbd c3c5 ddbc 77be 073b
000002e0: e77e 453d 19ae 8b3c 0d31 5b3d 81ee 7a3d
000002f0: 8271 0ebd 44b4 f73c 0ea1 3d3a 81ba 933b
00000300: 4633 01bd 5fc9 f7bc 79aa 183d 07f0 7f3d
00000310: 9003 07bd 393b 11bd b1cf f63c 57a0 0b3c
00000320: ab92 64bd 8dc5 30bd 9fce 093d c10f 09bb
00000330: e74c aebc 41b1 a73c ea54 a8bc 93da 6b3d
00000340: 6de1 0f3d bc92 6b3d 3d7c 663d 6068 b8bc
00000350: 17da 503d c15b 12bc 25c5 7d3c be07 513d
00000360: ee4d 26bd dfb7 cd3c 4058 4a3b 86ba 2abd
00000370: 22a0 543b b777 293d 7817 383d 5004 1d3c
00000380: a07e b7bc 24e6 413d f7af 2c3d 18c7 0e3d
00000390: c5b8 a5bb 5f7e b6bc 914e 103d a854 e13c
000003a0: 435c a2bc e062 93bc c066 4abb d43c 1fbd
000003b0: 7659 373a 6818 503d a706 60bd 9f22 f1bb
000003c0: e7a7 a3bc afbc 06bc b154 45bd 166e 1b3c
000003d0: 99b6 0a3d 2049 0fbd 7e2d 04bd 7b7f c3bc
000003e0: 934b 94ba ba23 eabc 40f4 f339 df2e 11bd
000003f0: b650 edbc 004b 103d e34f 23bd a1f0 863d

base.seq_fcs.2.bias f4 [256]
0.10158938 0.09924731 0.094526105 0.10175626 0.09917518 0.09307382 0.09590778 0.09451924
0.10027049 0.09957566 0.096816786 0.09100974 0.09498857 0.098372184 0.094003685 0.09467294
0.09649679 0.10298052 0.09939097 0.096258 0.08745189 0.09961169 0.08992677 0.09645235
0.10330357 0.100973934 0.09735886 0.09030456 0.0911098 0.100257814 0.09531843 0.10028415
0.10089654 0.09376682 0.09391417 0.09204341 0.096423075 0.09130924 0.09870842 0.09156948
0.0924578 0.099810965 0.098987006 0.098304294 0.093467616 0.09293067 0.09675376 0.09315356
0.09481443 0.096536465 0.09185077 0.09472398 0.0962336 0.09828196 0.099233866 0.09405253
0.094715565 0.09845121 0.0962277 0.093208015 0.09134859 0.099454634 0.10072221 0.099431805
0.09480444 0.09518606 0.096495055 0.094690554 0.095967226 0.09310687 0.09943979 0.09520172
0.09671917 0.09991136 0.09151408 0.09342654 0.09592525 0.10013035 0.097705945 0.099762425
0.101184584 0.10131104 0.10113519 0.09420996 0.09441568 0.0961072 0.09725972 0.0978654
0.09348063 0.09671781 0.09876542 0.10182741 0.0994591 0.094307974 0.099257775 0.101583086
0.0996422 0.096707255 0.096628495 0.10082324 0.09592672 0.09606548 0.09702013 0.09481175
0.098015405 0.09889723 0.09899912 0.092476495 0.09136826 0.09647512 0.10262503 0.10065122
0.09528851 0.09330169 0.097216085 0.089923665 0.09826322 0.09440548 0.09625944 0.097639285
0.09956674 0.09505519 0.094982214 0.09525683 0.09439691 0.10024263 0.10143308 0.10048562
0.09860259 0.0925874 0.093111955 0.094680704 0.09165637 0.09650916 0.097015604 0.092966236
0.09332907 0.09671932 0.09206803 0.096464045 0.09956293 0.09328616 0.097888105 0.08952999
0.09816265 0.09809776 0.09743332 0.102021135 0.099592045 0.101972885 0.100827545 0.09625712
0.096263826 0.09320388 0.09298939 0.09617681 0.09312256 0.09914274 0.099688336 0.09681035
0.10157946 0.08940575 0.09608451 0.09071457 0.09509952 0.092288 0.09913774 0.0962682
0.095664494 0.10175594 0.09730359 0.09735675 0.09594579 0.09980343 0.100876145 0.09537806
0.09045288 0.096237175 0.09422422 0.090835474 0.09378602 0.09199245 0.0973883 0.09911571
0.09471759 0.09597268 0.09970855 0.10046103 0.0950068 0.09315228 0.0984086 0.09033353
0.09423853 0.09131299 0.100178376 0.09375121 0.09829822 0.09395879 0.097943775 0.0967136
0.09509727 0.09854388 0.09910887 0.09419025 0.09424771 0.0952926 0.0960765 0.10023398
0.092469186 0.092524596 0.098391466 0.098257415 0.10016863 0.0924426 0.1 0.10038478
0.10047103 0.09936714 0.091556214 0.09453964 0.094163835 0.10474699 0.0942151 0.098341845
0.09357551 0.09378386 0.10150232 0.09180219 0.096633494 0.09100814 0.08976692 0.09654421
0.096952945 0.096758746 0.09234548 0.09826321 0.09918378 0.091375984 0.10057254 0.09076
0.100979894 0.09790968 0.09439052 0.09152583 0.09854073 0.098718084 0.09264417 0.09392497
0.09675533 0.096696205 0.09313596 0.08917135 0.10040443 0.09256587 0.09753007 0.09484469
00000000: 180e d03d 2c42 cb3d e796 c13d 9665 d03d
00000010: 5b1c cb3d 7d9d be3d 4c6b c43d 4e93 c13d
00000020: 9d5a cd3d 53ee cb3d e147 c63d 5163 ba3d
00000030: 5e89 c23d 5b77 c93d 0185 c03d e3e3 c13d
00000040: 1ca0 c53d 73e7 d23d 7e8d cb3d ea22 c53d
00000050: fa19 b33d 3701 cc3d 872b b83d cf88 c53d
00000060: d290 d33d 6ccb ce3d 1564 c73d 99f1 b83d
00000070: c697 ba3d f853 cd3d 4f36 c33d c761 cd3d
00000080: d8a2 ce3d d208 c03d 1356 c03d 4181 bc3d
00000090: 7679 c53d 5700 bb3d a427 ca3d c888 bb3d
000000a0: 845a bd3d b169 cc3d b3b9 ca3d c353 c93d
000000b0: f36b bf3d 6f52 be3d d626 c63d 4bc7 be3d
000000c0: 112e c23d e9b4 c53d 421c bc3d a5fe c13d
000000d0: 1f16 c53d 0d48 c93d 203b cb3d 9d9e c03d
000000e0: 3cfa c13d caa0 c93d 0713 c53d d8e3 be3d
000000f0: f814 bb3d dfae cb3d 7247 ce3d e7a2 cb3d
00000100: d528 c23d e9f0 c23d 339f c53d 1fed c13d
00000110: 778a c43d d1ae be3d 17a7 cb3d 1ff9 c23d
00000120: b314 c63d 549e cc3d bc6b bb3d 6a56 bf3d
00000130: 7574 c43d 2411 cd3d 0e1a c83d 3e50 cc3d
00000140: dd39 cf3d 2a7c cf3d f71f cf3d 27f1 c03d
00000150: 025d c13d dad3 c43d 1b30 c73d a86d c83d
00000160: c672 bf3d fd13 c63d 8645 ca3d e48a d03d
00000170: 36b1 cb3d 8a24 c13d a947 cb3d cb0a d03d
00000180: 3611 cc3d 740e c63d 29e5 c53d 6a7c ce3d
00000190: 3a75 c43d fabd c43d 7db2 c63d aa2c c23d
000001a0: 4dbc c83d a28a ca3d 0dc0 ca3d 5164 bd3d
000001b0: 481f bb3d bf94 c53d 122d d23d 3a22 ce3d
000001c0: 9f26 c33d f514 bf3d 3a19 c73d e629 b83d
000001d0: 3a3e c93d a957 c13d ab23 c53d 1bf7 c73d
000001e0: a6e9 cb3d 4cac c23d 0986 c23d 0316 c33d
000001f0: 2b53 c13d 024c cd3d 26bc cf3d 68cb cd3d
00000200: 28f0 c93d 769e bd3d 7bb1 be3d f5e7 c13d
00000210: 56b6 bb3d 98a6 c53d 1eb0 c63d 1565 be3d
00000220: 5023 bf3d c714 c63d 2a8e bc3d f18e c53d
00000230: a6e7 cb3d d00c bf3d 8f79 c83d 805b b73d
00000240: 8009 c93d 7ae7 c83d 1f8b c73d 75f0 d03d
00000250: eaf6 cb3d 29d7 d03d ac7e ce3d 7422 c53d
00000260: f825 c53d ade1 be3d 3971 be3d 59f8 c43d
00000270: 0ab7 be3d 590b cb3d 6629 cc3d 8144 c63d
00000280: e408 d03d 5d1a b73d f5c7 c43d 8fc8 b93d
00000290: 8ac3 c23d 7e01 bd3d ba08 cb3d 4328 c53d
000002a0: bfeb c33d 6b65 d03d 1b47 c73d fa62 c73d
000002b0: 3a7f c43d be65 cc3d 2798 ce3d 9355 c33d
000002c0: 5c3f b93d ff17 c53d a1f8 c03d f307 ba3d
000002d0: e312 c03d 8a66 bc3d 8473 c73d 2dfd ca3d
000002e0: 4cfb c13d 538d c43d ff33 cc3d 83be cd3d
000002f0: ed92 c23d 9fc6 be3d 738a c93d c900 b93d
00000300: 2100 c13d 4e02 bb3d 522a cd3d a200 c03d
00000310: 9450 c93d 776d c03d bf96 c83d c811 c63d
00000320: 5cc2 c23d 60d1 c93d 97f9 ca3d d1e6 c03d
00000330: f204 c13d c428 c33d c2c3 c43d 7947 cd3d
00000340: 7c60 bd3d 897d bd3d 7781 c93d 2f3b c93d
00000350: 3625 cd3d 8c52 bd3d cdcc cc3d 8996 cd3d
00000360: c1c3 cd3d 0081 cb3d d381 bb3d 009e c13d
00000370: f8d8 c03d 9785 d63d d9f3 c03d 7367 c93d
00000380: 84a4 bf3d c111 c03d 73e0 cf3d c902 bc3d
00000390: c8e7 c53d 7a62 ba3d b8d7 b73d f9b8 c53d
000003a0: 448f c63d 7329 c63d a11f bd3d 393e c93d
000003b0: de20 cb3d 5523 bb3d faf8 cd3d 61e0 b93d
000003c0: 8cce ce3d df84 c83d d14f c13d e571 bb3d
000003d0: b9cf c93d b52c ca3d 3abc bd3d bc5b c03d
000003e0: a927 c63d a908 c63d 11be be3d 789f b63d
000003f0: d6a0 cd3d 2d93 bd3d d8bd c73d ef3d c23d

last.weight f4 [8, 256]
6.578921e-05 0.00093581306 -0.00095500535 0.001149988 0.0004981458 -0.0016903148 0.0011515428 0.0004252451
0.002418062 0.00019163353 -0.0014569189 0.0014485441 -0.00011516678 -0.00091803673 0.00045272356 0.00027060867
0.0006682214 0.0029890735 0.00044498648 0.0029734056 -0.0023298045 0.00016275604 0.00016265713 -0.0009903269
-0.0008463956 0.0011542891 -0.00091362756 -0.0009039374 -0.0015489309 -0.0011179168 0.0016691943 -0.001249658
0.0017431153 0.0015921557 -0.001583689 -0.0013089919 -0.0016013343 1.3766841e-05 -0.0009823528 -0.0009460976
0.00026034893 -0.000598965 0.0006667524 0.0016209212 -0.00092762744 -0.0002339792 0.0019211603 -0.0010193961
0.0014145571 6.619765e-05 -0.00063646975 -0.0013846902 -0.0020008625 -0.00033055563 -0.0006469973 0.0021289214
-0.0008348545 -0.00073578546 0.0018939748 0.0027688183 -0.001322288 -0.00045660377 -4.828986e-05 -0.0010989956
0.003035541 0.0022042496 -0.0010183569 -0.00094267697 0.0013053579 -0.0007958968 0.001798608 -0.00071121287
0.00054180255 0.002415549 -0.001839981 -0.0014658436 0.0053393757 0.0012494646 -0.0012609328 -5.9147435e-05
0.0026388674 -0.00018990865 0.00021387186 0.00028003028 0.0023053745 -0.0011795674 -0.00069696916 0.001913701
-0.00014790142 -0.00024082085 -0.00025913728 0.0018951696 0.0020060395 -0.00016863002 -0.00040815325 -0.0004408025
0.00016604255 0.0005267498 -0.00097618735 0.00070911355 -0.0012360219 0.00078675157 0.00036539548 -0.0012638147
-0.008706347 0.0010908386 -0.0012119256 6.8433187e-06 -0.0008010343 0.00038891876 -0.00075416063 -0.000108840315
-0.005272294 0.00063236005 0.0020518003 3.1465133e-05 0.0016145882 -0.0011510508 0.0015671661 0.0002389943
-0.0014952855 -0.008382814 -0.00109043 0.0006161499 -0.00092761795 0.00092521415 -0.0016903451 0.0020229553
0.0001803201 -0.0008182239 -3.0811065e-05 0.0021590379 -0.0008724314 0.0007438102 -0.001186781 0.0007659652
0.002474271 7.929624e-05 -0.0021953592 -0.0011582894 0.0011168342 -0.006168821 0.00041946798 -0.00048486554
0.0012413616 -0.0014702273 0.00021096118 -0.0012656761 0.002157249 -0.0011061486 0.0023411685 -0.0011226968
-0.0014630345 -0.0010857913 -0.0010785224 0.0005041202 0.0001604496 0.0016444381 -0.0008589511 -2.219305e-05
0.0020922483 -0.00078453607 -0.00026669205 -0.0006867979 0.0047967383 0.002210307 0.0011310892 0.0015343202
0.0009524393 -0.00019122037 0.0009559095 -0.0014753998 -0.0002986315 0.00021497444 -0.000447883 0.0037797522
-0.00039385105 -0.0010181703 -0.00066424406 -0.00032232163 -0.00022444292 -0.004128537 -0.0013438334 0.002049984
-0.0013893454 0.0007851665 3.8561222e-05 0.00058569276 -0.009477187 -0.001126364 -0.00075461104 -0.0005400614
0.00081874407 -0.001474296 -0.0012378255 -0.0008354142 0.0009882578 -4.8055223e-05 0.0011846713 -0.0012519804
-0.001371537 0.0017643013 0.00013082854 0.0017828364 -0.000761476 -0.0011865919 0.001688835 0.0015842338
-0.0004716334 -0.0006429118 -0.0002852957 0.00040673648 -0.0010892627 -0.00066813175 0.002017308 -0.00041308944
-0.00031059008 -0.0007084702 -0.0011564529 -0.0009332415 -0.00073332846 -0.0005304047 -0.0015302255 0.0006432714
0.0071043666 -0.00095763354 0.00071190577 -0.00130315 0.00046895767 0.0010729975 -0.0032777372 0.0019092269
-0.0006707022 -0.0017171194 -9.4791285e-05 -0.0008136545 -0.00021752494 0.0010633917 0.0015720875 -7.337251e-05
-0.0012534119 -0.0017408478 5.5324082e-05 7.6233955e-05 0.0005289144 0.0006481768 0.0024755523 -4.5646964e-05
0.0014693211 0.0019400271 0.0021355422 -7.034588e-05 -0.0013959382 -0.0011428328 0.00042307214 -0.0011984612
00000000: 50f8 8938 5a51 753a 5359 7aba 32bb 963a
00000010: 0096 023a 8e8d ddba 5def 963a 6ef3 de39
00000020: 5978 1e3b 3cf1 4839 16f6 beba 13dd bd3a
00000030: b285 f1b8 67a8 70ba 875b ed39 7be0 8d39
00000040: 942b 2f3a 55e4 433b 134d e939 78dd 423b
00000050: a2af 18bb 7ea9 2a39 f18e 2a39 dbcd 81ba
00000060: a6e0 5dba 844b 973a 8280 6fba 36f6 6cba
00000070: 7f05 cbba 1087 92ba dec8 da3a 90cb a3ba
00000080: 3e79 e43a e1af d03a c993 cfba 7b92 abba
00000090: dde3 d1ba 22f8 6637 4ac2 80ba 8903 78ba
000000a0: 717f 8839 dc03 1dba ffc8 2e3a 1775 d43a
000000b0: 062c 73ba 5058 75b9 71cf fb3a 429d 85ba
000000c0: a968 b93a 98d3 8a38 c3d8 26ba 7e7e b5ba
000000d0: e720 03bb 6d4e adb9 419b 29ba 6085 0b3b
000000e0: 23da 5aba bae1 40ba 403f f83a 1075 353b
000000f0: 9f50 adba 5264 efb9 d88a 4ab8 2c0c 90ba
00000100: edef 463b 2c75 103b 637a 85ba fb1d 77ba
00000110: 8b18 ab3a bba3 50ba 45bf eb3a b070 3aba
00000120: c107 0e3a 304e 1e3b 842b f1ba 8d21 c0ba
00000130: eef5 ae3b 13c5 a33a e245 a5ba 1315 78b8
00000140: d9f0 2c3b 3722 47b9 ca42 6039 07d1 9239
00000150: c415 173b b79b 9aba cfb4 36ba 26d5 fa3a
00000160: fc15 1bb9 db84 7cb9 d1dc 87b9 5767 f83a
00000170: c277 033b 47d2 30b9 67fd d5b9 831b e7b9
00000180: b51b 2e39 9515 0a3a d3e6 7fba cee3 393a
00000190: 0302 a2ba 013e 4e3a 8d92 bf39 96a6 a5ba
000001a0: 11a5 0ebc 78fa 8e3a 7ad9 9eba a99f e536
000001b0: 80fc 51ba cbe7 cb39 ddb2 45ba 3341 e4b8
000001c0: 35c3 acbb f7c4 253a 7f77 063b 6ef9 0338
000001d0: 97a0 d33a dbde 96ba 5e69 cd3a 8b9a 7a39
000001e0: 75fd c3ba 1258 09bc c2ec 8eba 1f85 213a
000001f0: 632b 73ba 128a 723a 928e ddba 8f93 043b
00000200: 4f14 3d39 147e 56ba 213b 01b8 a57e 0d3b
00000210: e1b3 64ba 42fc 423a c38d 9bba 0ecb 483a
00000220: 6127 223b d84b a638 04e0 0fbb bed1 97ba
00000230: bd62 923a d223 cabb 0aec db39 8d35 feb9
00000240: 2fb5 a23a a4b4 c0ba 7635 5d39 0be5 a5ba
00000250: a260 0d3b 30fc 90ba 4a6e 193b 7427 93ba
00000260: 4bc3 bfba 1c51 8eba 355d 8dba ef26 043a
00000270: 5d3e 2839 308a d73a 3c2b 61ba 362b bab7
00000280: 1a1e 093b 53a9 4dba cdd2 8bb9 3a0a 34ba
00000290: f52d 9d3b ccda 103b 0e41 943a 3e1b c93a
000002a0: 1fad 793a 5482 48b9 0096 7a3a 3462 c1ba
000002b0: a491 9cb9 c36a 6139 d7d1 eab9 b8b5 773b
000002c0: cb7d ceb9 2074 85ba aa20 2eba 47fd a8b9
000002d0: 7058 6bb9 ae48 87bb 9123 b0ba 0659 063b
000002e0: b21a b6ba a2d3 4d3a ccbc 2138 2d89 193a
000002f0: 3446 1bbc 81a2 93ba 17d1 45ba e892 0dba
00000300: fca0 563a 2a3d c1ba 883e a2ba b3ff 5aba
00000310: 6e88 813a e78e 49b8 f946 9b3a 7e19 a4ba
00000320: 25c5 b3ba 2140 e73a 052f 0939 10ae e93a
00000330: ca9d 47ba 6b87 9bba e65b dd3a 11a6 cf3a
00000340: 9045 f7b9 1589 28ba be93 95b9 3f3f d539
00000350: 97c5 8eba 9025 2fba d034 043b ed93 d8b9
00000360: b2d6 a2b9 a1b8 39ba 1f94 97ba c7a4 74ba
00000370: d73c 40ba db0a 0bba d991 c8ba 37a1 283a
00000380: bfcb e83b b309 7bba 309f 3a3a 75ce aaba
00000390: 6fde f539 d2a3 8c3a 4ecf 56bb 063f fa3a
000003a0: 10d2 2fba f710 e1ba afca c6b8 6e4b 55ba
000003b0: 6817 64b9 8161 8b3a 810e ce3a 91df 99b8
000003c0: 8649 a4ba 292d e4ba c80b 6838 cbdf 9f38
000003d0: d8a6 0a3a 69ea 293a e03c 223b 0e75 3fb8
000003e0: 3c96 c03a 8248 fe3a 74f4 0b3b a886 93b8
000003f0: eaf7 b6ba 1bcb 95ba c8cf dd39 af15 9dba

last.bias f4 [8]
0.00016355285 0.0025903203 -0.0029745013 -0.0019032711 -0.013957617 -0.009333461 -0.010987542 -0.01177432
00000000: 627f 2b39 5dc2 293b daef 42bb 2e77 f9ba
00000010: 7dae 64bc 5feb 18bc 1705 34bc 14e9 40bc
