Soft-Module-main/log/model50_26/model_vf_best.pth (torch, 280037 bytes, 5 tensors)

base.seq_fcs.0.weight f4 [256, 12]
000000 d2 ce fd bd 1f 26 ea 3e 74 77 c7 bd 33 e5 0c bf
       -0.123929635 0.4573221 -0.09739581 -0.5503723
000010 aa d6 1a 3f 14 2d f7 3e bc 05 ff 3c 58 b5 63 bd
       0.604838 0.4827658 0.031130664 -0.055592865
000020 b2 54 5f bd dc 6f 27 bf cb 2c 1d 3f da 78 17 3f
       -0.05452413 -0.6540506 0.61396474 0.5916878
000030 97 8f f7 bf f4 66 60 3d 1a 04 a1 3e d7 cd e7 3d
       -1.9340695 0.054785684 0.31448442 0.11318558
000040 f5 cc 06 be 18 ea 9c be ba 4b 13 3d e4 c6 ca bc
       -0.13164122 -0.3064735 0.03596089 -0.024753042
000050 de 7a 3e bd 71 b7 d8 3d 76 7f 45 be 70 3d eb bd
       -0.046503894 0.10581864 -0.19286904 -0.11486328
000060 75 3c 6b bf 56 61 94 3e 3b 4c a8 be 6d 65 87 be
       -0.91889125 0.2898051 -0.3287066 -0.2644457
000070 bc 12 4a 3e be 74 fd 3d b0 91 30 bd d0 01 66 bc
       0.19733709 0.123757824 -0.04310769 -0.014038518
000080 16 04 7a 3d 00 ac 4b be aa c8 32 3e 02 05 6a 3e
       0.061039053 -0.19889832 0.1745936 0.22853473
000090 37 3b f6 bf f6 86 d4 bb 97 24 82 3e 50 68 c2 3d
       -1.9236821 -0.006485815 0.2541854 0.09492552
0000a0 d1 df b7 bd ce 02 c5 be 72 1c 04 bd 58 c3 8f bc
       -0.089782365 -0.38478702 -0.03225369 -0.017549202
0000b0 46 88 39 3d 34 09 ad 3d c4 88 3c be 46 9e ba bd
       0.045295976 0.08449021 -0.18411547 -0.091122195
0000c0 6a f2 f3 bf 05 ab 93 3b aa c2 11 3e d5 23 0c 3e
       -1.9058354 0.004506471 0.14234415 0.13685544
0000d0 47 d8 a8 bd 82 25 ca be 98 fd 59 bc 16 c3 02 bd
       -0.08244377 -0.3948174 -0.01330509 -0.03192433
0000e0 7e 00 69 3d 40 34 ab 3d cf be 34 be 97 9e cf bd
       0.056885235 0.08359575 -0.17650913 -0.101376705
0000f0 5a 26 d6 bf 0c e3 38 3e 32 0a d0 3e ef 43 05 bd
       -1.6730454 0.18055362 0.40632778 -0.03253549
000100 98 67 b0 3d 17 59 37 be b4 25 96 bc 80 39 28 bc
       0.08613509 -0.17905079 -0.018328525 -0.010267615
000110 e8 68 b9 3c 62 77 bf bc 16 4f 7e bb 09 0d cc 3c
       0.022633031 -0.023372356 -0.0038804463 0.02490856
000120 42 89 73 bf 14 c6 85 3e 35 89 a1 be 0c f0 39 be
       -0.95131314 0.26127684 -0.31549993 -0.18157977
000130 aa 36 79 3e 42 cd 63 3d 4a 8a 7c 3d 1a b5 18 bd
       0.24337259 0.05561567 0.06165532 -0.037282087
000140 d4 67 10 bd 98 e3 0f be e8 87 25 3e 40 8d 5f 3e
       -0.03525527 -0.14051664 0.16165125 0.21831226
000150 d2 18 ee bf a9 a1 d9 3d 8d 77 28 3e 5f 7a 43 3e
       -1.8601325 0.10626537 0.16451855 0.1908965
000160 5e b8 4b be a1 ff 99 be c8 aa 9c 3c ca 80 74 3d
       -0.19894549 -0.30077842 0.019124404 0.059693135
000170 0c f5 67 3d e4 83 d1 3d 68 70 d4 bd 05 8d 2c be
       0.05663018 0.10230234 -0.10373002 -0.1685067
000180 75 11 78 bf f2 6c a3 3e a4 a8 c5 be af 5b 4e be
       -0.9690164 0.31919056 -0.38605225 -0.20152162
000190 12 fe 38 3e db 2b 88 3d 90 cf e5 3c b0 69 d0 3c
       0.1806567 0.0664899 0.028053075 0.02544102
0001a0 10 4f 8e 3c 2d 28 86 be 48 00 3b 3e 33 22 94 3e
       0.017371684 -0.26202527 0.18261826 0.28932342
0001b0 e1 a0 b5 bf 67 25 7f 3e c4 57 8a 3e 8c 43 7d 3c
       -1.4189721 0.24916612 0.27020085 0.015457999
0001c0 18 99 84 3d d1 0a 50 be bc 09 b4 bc 38 68 91 bc
       0.06474513 -0.20316626 -0.021977298 -0.01774989
0001d0 c0 a9 17 bd af c5 a3 bd ae 30 b0 bc af de 60 3d
       -0.03702712 -0.079966895 -0.021507587 0.054899868
0001e0 7b 96 c5 bf 0f 24 b2 3e 2a d2 bb 3e 69 b8 02 be
       -1.5436548 0.34793136 0.3668378 -0.1276566
0001f0 ee 9c 83 3d ec 54 da bd 68 2c 18 bd f0 f5 5a bd
       0.06426416 -0.10660729 -0.037151724 -0.0534572
000200 a6 0d 33 3d 87 3a d8 bd 72 0f 10 3d f4 71 f9 3d
       0.043714188 -0.10558038 0.03517098 0.12179938
000210 e0 67 ee bf 24 a0 9b 3d be 34 5d 3e 7b 43 1d 3e
       -1.862545 0.07598904 0.21602151 0.15357773
000220 b7 d5 20 be 42 c6 c0 be c8 e1 13 3c 10 83 55 3c
       -0.15706526 -0.3765126 0.009025998 0.013031736
000230 80 7b bd ba 6c 64 28 3e 0b d5 ec bd 93 6b 41 be
       -0.0014456362 0.16444558 -0.11564072 -0.18888693
000240 a3 ce ae bf 61 82 be 3d bc d8 e4 3e 10 cb b4 3d
       -1.365681 0.093022116 0.44696605 0.088277936
000250 67 16 ba bd 32 76 cc be 90 78 b9 bc 28 6b 4a bd
       -0.09086304 -0.39933926 -0.022640496 -0.0494186
000260 70 1e 16 3c 4c b7 21 3e 8e 89 2b be 24 fe 12 be
       0.00916253 0.15792578 -0.16751692 -0.1435476
000270 c4 c0 db bf 67 b4 1a 3e c0 53 9e 3e 4a 7d 00 3c
       -1.7168202 0.1510788 0.3092327 0.007842371
000280 67 61 8e 3c 7d 10 9b bd 1c 94 b9 3c 18 b3 d9 3c
       0.01738043 -0.07571504 0.022653632 0.026574656
000290 48 23 fe 3c 86 f5 16 3d 51 28 b7 bc 74 d2 2c 3c
       0.031022683 0.036855243 -0.022358092 0.010548223
0002a0 e7 03 72 bf a5 54 9e 3e 80 35 8c be 97 96 79 be
       -0.94537205 0.30923954 -0.27384567 -0.24373852
0002b0 ab 71 1d 3e b1 18 1c 3d 6c 01 66 bd d8 d6 12 bc
       0.15375392 0.038109485 -0.0561537 -0.008962356
0002c0 24 f4 63 bd fa 7d 18 be f8 f5 25 3e 17 be 6e 3e
       -0.055652753 -0.14891806 0.16207111 0.23314701
0002d0 0f c6 b3 bf 0b 68 b0 3e 3d 2f ab 3e b4 a0 1a be
       -1.4044818 0.34454378 0.33434477 -0.15100366
0002e0 0d c5 96 3d e7 74 03 be f0 79 4c 3c 26 54 23 bd
       0.07361803 -0.12837563 0.012480244 -0.039875172
0002f0 42 d8 45 bd 71 d8 b8 bd bd 6e 8b 3d 1e 88 f1 3d
       -0.048301943 -0.09025658 0.06808231 0.117935404
000300 6d 8e ca 3e b1 f6 02 3f 83 b2 5e be 81 05 1b bf
       0.39561787 0.5115767 -0.21747784 -0.60555273
000310 43 a0 25 3f b0 75 db 3e 9c d0 ab bc e4 1f da bc
       0.64697665 0.42863226 -0.020973496 -0.026626535
000320 48 57 ea 3c 4d ca 2a bf bd 6b 26 3f e7 63 24 3f
       0.028606072 -0.66714936 0.65008146 0.6421494
000330 a6 aa fb bf 7e e2 ef bb d1 5c a6 bd 27 4f 1c 3e
       -1.9661453 -0.007320701 -0.08123172 0.15264569
000340 82 3d a0 bd ce 2a a3 be 58 0b 66 bd 74 8d 20 bd
       -0.07824232 -0.31868595 -0.056163162 -0.0391974
000350 f4 c6 50 bd 6c e5 04 3e e4 e5 de bd 00 b1 fe bd
       -0.050970986 0.12978142 -0.10883692 -0.12436104
000360 81 02 96 bf 1f d6 ad 3e 2f 01 89 3e ee 1f 5f bd
       -1.1719514 0.33952424 0.26758716 -0.05447381
000370 d7 48 b9 3d d9 4b 1b bd 30 dd 73 bd 44 3c 0f bd
       0.09047096 -0.03791413 -0.059537113 -0.034969583
000380 5e b4 70 3d e4 b4 fb bc a1 5e f9 3d cf fe ac 3d
       0.05876576 -0.030725904 0.12176252 0.084470384
000390 28 38 60 bf 3b cb 8c 3e 7f cc 9f be 91 4e 3c be
       -0.8758569 0.27498803 -0.31210706 -0.18389346
0003a0 9e 11 1e 3e 27 20 2e 3d 00 28 68 39 f0 c2 ae bb
       0.15436408 0.04251113 0.00022140145 -0.005333297
0003b0 86 25 15 bd df 00 88 be fe ef 4c 3e 0b bf 70 3e
       -0.03641274 -0.26563165 0.20013425 0.23510377
0003c0 98 ad ca bf a8 4e 20 3e 3e 3a 55 3e 9e 68 e5 bb
       -1.5834227 0.15655005 0.20822999 -0.0070009967
0003d0 2f 5b 21 3d 67 f2 07 be e4 3a 5e 3d d0 0d 21 3d
       0.0393936 -0.13276063 0.05425538 0.039319813
0003e0 d2 3e 79 3d 1b 1b 2c bc 70 7e ce b9 88 19 1c 3d
       0.060850926 -0.010504509 -0.00039385585 0.038110286
0003f0 ed 3d e2 bf ba 16 39 3e 6c 62 a4 3e ee 9f 52 bd
       -1.7675148 0.18075076 0.3210634 -0.051422052

base.seq_fcs.0.bias f4 [256]
000000 38 fe 31 3f 85 27 53 bd 07 2f a3 3e df c5 fc bc
       0.6952853 -0.05155136 0.31871817 -0.030856071
000010 7d 14 78 bc 8e 75 15 3e b3 2b 99 3e 70 02 49 bd
       -0.015141604 0.14595625 0.29916152 -0.04907459
000020 32 87 ab 3e 4b 94 f1 3d ec 7e 39 3e 3f e7 fa bc
       0.33501583 0.11795863 0.18114823 -0.030627845
000030 97 59 09 bd d1 24 a8 3d f8 18 94 3e b1 23 47 3e
       -0.033532705 0.08210147 0.289253 0.19447209
000040 30 ff 35 3f 4e b7 85 bc c0 e1 3f 3e a0 41 9d 3e
       0.7109251 -0.016322758 0.1873846 0.3071413
000050 96 36 b9 3d 8c 31 cb 3d 3e c4 14 bc 1a ba 2c 3e
       0.090436146 0.0992156 -0.009079991 0.16867867
000060 1a 0e 58 3e c6 cf a1 3e 8c 14 3c 3e ab dd 08 bc
       0.2109913 0.3160383 0.18367213 -0.008353631
000070 b9 b7 a6 3e 31 d9 93 3e 69 99 a3 3e d7 10 38 3f
       0.32562044 0.2887664 0.3195298 0.71900696
000080 15 c3 22 3e 81 73 a1 3e 18 13 36 3f 88 93 66 3e
       0.1589473 0.31533435 0.71122885 0.22517216
000090 af 23 17 3e 38 77 26 3f e8 b6 4e bd d5 7f 03 bd
       0.14759706 0.65025663 -0.0504674 -0.032104332
0000a0 63 06 a8 3e c5 63 a5 3d 14 80 24 3f 58 23 82 3e
       0.32817373 0.0807567 0.6425793 0.2541759
0000b0 27 88 21 3f fc 6a 9d 3e 80 52 98 3e b4 0e 29 3f
       0.63098377 0.30745685 0.29750443 0.6603806
0000c0 1c ec 5c 3d 14 62 a1 3e 58 9f 94 3e e0 92 9e 3e
       0.05393611 0.3152014 0.2902782 0.30971432
0000d0 be ec 38 3f 06 34 89 3d bd c0 5f bd 11 50 37 3d
       0.7223624 0.06699376 -0.05462717 0.04475409
0000e0 46 83 2c 3f 26 7b 8b 3e 09 6b 26 3e f6 06 53 bc
       0.6738781 0.27242392 0.16251768 -0.012880078
0000f0 a9 30 dc 3d b7 10 43 3e cc c6 93 3e 4a 22 ea 3d
       0.10751469 0.19049345 0.28862607 0.11432321
000100 a7 69 56 3e d0 1f ff 3d 6f 53 3a 3e 86 2f 9c 3e
       0.2093874 0.1245724 0.1819589 0.30505008
000110 bf e0 9c 3d e0 b4 4a 3e 0e 0b a9 3d 1e d7 a3 3e
       0.076600544 0.19795561 0.08254062 0.3200006
000120 09 b3 4e 3e 6e 85 61 3e fa be 9d 3e 95 02 27 3e
       0.20185484 0.22023556 0.30809766 0.16309579
000130 d3 d0 2c 3e 45 c0 a1 3e 11 d1 25 3f 32 91 97 3e
       0.16876535 0.31592003 0.64772135 0.29602963
000140 ce 2b 18 3d d5 61 8d 3e 0a 3a 3d 3f ef 9b ad 3d
       0.03715115 0.27613702 0.73916686 0.084770076
000150 43 83 27 3e 2d 1c c7 3d 86 2a 20 3d c9 ff 22 3f
       0.16358666 0.09722171 0.039103054 0.6367155
000160 92 cc 0e 3e d5 59 35 3e ad aa 3f 3f c2 7e a8 3e
       0.13945225 0.1771005 0.74869806 0.3290921
000170 5b 8c 1f 3f 58 f4 9f 3e c8 c1 31 3f 68 63 33 3e
       0.6232354 0.31241107 0.6943631 0.17518389
000180 6b d3 41 3e 03 67 e2 3d 0a 21 2d 3f 6f 6d 2f 3e
       0.18928306 0.11054804 0.6762854 0.1713159
000190 7d 78 9f 3e e5 a4 2d 3f b9 0e b7 3d c8 c5 1e bd
       0.31146613 0.67829734 0.08938355 -0.038762838
0001a0 ee 76 0c 3e 5d 95 14 bd 16 d1 5c 3e 69 f5 9b 3e
       0.13717243 -0.036275256 0.21564135 0.3046067
0001b0 1b 20 44 3e 6a dd 01 bc 8b 9c 30 3f 87 40 1f 3f
       0.19152872 -0.007926324 0.68988866 0.62207836
0001c0 e6 e2 99 3d 49 d5 96 3e f9 16 42 3f a2 5f 88 3e
       0.075139806 0.294596 0.75816303 0.26635462
0001d0 ae c0 1d bd 91 dd 47 bd a3 15 0c 3e 1f 56 22 3e
       -0.03851383 -0.048795287 0.13680129 0.15853165
0001e0 c7 b7 80 3e fc 1c 52 3e fd b7 9b 3e b0 b2 98 3e
       0.2514021 0.20518869 0.3041381 0.29823828
0001f0 49 b5 4c 3e 62 3c 29 3f 41 fa 19 3e c8 d5 a1 3e
       0.1999103 0.6610776 0.1503687 0.31608415
000200 22 4f 3c 3f 96 ff 1a 3f be 72 9f 3e e7 cf 1c 3e
       0.7355825 0.60546243 0.3114223 0.15313683
000210 04 ed 8c 3d 4b de 25 3d 25 69 a2 3e ae d2 38 3f
       0.06881145 0.0404952 0.31720844 0.7219647
000220 d5 81 1d 3f 03 0a 9f 3d 7a 4d 3a 3f be 4e a1 3e
       0.6152623 0.077655815 0.7277447 0.31505388
000230 b4 1b 14 3d 37 b3 96 3e 6f d0 8f 3d da 6c 9d 3e
       0.036159232 0.29433605 0.070221774 0.3074711
000240 fd 8e a3 3e 1d 05 12 3e 32 84 22 3f 98 d1 d1 3d
       0.3194503 0.14259763 0.63482964 0.10245055
000250 f9 9a 17 3d eb 9e 93 3d d3 06 a2 3e 70 4a 1e 3e
       0.037013028 0.072080456 0.3164583 0.15458083
000260 ee 10 95 3d f4 04 b2 3d 20 90 d3 3d d6 a1 21 bd
       0.0727862 0.08692351 0.10330224 -0.03946098
000270 94 7b 35 3e 11 37 32 3e cd cc cc 3d a2 d3 4e 3e
       0.17722923 0.17403819 0.1 0.20197919
000280 44 03 54 3e d1 7e 9c 3e 0f 20 9f 3e 0c e0 9f 3e
       0.2070437 0.30565503 0.31079146 0.31225622
000290 5e 8a 41 3e 3b 7c 46 3e 06 76 a2 3e 48 7a 1d bc
       0.18900439 0.19383328 0.3173067 -0.009611674
0002a0 5e 3f 96 3e fe a9 9f 3e d0 c6 41 3e 10 63 9b 3d
       0.2934522 0.3118438 0.18923497 0.07587254
0002b0 31 c5 28 3f e5 04 b5 3d 9a aa 35 3e c1 ef 17 bc
       0.6592589 0.08838824 0.1774086 -0.00927347
0002c0 cf f5 1e 3f 2e c4 a0 3e d4 0e 27 3f 50 2f a2 3e
       0.62093824 0.31399673 0.65257 0.31676722
0002d0 bd 8b 92 3e 82 9e a6 3e bf fd 98 3e 54 7c 3e 3e
       0.28622237 0.32542807 0.29881093 0.18602115
0002e0 01 b7 27 3f cf 55 35 3d f9 00 61 bc f4 1c 3e 3e
       0.65513617 0.044271287 -0.013733142 0.18565732
0002f0 e3 4f 43 3f 09 ab 96 3e 77 f7 a0 3e 7c 12 9d 3e
       0.7629377 0.29427364 0.314388 0.30678165
000300 8e b6 81 3e 48 98 21 3f 74 67 40 bd 0f 1f ef bc
       0.2533459 0.6312299 -0.04697366 -0.029189615
000310 59 41 60 3e 97 01 2a 3e 12 3d a2 3e d2 ce 21 3e
       0.21899928 0.16602169 0.31687218 0.15801552
000320 c3 8e 33 3e 5d 31 26 3f 5f e6 23 3e f2 aa 11 bd
       0.17534928 0.6491907 0.16005848 -0.035563417
000330 29 8d 96 3e b0 1c bf 3d b9 ac 71 bc fb 17 c8 3d
       0.29404572 0.093316436 -0.014750653 0.09770199
000340 2c f2 95 3e 93 94 8e bb 92 54 df 3d 3f 3a a4 3e
       0.29286325 -0.0043512075 0.109048024 0.32075688
000350 9f 3d 9d 3d f7 10 5f 3e d8 63 a3 3e 31 7d 15 3e
       0.07677769 0.21783815 0.31912112 0.14598538
000360 d5 e1 26 3f a6 f2 13 bd 4f ab a1 3e bf 45 33 3f
       0.6518834 -0.03612008 0.3157601 0.700283
000370 04 75 b1 bc b0 55 6f 3e 67 c4 37 3e 29 4f b0 3d
       -0.021662243 0.23372531 0.17946015 0.086088486
000380 5e 00 a5 3e 48 34 3c 3e 23 dc 5b 3e a6 81 a1 3e
       0.32226843 0.18379319 0.21470694 0.31544226
000390 27 96 a4 3e fa 9d 35 3e 47 f2 ec 3d 7c 5a 46 bd
       0.32145807 0.17736045 0.11569648 -0.048426136
0003a0 12 97 23 bd 68 28 15 3e 25 05 f2 bc cb e8 67 3d
       -0.039938994 0.14566195 -0.029543469 0.056618493
0003b0 33 ab a9 3e 36 fa a7 3d 6e 53 a9 3e d9 4d f7 bc
       0.33138427 0.08202021 0.33071464 -0.030188488
0003c0 34 71 b3 3d 80 4c a7 3e 47 40 a6 3e d2 eb a9 3e
       0.08761826 0.32675552 0.32470915 0.3318773
0003d0 70 65 3c bd bb 45 2d bd 31 ce 9d 3e 87 06 25 3f
       -0.045995176 -0.04230283 0.30821374 0.64463085
0003e0 86 a3 a4 3e e5 ee 94 3e 9d bb a4 3d 77 9a a2 3e
       0.32156008 0.29088512 0.08043597 0.31758472
0003f0 67 19 38 3e 5a 15 08 bd 1e e4 42 bd 2f 5f 3a 3e
       0.1797844 -0.033223487 -0.04758083 0.18200372

base.seq_fcs.2.weight f4 [256, 256]
000000 a5 f6 8f 3e d6 a3 c0 be 4b 14 9c 3e 1b 40 01 bf
       0.28117862 -0.37624997 0.30484232 -0.5048844
000010 b6 78 2e be 97 63 18 bd c6 1e 63 3d 68 3d 0f bf
       -0.17038235 -0.03720435 0.05544927 -0.55953074
000020 ca 63 bc 3e b3 d9 34 be 9a c4 b5 bd 24 bb 0c bf
       0.36794883 -0.1766117 -0.088753894 -0.54973054
000030 dd 5c 0f be 6e 19 ca bd e6 bc 6e 3e b2 81 98 bc
       -0.14000268 -0.098681316 0.23314247 -0.018616531
000040 77 f9 a9 3e f2 7d 46 be fd 72 11 be 8d 34 d0 3e
       0.3319814 -0.19383982 -0.14204021 0.40665093
000050 ef 15 69 bd 4e 6c a4 bd e9 d1 c0 bd c7 bf 43 bd
       -0.056905683 -0.0802847 -0.09415037 -0.047790315
000060 18 d4 f2 bd 06 a0 de 3d ad 08 86 bd 00 a2 98 be
       -0.1185686 0.10870366 -0.065446235 -0.29811096
000070 fc 42 cf 3e 73 90 96 3e c4 c1 71 3e 14 f5 89 3e
       0.40480793 0.2940708 0.23609072 0.26944792
000080 7f 68 e7 bd 40 45 cf 3e e4 cf 81 3e 0a 37 75 bd
       -0.11299228 0.4048252 0.2535392 -0.059866942
000090 9e 7f 9b bd 59 26 90 3e 57 45 14 bf b5 42 d5 be
       -0.075927004 0.28154257 -0.57918304 -0.41652456
0000a0 69 40 c7 3e 2e 22 c6 bc 38 3e 96 3e 5a a0 89 bd
       0.3891633 -0.02418622 0.29344344 -0.06720038
0000b0 24 f0 85 3e 92 9b c8 3e be 26 8f 3e bd fa 98 3e
       0.26159775 0.3918119 0.27959245 0.29878798
0000c0 42 b3 f7 bd c1 51 65 3d 5b 45 81 3e 03 56 c5 3e
       -0.120947376 0.05598617 0.25248227 0.38542184
0000d0 a6 db b4 3e 0e f4 ef bd 03 96 09 bf 1e e3 1d be
       0.35323828 -0.117164716 -0.53744525 -0.1541867
0000e0 c6 1d 44 3e eb 79 1c 3d b5 cc db bd 66 7f 8e be
       0.19151983 0.038202208 -0.10732404 -0.27831572
0000f0 a3 6d fb bc b1 a9 a0 bd d1 58 1a 3d e4 88 11 be
       -0.030691927 -0.07844866 0.03768236 -0.14212376
000100 3b f2 98 3d 13 8d 1a be ef 83 33 bd 27 9c 2e 3e
       0.07468077 -0.15092878 -0.043826994 0.17051755
000110 fe 9f 81 bc 6b 0d 40 bd 06 16 fe bd d8 2f a5 3e
       -0.01582336 -0.046887796 -0.124065444 0.32263064
000120 7d 0b 5d bd bc 17 50 bd b8 3a b0 3e 87 21 3e be
       -0.053966034 -0.050803885 0.344198 -0.18567477
000130 cd 67 f7 bd 42 93 6f 3e 7a 0d b1 3e cf 15 9a 3e
       -0.12080345 0.23396018 0.34580594 0.30094764
000140 0a e0 4e be 46 43 67 bb c0 4d b0 3e 90 65 33 bd
       -0.20202652 -0.00352879 0.3443432 -0.04379803
000150 b0 ce b6 bd 0f a8 af bd 46 d8 d6 bd 5e 8a 82 3e
       -0.08926141 -0.085769765 -0.1049047 0.2549619
000160 1c 5d b8 3c 8a 6f 8d bd 7d d6 92 3e 30 8a ba 3e
       0.022505336 -0.0690604 0.28679267 0.36433554
000170 11 a4 9d 3e ea 7e 50 3e d5 dc 83 3e a9 35 a1 bd
       0.30789235 0.20360914 0.2575442 -0.07871563
000180 8c a8 9e bd 3d 92 d1 bd 1a c4 cb 3e e0 34 01 be
       -0.077469915 -0.10232971 0.3979805 -0.12617826
000190 92 9d 81 3e 4a 25 c2 3e c9 91 8e bd 30 ad 03 be
       0.2531553 0.37919074 -0.069614 -0.12859035
0001a0 32 65 9d bd 92 ee f6 be 9f d2 05 3c e7 0c 85 3d
       -0.07685317 -0.4822889 0.008167892 0.064966016
0001b0 22 08 a1 bd a1 1a 88 be ca 0a 9d 3e bd 06 89 3e
       -0.07862879 -0.26582816 0.30672294 0.26762953
0001c0 5d 77 ed bd ee 41 e4 3d ff cb 99 3e fc 3b 48 3d
       -0.11595032 0.111453876 0.3003845 0.04888533
0001d0 e9 09 a8 bd 5a 5d 0c bf 2a 79 c2 bd c0 c3 b8 bd
       -0.08205015 -0.54829943 -0.094957665 -0.09021711
0001e0 83 b1 65 3d d6 0b 50 bd f0 3a 80 bb 45 70 30 3e
       0.05607749 -0.050792538 -0.003913276 0.17230327
0001f0 24 48 88 bd 5a bb 3b 3e fa 25 89 bc 86 a8 d1 3e
       -0.06654385 0.18333188 -0.016741741 0.40948886
000200 b5 40 98 3e 48 ae 89 3e 71 36 cc 3e 52 37 a8 bd
       0.29736868 0.2689078 0.39885285 -0.082136765
000210 3a 6c 8e bc 50 2d 35 be b6 d4 16 3c 96 0a 86 3e
       -0.01738559 -0.17693067 0.009205988 0.2617995
000220 82 27 9c 3e 7e e2 db bd a7 7c 71 3e a8 c4 22 3e
       0.30498892 -0.10736559 0.23582707 0.15895331
000230 7f b7 11 40 06 80 9e 3e a8 e3 c0 bd 1a 1c 16 3d
       2.2768247 0.3095705 -0.09418422 0.036647893
000240 76 02 36 3e 9b ff b9 bd df 41 8a 3e 27 be bb bb
       0.17774376 -0.09081956 0.2700338 -0.005729455
000250 5a d4 6f bd 18 53 16 be b7 ad b5 3e 8e 32 3e bd
       -0.058552124 -0.14680135 0.35484096 -0.04643493
000260 84 c2 20 be 8c 1e 5c bc cf 1d 30 bd bf e8 38 be
       -0.15699202 -0.013435017 -0.042997178 -0.18057536
000270 5d 9f eb bd fb 21 2b bd 46 67 45 3d 53 3f 3f bd
       -0.115050055 -0.041780453 0.048194192 -0.04669125
000280 49 0a ab bd 84 38 d6 bb 2a 26 03 3e 62 6f be 3e
       -0.08351571 -0.006537499 0.12807527 0.37194353
000290 75 b6 bd bd d2 c7 82 bd 82 d6 b9 3e 36 96 0d be
       -0.092633165 -0.06385769 0.3629647 -0.13826832
0002a0 d6 78 0d bd 30 1f 81 3d ef 03 ba bd f9 39 54 bd
       -0.034539066 0.06304777 -0.090827815 -0.0518131
0002b0 3d 7b 80 3e 93 d5 02 be 0c b3 c7 bd 80 b2 8d be
       0.25094023 -0.12776785 -0.09750947 -0.27675247
0002c0 3c 6b 87 3e af 84 8c 3e 65 a2 85 3e c9 42 ee bc
       0.26449 0.2744498 0.2610046 -0.02908458
0002d0 34 b9 4a 3e ca b3 e2 3e 78 87 1f 3e 21 d0 4a bd
       0.19797212 0.44277793 0.15579021 -0.049514893
0002e0 dd e9 b3 3e ee 2a 0e bd 39 23 88 be 94 6e f8 bd
       0.3513936 -0.03470891 -0.26589373 -0.12130466
0002f0 73 33 52 3e 5f 73 a2 3e cc ce 2f 3e 6d df 8c 3e
       0.20527439 0.31728646 0.1716873 0.2751421
000300 a2 f1 36 3d b7 8c 8d 3e a0 f5 f3 be 72 14 d6 be
       0.044664033 0.2764642 -0.47648335 -0.41812474
000310 45 b8 80 bd 62 16 af bc 53 79 cf 3d bb 02 1d be
       -0.062851466 -0.021372978 0.10130563 -0.15333073
000320 e1 4e 98 bd 12 10 98 3e df fb ab bd 79 71 e3 be
       -0.0743692 0.2969976 -0.0839765 -0.4442251
000330 1f a1 28 3e 09 29 82 bc d2 c0 35 be 25 cb 80 bd
       0.16467713 -0.015888708 -0.17749336 -0.06288747
000340 e7 c7 51 bd a5 8d 01 be 1d 17 01 be 82 0e d2 3e
       -0.051216032 -0.1265169 -0.12606473 0.41026694
000350 8c 84 19 bd 72 4a 02 be be 3f c0 3d d6 33 e9 bd
       -0.037479922 -0.12723711 0.09387158 -0.1138684
000360 a3 ab a2 3e 87 8f 02 bf 82 54 2f 3e 6a c4 7d 3e
       0.31771573 -0.51000255 0.17122081 0.24781957
000370 35 66 77 be 1c b1 39 3e bf 2d d2 bd ce 29 53 bd
       -0.24160083 0.18133968 -0.102626316 -0.05155354
000380 8d 95 e0 3c 7c a3 b3 bd 2c 67 d1 bb cf 46 da 3d
       0.027415061 -0.087714165 -0.006390473 0.10658037
000390 c2 ff 18 3e 23 7f 88 bc 7c e0 14 be 13 21 0b bf
       0.14941314 -0.016662186 -0.14538759 -0.5434734
0003a0 e9 76 51 be a7 84 ce bd 17 75 ec be 5f a8 51 bd
       -0.20455517 -0.10083895 -0.46183082 -0.05118596
0003b0 14 7b 02 3f d5 44 25 bd 0f c5 c3 3e 35 e0 a7 be
       0.5096905 -0.040348846 0.3823628 -0.32788244
0003c0 9f 62 a5 3c 9d ea c0 3e 89 7b 8d 3d 5f 28 d3 3e
       0.020188628 0.37678996 0.06908328 0.41241738
0003d0 35 36 09 bf a5 cc ed be 1a e4 6a 3e 63 3e 99 3e
       -0.5359834 -0.46445194 0.22938576 0.2993041
0003e0 ef 51 b6 3d 16 b1 83 3e 7d c1 8a bd 6a fd 0f 3e
       0.08902346 0.25721043 -0.06775186 0.14061514
0003f0 eb b7 5d bc 15 ab d1 be c9 84 49 be 9a bb 9e bd
       -0.013532619 -0.40950838 -0.1967956 -0.07750626

base.seq_fcs.2.bias f4 [256]
000000 49 52 dc 3e f4 ed db 3e 1a 40 dd 3e 8c 9b db 3e
       0.4303153 0.4295498 0.43212968 0.4289211
000010 72 c0 dc 3e 9c 5b dc 3e 4b d5 db 3e e3 2c db 3e
       0.43115574 0.43038642 0.42936167 0.42807683
000020 d8 ae db 3e 8b 5f dc 3e 49 2a db 3e e0 e8 da 3e
       0.42906833 0.43041644 0.428057 0.42755795
000030 1b b9 db 3e 6d c3 dc 3e 28 53 dc 3e 94 e4 db 3e
       0.42914662 0.43117848 0.43032193 0.4294783
000040 bc 1e db 3e 3f 8b 2c 3f f0 53 db 3e 9f e9 da 3e
       0.42796886 0.6739997 0.42837477 0.42756364
000050 8b b5 db 3e d9 81 c6 3e f7 41 dc 3e 02 ac dc 3e
       0.42911944 0.3877094 0.43019077 0.43099982
000060 fd 61 dc 3e 7f 19 dc 3e 3a 07 29 3f ab 3f d0 3e
       0.4304351 0.42988202 0.6602665 0.40673575
000070 63 e4 db 3e 2b 18 db 3e ed 21 d9 3e 63 fb db 3e
       0.42947683 0.42791876 0.42408696 0.4296523
000080 ff 43 dc 3e 59 be db 3e f5 ed dc 3e e0 28 db 3e
       0.43020627 0.4291866 0.43150297 0.42804623
000090 0a 11 dc 3e dd 31 db 3e e7 df db 3e d3 74 db 3e
       0.4298175 0.4281148 0.4294426 0.42862567
0000a0 36 8d c7 3e e4 1e dc 3e d8 a4 dd 3e b6 83 dc 3e
       0.38974923 0.42992318 0.43289828 0.43069237
0000b0 3e 83 dc 3e c7 bb db 3e 81 b1 c9 3e ca fa db 3e
       0.4306888 0.429167 0.39393237 0.42964774
0000c0 cc 37 db 3e e4 62 db 3e a4 5a da 3e 19 72 dc 3e
       0.42816007 0.42848885 0.42647278 0.430558
0000d0 cb ff e6 3e 48 01 dd 3e 7b b2 dc 3e a8 02 de 3e
       0.4511703 0.4316504 0.4310492 0.43361402
0000e0 e3 55 db 3e 95 77 dc 3e 49 e4 dc 3e bc 69 db 3e
       0.42838964 0.43059984 0.43142918 0.42854106
0000f0 4d 9b 3a 3f 98 d3 db 3e 12 58 db 3e cb 22 dc 3e
       0.7289322 0.4293487 0.4284063 0.42995295
000100 c7 f4 db 3e c0 00 b2 3e 28 0f dc 3e 0e bf dc 3e
       0.42960188 0.34766197 0.42980313 0.43114513
000110 65 d6 da 3e 72 48 dd 3e 38 0d dc 3e e1 9e 07 3f
       0.42741695 0.43219334 0.42978835 0.52976805
000120 0b 2d dc 3e 6f dd dc 3e f8 7c db 3e 2f c7 db 3e
       0.43003115 0.4313769 0.4286878 0.42925403
000130 84 3c dc 3e 14 70 db 3e 6f 95 db 3e 45 10 dc 3e
       0.4301492 0.42858946 0.42887446 0.42981163
000140 be 68 dc 3e 26 bc dc 3e c3 0b db 3e db 3d dc 3e
       0.43048662 0.43112296 0.4278241 0.43015942
000150 c4 75 db 3e 91 8f db 3e ce 18 dc 3e a7 50 db 3e
       0.42863286 0.4288297 0.42987674 0.4283497
000160 c1 b0 49 3f 49 ac db 3e f7 06 db 3e f2 c6 db 3e
       0.7878533 0.4290488 0.4277875 0.4292522
000170 56 30 dc 3e f7 29 dc 3e ef 6b db 3e c2 87 db 3e
       0.43005627 0.43000767 0.42855784 0.42877012
000180 70 6d dc 3e a6 5d da 3e b7 ca db 3e c4 f6 db 3e
       0.43052244 0.42649573 0.42928097 0.42961705
000190 d6 65 dd 3e 95 9d dc 3e 52 8c db 3e 5b 45 db 3e
       0.43241757 0.43088976 0.42880493 0.42826352
0001a0 af 3d db 3e 67 94 dc 3e 25 54 db 3e d4 60 db 3e
       0.42820498 0.43081972 0.42837635 0.42847311
0001b0 7c c8 db 3e 0d d6 18 3f 97 bc dc 3e 08 3d dc 3e
       0.42926395 0.59701616 0.43112633 0.43015313
0001c0 24 04 dc 3e 8e 96 dc 3e 8b 61 dc 3e 9d 48 dc 3e
       0.4297191 0.43083614 0.4304317 0.4302415
0001d0 fb b5 db 3e 81 f2 d9 3e 4e 55 dc 3e 6a 88 dc 3e
       0.42912278 0.42567828 0.43033832 0.43072826
0001e0 b7 de db 3e 8c 5d dc 3e 47 a7 db 3e 6a 9c dc 3e
       0.42943355 0.4304012 0.4290106 0.43088084
0001f0 42 ae db 3e cf cd dc 3e e0 51 dc 3e 23 64 0d 3f
       0.42906386 0.4312577 0.43031216 0.5523092
000200 2e 72 db 3e e9 52 dc 3e fa a1 db 3e 67 6d db 3e
       0.4286055 0.43032005 0.42897016 0.42856905
000210 6d 7c f9 3e e5 2c d3 3e 9d cd db 3e 32 62 dc 3e
       0.48727742 0.4124519 0.42930308 0.43043667
000220 23 96 dc 3e 30 b9 dc 3e ba b4 db 3e 70 00 dc 3e
       0.43083295 0.43110037 0.4291132 0.42969084
000230 30 18 dd 3e 5f 9b dc 3e 39 16 dc 3e dd ab dc 3e
       0.43182516 0.4308729 0.42985705 0.4309987
000240 cc f6 da 3e 27 46 dc 3e e7 97 dd 3e f8 d9 da 3e
       0.42766416 0.43022272 0.43279955 0.42744422
000250 fb ad db 3e 12 5a 4b 3f b0 f1 da 3e 7a 3a dc 3e
       0.42906174 0.7943431 0.42762518 0.43013364
000260 b8 f0 02 3f a3 00 dd 3e dc 99 d2 3e 60 48 d9 3e
       0.5114856 0.43164548 0.4113301 0.4243803
000270 8d 78 dc 3e 50 60 dc 3e 01 cd db 3e 9d 85 dc 3e
       0.43060723 0.4304223 0.42929843 0.4307069
000280 36 8e 17 3f 58 0a dc 3e dd 49 dc 3e 29 0c dc 3e
       0.5920137 0.42976642 0.43025103 0.42978027
000290 c6 6e dc 3e 77 3c dc 3e ba 38 db 3e 95 75 d8 3e
       0.43053263 0.4301488 0.42816716 0.42277208
0002a0 86 8f db 3e cf ba dc 3e 95 0d dc 3e d3 0c dc 3e
       0.42882937 0.43111274 0.42979112 0.42978534
0002b0 05 8b db 3e bb 99 33 3f 46 9f db 3e 89 47 db 3e
       0.428795 0.7015645 0.42894953 0.42828014
0002c0 4e 09 db 3e e3 c0 db 3e f4 d7 db 3e 73 cc dd 3e
       0.42780536 0.42920598 0.42938197 0.43320045
0002d0 5f 91 dd 3e c3 6c dc 3e 23 dd db 3e 51 5a dc 3e
       0.43274972 0.4305173 0.4294215 0.43037656
0002e0 2b 26 dc 3e 59 00 db 3e 5a e3 da 3e 53 7b db 3e
       0.4299787 0.42773703 0.4275158 0.42867526
0002f0 68 f4 db 3e 2b 9a dc 3e 71 9b 06 3f ec 66 dc 3e
       0.42959905 0.4308637 0.52580935 0.43047273
000300 cf 01 dc 3e 12 c4 dc 3e 8e 0c dc 3e b0 65 dd 3e
       0.4297013 0.4311834 0.42978328 0.43241644
000310 51 6a db 3e c8 fb dc 3e 71 aa dd 3e 72 3c dc 3e
       0.4285455 0.43160844 0.432941 0.43014866
000320 f6 df dc 3e ec 86 db 3e a9 c3 dc 3e 03 70 ad 3e
       0.4313962 0.42876375 0.43118027 0.3387452
000330 a4 8d dc 3e 0e 57 dc 3e 7d af db 3e ba 46 02 3f
       0.43076813 0.43035167 0.42907324 0.5088917
000340 f8 7d db 3e d7 ec db 3e c5 b5 2c 3f 27 fc da 3e
       0.42869544 0.42954132 0.6746486 0.42770502
000350 ea 43 db 3e 0d 8a dc 3e c2 dd dc 3e 2b e1 2c 3f
       0.42825252 0.43074074 0.43137938 0.6753108
000360 19 4a dc 3e 66 3b da 3e 09 4a db 3e bb ca db 3e
       0.43025282 0.42623442 0.42829922 0.4292811
000370 61 5e 18 3f 8b b7 db 3e 78 09 04 3f aa 11 dc 3e
       0.5951901 0.4291347 0.5157695 0.42982227
000380 fe 5a dc 3e ef e4 da 3e 99 bb dc 3e 8e 6d db 3e
       0.43038172 0.42752787 0.43111876 0.4285702
000390 42 45 db 3e f5 d3 da 3e bc 26 da 3e 34 48 dc 3e
       0.42826277 0.42739835 0.42607677 0.43023837
0003a0 31 74 dc 3e 1d 0d dc 3e 46 42 dd 3e 25 df dc 3e
       0.43057397 0.42978755 0.43214625 0.43138996
0003b0 57 d4 db 3e 91 de db 3e 75 e7 da 3e 54 e6 db 3e
       0.4293544 0.42943242 0.42754713 0.42949164
0003c0 9d 3e dd 3e da 3b db 3e 5c 17 db 3e 13 ad db 3e
       0.43211833 0.428191 0.4279126 0.42905483
0003d0 7a cc dc 3e e9 06 dc 3e 09 23 dc 3e 9c ba db 3e
       0.43124753 0.42974022 0.4299548 0.4291581
0003e0 1b 4d dc 3e be 91 db 3e b5 19 dd 3e 15 f5 db 3e
       0.43027577 0.4288463 0.43183675 0.4296042
0003f0 77 28 dc 3e 55 2a db 3e 0e c1 da 3e f6 85 2b 3f
       0.42999622 0.42805734 0.42725414 0.67001283

last.weight f4 [1, 256]
000000 b4 94 73 3e f6 db 73 3e 26 bf 76 3e 1c 91 73 3e
       0.23787194 0.23814377 0.24096355 0.23785824
000010 ec ce 74 3e d0 fe 7e 3e 99 6d 6f 3e 69 2e 6c 3e
       0.2390706 0.24901891 0.23381652 0.23064579
000020 67 83 76 3e 5b 5f 6b 3e f7 69 69 3e 40 fd 6d 3e
       0.24073564 0.22985594 0.22794329 0.23241138
000030 fb 97 6d 3e d9 18 70 3e b3 96 75 3e 97 85 70 3e
       0.23202507 0.23446979 0.23983268 0.2348846
000040 70 b1 63 3e f9 26 86 bf 0a 00 6d 3e e6 f4 71 3e
       0.22235656 -1.0480644 0.23144546 0.23628578
000050 be 9f 7e 3e 3d 9f 3b 3f 36 1d 73 3e c1 51 7c 3e
       0.24865624 0.73289853 0.23741612 0.24640562
000060 91 75 76 3e a1 f9 76 3e 02 48 83 bf bc 9c 4b 3f
       0.24068286 0.24118663 -1.025635 0.7953603
000070 bc 5a 77 3e 8c 05 6b 3e 9a 22 89 bf 24 21 75 3e
       0.24155706 0.22951335 -1.0713685 0.23938423
000080 d2 e0 75 3e 41 ac 78 3e fe 22 7c 3e 75 16 65 3e
       0.24011543 0.2428446 0.24622723 0.22371848
000090 bf b5 71 3e a5 0a 70 3e 22 49 72 3e 0f 49 6a 3e
       0.23604487 0.2344156 0.2366071 0.22879432
0000a0 57 e9 31 3f 35 97 75 3e 78 75 7a 3e fa 16 6b 3e
       0.69496673 0.23983462 0.24458873 0.22957984
0000b0 9b b0 6c 3e 92 f5 66 3e 8a f5 8b bf 49 5c 74 3e
       0.23114245 0.22554615 -1.0934308 0.23863329
0000c0 22 e3 53 3e cb f3 65 3e 4b 1c 70 3e d0 c6 78 3e
       0.20692113 0.22456281 0.23448293 0.24294591
0000d0 6d 51 43 3f 05 8d 73 3e 19 49 7a 3e d2 95 78 3e
       0.7629612 0.23784263 0.24441947 0.24275902
0000e0 55 7e 75 3e c3 fc 6c 3e 83 fe 77 3e e8 02 6d 3e
       0.23973973 0.23143296 0.24218182 0.2314564
0000f0 40 b6 71 3f b6 94 6b 3e 4f b9 75 3e 9c d5 69 3e
       0.94418716 0.23005947 0.23996471 0.22835392
000100 ff df 75 3e 5f 34 33 3f 50 5e 6e 3e bd 4d 74 3e
       0.24011229 0.70001787 0.23278165 0.2385778
000110 17 7e 66 3e ba 5a 79 3e d6 47 71 3e 89 7f 93 bf
       0.22509037 0.24351016 0.2356256 -1.1523296
000120 02 7c 6a 3e 49 95 7c 3e 38 81 73 3e d3 90 7c 3e
       0.22898868 0.24666323 0.23779762 0.24664621
000130 c1 08 77 3e b2 b6 58 3e fd ed 6e 3e 57 c0 6b 3e
       0.24124433 0.21163443 0.23332973 0.2302259
000140 84 59 78 3e 53 95 70 3e 9f 4e 5e 3e 4f ab 68 3e
       0.24252898 0.23494463 0.21709679 0.22721599
000150 64 b7 72 3e 73 69 6e 3e ee c4 70 3e 1a ef 70 3e
       0.2370277 0.23282413 0.23512623 0.2352871
000160 4e c3 89 3f 9d c2 75 3e f1 ee 64 3e a1 a9 7c 3e
       1.0762727 0.2400002 0.22356774 0.24674083
000170 8a d6 73 3e 8c 3b 6d 3e a0 eb 74 3e 82 f3 68 3e
       0.23812309 0.23167247 0.23918009 0.22749141
000180 47 dd 74 3e f6 0f 6a 3e 06 b0 5c 3e 8f a9 62 3e
       0.23912536 0.22857651 0.21551523 0.22134994
000190 3a 9f 7d 3e f2 e4 7a 3e e7 e7 69 3e a7 8d 6c 3e
       0.24767771 0.24501398 0.2284237 0.23100911
0001a0 fd ea 6f 3e 56 52 76 3e 9f d4 76 3e ee 08 78 3e
       0.23429485 0.24054846 0.24104546 0.24222156
0001b0 d1 d8 75 3e 3b 70 3f 3f a7 f0 77 3e b9 18 79 3e
       0.2400849 0.74780625 0.24212895 0.24325837
0001c0 97 7e 67 3e 28 c1 6b 3e 8c db 6d 3e b8 b0 67 3e
       0.22606884 0.23022902 0.23228282 0.22626007
0001d0 e9 e6 73 3e df 20 6b 3e f4 6a 6e 3e bd f0 78 3e
       0.23818554 0.22961758 0.23282987 0.24310584
0001e0 8e 75 5d 3e 38 a1 78 3e 6f 40 76 3e 4b 21 6e 3e
       0.21626875 0.2428025 0.24048017 0.23254888
0001f0 79 19 75 3e 99 96 7e 3e 62 00 7b 3e 63 1e 72 3f
       0.23935498 0.24862136 0.24511865 0.94577616
000200 60 78 7b 3e 05 14 66 3e 70 a1 6f 3e 99 9b 70 3e
       0.24557638 0.22468574 0.23401427 0.23496856
000210 9c a3 3c 3f e2 f3 41 3f ff 26 6e 3e fe 67 6d 3e
       0.7368715 0.7576276 0.23257063 0.23184201
000220 f0 f1 77 3e c7 24 78 3e c5 d8 7b 3e a3 6a 66 3e
       0.24213386 0.2423278 0.2459441 0.22501616
000230 6f b9 7a 3e 5d 2e 76 3e a0 2a 6a 3e a3 b6 79 3e
       0.244848 0.24041124 0.22867823 0.24386077
000240 19 8e 71 3e 60 2f 74 3e 00 53 7b 3e e7 85 66 3e
       0.23589362 0.23846197 0.2454338 0.22512017
000250 55 3e 72 3e 45 45 8d 3f 75 88 6d 3e 36 91 79 3e
       0.2365659 1.1036764 0.23196585 0.243718
000260 86 af 3b 3f 2b 41 78 3e be db 85 bf 3c 9f 68 3e
       0.733147 0.2424361 -1.0457685 0.22716993
000270 d9 2a 70 3e fd 80 70 3e 77 85 80 3e b6 3a 79 3e
       0.23453845 0.23486705 0.25101826 0.24338803
000280 0e 0f 4d 3f a3 fa 7f 3e 7d 05 76 3e e4 63 6d 3e
       0.80101097 0.24997954 0.24025531 0.23182636
000290 29 c1 74 3e 7d f8 73 3e b2 27 75 3e f5 b9 43 3f
       0.2390181 0.2382526 0.23940924 0.7645562
0002a0 ee e4 73 3e f9 d9 79 3e 00 f0 66 3e 23 29 7a 3e
       0.23817798 0.24399556 0.2255249 0.24429755
0002b0 d8 cd 6c 3e 0a e0 2f 3f d8 e1 6e 3e 4e fa 75 3e
       0.23125398 0.6870123 0.2332834 0.24021265
0002c0 ab 22 70 3e da f6 7a 3e e0 b8 70 3e 82 0b 79 3e
       0.23450725 0.24508229 0.23508024 0.24320796
0002d0 75 c2 7d 3e 4d 22 76 3e fa 6d 69 3e 57 3d 74 3e
       0.2478121 0.24036522 0.22795859 0.23851524
0002e0 82 fd 64 3e 5e d2 6f 3e d7 e4 71 3e e0 ea 6e 3e
       0.2236233 0.23420092 0.23622452 0.23331785
0002f0 ac 10 63 3e b6 d7 7a 3e b6 92 90 bf 49 28 78 3e
       0.22174329 0.2449635 -1.1294773 0.24234118
000300 78 89 6d 3e 78 99 79 3e 27 8d 6b 3e ee cb 7d 3e
       0.23196971 0.2437495 0.23003064 0.24784824
000310 79 5a 61 3e f5 b0 80 3e 51 8e 78 3e 70 79 73 3e
       0.22007169 0.25135008 0.2427304 0.23776793
000320 2c 52 70 3e 5a 1c 72 3e 88 82 77 3e 11 a6 35 3f
       0.23468846 0.23643628 0.24170887 0.7095652
000330 23 74 72 3e 4f 7e 77 3e 8d 98 77 3e 4f 38 4b 3f
       0.23677115 0.24169277 0.24179287 0.79382795
000340 32 16 72 3e 52 97 70 3e 3d 69 87 bf 6c 9b 6c 3e
       0.2364128 0.23495224 -1.0578991 0.23106164
000350 51 53 70 3e 93 08 69 3e b0 1d 72 3e 22 61 81 bf
       0.23469283 0.22757177 0.23644137 -1.0107768
000360 ce f9 6e 3e d6 fa 65 3e c8 43 73 3e f4 a3 66 3e
       0.2333748 0.22458968 0.23756325 0.2252348
000370 e3 56 3b 3f 3b ee 67 3e fb d2 4f 3f 92 04 6c 3e
       0.73179454 0.22649471 0.81181306 0.23048618
000380 55 e1 72 3e 3c cf 6f 3e f0 d5 6e 3e fe b3 77 3e
       0.2371877 0.23418897 0.23323798 0.24189755
000390 87 08 6b 3e bc 46 6d 3e c9 e3 70 3e 10 a3 79 3e
       0.22952472 0.23171514 0.23524393 0.2437861
0003a0 51 a9 6f 3e ad a7 66 3e fd 97 75 3e 28 b1 72 3e
       0.23404433 0.225249 0.2398376 0.23700392
0003b0 29 c2 7b 3e 53 9e 71 3e 10 97 6e 3e 0c 90 75 3e
       0.24585785 0.23595552 0.23299813 0.23980731
0003c0 2a 7c 7f 3e 08 1a 6c 3e f6 3d 5f 3e 39 3a 72 3e
       0.24949709 0.23056805 0.2180098 0.23655023
0003d0 53 09 7a 3e e6 b8 7b 3e f9 0c 6a 3e e5 64 6a 3e
       0.2441762 0.24582252 0.22856511 0.2289005
0003e0 24 ec 64 3e e0 93 65 3e fa 94 74 3e 41 a6 74 3e
       0.22355705 0.22419691 0.23884955 0.23891546
0003f0 67 8c 6e 3e 1f 29 64 3e 06 7d 6f 3e e8 b1 53 3f
       0.23295747 0.22281311 0.23387536 0.8269334
