Soft-Module-main/log/model50_25/model_vf_best.pth (torch, 280037 bytes, 5 tensors)

base.seq_fcs.0.weight f4 [256, 12]
00000000: 1de5 56bf 0b3d ec3e 8ea2 0bbf 6b38 6dbe
00000010: daee d03d e3d4 d93d ca6c 2c3d 7847 373c
00000020: 4a80 7cbd 8b4f a3be 889a e73d 750a d03d
00000030: 2deb 08bf b8de a53e 2de2 4cbe cbbe 36be
00000040: 7143 243e 38b8 433e 7442 133d 1e29 2c3d
00000050: dc67 78bd a1c2 61be 7394 243e 4896 523e
00000060: 5fa9 c6be dd08 ee3e 13dd a7be 31ae 56be
00000070: 9d6c 9c3d df51 1d3e 087b 1c3c c007 1e3d
00000080: b0c1 69bc 0a87 61be be37 b93d 83b6 eb3d
00000090: 7a6f f5be 4724 9b3e f19a 4fbe 9924 4ebe
000000a0: 1e24 363e e341 423e f83f e6bc 60ac cabc
000000b0: 2001 2a3b a9ee 6fbe 0665 3c3e 7d2b 523e
000000c0: 30bd e7be cd3d bb3e f6e4 1cbe 8771 41be
000000d0: 47ba f33d e8c8 073e 604c b0bc 9446 5cbd
000000e0: 404d 473c 5aa9 7fbe 8142 153e 2111 143e
000000f0: f1c9 e1be c435 d23e d849 2ebe d9d5 24be
00000100: 261b cd3d eac5 0d3e 562a 1dbd 4ccb ba3c
00000110: 007c 0b3c 1de7 10be f293 c33d 3ea9 8c3d
00000120: 5614 28bf a8ae a23e 3381 f5be e099 4dbe
00000130: f17b 303e 22ce 323e b0f3 6fbc 0618 123d
00000140: eef2 34bd 7f6a 96be 9f75 2f3e 9cae af3d
00000150: c0da f6be 0dbc 8a3e 0798 57be 13da 8cbe
00000160: 52b5 103e 3dbc 163e 7094 433c 605a 593c
00000170: fcea 52bd 6e81 84be 30a2 453e 1da8 e33d
00000180: 6cbb f8be 0aaf b33e a73b a7be d606 41be
00000190: bec8 003e d954 323e 2a9b 2e3d bc1b 3b3d
000001a0: f80c 533c 09a7 96be 5b87 213e 3d3b f23d
000001b0: 2a2e fabe 2871 833e 2af1 81be 0a1f 6bbe
000001c0: f92d 303e 74e9 d93d a474 a6bc 10e7 393c
000001d0: 5e6a 53bd 4e83 67be b338 5f3e b1d8 473e
000001e0: 07f6 acbf 35d6 043e 12e5 0abf ce8c 9bbd
000001f0: 440c 05be fe44 bcbd 5098 143c d642 13bd
00000200: 705f 40bd 8978 0bbe 7674 6bbd 63d1 9fbd
00000210: 2ae4 09bf 49c1 af3e a790 fdbd 6a46 77be
00000220: 5718 583e f7af f03d 70c6 e83b a089 923c
00000230: 80e5 4fbc 1dc2 85be 4d8a 0b3e b11e 2b3e
00000240: 6d5b f9be 60f2 ab3e 6430 56be 71b2 3ebe
00000250: ef12 3f3e 3e70 523e d8ba 87bc 1018 a7bc
00000260: ce3d 42bd c4e5 93be 3566 383e dc29 2b3e
00000270: d666 5cbf 35b2 033f 1d2a e6be 6fd9 9dbe
00000280: ccd1 c33d 1933 223e 40f9 993b de36 473d
00000290: 8086 20bd e101 71be c0ec 6d3d 7612 c43d
000002a0: 07ac 3cbf 0c0d 8a3e d587 32be a60f 8cbd
000002b0: b8a5 43bd 2a5b 143d a414 4f3d 9403 52bd
000002c0: 3cca 29bd e3c3 a0bd be4e 3e3d 77cf 81bd
000002d0: 5674 11bf 56cc 323e 80ea 3ebf 254e 0b3e
000002e0: 4a0c 7abe f5c7 31be 660e 4abd 44c8 b7bc
000002f0: fc7e 8dbc d298 df3d 3979 31be af36 2ebe
00000300: 2644 04bf f3d8 9e3e 5745 a3be 3ef8 51be
00000310: d1ac 0b3e b319 423e 5401 d53c 420a 6abd
00000320: 900a 45bc d3ac 84be 87ab 313e 5b44 013e
00000330: de9c ebbe 81fc b03e bfc4 86bd 55a4 86be
00000340: 2caf 643e f49e 6e3e 68aa 763d 7a25 41bd
00000350: 38d5 7c3d 31e0 6bbe 2740 783e 7196 6d3e
00000360: a29e b1be 6c5d 643e 3976 21bf ab95 1dbe
00000370: bda4 33be eeb9 12be b8d9 96bc 5255 123d
00000380: e086 c0bb baf8 bfbd 93ed 5abe b1fc 2ebe
00000390: d3ab 28be be8c 5c3e 939c e8be 5385 803d
000003a0: 0480 1dbe 1eb0 22be d429 28bd f8f4 053d
000003b0: 80a2 8e3c 7854 6739 50d2 27be 4e14 2abe
000003c0: 3b9b f0be e92a 1c3e 9062 4dbf 09e6 0a3c
000003d0: 6696 1bbe a7c7 4abe 5ef6 363d a02d 76bc
000003e0: 1407 1f3d a0ac 4dbb 6c4a 4cbe 8f76 febd
000003f0: 4e94 d5be 5cf9 943e 0715 e0bd 85c7 8bbe
-0.8394335 0.46140322 -0.54544914 -0.23166053 0.10201807 0.10636308 0.042095937 0.011186473
-0.061645783 -0.31896624 0.11308771 0.101582445 -0.5348385 0.32396483 -0.20008154 -0.17846219
0.16041352 0.19113243 0.035952047 0.0420314 -0.060645923 -0.22046901 0.16072254 0.2056514
-0.38801095 0.46491137 -0.32785854 -0.20964886 0.07637904 0.15363263 0.009550817 0.03858161
-0.01426737 -0.2202417 0.09043835 0.11509421 -0.47936612 0.30301115 -0.20273949 -0.20131148
0.17787215 0.18970446 -0.028106675 -0.024740398 0.0025940612 -0.23430885 0.18397912 0.20524402
-0.45261526 0.36570588 -0.15321717 -0.18890963 0.11900764 0.13260233 -0.021520793 -0.053778246
0.012164414 -0.24966946 0.1457615 0.14459659 -0.44099382 0.41056645 -0.17020357 -0.16097201
0.10014944 0.1384503 -0.038370453 0.022802018 0.008513451 -0.14150663 0.09549703 0.06868218
-0.6565603 0.31773877 -0.47950134 -0.2007823 0.1723478 0.17461446 -0.014645502 0.03566744
-0.04417699 -0.29378125 0.17134713 0.08578226 -0.48213768 0.27096596 -0.21054088 -0.27510127
0.14131668 0.14720245 0.011937246 0.013266176 -0.05149363 -0.25879997 0.19300151 0.111160494
-0.48580492 0.35094482 -0.326627 -0.18850264 0.12576577 0.1741518 0.042628445 0.045680746
0.01288151 -0.29424313 0.1577429 0.11827705 -0.48863345 0.2567227 -0.25379306 -0.22961059
0.17205037 0.10640231 -0.02031929 0.0113465935 -0.05161511 -0.22608683 0.21798973 0.19516255
-1.3512582 0.12972338 -0.54255784 -0.07595216 -0.1299296 -0.09192847 0.009069517 -0.03595241
-0.046966016 -0.136202 -0.057484113 -0.07803609 -0.53863776 0.34327152 -0.12381106 -0.24147955
0.21103035 0.11752313 0.0071037337 0.01788789 -0.012688994 -0.2612466 0.13626976 0.16710927
-0.48702565 0.33583355 -0.20916897 -0.18622757 0.18659566 0.2055063 -0.016568586 -0.020397216
-0.047422223 -0.28886235 0.18007739 0.16715187 -0.86094415 0.514438 -0.44954005 -0.3082995
0.095615 0.15839805 0.0046989024 0.04863631 -0.03919077 -0.23535873 0.05808711 0.09573834
-0.7369999 0.2696308 -0.17434628 -0.06838922 -0.047765464 0.036219753 0.050556794 -0.051272944
-0.04145263 -0.078498624 0.046461813 -0.06338399 -0.5681814 0.1746076 -0.7457657 0.13604029
-0.2441875 -0.17361434 -0.049330138 -0.022434361 -0.017272465 0.1091782 -0.17331399 -0.17013048
-0.51666486 0.31024894 -0.3188884 -0.20504853 0.13640143 0.18955116 0.02600161 -0.05713869
-0.012026444 -0.25913104 0.17350589 0.12623732 -0.46018118 0.34567645 -0.06580495 -0.2629725
0.22332448 0.23302823 0.060221106 -0.04715488 0.06172678 -0.23034741 0.24243222 0.2320192
-0.3469134 0.22301263 -0.6307102 -0.15389125 -0.17543311 -0.14328739 -0.018414363 0.0357259
-0.0058754534 -0.09373613 -0.2137969 -0.17088582 -0.16471796 0.21538064 -0.45431957 0.062754296
-0.15380865 -0.15887496 -0.041055515 0.032704324 0.01741147 0.00022061344 -0.16388822 -0.16609308
-0.4699343 0.15250744 -0.8022852 0.008477696 -0.15194091 -0.19802724 0.044668548 -0.015025526
0.03882511 -0.003138341 -0.19950265 -0.12424957 -0.4171471 0.29096496 -0.10941511 -0.2730066

base.seq_fcs.0.bias f4 [256]
00000000: 4419 693e ea94 853e 57b2 583e 3952 7e3e
00000010: 3b83 873e e57e 583e a3d8 5b3e 328b 823e
00000020: c788 773e 6173 863e 6a56 e93c 5c6e 8b3e
00000030: e157 893e c8b7 613e 036c be3d cc09 abbd
00000040: 5f25 7d3e 684f 963e f23d 95bd 7b39 e7bc
00000050: 7543 6cbd 0219 8f3e 1d01 6c3e 42dc 823e
00000060: 11e9 a3bd 4c86 903e 25a9 5fbd 94ec 863e
00000070: 76cc 8a3e fa4a 393e 660c d03d 9d15 fdbc
00000080: eb71 aabd 0343 abbd 78f5 893e 0501 893e
00000090: f3b0 aebd da55 2cbd cac1 4e3e 65d4 843e
000000a0: 506f 333e 6334 08bd c0c2 16bd e884 1fbd
000000b0: f31d 513e 024a 923e 86e8 4b3e 2b0c b0bd
000000c0: b694 eebd 0641 943e e24a 6abd 6450 503c
000000d0: ad04 433c 468e 8ebd aaa1 b73d 3cf7 423e
000000e0: 244b 843e ef87 873e 437c 773b 0ef2 62bd
000000f0: 9c1c c43d 1133 67bd 9ed2 903e 94bb 8c3e
00000100: 947b 953e 8f86 70bd 6259 913e ef97 7c3e
00000110: c127 9c3e 9abb 8d3e 127b 56bd 476b 69bb
00000120: e170 183e 99bc 903e b88e fe3b 0125 9fbc
00000130: 1d79 16bb 72d7 04bd a2b7 2bbd 8787 933c
00000140: 7650 053b 8a31 843e b7d1 933e 1db1 8fba
00000150: f369 7b3e 624f 913e 97aa 9abd 0695 833e
00000160: 2c5f 35bd 8dcd d6bc 828f 843e aada 68bd
00000170: 4813 8e3e f518 79bd 76f5 903e a3f7 ffbc
00000180: 82e1 9fbd 03e6 8c3e 5405 943e ab42 943e
00000190: 326a 0a3c 28e1 673e 53ac 813e 4af3 8cbb
000001a0: b3f1 8d3e 5a5b 983e c8cb 823e 65f7 34bd
000001b0: 714a 813e 2ddb 9abd 8716 32bc 7025 1cbc
000001c0: 5c59 a6bd 147e 533e 3514 893e 1131 10bd
000001d0: 7d35 1f3e 9015 b1bd bb80 79ba ccb1 0bbc
000001e0: b016 843d 0b72 a7bd 7027 76bd 335e adbd
000001f0: f3d7 cc3c 1aba b8bc b973 703e aa04 8e3e
00000200: 5468 723e c10e 2cbd 41e6 88bd 8e96 bc3c
00000210: 8e8c 853e 4314 843e 627a 853e 5221 2cbd
00000220: f4c3 23bd d1b8 8d3e fa58 393c d904 913e
00000230: 5838 6fbd 6ca6 8b3e e438 28bd df93 b53c
00000240: 6c2b 893e 5b3b 003c 099e 8d3e eb17 813e
00000250: 338e 8e3e f2ce b8bd b762 8b3e e1e9 653e
00000260: c5c3 663e fb1e 1f3e 1fd6 773e 5fb6 953b
00000270: a983 41bd 1752 dd3d 71d0 163e 66ea 923e
00000280: 3d9d 863e db23 9abd 5a06 943e 501b 913e
00000290: 8895 93bd 2137 8c3e 0353 083e e250 34bd
000002a0: e0e8 993e 2be1 813e bc46 ccbb 42dc adbd
000002b0: 2f47 3ebd 6d42 76bd c8dd 8d3e 5e62 463e
000002c0: c8a9 893e 78a1 2fbc 0757 863e 6111 903e
000002d0: 76f0 843e 3417 9ebd e2b2 e23d 49f4 883e
000002e0: 6066 8b3e d5c3 1d3c 4c42 26bd b835 86bd
000002f0: 6608 91bd 0ede 783e ac1e 683e eb11 823e
00000300: 0124 cbbc b884 853e 1820 89bc 499b 823e
00000310: 2c27 bebd b6b9 8b3e 5e98 903e 2791 933e
00000320: 4dc2 1cbd 1614 853e d8bd 803e 7eae bfbd
00000330: 9c27 8e3e e1b1 8cbd c5bb 8a3e 6e68 da3b
00000340: 0909 72bd d7e2 8ebb 188a 8a3e ca27 15bc
00000350: 8fcf 733e 38e7 963e 68bb 3cbd 26dc 98bb
00000360: 7a9b 833e faee 803e b9f7 8b3e 3f64 d43c
00000370: 62ff 353d 7924 2dbc b79e 9c3b 9a7c fd3d
00000380: de38 1abc 2dac 7e3e 6a70 893e d9c6 8b3e
00000390: 762f 8a3e eed6 953e 672e 1d3c 7d1c 8d3e
000003a0: 70c8 433e 9cfd 873e c7bc 993e 9372 dabd
000003b0: f25b 323d f056 51bd cb96 903e 60a1 893e
000003c0: b6fa 873e 00c7 91bd 456d 7f3e aee0 8a3e
000003d0: 99e5 8d3e 6e47 2dbd 8d3d 843e 8d5b 843e
000003e0: 767c 9dbd 6fc8 303c a36e 863e fd19 4dbd
000003f0: 72e9 903e 4065 933e e9f1 8a3e 309b 823e
0.22763544 0.26090175 0.21161781 0.24836053 0.26467308 0.21142156 0.21469359 0.25496823
0.2417327 0.26259902 0.028483588 0.27232635 0.2682486 0.22042763 0.09297945 -0.08351478
0.24721287 0.29357457 -0.07287206 -0.028225651 -0.05768152 0.27948767 0.230473 0.25558668
-0.08003438 0.2822746 -0.05460467 0.2635237 0.27109116 0.18095008 0.10158615 -0.030894095
-0.083225094 -0.08362391 0.2694509 0.2675859 -0.08529844 -0.042074062 0.20191112 0.25943294
0.17522931 -0.033253085 -0.03680682 -0.03894511 0.20421581 0.28572088 0.1991292 -0.08596071
-0.11649458 0.2895586 -0.05720032 0.012714479 0.01190297 -0.0696073 0.08966382 0.19039625
0.25838578 0.26470897 0.0037763275 -0.055406623 0.09575769 -0.056445185 0.28285688 0.2748686
0.29195845 -0.058722075 0.28388506 0.24667333 0.3049908 0.2768219 -0.052363463 -0.003561692
0.1488681 0.2826889 0.0077684782 -0.019426825 -0.0022960373 -0.032432027 -0.041923173 0.01800896
0.0020342148 0.25819045 0.28870937 -0.0010962818 0.24552135 0.28380877 -0.07552069 0.25699633
-0.044280216 -0.026221061 0.25890738 -0.05684916 0.27749085 -0.060814817 0.28312272 -0.031246012
-0.07806684 0.27519235 0.28910315 0.28957114 0.0084481705 0.22644484 0.25326785 -0.0043014633
0.27723464 0.29757196 0.25546098 -0.044181246 0.25252107 -0.07561336 -0.010869629 -0.00953041
-0.08122513 0.20653564 0.2677323 -0.035203043 0.15547748 -0.08646691 -0.00095177785 -0.008526277
0.0644964 -0.08176049 -0.060096204 -0.08465233 0.025005316 -0.022549678 0.23481645 0.27737933
0.2367261 -0.042006258 -0.066845424 0.023021009 0.26083797 0.25796708 0.26069933 -0.042023964
-0.039981797 0.27680066 0.011312718 0.2832401 -0.058403343 0.27275407 -0.04106988 0.022165237
0.2679094 0.007826651 0.27659634 0.2521356 0.27842864 -0.09023847 0.2722375 0.22452499
0.22535618 0.15539162 0.24202774 0.0045688595 -0.0472447 0.10806673 0.14727952 0.28694457
0.26291838 -0.0752637 0.28911096 0.2834115 -0.07206255 0.2738581 0.13312916 -0.04402245
0.30060482 0.25367102 -0.006234018 -0.084892765 -0.046454605 -0.060121942 0.27708268 0.19373462
0.26887345 -0.0107196495 0.26238272 0.2813826 0.25964707 -0.077192694 0.110692754 0.26748875
0.27226543 0.0096292095 -0.04059057 -0.06553215 -0.0708168 0.24303457 0.2266795 0.25404295
-0.024797441 0.2607782 -0.016738936 0.25509098 -0.09284815 0.27290124 0.28241247 0.2882168
-0.038271237 0.25991887 0.2514484 -0.093594536 0.27764595 -0.06869865 0.27096382 0.006665281
-0.059090648 -0.0043605375 0.27058482 -0.009103725 0.23809646 0.2947328 -0.046077162 -0.0046649156
0.25704557 0.25182325 0.27337435 0.025926707 0.044433005 -0.010567778 0.0047796625 0.123772815
-0.009412972 0.24870367 0.26843578 0.27300146 0.26989335 0.2926554 0.009593583 0.27560797
0.1911943 0.26560676 0.30026838 -0.106663845 0.043544717 -0.0511083 0.28240046 0.26880932
0.26558465 -0.07118034 0.24944027 0.27124542 0.27714232 -0.04230445 0.2582821 0.25851098
-0.07689755 0.010789975 0.26256284 -0.050073612 0.28303105 0.28788185 0.27137688 0.25509024

base.seq_fcs.2.weight f4 [256, 256]
00000000: c876 963d 9a83 733e 5737 f8bd c6fa 2d3e
00000010: e542 883e 9c8c 1dbd c1c6 1c3e fe9f 353e
00000020: 1cb9 263e 724b 353e dacd a9bf ff77 793e
00000030: fe74 863e 34b4 963d 1feb 97bc f3fb f8bd
00000040: 4016 e63d 6db1 993e 244c 93be 720d 38be
00000050: 4841 92be 28a8 b13e 5778 67bd 3845 283e
00000060: b32e a4be d805 b93e 0213 0abb 2b69 743e
00000070: e2f3 863e 07ba a0bc ea12 61bd 5926 80be
00000080: a027 2abd c347 bbbd a8ef 973e 5b3f 333e
00000090: 1cfd 7bbd 8f61 eebc f047 88bd fffd 8a3e
000000a0: 64b3 1abe 25ed 803d af8d 97be 32fa 12be
000000b0: 19a6 25be f927 0e3e 28ee 10be 76ce 3cbc
000000c0: f44c 473f 6af4 af3e d463 8dbe c488 4dbf
000000d0: 2de6 8dbf 6f94 87be 067f dcbd 7300 05bf
000000e0: 4113 333e 3f2c 8f3e e15d c1bd 9be5 96be
000000f0: aa0a f2bb 1f01 94be 50e8 843e 7b14 8d3e
00000100: 3d51 d33e 75cb 98be 9329 863e c9d4 503e
00000110: fcf2 df3e 15b4 b23e a787 a0be b679 6cbf
00000120: 7e8a f2bd 9448 7e3e 9bc9 81bf ad17 82be
00000130: 089a 6fbf 0acd fc3c 06e2 afbe 1ed7 a3bf
00000140: 3d6f 85bf 7c2f 0d3e bc52 953e 9098 1ebd
00000150: 1f04 823d 15ae 673e c79d a6be 3e71 213e
00000160: 7048 a0be 0f3e 70be bebb 623e c895 54be
00000170: f604 a73e 836d 2ebe bfd7 8c3e 4121 e4bc
00000180: 1952 a4be 68be 953e 397e a43e d013 dc3d
00000190: bfb1 acbd 6bc2 9e3c c970 153e 2ebe 1fbf
000001a0: dd77 a03e 9f34 b43e f1a9 653e b84d 8ebe
000001b0: 3ea6 0d3e 552c a8be 139c 78bf 8e9e 35be
000001c0: 26cc 05bf 15f0 e23d 93cd 343e 493a 99be
000001d0: 2561 6cbf d81e e9bd a6c0 6abf 4bf4 80bf
000001e0: 89f2 25bd fed9 eabd d7f8 a0be d800 bdbd
000001f0: ecd2 a8bf 9323 58be 8da0 c23d f5be af3e
00000200: 97a3 513e b3d4 98be 778d adbe 8b47 78bf
00000210: 73d7 5c3e c9d7 5a3e e84f 963e bde3 6abe
00000220: e7a1 1cbe ff5c 6a3e efe8 2abf 0573 9c3e
00000230: cc92 a0be a982 783e 2159 8cbe 16d7 a5bf
00000240: 2743 573e b2fb 87bf 222e a33e 4662 1c3e
00000250: da29 953e a917 b2be f408 973e 1778 e83c
00000260: 5a06 0a3e 2fde 933c bc9d 623d ac6b 6fbf
00000270: 508a a3be 3c8a 843d 6bfd e8bc 63fc ba3e
00000280: 640a 203e 4bc8 303f 617c c93e 539b 313e
00000290: fe42 85be 171f 9e3e 1d20 a5bb 0596 12be
000002a0: 8f7b dd3e 4abd 7a3e 6701 77bf 7adb 15bf
000002b0: 5c0b 9dbe c179 c0be cc97 b13e 176f 91bd
000002c0: eb94 8d3e d68d 17be f0fe 683e 466f ab3e
000002d0: 802f 6e3e 442d b5be 564e 33bd 208b 9d3e
000002e0: cd93 9e3e ee3a 70bf 147c 6dbe 35d7 4bbe
000002f0: 45de 11bf 9374 bc3c c48e a4bd 46bd 5e3e
00000300: 7043 8abe 6923 2a3e d551 49bf 6c02 703e
00000310: 0523 413f cae5 953e 625e 993e 7eb5 be3e
00000320: 622a 66be bb34 163e 38a7 6f3e 4aa3 12bf
00000330: a9c8 8b3e 1561 c4be 13b1 853e dd32 b7bd
00000340: 6f81 b5bd ae40 8bbf e8e3 873e ecb7 2abe
00000350: 2563 583e 558e be3e 2da8 a2be 0420 26bf
00000360: 8b87 3d3e a4bf 1e3e 0ecd 5f3e 288b 85bf
00000370: 3fd1 84bf 7ca9 35bf 010b 80bf 301e 303c
00000380: 08d2 25be 9ad9 0e3e fa55 7c3e 620c a43e
00000390: d7fc 6f3e 72a0 a23e ab41 26bf e376 b33e
000003a0: 2c47 a3bd 7f25 933e cc3f b43e 6260 13bf
000003b0: 11d8 a2bf d077 8bbe 44d0 9d3e 2bf6 653e
000003c0: 3998 843e 87a2 b2be e4fc 093e 8afa a03e
000003d0: cb87 8d3e 70f6 70be a7a7 703e 9eeb fe3d
000003e0: 414b 6e3d 9463 02bd 2100 653e f0ff 52be
000003f0: 2b45 8b3e 9085 973e c321 923e 7c32 303e
0.073468745 0.23780671 -0.1211993 0.16990194 0.26613536 -0.038464174 0.15310194 0.17736813
0.16281551 0.17704561 -1.3265946 0.24362181 0.26261133 0.0735859 -0.018544732 -0.121574305
0.112347126 0.30018178 -0.28769028 -0.17973879 -0.2856543 0.34698606 -0.05651125 0.16432655
-0.3206688 0.3613727 -0.0021068458 0.23868243 0.26357943 -0.019619955 -0.05494968 -0.25029257
-0.041541696 -0.09144547 0.2967503 0.17504637 -0.06152068 -0.029099254 -0.06654346 0.2714691
-0.15107495 0.06295232 -0.29600284 -0.14353254 -0.16176642 0.13882436 -0.1415335 -0.0115238335
0.77851796 0.3436616 -0.27615225 -0.8028681 -1.1085869 -0.26480433 -0.10766415 -0.5195381
0.17487814 0.27963445 -0.09441734 -0.2947205 -0.007386525 -0.28907105 0.2595849 0.27554688
0.41272917 -0.29842725 0.26203594 0.20393671 0.4374007 0.34903017 -0.31353495 -0.92373216
-0.118428215 0.24832374 -1.013965 -0.25408688 -0.9359441 0.030859489 -0.3435213 -1.2800024
-1.0424572 0.13787645 0.29164684 -0.038719714 0.06348442 0.22625001 -0.3254225 0.15765855
-0.31305265 -0.23461173 0.2214193 -0.20760262 0.32620972 -0.17033963 0.2750835 -0.027847888
-0.32093886 0.2924683 0.3212755 0.107459664 -0.0843234 0.019379815 0.14593805 -0.62399566
0.31341448 0.35196397 0.22428109 -0.2779367 0.13832948 -0.32846323 -0.9711315 -0.17736265
-0.5226463 0.11080948 0.17656545 -0.2992728 -0.9233573 -0.11382836 -0.9170021 -1.0074552
-0.040514503 -0.1146736 -0.3143985 -0.092286766 -1.3189368 -0.2110732 0.09503279 0.34325376
0.20472561 -0.29849777 -0.33896992 -0.96984166 0.21566562 0.21371378 0.2935784 -0.22938438
-0.15296136 0.22887038 -0.6676168 0.30556503 -0.31361997 0.24268593 -0.2741175 -1.2956264
0.2102171 -1.0623686 0.31871134 0.15271863 0.29133493 -0.34783676 0.29499018 0.028377576
0.13478985 0.018050281 0.05532621 -0.9352367 -0.31941462 0.064716786 -0.028441152 0.3652068
0.15628964 0.6905562 0.39352706 0.17344408 -0.26027673 0.30883095 -0.0050392286 -0.1431504
0.4325833 0.2448627 -0.96486515 -0.5853802 -0.3067273 -0.3759289 0.34686124 -0.07101267
0.27652678 -0.148002 0.22753501 0.33483332 0.23260307 -0.35386097 -0.04377588 0.30770206
0.30972138 -0.9383992 -0.23191863 -0.19906314 -0.5697978 0.023004806 -0.08035043 0.2175189
-0.27004576 0.1661507 -0.7864049 0.23438424 0.7544406 0.29276878 0.2995482 0.37247843
-0.22477105 0.14668553 0.23403633 -0.5728041 0.2730153 -0.38355318 0.2611166 -0.08945248
-0.08862578 -1.0879114 0.26541066 -0.16671723 0.2113157 0.37217966 -0.31768933 -0.648926
0.18508737 0.15502793 0.21855566 -1.0433092 -1.0376357 -0.7096174 -1.0003358 0.010749385
-0.16193402 0.13950196 0.24642172 0.32040697 0.23436294 0.31763035 -0.6494395 0.3505164
-0.07972559 0.28739545 0.35204923 -0.57568944 -1.2722188 -0.27239847 0.30822957 0.22457187
0.25897387 -0.34889624 0.13475376 0.31441146 0.27642664 -0.23531508 0.23501454 0.12447284
0.058177236 -0.031833246 0.2236333 -0.20605445 0.27201208 0.29594088 0.28541383 0.17206758

base.seq_fcs.2.bias f4 [256]
00000000: 0676 2d3f d985 713e 3d8d 223f ad78 c23d
00000010: c509 6f3e b381 6f3e c683 753e 0af0 753e
00000020: eaea 753e bb4d 763e 6d02 723e b24c 763e
00000030: 7810 763e 41cf 753e 688c 753e b0ab 753e
00000040: f031 763e 354f 763e 5153 763e 9a3a 763e
00000050: 475a 723e 2905 723e b4ba 2b3f b5b3 bb3d
00000060: e8ce 753e f810 763e 85d5 753e c2d2 2e3f
00000070: b6c2 753e 8306 763e 3257 763e f66e 743e
00000080: 129d 753e 0db3 733e 6c79 733e 33af 753e
00000090: cb42 763e c945 763e 9e80 763e 30ea 853e
000000a0: d8e0 753e 9134 6e3e 5135 ad3d 4e15 6e3e
000000b0: b888 753e 9f88 283f 5d62 733e abe2 753e
000000c0: e6be 753e dc45 713e 9b30 723e 75bd 723e
000000d0: 35df 753e a0bc 753e 2674 753e 6655 6f3e
000000e0: 1565 6e3e 87f1 2c3f 39ad 753e 8e3c 233f
000000f0: 4186 753e 73f0 753e a9b9 6f3e 5427 733e
00000100: 2704 6f3e d874 763e 4e2c 763e 7351 6e3e
00000110: 22aa 753e 3f1a 763e 5a80 753e 4469 2e3f
00000120: a88f 753e d5ea 743e 1629 6e3e 0368 723e
00000130: af9b 753e 6f41 763e 0e75 763e dfd0 6e3e
00000140: c71b 733e 8dad 753e b966 253f 45a5 6f3e
00000150: 5616 2f3f 6779 753e cf45 1a3f 6eab 753e
00000160: 2fd1 733e 3c53 703e cd2d 2f3f 2b83 743e
00000170: c2fe 363f 4222 763e dcd9 2f3f 5d14 713e
00000180: 4b14 763e 5b27 2a3f 1d93 753e 79e5 723e
00000190: e8ae 733e 0338 733e 3db2 6e3e f3b8 723e
000001a0: 9a7a 753e 2a85 6e3e 9f81 763e 2d3a 763e
000001b0: b8ca 753e cc58 6d3e 665a 743e 0041 2c3f
000001c0: 8dd4 733e 6f0d 763e da19 2e3f ce76 713e
000001d0: 683f 763e 4fb7 753e c873 763e af3d 763e
000001e0: 4566 743e c581 763e 625f 2b3f 674a 763e
000001f0: 997a 2d3f 72d1 713e f82f 763e e615 2e3f
00000200: 9a9a 6e3e 5b74 763e 5263 763e 7201 713e
00000210: 0bd4 253f 3f00 733e 7f2d 753e eb76 733e
00000220: 78d3 713e 4f8c 2a3f 5de1 753e 2b2e 713e
00000230: eec5 753e 5621 733e e3d5 2a3f c31b 753e
00000240: 778d 2b3f a974 723e 374a 753e a594 753e
00000250: 3c57 303f d1ba 753e d189 753e 2556 763e
00000260: 78aa 753e b12c 723e 7323 753e 5872 713e
00000270: f354 763e 80c4 743e a62c 723e cec1 743e
00000280: 898d 763e f8b2 753e 5e4d 753e fdbe 753e
00000290: ce4c 803e 8e9f 753e e3aa 753e 7572 6e3e
000002a0: 4818 6d3e c05d 763e c572 7f3e c911 763e
000002b0: 73b7 2b3f ff2a 763e dfd2 753e 14d3 713e
000002c0: d13d 723e d802 763e beb8 2d3f bcf5 753e
000002d0: 8659 733e 68ca 753e f65f 763e 56f9 9c3d
000002e0: eb3f 763e 4b45 763e ad8d 753e 2564 763e
000002f0: 1d7a 733e c093 753e 6d25 763e 1598 753e
00000300: 494f 763e 6b47 703e ec99 733e 2681 273f
00000310: 6acf 2c3f e19f 2d3f defa 753e b429 6c3e
00000320: dcdf 753e 58dc 703e 0b7a 763e 24a5 753e
00000330: 2a04 743e cc2d 763e a4c1 753e d62d 713e
00000340: 88e2 753e 6c8e 713e 5dea 2d3f 1459 733e
00000350: 40a3 753e e9b8 743e 4984 723e 0f51 2f3f
00000360: 1dd8 723e 9be5 813e a4be 2e3f 3d93 753e
00000370: 150d 763e 418d 703e 5fba 233f cb00 713e
00000380: ce66 763e 631a 763e 3255 763e 808b 2b3f
00000390: d2db 753e dd0f 763e 3db5 743e 1480 763e
000003a0: 1e43 713e aaf3 753e 6049 763e 4c13 2c3f
000003b0: f4d3 723e d0e8 753e f121 763e 3f22 2f3f
000003c0: 11de 703e 7248 763e 1006 743e d6e9 6f3e
000003d0: aa08 763e 6c19 763e 9d5c 763e 37a3 6f3e
000003e0: f7a3 753e 2c34 1c3f 7f4b 763e 8b79 743e
000003f0: 44d8 723e 1108 763e 8080 733e 7563 763e
0.67758214 0.23586215 0.6349676 0.09495673 0.2334357 0.2338932 0.23976049 0.24017349
0.24015394 0.2405309 0.23633738 0.24052694 0.2402972 0.24004842 0.23979342 0.23991275
0.24042487 0.24053653 0.2405522 0.24045792 0.2366725 0.23634781 0.6708176 0.09165136
0.2400471 0.2402991 0.24007232 0.6829034 0.24000058 0.24025922 0.240567 0.23870453
0.23985699 0.23798771 0.23776788 0.23992614 0.24048917 0.24050058 0.24072501 0.26155233
0.24011552 0.2326224 0.08457435 0.23250315 0.23977935 0.6583347 0.23767991 0.24012248
0.23998603 0.23561805 0.23651354 0.23705085 0.24010928 0.23997736 0.23970088 0.2337242
0.23280747 0.6755604 0.2399186 0.63764274 0.23976995 0.24017505 0.23410667 0.23745471
0.23341428 0.2406801 0.24040338 0.23273258 0.23990682 0.2403345 0.23974743 0.6812937
0.23980582 0.23917706 0.2325786 0.2367249 0.2398517 0.24048398 0.2406809 0.23321865
0.23741065 0.23991986 0.6460987 0.23402889 0.68393457 0.23972093 0.6026277 0.23991176
0.23810266 0.23469251 0.6842926 0.23878162 0.7148248 0.24036506 0.686918 0.23542924
0.24031179 0.664663 0.239819 0.2372035 0.2379719 0.23751836 0.2331018 0.23703365
0.2397255 0.23292986 0.24072884 0.2404563 0.24003112 0.23178405 0.2386261 0.6728668
0.2381155 0.24028562 0.68008196 0.23580477 0.24047625 0.23995708 0.24067605 0.24046968
0.23867138 0.2407294 0.6694242 0.2405182 0.67765194 0.23615053 0.24041736 0.68002164
0.23301163 0.24067824 0.24061325 0.23535708 0.64776677 0.23730563 0.23943137 0.23775832
0.23615825 0.66620344 0.2401175 0.23552768 0.24001285 0.23743185 0.66732615 0.23936372
0.67012733 0.23677315 0.23954092 0.23982485 0.6888311 0.23997046 0.23978354 0.24056299
0.2399081 0.23649861 0.23939304 0.23578775 0.24055843 0.23903084 0.23649845 0.23902056
0.24077429 0.23994052 0.23955294 0.23998637 0.25058597 0.23986647 0.2399097 0.2328585
0.23153794 0.240592 0.24946125 0.24030222 0.67076796 0.24039839 0.24006222 0.23615676
0.23656394 0.24024522 0.6786002 0.24019521 0.23764619 0.24002993 0.24060044 0.076647446
0.2404782 0.2404987 0.23979826 0.2406164 0.23777051 0.23982143 0.24037714 0.23983796
0.24053682 0.23464744 0.23789185 0.6543144 0.6750399 0.6782208 0.2402148 0.23062783
0.24011177 0.23521554 0.24069993 0.23988777 0.23829713 0.24040908 0.2399965 0.23552641
0.24012196 0.23589486 0.67935735 0.2376445 0.23988056 0.23898663 0.23683275 0.6848306
0.23715253 0.25370488 0.68259645 0.23981948 0.24028428 0.23491384 0.63956255 0.23535459
0.24062654 0.24033503 0.24055937 0.67009735 0.24009636 0.24029489 0.23897262 0.24072295
0.2356076 0.24018732 0.24051428 0.67216945 0.23713666 0.24014592 0.24036385 0.6841163
0.23522212 0.24051073 0.23830438 0.23429045 0.24026743 0.24033135 0.24058767 0.23402105
0.23988329 0.6101711 0.24052237 0.2387449 0.23715311 0.24026515 0.23779488 0.24061377

last.weight f4 [1, 256]
00000000: 6b68 c83f aff0 ac3e 9a2d c73f bcf3 75bf
00000010: 5455 ac3e f40f af3e 3324 ab3e 98a5 aa3e
00000020: e39d aa3e b596 a93e 4585 ad3e 8b8c ad3e
00000030: 86ec a83e f0d1 a93e 4e7b ae3e e150 aa3e
00000040: 7733 a83e e56d ac3e 2f3a ad3e 787e aa3e
00000050: 2eee ac3e acf7 ab3e 57f6 b83f bd6a 843b
00000060: 01bc ad3e 6971 aa3e 2b98 ad3e d353 c63f
00000070: 0c4d ac3e b398 a93e 7193 ac3e c527 ab3e
00000080: 2637 ac3e 7d13 ac3e b455 ad3e 9a29 b03e
00000090: 1303 a83e 9cff ab3e ec4b a93e c7a5 e03e
000000a0: 8657 ac3e be59 ad3e 0417 3abf 41eb ad3e
000000b0: 53c2 ad3e 6d65 bd3f 4dec aa3e 484b ac3e
000000c0: 0f7b ae3e 46cc ae3e b838 ab3e 64d4 ac3e
000000d0: 6079 ac3e c335 ac3e 1475 ab3e 3df7 a83e
000000e0: 320a ad3e 9f29 ca3f 7388 ac3e ee36 b73f
000000f0: 6549 ae3e 2c8c aa3e 158f ab3e 51d5 ad3e
00000100: ee52 ae3e 8a54 ab3e 09e6 ad3e 645e ae3e
00000110: 100e ac3e 3379 ac3e dd57 ad3e 2b1f ce3f
00000120: 211e ae3e 0ef8 aa3e bafc ad3e c1ea ad3e
00000130: b5f8 ad3e 07e1 ac3e d9c7 ae3e 7bdd ad3e
00000140: 4db2 a93e 7403 ac3e 7f2b ae3f 86e7 ad3e
00000150: 4031 b73f 05ca ac3e 15e3 b03f 37c5 aa3e
00000160: 6ab0 ab3e 92f9 ae3e 13a3 c53f bc6c ab3e
00000170: 6b2f c53f 225b ae3e 893f c23f 64f3 ab3e
00000180: b576 aa3e 023b b93f 35b7 ae3e f16b ac3e
00000190: 5ed5 ae3e 1375 a93e 5a96 ac3e 02fe ab3e
000001a0: 0dcc af3e 90a9 a93e 6a6c a83e 6eb6 ad3e
000001b0: ea15 ad3e 2bfe ac3e 76db aa3e daed c03f
000001c0: e3d1 ad3e 8bf0 a83e c2c6 c83f 078b ae3e
000001d0: 7298 a93e 9aaa a93e 7b91 a93e d84c ad3e
000001e0: 9ce5 ac3e edf1 a93e c23e c13f 72de a73e
000001f0: 9ff9 c33f 99e7 ae3e 7edc ac3e 586c c83f
00000200: 02b3 ac3e b75f a83e 4fb4 aa3e ed01 ac3e
00000210: f2f7 a13f 0ad9 ae3e c8a1 ae3e 5389 aa3e
00000220: 279c ad3e 1e50 bd3f fce6 aa3e 522f ab3e
00000230: f703 ad3e 99b2 ab3e b78f b93f 45f6 aa3e
00000240: 1033 c53f 4ce3 ae3e 605b ac3e b4d2 ae3e
00000250: 70e5 b73f 9724 ad3e 021b ac3e ba7c ae3e
00000260: 8503 ad3e 2d24 af3e 7af3 ac3e 0737 ad3e
00000270: 8e26 ac3e 4199 ad3e 7fdb ad3e 774b ad3e
00000280: 4065 aa3e c249 ad3e 82f2 aa3e 3fe1 a73e
00000290: cfe1 13bf 3bd6 a93e e112 ac3e 5886 ad3e
000002a0: 0bdc ad3e b7e3 aa3e f151 c33e 1fd5 ad3e
000002b0: 4ff7 bc3f 9b92 aa3e 720e ad3e 0597 ad3e
000002c0: b78a ae3e 7cd2 ad3e bf5d c33f 2343 ab3e
000002d0: 3fd5 aa3e 7b39 ae3e 7e5c ac3e a702 57bf
000002e0: 4876 ac3e 1b08 ac3e 3cd8 aa3e a9c6 ad3e
000002f0: 4ccf ad3e 007c ad3e 2cdf ae3e 5894 a93e
00000300: 9625 af3e a2ee ac3e 5a4d af3e 5d0f cb3f
00000310: 07eb b93f 4905 b83f 3638 af3e ffb2 ae3e
00000320: b23d ab3e a473 ac3e a5c2 a93e 96b9 aa3e
00000330: 206d ae3e 68a4 ab3e 801d ad3e ea1d ae3e
00000340: 1f8f ad3e 505f aa3e 8ebe bc3f 5cae aa3e
00000350: de3a ad3e fe00 ac3e 61ab aa3e 4fe3 c33f
00000360: 85cd a93e 25d6 d33e c934 c43f 78c6 aa3e
00000370: 139c ab3e 5c74 ac3e e807 c73f 6df2 a93e
00000380: 8663 a83e 5f01 aa3e b893 ab3e c36c b83f
00000390: d989 ae3e a8aa ad3e 9c4f aa3e 1f4b ac3e
000003a0: 561e af3e 1089 ac3e 3ed3 ab3e 31fa bb3f
000003b0: 93d0 ad3e c0a3 ab3e fa4b ab3e e53d c93f
000003c0: 30c1 aa3e 19e6 ac3e 363b ab3e 152b ab3e
000003d0: d273 ad3e f930 a93e 82de ac3e e554 aa3e
000003e0: d19d aa3e afbb b43f 7921 ac3e 268f a73e
000003f0: 963b ad3e c400 ac3e ad9f a93e ffd9 ab3e
1.5656866 0.33777377 1.5560791 -0.96075034 0.3365885 0.3419186 0.33426055 0.33329463
0.33323583 0.33122793 0.3389074 0.33896288 0.32992953 0.33167982 0.3407845 0.3326483
0.32851765 0.33677593 0.33833453 0.33299613 0.33775467 0.33587396 1.4450177 0.0040410445
0.33932498 0.3328965 0.33905157 1.5494331 0.33652532 0.33124313 0.3370624 0.3342878
0.33635825 0.33608618 0.3385445 0.3440674 0.32814845 0.33593452 0.33065736 0.43876478
0.33660525 0.3385753 -0.7269137 0.33968547 0.3393732 1.4796578 0.33383408 0.33651185
0.3407826 0.34140223 0.3344171 0.3375579 0.33686352 0.33634767 0.3348776 0.33001128
0.3379684 1.5793952 0.33697852 1.4313638 0.3404037 0.33310068 0.335076 0.3395181
0.34047645 0.33462936 0.33964565 0.3405639 0.3360448 0.33686218 0.33856097 1.6103262
0.34007362 0.33392376 0.33981878 0.33968166 0.3397881 0.33765432 0.34136847 0.3395804
0.33143845 0.33596385 1.3607024 0.339657 1.4311905 0.3374788 1.38193 0.33353588
0.3353303 0.34174782 1.5440391 0.33481395 1.5405096 0.34053904 1.5175639 0.3358413
0.3329369 1.4471133 0.3412415 0.33676103 0.3414716 0.33097133 0.3370846 0.3359223
0.34335366 0.33137178 0.32895213 0.33928245 0.33805782 0.33787665 0.3337056 1.5072587
0.33949193 0.3299602 1.5685656 0.34090444 0.3312412 0.3313797 0.33118805 0.3384769
0.33768928 0.33192387 1.5097277 0.327869 1.5310553 0.3416107 0.33761972 1.5658064
0.33730322 0.32885525 0.3334069 0.3359522 1.2653792 0.34149963 0.34107804 0.33307895
0.33908197 1.4790075 0.33379352 0.3343454 0.33792087 0.33534697 1.4496983 0.33391014
1.5406208 0.3415779 0.33663464 0.3414513 1.4366894 0.33816978 0.33614355 0.34079534
0.33791748 0.34207287 0.33779508 0.33831045 0.33623165 0.33905986 0.33956525 0.33846638
0.33280373 0.33845335 0.33388144 0.32789037 -0.5776643 0.33171257 0.33608153 0.3389156
0.33956942 0.33376858 0.38148454 0.3395166 1.4762973 0.33314976 0.33800083 0.3390428
0.34090206 0.3394965 1.5262984 0.3344966 0.3336582 0.3402823 0.33664316 -0.8398842
0.3368399 0.33599934 0.333681 0.33940628 0.33947217 0.33883667 0.34154642 0.3312099
0.34208363 0.33775812 0.34238702 1.5864064 1.452485 1.4376613 0.34222573 0.34120938
0.33445507 0.33681977 0.33156314 0.33344716 0.3406763 0.3352387 0.3381157 0.34007198
0.33898255 0.33275843 1.4745653 0.3333615 0.33833975 0.33594507 0.33333877 1.5303744
0.3316461 0.41374317 1.5328609 0.33354545 0.33517513 0.33682525 1.5549288 0.3319277
0.3288843 0.3320417 0.33511138 1.4408191 0.34089544 0.33919263 0.33263862 0.33651063
0.34202832 0.3369832 0.33559602 1.4685727 0.33948192 0.3352337 0.33456403 1.5722014
0.33350515 0.337693 0.33443612 0.33431306 0.33877426 0.33045176 0.3376351 0.33267894
0.3332353 1.4119776 0.33619288 0.327264 0.33834523 0.33594334 0.33129635 0.33564755
