Soft-Module-main/log/model50_new_19/model_vf_best.pth (torch, 280037 bytes, 5 tensors)

base.seq_fcs.0.weight f4 [256, 12]
0	0xbcbd3973	-0.023098683
1	0x3da3cd74	0.079981714
2	0x3cb08245	0.021546492
3	0x3dabab5d	0.08382294
4	0x3d112728	0.035437733
5	0xbb241e8d	-0.0025042624
6	0xbd10fa1c	-0.035394773
7	0x3cfd5984	0.030926473
8	0x3d00b3b2	0.03142137
9	0x3da40297	0.080083065
10	0x3d9ebc7e	0.07750796
11	0x3d94a07f	0.07257175
12	0xbd87c04d	-0.06628475
13	0xbc441c5c	-0.011969652
14	0xbcda8ec0	-0.026679397
15	0x3c35f315	0.011105319
16	0x3c01f107	0.007931001
17	0xbce225bf	-0.02760589
18	0xbd0b3d64	-0.033994094
19	0xbc5e6ea0	-0.01357618
20	0xbcd7abfc	-0.026327126
21	0x3d7dbe59	0.061949108
22	0x3cd36376	0.025804263
23	0xbc5ad8bd	-0.0133573385
24	0x3b6bf9dc	0.0036007082
25	0xbc97a729	-0.018512325
26	0xbd224a6d	-0.03962176
27	0x3d91e3a3	0.071234964
28	0x3d874c85	0.06606392
29	0x3d1d9db5	0.03848048
30	0xbd56d978	-0.052453488
31	0xbc3c8250	-0.011505678
32	0x3c63df48	0.013908215
33	0x3d767c9e	0.060177438
34	0x3d220463	0.039554965
35	0x3d821fa5	0.06353692
36	0xbda1b4a1	-0.0789578
37	0x3dbfe68b	0.093701445
38	0x3c9ac511	0.018892797
39	0x3d758ffa	0.05995176
40	0x3cda95c1	0.026682736
41	0x3d1872f0	0.037218988
42	0x3d380fde	0.044937007
43	0x3b952e90	0.00455267
44	0x3c94202c	0.018081747
45	0x3c7c2d12	0.015391605
46	0x3bf6f271	0.0075362255
47	0x3d80dcab	0.06292089
48	0xbdbc8700	-0.09205437
49	0x3cf32382	0.029680017
50	0x3cd49930	0.025951952
51	0x3d0159e6	0.031579874
52	0x3dc0d329	0.094152756
53	0xbc9cb13c	-0.01912748
54	0xbb647560	-0.003486
55	0xbc09bbb8	-0.008406572
56	0xbc930c8c	-0.017950319
57	0x3c430cc7	0.011904902
58	0x3d6cdf48	0.057830125
59	0x3cfe88e3	0.031071132
60	0xbd0864ce	-0.03329926
61	0x3dbca1ac	0.09210524
62	0xbd0b3369	-0.033984575
63	0x3d1b7a2d	0.037958313
64	0x3d566c5f	0.052349444
65	0xbcd42d57	-0.025900526
66	0x3d393cfc	0.045224175
67	0x3d515976	0.051110707
68	0x3d0a579a	0.03377495
69	0x3b0ae2e9	0.0021192378
70	0x3cb0b5b3	0.021571016
71	0x3d6b77f6	0.05748745
72	0xbd784f33	-0.060622405
73	0x3d2419f6	0.04006382
74	0x3c933756	0.017970722
75	0x3d6a548d	0.05720954
76	0x3d9e0128	0.07715064
77	0xbcd6927d	-0.026192898
78	0x3c983d74	0.01858399
79	0xbd6cf2ce	-0.057848744
80	0xbc55e9a0	-0.013056189
81	0x3d8367fc	0.06416318
82	0x3d3af1ec	0.04564087
83	0x3ad4ec7a	0.0016244792
84	0xbd90f033	-0.07077064
85	0x3d90a111	0.07061971
86	0xbd084799	-0.033271406
87	0x3db26e95	0.08712498
88	0x3aefa586	0.0018283583
89	0x3d420168	0.047364622
90	0x3c9290d8	0.017891333
91	0x3d4ce712	0.050025053
92	0x3d658d7e	0.05604314
93	0x3da90b22	0.082540765
94	0xba633fb6	-0.00086688565
95	0x3b9fbba6	0.0048746644
96	0xbd5c6fd8	-0.0538176
97	0xbc5f4354	-0.013626892
98	0xba7412cd	-0.0009310663
99	0xbb717623	-0.0036844097
100	0x3c6db7ff	0.0145092
101	0x3dc1b233	0.09457817
102	0xbd7fb76c	-0.062430784
103	0x3ceb76dc	0.0287432
104	0x3d38f956	0.04515966
105	0x3db35f01	0.08758355
106	0x3bf48d14	0.007463107
107	0xbbbaa757	-0.005696218
108	0xbd92b362	-0.07163121
109	0x3d130f58	0.035903305
110	0xbcaa4b27	-0.020787789
111	0x3d8e96f3	0.06962385
112	0x3cfd2e82	0.030905966
113	0xbcd8c9d4	-0.026463427
114	0x3c0e9388	0.008702166
115	0xbb4c9f80	-0.0031223
116	0x3d4a9c3a	0.049465396
117	0x3dae7632	0.08518638
118	0x3d0ebec0	0.034849882
119	0x3d6f8f96	0.058486544
120	0xbdb14d57	-0.086573295
121	0xbc66ae14	-0.014079589
122	0xbc90f518	-0.017694995
123	0x3da18c0e	0.078880414
124	0x3d99f4b0	0.075173736
125	0xbc86e192	-0.016464982
126	0x3c841824	0.016124792
127	0xbcff9704	-0.03119994
128	0x3d06464c	0.032781884
129	0x3da49b7a	0.08037467
130	0xbcb2f8c6	-0.02184714
131	0x3c9eac48	0.01936926
132	0xbd55fe63	-0.052244555
133	0x3cc86bbb	0.024465432
134	0xbd36135d	-0.04445206
135	0x3d73a468	0.059482962
136	0x3d409851	0.04702026
137	0x3da650c5	0.08120874
138	0x3cd84358	0.0263993
139	0xbd7db392	-0.06193883
140	0x3aac2380	0.0013133138
141	0x3ceed5d1	0.02915469
142	0x3d944268	0.072392285
143	0x3daef809	0.08543403
144	0xbd9020cf	-0.07037508
145	0x3d88704a	0.066620424
146	0xbc510f04	-0.012759928
147	0x3b1b1cf8	0.002366839
148	0x3d32f058	0.04368624
149	0x3d79300a	0.06083683
150	0x3d0c9048	0.034317285
151	0x3cf2e720	0.029651225
152	0x3bec83a0	0.0072178394
153	0xbc85e853	-0.016346132
154	0xbba83a63	-0.0051339134
155	0x3c60f947	0.013731307
156	0xbdc80f2b	-0.09768518
157	0x3d87ca99	0.06630439
158	0x3a031910	0.0005000988
159	0xbcb365e8	-0.021899179
160	0x3c1ade3b	0.009452398
161	0xbc54f8ed	-0.012998802
162	0xbd5edffe	-0.054412834
163	0x3ba791b0	0.005113803
164	0xbce61750	-0.028087288
165	0x3d42cc61	0.047558192
166	0x3d1e59d5	0.03865989
167	0x3cd5350f	0.026026277
168	0xbdbc286d	-0.09187398
169	0x3c91a6f9	0.017779814
170	0x3d1b74c9	0.037953172
171	0x3da07ef2	0.07836713
172	0x3cd645e7	0.026156379
173	0x38360552	4.3397136e-05
174	0x3d025696	0.031820856
175	0x3bd5b050	0.006521262
176	0xbd583744	-0.05278708
177	0x3cd998aa	0.026562054
178	0x3d4dca8d	0.050241996
179	0x3d8490a5	0.06472901
180	0xbd25f8f2	-0.040520616
181	0x3da02afb	0.07820698
182	0xbd26036e	-0.040530615
183	0x3d7fe1f0	0.06247133
184	0x3dc12101	0.09430123
185	0xbc6a1df5	-0.014289369
186	0xbc056a90	-0.008143082
187	0x3cebc558	0.028780624
188	0xbd6f3aa0	-0.05840552
189	0x3cef052f	0.029177276
190	0x3d71ebcb	0.05906276
191	0x3d01c52b	0.031682175
192	0xbdb0761d	-0.08616278
193	0xbbe36ae4	-0.0069402326
194	0x3d0ad61e	0.033895604
195	0x3db6a48e	0.08918105
196	0xbce482e6	-0.027894448
197	0x3d78c829	0.060737763
198	0x3ad58dc0	0.0016292855
199	0x3ce4c584	0.027926214
200	0x3b9a87d0	0.004715897
201	0x3cb1ea0b	0.021718046
202	0x3d9fc3f7	0.07801049
203	0x3d6e72bd	0.05821489
204	0xbd842af0	-0.06453502
205	0x3c905d0c	0.017622493
206	0xbd3154c7	-0.04329374
207	0xbc38766a	-0.011258701
208	0x3d9b3d9c	0.075801104
209	0xbaefc8b7	-0.0018294071
210	0xbbb7cbc0	-0.0056090057
211	0xbce15d4c	-0.027510308
212	0x3d69bd9a	0.057065584
213	0x3dac889b	0.08424493
214	0xbc3bdf4e	-0.011466814
215	0xbc20c8b8	-0.00981348
216	0xbdb3c852	-0.087784424
217	0x3d777967	0.060418513
218	0xbca52f56	-0.020164173
219	0xbc0c2481	-0.008553625
220	0x3c4512f4	0.012028445
221	0x3d969568	0.07352716
222	0x3cbe19a8	0.023205593
223	0xbca259f8	-0.019818291
224	0x3d627b7e	0.055293553
225	0x3a54bb62	0.00081150804
226	0x3cfab238	0.03060256
227	0x3a913850	0.0011079405
228	0xbdad190c	-0.08452043
229	0x3d89fc83	0.06737616
230	0xbd2d1a8e	-0.042261653
231	0xbba523b6	-0.0050396575
232	0x3cbe7fc1	0.023254277
233	0x3da1b11d	0.0789511
234	0x3bf300d0	0.0074158683
235	0x3d501346	0.05079963
236	0xbd7e20da	-0.06204305
237	0x3d59ed7b	0.053204995
238	0xbc83fb7f	-0.016111134
239	0x3bf30707	0.007416609
240	0xbdcf2c26	-0.101158425
241	0x3c5e07af	0.013551637
242	0xbda4f51c	-0.080545634
243	0x3d065372	0.032794423
244	0xbc26f833	-0.010191011
245	0x3d039db2	0.03213281
246	0xbcf54cf4	-0.02994392
247	0x3c85d7e8	0.016338304
248	0xbd0b1f24	-0.033965245
249	0x3c87f46b	0.01659604
250	0x3d8d9311	0.06912816
251	0xbca709e9	-0.020390468
252	0xbc858fd9	-0.016303943
253	0x3d1b8ac6	0.03797414
254	0x3b1ead2e	0.002421211
255	0xbb89f218	-0.004209768

base.seq_fcs.0.bias f4 [256]
0	0x3e0a3ada	0.13499013
1	0x3e05ea51	0.13077666
2	0x3e0df683	0.13863568
3	0x3e0cfb86	0.13767824
4	0x3e0814d3	0.13289194
5	0x3e0bb64b	0.13643758
6	0x3e0501d3	0.12988977
7	0x3e0b3906	0.13595971
8	0x3e099d4a	0.13438907
9	0x3e046d88	0.12932408
10	0x3e08f760	0.13375616
11	0x3e092dda	0.13396397
12	0x3e067cbe	0.13133523
13	0x3e030d6d	0.1279809
14	0x3e0b8295	0.13624032
15	0x3e09a43c	0.13441557
16	0x3e06b8e8	0.13156474
17	0x3e08119c	0.13287967
18	0x3e0a1ff7	0.13488756
19	0x3e0bf117	0.13666187
20	0x3e03e220	0.12879229
21	0x3e059a86	0.13047227
22	0x3e1117b2	0.14169195
23	0x3e0d0911	0.1377299
24	0x3e07f0cb	0.13275449
25	0x3e06fdfb	0.13182823
26	0x3e0a8ec6	0.13531026
27	0x3e076dbb	0.13225453
28	0x3e0990fd	0.13434215
29	0x3e08da08	0.13364422
30	0x3e08b38f	0.13349746
31	0x3e0929ad	0.13394804
32	0x3e02e212	0.12781551
33	0x3e0d353e	0.13789842
34	0x3e026707	0.12734614
35	0x3e09eafc	0.13468546
36	0x3e0e0351	0.13868453
37	0x3e076e62	0.13225701
38	0x3e092365	0.13392408
39	0x3e046a8b	0.12931268
40	0x3e0b2f82	0.13592342
41	0x3e0de0aa	0.13855234
42	0x3e0d1a12	0.13779476
43	0x3e02cf71	0.12774445
44	0x3e0b2f41	0.13592245
45	0x3e094dd5	0.13408597
46	0x3e09086d	0.1338212
47	0x3e0bfca4	0.13670594
48	0x3e0a961b	0.13533823
49	0x3e0b0d46	0.13579282
50	0x3e0adb01	0.13560106
51	0x3e0a6caf	0.13518022
52	0x3e0d2a10	0.13785577
53	0x3e0c8e82	0.13726237
54	0x3e0920ee	0.13391468
55	0x3e097f42	0.13427451
56	0x3e05c453	0.13063173
57	0x3e0d3b93	0.13792257
58	0x3e0bcc4f	0.13652156
59	0x3e072d3a	0.13200846
60	0x3e04b2aa	0.1295878
61	0x3e0aacf4	0.13542539
62	0x3e05fad2	0.13083962
63	0x3e0acb2f	0.13554071
64	0x3e044e91	0.12920596
65	0x3e0bff05	0.13671501
66	0x3dc59142	0.09646846
67	0x3e0913b6	0.13386425
68	0x3e098380	0.1342907
69	0x3e07e39a	0.13270417
70	0x3e0c6596	0.13710627
71	0x3e08962b	0.13338535
72	0x3e035244	0.1282435
73	0x3e0c9c04	0.1373139
74	0x3e0de13d	0.13855453
75	0x3e0437ac	0.12911862
76	0x3e0cb0f6	0.1373938
77	0x3e0b2b54	0.13590747
78	0x3e08c58a	0.13356605
79	0x3e0845f8	0.13307941
80	0x3e093071	0.13397385
81	0x3e088a61	0.13334037
82	0x3e08b709	0.13351072
83	0x3e0639b6	0.13107952
84	0x3e084ff0	0.13311744
85	0x3e09ebce	0.13468859
86	0x3e07fda5	0.13280351
87	0x3e0dd72a	0.1385161
88	0x3e06a08f	0.13147186
89	0x3e060144	0.1308642
90	0x3e065dc5	0.13121708
91	0x3e06d639	0.13167657
92	0x3e097507	0.13423549
93	0x3e0a4a54	0.13504916
94	0x3e0b6224	0.13611656
95	0x3e0c78b0	0.13717914
96	0x3e0bf47c	0.13667482
97	0x3e0742b7	0.13209043
98	0x3e06ff33	0.13183288
99	0x3e0b80ea	0.13623396
100	0x3e087b28	0.1332823
101	0x3e085419	0.1331333
102	0x3e08f6e4	0.13375431
103	0x3dfb7956	0.12279002
104	0x3e0cbdb5	0.13744242
105	0x3e08044f	0.13282894
106	0x3e084a49	0.13309588
107	0x3e0bdb2c	0.13657826
108	0x3e0c663b	0.13710873
109	0x3e0bc206	0.13648233
110	0x3e09e144	0.13464838
111	0x3e09d901	0.13461687
112	0x3e0d9ebc	0.13830084
113	0x3e092936	0.13394627
114	0x3e079538	0.13240516
115	0x3e079474	0.13240224
116	0x3e0a48e3	0.13504367
117	0x3e057071	0.13031174
118	0x3e075907	0.13217555
119	0x3e08684e	0.13321039
120	0x3e02a8d7	0.1275972
121	0x3e09f3b1	0.13471867
122	0x3e018544	0.12648493
123	0x3e09b024	0.13446099
124	0x3e09dac9	0.13462366
125	0x3e0c2320	0.13685274
126	0x3e0dceab	0.13848369
127	0x3e0848ce	0.13309023
128	0x3e0a5f89	0.13513006
129	0x3e07658e	0.13222334
130	0x3e09a98d	0.13443585
131	0x3e08c461	0.13356163
132	0x3e070aa6	0.13187656
133	0x3e0f56b6	0.13997921
134	0x3e0d5bd5	0.13804562
135	0x3e06cfdd	0.13165231
136	0x3e06d208	0.13166058
137	0x3e0c6710	0.1371119
138	0x3e0b1273	0.13581257
139	0x3e0d1fd0	0.13781667
140	0x3e0ac6d4	0.1355241
141	0x3e05e161	0.13074256
142	0x3e06b8af	0.13156389
143	0x3e0bbe6d	0.1364686
144	0x3e0a29a0	0.13492441
145	0x3e0e301f	0.13885544
146	0x3e0dc49f	0.13844536
147	0x3e087eb1	0.13329579
148	0x3e048aa9	0.1294352
149	0x3e03deda	0.1287798
150	0x3e0b86e5	0.13625677
151	0x3e0a17f8	0.13485706
152	0x3e095024	0.13409477
153	0x3e0902a8	0.1337992
154	0x3e0be028	0.13659728
155	0x3e07b790	0.13253617
156	0x3e08733e	0.13325211
157	0x3e0a4502	0.13502887
158	0x3e0215d8	0.12703645
159	0x3e0de25e	0.13855883
160	0x3e0aa0a7	0.13537847
161	0x3e0b5bcc	0.13609236
162	0x3e09dc92	0.13463047
163	0x3e07919c	0.1323914
164	0x3e0adb2f	0.13560174
165	0x3e0a43ce	0.13502428
166	0x3e0a94f4	0.13533384
167	0x3e0547af	0.13015626
168	0x3e0d094a	0.13773075
169	0x3e02671a	0.12734643
170	0x3e0d9abe	0.1382856
171	0x3e076e27	0.13225614
172	0x3e07890c	0.13235873
173	0x3e0b16d1	0.13582923
174	0x3e0a2e73	0.13494281
175	0x3e09372b	0.13399951
176	0x3e0833e2	0.13301042
177	0x3e0e78fa	0.13913336
178	0x3e088a13	0.13333921
179	0x3e0c98b5	0.13730128
180	0x3e08f6ec	0.13375443
181	0x3e0e952a	0.13924089
182	0x3e0a861e	0.13527724
183	0x3e0b5452	0.13606384
184	0x3e07f45b	0.13276808
185	0x3e0a2be1	0.13493301
186	0x3e06c396	0.13160548
187	0x3e0a00e8	0.13476908
188	0x3e050e7e	0.1299381
189	0x3e092284	0.13392073
190	0x3e07df93	0.1326888
191	0x3e0e70d2	0.13910225
192	0x3e0b9256	0.13630041
193	0x3e05d67d	0.13070102
194	0x3e0ad31e	0.13557097
195	0x3e0ca826	0.13736019
196	0x3e080c52	0.1328595
197	0x3e0b93bf	0.1363058
198	0x3e0f7791	0.14010455
199	0x3e03e65f	0.12880848
200	0x3e0a031d	0.1347775
201	0x3e0d7d64	0.13817364
202	0x3e0ccd8a	0.13750282
203	0x3e088102	0.13330463
204	0x3e0ab729	0.13546433
205	0x3e096210	0.13416314
206	0x3e0b03e3	0.13575701
207	0x3e08b2f5	0.13349517
208	0x3e0a9f93	0.13537435
209	0x3e0ed0a2	0.13946775
210	0x3e06f386	0.13178834
211	0x3e09d46a	0.13459936
212	0x3e0ae06c	0.13562173
213	0x3e08f192	0.13373402
214	0x3e0ca65e	0.13735339
215	0x3e08f670	0.13375258
216	0x3e0bb5c3	0.13643555
217	0x3e083eac	0.13305157
218	0x3e0affab	0.13574092
219	0x3e0a828b	0.1352636
220	0x3e0bf62c	0.13668126
221	0x3e06f9d9	0.13181247
222	0x3e08c754	0.13357288
223	0x3e08ae71	0.13347794
224	0x3e076152	0.13220719
225	0x3e0cdfa1	0.13757183
226	0x3e0c6c82	0.13713267
227	0x3e08f79f	0.1337571
228	0x3e05fed5	0.13085492
229	0x3e06809e	0.13135001
230	0x3e07660a	0.13222519
231	0x3e0ac33f	0.13551043
232	0x3e0a5046	0.13507184
233	0x3e0be651	0.13662077
234	0x3e07cb48	0.1326114
235	0x3e092865	0.13394316
236	0x3e0a417d	0.13501544
237	0x3e078839	0.13235559
238	0x3e0bca6e	0.1365144
239	0x3dffdac4	0.12492898
240	0x3e054dbb	0.13017933
241	0x3e084644	0.13308054
242	0x3dc8da42	0.098072544
243	0x3e0a9771	0.13534333
244	0x3e0b48ef	0.1360204
245	0x3e06a468	0.13148654
246	0x3e0d15cd	0.13777848
247	0x3e0e4543	0.13893609
248	0x3e07a431	0.13246228
249	0x3e0a1f5c	0.13488525
250	0x3e0a1d7a	0.13487807
251	0x3e09b119	0.13446464
252	0x3e0ca233	0.13733749
253	0x3e07cd39	0.1326188
254	0x3e11b5f3	0.14229564
255	0x3e0cca77	0.13749109

base.seq_fcs.2.weight f4 [256, 256]
0	0x3d7124c9	0.05887297
1	0x3d3b0407	0.045658138
2	0xbcb0e7a0	-0.021594822
3	0xbc89521b	-0.016762784
4	0x3cc332e0	0.02382797
5	0x3dacf10e	0.08444415
6	0x3c865c70	0.0164015
7	0x3d8e6a96	0.069539234
8	0xba9cfd7b	-0.0011977399
9	0x3d597187	0.053086784
10	0x3d361fc1	0.044463877
11	0x3d11b1be	0.0355699
12	0x3d410d99	0.04713211
13	0x3d102418	0.03519067
14	0x3d667e0d	0.056272555
15	0x3cdf0bd5	0.027227322
16	0x3ce51047	0.027961863
17	0x3c925456	0.01786248
18	0x3d0d0c1a	0.03443537
19	0xbcc3a877	-0.023884041
20	0x3d7d5907	0.06185248
21	0x3d26424e	0.040590577
22	0xbc8c6bbb	-0.017141214
23	0x3ceba904	0.028767116
24	0x3a8ab8e7	0.001058367
25	0x3d50f064	0.051010504
26	0xbcb7e823	-0.022449559
27	0xbcfab503	-0.030603891
28	0xbcd0d5fd	-0.025492663
29	0x3d4aaabb	0.049479228
30	0x3d87e3b5	0.066352285
31	0x3d1e8fbb	0.03871129
32	0xbcd61c5f	-0.026136575
33	0x3b8e8a07	0.0043499502
34	0xbc390879	-0.011293524
35	0x3d93289a	0.071854785
36	0x3ce806fe	0.028323647
37	0x3b7e67a2	0.0038819094
38	0x3bff6faa	0.007795294
39	0xbced862d	-0.028994644
40	0x3d5784ae	0.052616768
41	0x3d541742	0.051779993
42	0x3cd04c16	0.025426906
43	0x3db65717	0.0890333
44	0x3c07850b	0.008271466
45	0xbc04cf55	-0.008106072
46	0x3d8ea3a2	0.06964804
47	0x3da02a5b	0.07820579
48	0xbc341799	-0.010991954
49	0x3cad80be	0.021179553
50	0x3da37987	0.07982164
51	0x3d6a033e	0.057132
52	0x3da9e45e	0.08295511
53	0x3c10c731	0.008836553
54	0x3d26052a	0.04053227
55	0x3db94afa	0.09047504
56	0xbca28de0	-0.019843042
57	0x3d2db0ff	0.042405125
58	0xbce1aaa7	-0.027547194
59	0x3d45d854	0.04830201
60	0x3da92591	0.08259118
61	0x3d5decf4	0.054181054
62	0x3c12c57a	0.008958215
63	0x3d3e5e14	0.04647644
64	0x3d2dceb2	0.042433448
65	0x3a1fbced	0.0006093521
66	0x3d844bf0	0.064597964
67	0xbcfe9afe	-0.031079765
68	0x3d8d5fc3	0.06903031
69	0x3d749c79	0.059719536
70	0x3cc53f52	0.024078045
71	0x3dacf580	0.08445263
72	0x3d96f549	0.07371003
73	0xbc26d742	-0.010183157
74	0x3cb859d3	0.022503769
75	0x3cf620fd	0.030045027
76	0x3cce4191	0.025177749
77	0xbc0aa863	-0.008462998
78	0x3d4a5f05	0.049407024
79	0xbc4727c2	-0.012155475
80	0x3cd7ab8d	0.026326919
81	0xbaa1560b	-0.0012308968
82	0x3c56c652	0.013108807
83	0xbb6f22ce	-0.003648925
84	0xbca2e7a5	-0.019885847
85	0x3d727db9	0.05920193
86	0x3d92db76	0.07170765
87	0xbcc701d4	-0.024292864
88	0x3d37725c	0.044786796
89	0xbc955e3e	-0.018233415
90	0xbc44cb8d	-0.012011421
91	0x3d0d61ab	0.03451697
92	0x3d7debc4	0.06199242
93	0x3d0baf9f	0.034103032
94	0xbc58034e	-0.013184382
95	0x3d30a048	0.043121606
96	0xbbc09955	-0.0058776536
97	0xbb802b42	-0.0039114067
98	0xbc347016	-0.0110130515
99	0x3d1ced10	0.038312018
100	0x3d9f744c	0.07785854
101	0x3da8552a	0.08219369
102	0xbcfcac5a	-0.030843902
103	0x3d0cfad0	0.03441888
104	0xbcf312b4	-0.029672004
105	0x3db4d740	0.08830118
106	0x3d96a9ec	0.07356629
107	0x3b010ab0	0.0019690208
108	0x3d49cb92	0.049266405
109	0xbcd1a67a	-0.025592078
110	0xbcc32f6d	-0.023826325
111	0xbc560e5a	-0.013064945
112	0x3bbcb1dd	0.0057585076
113	0xbcc05f52	-0.023482952
114	0x3d8cf4e4	0.06882647
115	0xbd051fcb	-0.032501023
116	0x3d9a4feb	0.075347744
117	0x3c99ac4b	0.018758914
118	0x3d896619	0.06708927
119	0x3d48aa04	0.048990265
120	0x3ce5ce0c	0.028052352
121	0x3a69dbbe	0.0008920989
122	0x3d7c2056	0.061554275
123	0x3d092c52	0.033489533
124	0x3da458dd	0.08024762
125	0x3d745b86	0.059657596
126	0x3d813215	0.063083805
127	0x3cf79cf8	0.030226216
128	0xbbcc1bed	-0.006228915
129	0x3c9b2458	0.018938228
130	0x3c417e4d	0.011809898
131	0x3ca269ec	0.019825898
132	0x3d6a8d19	0.057263467
133	0xbd02d6de	-0.031943195
134	0x3d8e5a2d	0.069507934
135	0xbceefd7f	-0.02917361
136	0x3da8019a	0.082034305
137	0x3d82923a	0.06375547
138	0x3da8bd4f	0.08239233
139	0x3d5cf912	0.05394847
140	0x3cd4cba2	0.025976006
141	0x3d9482a4	0.0725148
142	0x3d484240	0.048891306
143	0x3db02880	0.08601475
144	0x3da1864d	0.07886944
145	0xba82246b	-0.0009929066
146	0xbc27847a	-0.010224456
147	0x3d4f3e28	0.050596386
148	0x3d55c427	0.05218902
149	0x3cabbbfb	0.02096366
150	0x3d8f48b0	0.06996286
151	0xbbf1d317	-0.0073799
152	0x3b3f6068	0.002920175
153	0x3d448a9d	0.047983754
154	0x3d8a795f	0.06761431
155	0x3d48eab1	0.049051944
156	0x3d34fae6	0.044184588
157	0x3db95918	0.090501964
158	0xbc1b74fa	-0.009488339
159	0x3c818d05	0.015814314
160	0x3c918b5e	0.01776665
161	0x3b8f1395	0.004366348
162	0x3d70c9f8	0.058786362
163	0x3d3c3e7b	0.045958024
164	0x3c69d6a9	0.01427237
165	0x3d860d19	0.06545467
166	0x3d3a4756	0.045478188
167	0x3d6ee35b	0.05832229
168	0x3dae9f53	0.085264824
169	0x3cf7f173	0.0302665
170	0x3d5ed527	0.054402497
171	0xbb4e3ab7	-0.0031468102
172	0xbc95c14a	-0.018280644
173	0x3d3c8679	0.04602668
174	0xbcc07095	-0.023491183
175	0x3be6504a	0.007028614
176	0x3d4eb16d	0.050462175
177	0x3c80c566	0.015719127
178	0x3c49382b	0.012281458
179	0xbc713895	-0.014722963
180	0x3db6a6d8	0.08918542
181	0x3c515969	0.012777665
182	0x3c1a367b	0.009412403
183	0x3d824e2e	0.06362568
184	0x3b3db4bb	0.0028946835
185	0x39b5d4ff	0.00034681705
186	0x3db0e54e	0.086374864
187	0x3d1e8e2f	0.038709816
188	0x3db25716	0.087080166
189	0x3d193393	0.0374027
190	0x3d9305ed	0.07178865
191	0x3d127466	0.035755537
192	0xbc6d4492	-0.0144816805
193	0x3c31454a	0.010819742
194	0xbce70e22	-0.028204981
195	0xbc491adb	-0.012274469
196	0x3d6a6db7	0.05723354
197	0x3c95ce2b	0.018286785
198	0xbb21b0fc	-0.0024672141
199	0x3bfbd98a	0.007685845
200	0x3b0eba9d	0.002177871
201	0x3ca21db4	0.019789554
202	0x3d616b00	0.055033684
203	0x3d9bcc3e	0.076073155
204	0x3da64968	0.0811947
205	0x3cef95ca	0.02924623
206	0x3d8ed672	0.06974496
207	0xbce1d9b0	-0.027569622
208	0x3a611959	0.0008586846
209	0x3aba5d62	0.0014218504
210	0xbc8e4d80	-0.01737094
211	0x3dc3d68c	0.09562406
212	0x3d0e0fa7	0.034682896
213	0xbcf60b6c	-0.030034743
214	0x3daf3da9	0.085566826
215	0xbce04b64	-0.027379699
216	0x3dc08d20	0.094019175
217	0xbba171bf	-0.0049268897
218	0x3d8d1f2f	0.068907134
219	0xbcc0874d	-0.023502016
220	0x3d437aa1	0.04772437
221	0x3d0d24a4	0.03445877
222	0x3cf6114b	0.030037543
223	0x3d7facf1	0.06242079
224	0x3d71cdcc	0.059034154
225	0x3db73aaf	0.0894674
226	0x3cc17280	0.023614168
227	0x3daeef0a	0.08541687
228	0xbc18cb61	-0.009325833
229	0x3c5ac48a	0.013352523
230	0x3d869b18	0.065725505
231	0xbca1345b	-0.019678285
232	0x3d100087	0.035156753
233	0x3d81f365	0.06345252
234	0x3d510b54	0.051036194
235	0x3da79759	0.08183164
236	0xbbc119c4	-0.005892964
237	0x3d881391	0.06644357
238	0xbc3bcb2d	-0.011462015
239	0x3daa1753	0.0830523
240	0xbcac366e	-0.021022048
241	0x3c161238	0.009159617
242	0xbcd01f71	-0.025405617
243	0x3da3eb58	0.08003873
244	0x3dae8840	0.085220814
245	0x3d3efa0a	0.046625175
246	0x3d046816	0.032325827
247	0x3d08f50b	0.033436816
248	0x3db11c6c	0.08647999
249	0x3cd938e3	0.026516384
250	0x3d07a49a	0.03311596
251	0x3d9c4fba	0.07632394
252	0x3d272650	0.040808022
253	0x3c479493	0.012181419
254	0x3c5ee2c4	0.01360387
255	0x3db31900	0.08745003

base.seq_fcs.2.bias f4 [256]
0	0x3e0085f3	0.12551098
1	0x3dfde6aa	0.12397511
2	0x3dc7df4c	0.097593874
3	0x3e0072ad	0.12543745
4	0x3e009d37	0.12559973
5	0x3dc4793b	0.095934354
6	0x3df8940e	0.12137614
7	0x3dfdfd9d	0.124018885
8	0x3dfe5c43	0.12419941
9	0x3dfebb52	0.12438072
10	0x3e004c5d	0.1252913
11	0x3dc3835b	0.095465384
12	0x3dff4077	0.124634676
13	0x3e003446	0.1251994
14	0x3e013023	0.12616019
15	0x3e00edd7	0.12590729
16	0x3dc4f05c	0.096161574
17	0x3e010726	0.12600383
18	0x3dcccccd	0.1
19	0x3e00621c	0.12537426
20	0x3dfb2966	0.122637555
21	0x3dc7bea6	0.0975316
22	0x3dcccccd	0.1
23	0x3df7404c	0.120728105
24	0x3df833c2	0.12119247
25	0x3dc44b76	0.095847055
26	0x3dfebbd1	0.12438167
27	0x3dffa973	0.12483492
28	0x3e01074e	0.12600443
29	0x3e0038f8	0.12521732
30	0x3dcccccd	0.1
31	0x3df7b29e	0.120946154
32	0x3dfd93a8	0.12381679
33	0x3dfe8c30	0.124290824
34	0x3e00699c	0.12540287
35	0x3e01190c	0.12607211
36	0x3e00a9c4	0.1256476
37	0x3e00f968	0.12595141
38	0x3dfe68eb	0.12422355
39	0x3dfccd7a	0.12343879
40	0x3dfb7a13	0.12279143
41	0x3dc81ba2	0.097708955
42	0x3dcccccd	0.1
43	0x3dfe7987	0.12425523
44	0x3e000447	0.12501632
45	0x3e001001	0.12506105
46	0x3dff957b	0.12479683
47	0x3e01543e	0.12629792
48	0x3dfe69f2	0.12422551
49	0x3e005ae0	0.12534666
50	0x3e00c6a3	0.12575774
51	0x3e000e67	0.12505494
52	0x3dfe0b44	0.124044925
53	0x3e004094	0.12524635
54	0x3e003581	0.1252041
55	0x3dff0bf8	0.12453455
56	0x3dff443b	0.12464186
57	0x3dc7ecad	0.09761939
58	0x3dfe59e3	0.12419488
59	0x3dffe310	0.124944806
60	0x3dfe491f	0.124162905
61	0x3e001cfe	0.1251106
62	0x3dc41097	0.09573477
63	0x3e00142a	0.12507692
64	0x3e001c75	0.12510855
65	0x3dfaa6b9	0.12238831
66	0x3e00b87c	0.12570375
67	0x3dfec6c7	0.124402575
68	0x3dfce371	0.123480685
69	0x3e00f4a0	0.12593317
70	0x3df9dba4	0.12200096
71	0x3dff25b5	0.12458364
72	0x3dfea2d6	0.12433402
73	0x3dfee228	0.1244548
74	0x3e000d40	0.12505054
75	0x3dc91c3f	0.09819841
76	0x3dfebdc8	0.12438542
77	0x3dfea8d0	0.12434542
78	0x3df5b33d	0.119970776
79	0x3e008542	0.12550834
80	0x3dc521db	0.09625598
81	0x3dc4ce56	0.09609668
82	0x3dfebbf8	0.12438196
83	0x3dfe7881	0.12425328
84	0x3e01daca	0.12681118
85	0x3dc79f98	0.09747237
86	0x3dcccccd	0.1
87	0x3dcccccd	0.1
88	0x3e010ae0	0.12601805
89	0x3dc34128	0.09533912
90	0x3dfd1804	0.12358096
91	0x3e00f75a	0.12594357
92	0x3e01054b	0.12599675
93	0x3e009c2a	0.12559572
94	0x3df95fe3	0.12176492
95	0x3e009762	0.12557748
96	0x3e00b22d	0.12567969
97	0x3dcccccd	0.1
98	0x3e000fda	0.12506047
99	0x3e003597	0.12520443
100	0x3dfd7ccf	0.12377321
101	0x3dc40e19	0.095730014
102	0x3e00847b	0.12550537
103	0x3dff51bc	0.124667615
104	0x3dfdb08f	0.123871915
105	0x3e00b93e	0.12570664
106	0x3dfcc24e	0.12341748
107	0x3dcccccd	0.1
108	0x3e007d39	0.12547769
109	0x3dcccccd	0.1
110	0x3e006c86	0.12541398
111	0x3dcccccd	0.1
112	0x3dfe4de4	0.124172
113	0x3dcccccd	0.1
114	0x3df81d6e	0.12114988
115	0x3dfa8540	0.12232447
116	0x3dfcc8ea	0.12343009
117	0x3df83834	0.12120095
118	0x3e00c24d	0.1257412
119	0x3dff28a6	0.12458925
120	0x3e011fa0	0.1260972
121	0x3dcccccd	0.1
122	0x3dfb7e0e	0.122799024
123	0x3dffd2a3	0.12491348
124	0x3dfd00d3	0.12353673
125	0x3df7c7cd	0.12098656
126	0x3dfd1faa	0.12359555
127	0x3df9d4f4	0.12198821
128	0x3e000a24	0.12503868
129	0x3dc5c003	0.09655764
130	0x3e004831	0.12527539
131	0x3dfe7b48	0.12425858
132	0x3e003a61	0.1252227
133	0x3dc5083f	0.096207134
134	0x3dfb70af	0.12277352
135	0x3e00466c	0.12526864
136	0x3dfe8b26	0.12428884
137	0x3e007d38	0.12547767
138	0x3e0009ab	0.12503688
139	0x3e002190	0.12512803
140	0x3dfe9f78	0.1243276
141	0x3dfbddbb	0.12298151
142	0x3e013a3d	0.12619872
143	0x3dfd7b98	0.12377089
144	0x3dc6a95b	0.09700271
145	0x3df9d09d	0.12197993
146	0x3dfcfec2	0.12353279
147	0x3e007365	0.1254402
148	0x3dfa8f50	0.12234366
149	0x3dcccccd	0.1
150	0x3e00ab69	0.12565388
151	0x3e00eace	0.12589571
152	0x3e003afb	0.125225
153	0x3dfb05e9	0.12256987
154	0x3e00ff73	0.12597446
155	0x3dc2e7a7	0.095168404
156	0x3e00b183	0.12567715
157	0x3e00322b	0.12519138
158	0x3dfadf25	0.12249593
159	0x3e00a86d	0.1256425
160	0x3e0146b0	0.12624621
161	0x3dffe67c	0.12495133
162	0x3dff02a1	0.12451673
163	0x3dff77dd	0.12474034
164	0x3dc644b8	0.09681076
165	0x3dff188b	0.12455853
166	0x3e01ecbb	0.12687962
167	0x3e015d7d	0.12633319
168	0x3df81f78	0.12115377
169	0x3dfe8aa6	0.12428789
170	0x3dfe7898	0.12425345
171	0x3e009af1	0.12559105
172	0x3e003159	0.12518825
173	0x3e002448	0.1251384
174	0x3dfed702	0.12443353
175	0x3e00bf6b	0.1257302
176	0x3dff89a3	0.12477424
177	0x3e00e40f	0.12586997
178	0x3dfb7f20	0.122801065
179	0x3dc6027f	0.09668445
180	0x3dfe0610	0.124035
181	0x3e01169e	0.12606284
182	0x3dc41a84	0.0957537
183	0x3dc4cf0d	0.09609804
184	0x3dff8740	0.12476969
185	0x3dc4e6de	0.09614347
186	0x3e00eea7	0.12591039
187	0x3e015e25	0.1263357
188	0x3e00ab84	0.12565428
189	0x3dfe2b7a	0.12410636
190	0x3dfe1326	0.12405996
191	0x3dfcdc2f	0.12346684
192	0x3df66802	0.12031557
193	0x3dc2c66c	0.09510502
194	0x3dfa3093	0.12216296
195	0x3dfd7e79	0.12377638
196	0x3dfde5fc	0.12397382
197	0x3e010903	0.12601094
198	0x3dc5ee59	0.09664602
199	0x3e005796	0.12533411
200	0x3dc40ab6	0.095723554
201	0x3dfddae1	0.123952635
202	0x3dfc7b67	0.12328225
203	0x3dfd80d2	0.12378086
204	0x3e006a0b	0.12540452
205	0x3df9341c	0.12168142
206	0x3dfe989e	0.12431453
207	0x3dffb56a	0.12485774
208	0x3dfc9745	0.1233354
209	0x3dfe24d2	0.12409367
210	0x3e002df5	0.12517531
211	0x3df73198	0.12070006
212	0x3dfeba95	0.124379314
213	0x3dfd49cb	0.123675905
214	0x3dfe899a	0.12428589
215	0x3dc4df5f	0.09612917
216	0x3e0035e3	0.12520556
217	0x3df80672	0.12110604
218	0x3dfecb11	0.124410756
219	0x3dff5615	0.12467591
220	0x3dfea0d7	0.124330215
221	0x3dfff4b4	0.12497845
222	0x3dff870c	0.1247693
223	0x3dffaa59	0.12483663
224	0x3dc2eab5	0.09517423
225	0x3dff962a	0.124798134
226	0x3dcccccd	0.1
227	0x3e00468f	0.12526916
228	0x3e003707	0.12520991
229	0x3e007c2a	0.12547365
230	0x3e0079a7	0.12546407
231	0x3dc2b085	0.09506325
232	0x3e010b23	0.12601905
233	0x3e005a4c	0.12534446
234	0x3dc4cd6c	0.096094936
235	0x3dfe74fa	0.12424655
236	0x3dfdba71	0.123890765
237	0x3dfdbb96	0.12389295
238	0x3dffc068	0.124878705
239	0x3dfe1b15	0.12407509
240	0x3dc4e94f	0.096148126
241	0x3dfee0f0	0.12445247
242	0x3e0114a7	0.12605534
243	0x3dfec17b	0.12439247
244	0x3e00ca45	0.1257716
245	0x3dc433ef	0.09580218
246	0x3dfe7176	0.12423985
247	0x3df7e31b	0.12103864
248	0x3e011c7a	0.12608519
249	0x3dff7e4d	0.12475262
250	0x3e00ad8c	0.12566203
251	0x3df96787	0.121779494
252	0x3e0140ca	0.12622371
253	0x3dc38b66	0.095480725
254	0x3e016d1a	0.12639275
255	0x3dfcc177	0.12341588

last.weight f4 [1, 256]
0	0x3cd1298c	0.025532506
1	0x3cef7601	0.029231073
2	0xba83582e	-0.0010020786
3	0x3cd5f12d	0.026115978
4	0x3cf7af38	0.030234918
5	0x3ab54704	0.0013830368
6	0x3cca56b5	0.024699548
7	0x3ce1b856	0.027553719
8	0x3ced03f2	0.028932545
9	0x3cf0cf16	0.029395621
10	0x3cdbe8cb	0.026844403
11	0x3aa662be	0.0012694222
12	0x3ce03d88	0.02737309
13	0x3ce8ed2e	0.028433409
14	0x3ceec3e1	0.029146137
15	0x3cdb4c21	0.0267697
16	0x3b14c617	0.0022701079
17	0x3cfc5c39	0.030805694
18	0xba6df842	-0.0009077826
19	0x3cfb778d	0.030696655
20	0x3cd05ece	0.025435831
21	0xba6b96b2	-0.0008986994
22	0xba2c5e4e	-0.0006575332
23	0x3cd00e1f	0.025397358
24	0x3ce3176a	0.027721126
25	0x3a4b079e	0.00077449705
26	0x3ce96e12	0.028494868
27	0x3ce51968	0.027966216
28	0x3ce16bc2	0.027517203
29	0x3cd76923	0.02629525
30	0xbb226345	-0.0024778408
31	0x3cd6e35e	0.026231464
32	0x3cd0a873	0.025470948
33	0x3ce0b4e6	0.02743001
34	0x3ce1b493	0.027551925
35	0x3ce1599b	0.027508548
36	0x3cd67725	0.02617986
37	0x3cd66079	0.026169049
38	0x3cfc670c	0.030810855
39	0x3cf70838	0.030155286
40	0x3cf1f8ae	0.029537525
41	0x3b23ac24	0.002497443
42	0x3b2cef34	0.0026387693
43	0x3ce57e62	0.028014366
44	0x3cf693e2	0.030099813
45	0x3cd4ec9b	0.025991729
46	0x3ce223c8	0.027604952
47	0x3ce5dffb	0.028060904
48	0x3d00f326	0.031481884
49	0x3ce240b5	0.027618745
50	0x3cdc0afd	0.026860708
51	0x3ce4d3d2	0.027933035
52	0x3cf40ead	0.029792154
53	0x3cdf110d	0.02722981
54	0x3ced5063	0.028968995
55	0x3ce68f5d	0.028144533
56	0x3cddb98d	0.027066017
57	0x3b2a1775	0.0025953923
58	0x3cdea252	0.02717701
59	0x3cdfc76b	0.02731677
60	0x3ceb4999	0.028721618
61	0x3ce660e8	0.02812238
62	0x3b058e39	0.002037896
63	0x3ce19537	0.027536971
64	0x3cdc02a4	0.026856728
65	0x3cf1290a	0.029438514
66	0x3ce01390	0.027353078
67	0x3ce44be9	0.027868228
68	0x3ceae8da	0.028675485
69	0x3cef2dec	0.029196702
70	0x3cf3d839	0.029766189
71	0x3cd42a3a	0.025899041
72	0x3cf067fb	0.029346457
73	0x3cf922b5	0.030412057
74	0x3cf929e2	0.03041548
75	0x38b3d5ba	8.575195e-05
76	0x3cdadb16	0.026715796
77	0x3cf28e57	0.029608889
78	0x3cbff967	0.023434354
79	0x3cd27303	0.025689607
80	0x3ac55707	0.0015055843
81	0x39ef6568	0.00045661186
82	0x3cfdbff1	0.030975314
83	0x3cec5252	0.028847847
84	0x3cfb47fd	0.030673975
85	0xb821b293	-3.85517e-05
86	0xbac4d2d0	-0.001501644
87	0x3a356dd5	0.00069209683
88	0x3ce4c2bb	0.027924886
89	0x3b071047	0.0020609067
90	0x3cd3667b	0.025805702
91	0x3cda2bcb	0.02663221
92	0x3cfa6cac	0.030569397
93	0x3ce6091a	0.028080512
94	0x3cf16d4a	0.029471058
95	0x3cd8bcd9	0.026457237
96	0x3ce126ce	0.027484324
97	0x3b1ee61f	0.002424605
98	0x3ccb70e4	0.024834104
99	0x3cdd57a2	0.027019326
100	0x3d03776e	0.03209632
101	0x3b1edf72	0.002424207
102	0x3cddd9cf	0.027081398
103	0x3d03604c	0.032074258
104	0x3ce7fbb5	0.028318265
105	0x3cde4aa3	0.027135199
106	0x3ce1926c	0.02753564
107	0xbb0d4c9d	-0.0021560558
108	0x3ccfe3ef	0.025377242
109	0x39bb0f02	0.000356786
110	0x3cf6eb5b	0.030141523
111	0x3b1b32fb	0.002368151
112	0x3cf09ad3	0.029370701
113	0xba852f62	-0.0010161216
114	0x3cdfac12	0.02730373
115	0x3cd44287	0.025910629
116	0x3ccce085	0.025009403
117	0x3cd54a63	0.026036447
118	0x3cf670f6	0.03008316
119	0x3ceaeebb	0.028678289
120	0x3cdc74d9	0.026911186
121	0xb8a15927	-7.693684e-05
122	0x3cd05c79	0.02543472
123	0x3ce70096	0.028198522
124	0x3d00695d	0.031350482
125	0x3cd16b8e	0.025563981
126	0x3ce9aae7	0.028523875
127	0x3cc6e072	0.024276946
128	0x3ce7dcb6	0.028303485
129	0x3a93d8af	0.0011279787
130	0x3d0af62d	0.033926178
131	0x3d039219	0.03212175
132	0x3cd2b96b	0.02572318
133	0x3b0731c4	0.0020629028
134	0x3cdce8e9	0.026966529
135	0x3cd7b0de	0.026329454
136	0x3cebe5ec	0.028796159
137	0x3ceda965	0.029011438
138	0x3cdc455b	0.02688854
139	0x3cdb4d57	0.026770277
140	0x3d04c2a2	0.03241218
141	0x3cd510d4	0.026009
142	0x3ce026d0	0.027362257
143	0x3ce17689	0.027522342
144	0x3abca9ce	0.0014393867
145	0x3ce7c1b9	0.028290616
146	0x3ce0ff43	0.027465468
147	0x3cf10ed3	0.029426014
148	0x3cef8b21	0.029241147
149	0xbb34c408	-0.0027582664
150	0x3cda6c46	0.026662957
151	0x3cf051ff	0.029335974
152	0x3ce644ce	0.02810898
153	0x3cf1a4b3	0.02949748
154	0x3cdf1795	0.027232924
155	0x3b0648e4	0.0020490224
156	0x3ce4d129	0.027931767
157	0x3cdfd08b	0.02732112
158	0x3cff5146	0.031166684
159	0x3cd92957	0.02650897
160	0x3ce6ba85	0.028165111
161	0x3ce09cda	0.027418543
162	0x3cf2ec7f	0.029653786
163	0x3cf0c663	0.029391473
164	0x3b3c25ad	0.002870898
165	0x3cf68c8a	0.030096311
166	0x3cf87447	0.030328883
167	0x3ce54851	0.027988585
168	0x3cd11e56	0.02552716
169	0x3ceb4fa2	0.028724495
170	0x3ceff997	0.029293818
171	0x3cd62e42	0.026145104
172	0x3cd61b21	0.026135983
173	0x3d028b05	0.03187086
174	0x3cd59284	0.02607084
175	0x3cd4e88d	0.025989795
176	0x3cd048ce	0.025425341
177	0x3ceaabc6	0.028646361
178	0x3cd53e3f	0.026030658
179	0x3a0ff625	0.00054916955
180	0x3ce435f8	0.027857766
181	0x3cf91167	0.030403806
182	0x3a66ad12	0.0008799593
183	0x3a20a8df	0.00061286794
184	0x3ce2c164	0.027680106
185	0x3a3ee8a1	0.0007282589
186	0x3ce8875f	0.028384862
187	0x3cee3ae6	0.02908082
188	0x3ce3eb2f	0.027822105
189	0x3d05b6fc	0.03264521
190	0x3cf3bb8a	0.029752512
191	0x3ce16b27	0.027516915
192	0x3cdda2a5	0.027055094
193	0x3b0d6bc7	0.0021579133
194	0x3cd43ac8	0.025906935
195	0x3ce715d5	0.028208653
196	0x3cf05558	0.02933757
197	0x3ce5b327	0.028039528
198	0x3b202fdd	0.0024442591
199	0x3d0009c9	0.03125933
200	0x3ade6bd1	0.0016969388
201	0x3cdbefd4	0.026847757
202	0x3cf46e22	0.029837672
203	0x3ce51cdc	0.027967863
204	0x3cec8247	0.028870715
205	0x3cdcfa2b	0.026974758
206	0x3cf20f65	0.029548356
207	0x3cf4099c	0.029789738
208	0x3cd1346c	0.025537692
209	0x3ce1a31c	0.027543597
210	0x3ce24e06	0.027625095
211	0x3cdba6f3	0.026813006
212	0x3cfc76a3	0.03081829
213	0x3cf93066	0.030418586
214	0x3cdab421	0.02669722
215	0x39ec7473	0.0004510019
216	0x3cf40c29	0.029790955
217	0x3ce4ce05	0.027930269
218	0x3ce85091	0.02835873
219	0x3ce8c511	0.028414281
220	0x3ce5d0da	0.02805369
221	0x3ce939c3	0.028469926
222	0x3cda4ccc	0.026647948
223	0x3cf861f8	0.030320153
224	0x3af5e7d5	0.0018761108
225	0x3ce49c04	0.027906425
226	0x39fd1558	0.00048271823
227	0x3cf51cf4	0.029921032
228	0x3cd5a574	0.02607987
229	0x3cd2a336	0.02571259
230	0x3ce03729	0.027370052
231	0x3b11bbd2	0.0022237194
232	0x3cfc292d	0.030781353
233	0x3cef1742	0.029185895
234	0x39fff6df	0.00048821323
235	0x3cd49fd2	0.025955115
236	0x3cd2f8c5	0.025753388
237	0x3ce6837e	0.028138872
238	0x3ced0207	0.02893163
239	0x3cd32b5e	0.025777515
240	0x3b1fdd7a	0.0024393485
241	0x3d057d77	0.032590356
242	0x3ce1d7cf	0.027568726
243	0x3ce54d73	0.027991032
244	0x3cf85124	0.030312128
245	0x3a453a3f	0.0007523633
246	0x3ce2f5d3	0.027705109
247	0x3cf4e0b6	0.029892307
248	0x3cf525e7	0.0299253
249	0x3ce8a15e	0.028397258
250	0x3cd68fd3	0.026191628
251	0x3ce3ccb2	0.027807567
252	0x3cdfadc8	0.027304545
253	0x3b2730f4	0.0025511356
254	0x3cf69c51	0.030103834
255	0x3cd89942	0.026440267
