Soft-Module-main/log/model50_new_10/model_vf_best.pth (torch, 280037 bytes, 5 tensors)

base.seq_fcs.0.weight f4 [256, 12]
0	0xbda8af51	-0.08236564
1	0x3d9fce5c	0.07803032
2	0x3d02630a	0.031832732
3	0x3cc21da5	0.023695776
4	0xbcaab485	-0.020838032
5	0x3cebaa2c	0.028767668
6	0xbce96fc8	-0.028495684
7	0x3d618ad2	0.05506403
8	0x3c7d26b8	0.015451126
9	0x3abc537e	0.0014368144
10	0xbd139457	-0.03603014
11	0x3c8b16af	0.01697859
12	0xbdf27a5e	-0.11839746
13	0x3d55d320	0.052203298
14	0x3d8e1bb2	0.06938876
15	0xbcb7edbe	-0.022452231
16	0x3ca89935	0.020580867
17	0x3da012ce	0.07816087
18	0xbc5b4a10	-0.013384357
19	0x3d1ceafa	0.03831003
20	0x3ccee8b8	0.025257453
21	0x3da00fce	0.078155145
22	0x3b6aeaad	0.0035845444
23	0x3b24ca1f	0.0025144888
24	0xbac2b9ba	-0.0014856376
25	0xbce9bdc7	-0.028532876
26	0xbc7af4a0	-0.015317112
27	0xbdadac8f	-0.084801786
28	0x3db83790	0.08994973
29	0x3da9a3b5	0.08283178
30	0x3aa83600	0.0012833476
31	0x3d4adaea	0.04952518
32	0xbd77a8c8	-0.060463697
33	0x3d6462ef	0.055758413
34	0x3cb8150e	0.022470977
35	0x3c0b62fc	0.008507486
36	0xbcee982c	-0.029125296
37	0x3cdd8c2f	0.027044384
38	0x3d7dc09b	0.06195126
39	0xbda5e052	-0.08099426
40	0xbbf780ad	-0.007553181
41	0x3d68558b	0.056722205
42	0xbd18fe28	-0.037351757
43	0x3cc9b534	0.024622537
44	0xbc2b6c98	-0.0104629025
45	0xbc3a6d6d	-0.011378628
46	0x3c16c1da	0.009201491
47	0x3d3b523f	0.045732733
48	0xbdf272d5	-0.11838309
49	0x3da89c11	0.08232892
50	0x3d70a15f	0.058747645
51	0x3c121d64	0.00891814
52	0x3cbd25f5	0.023089388
53	0x3b98a640	0.0046584904
54	0x3b4934c0	0.0030701607
55	0x3cec5cf0	0.02885291
56	0x3c778210	0.015106693
57	0xbbfb4c41	-0.0076690023
58	0xbc16132b	-0.009159843
59	0x3d943e1c	0.07238409
60	0xbdaf675e	-0.085646376
61	0x3bca4162	0.006172345
62	0x3d37a90e	0.044838957
63	0x3cea4ea4	0.028601952
64	0x3d855470	0.06510246
65	0x3d918223	0.071049
66	0x3d569cfa	0.0523958
67	0xbd0cd4c4	-0.034382597
68	0xbba8b910	-0.0051490143
69	0xbaff88a6	-0.001949568
70	0x3d03f92d	0.032220054
71	0x3d03413a	0.032044627
72	0x3b8c9b83	0.0042909994
73	0x3da7150b	0.081583105
74	0x3d29dba3	0.041469228
75	0xbcb2f724	-0.021846361
76	0x3c46f5e1	0.012143583
77	0x3dbc3570	0.0918988
78	0x3d21568a	0.03938917
79	0xbd72d4b0	-0.059284866
80	0x3d7bf668	0.06151429
81	0x3da6cfd7	0.08145111
82	0x3c8106d3	0.015750324
83	0x3ca8e6da	0.020617891
84	0xbdcfb99f	-0.10142826
85	0x3d096585	0.033544082
86	0x3c07b0a0	0.008281857
87	0xbc90d4b7	-0.017679555
88	0x3c9251e9	0.017861323
89	0x3d7648d5	0.06012805
90	0x3d1bb366	0.038012885
91	0x3d28d26a	0.04121629
92	0xbd1cb626	-0.038259648
93	0x3dbd19f0	0.09233463
94	0xbcc9c1ac	-0.024628483
95	0x3d9fcd88	0.07802874
96	0xbd7b6ceb	-0.06138317
97	0x3d881e3f	0.06646394
98	0x3da907fc	0.08253476
99	0xbc750095	-0.014953752
100	0x3daf8f95	0.08572308
101	0x3d5df017	0.054184046
102	0x3d15b714	0.03655155
103	0xbd293a0a	-0.041315116
104	0x3d6c1836	0.057640277
105	0x3d406949	0.046975408
106	0x3d930af5	0.07179824
107	0x3c7308f1	0.014833675
108	0xbdc85390	-0.09781563
109	0x3d6334b2	0.055470176
110	0xbcbd254f	-0.02308908
111	0x3cbe4782	0.023227457
112	0x3d6b6b77	0.057475533
113	0x3bf9ac3f	0.0076194103
114	0x3c82876c	0.015933715
115	0x3d5c50d8	0.053788036
116	0x3d7447f8	0.059638947
117	0x3d81ff63	0.06347539
118	0x3d4f27d8	0.050575107
119	0xbb6e339c	-0.003634668
120	0xbcf813ed	-0.030282939
121	0x3d0ef96e	0.034905843
122	0x3d974129	0.07385475
123	0x3ca4450b	0.020052454
124	0x3c2c22f5	0.010506381
125	0xbc81b4e4	-0.015833326
126	0xbb6afda0	-0.0035856739
127	0x3d79b4ee	0.060963564
128	0xbd00a46a	-0.031406797
129	0xbc934620	-0.017977774
130	0x3da57584	0.08079055
131	0x3db6cc58	0.08925694
132	0xbd052d9d	-0.032514203
133	0x3d1d9ec9	0.038481507
134	0x3bb71251	0.0055869003
135	0xbd84ff52	-0.06494011
136	0xbcaefa75	-0.021359662
137	0xbce1b778	-0.027553305
138	0xbc47a8a0	-0.012186199
139	0xbc6d6718	-0.0144899115
140	0xbd7ff254	-0.06248696
141	0x3d3d0a04	0.04615213
142	0xbcde9cc1	-0.027174355
143	0x3d214283	0.03937007
144	0xbd99b563	-0.075053
145	0xbc5f968e	-0.013646735
146	0x3daba12f	0.08380353
147	0x3cbd92b1	0.023141237
148	0x3c98ccf1	0.018652411
149	0x3d0f7fe7	0.035034087
150	0xbbbd6650	-0.005780019
151	0x3d54e2f6	0.05197426
152	0x3cde53e0	0.027139604
153	0xbc815d1c	-0.015791468
154	0x3d41a0bc	0.04727243
155	0x3d402af7	0.046915974
156	0xbd31d523	-0.043416154
157	0xbce08f3e	-0.027412053
158	0x3d738e7f	0.059462067
159	0xbbe0001b	-0.00683595
160	0x3d489c77	0.04897734
161	0xbcd21fae	-0.025649872
162	0xbd2d9e8a	-0.042387523
163	0xbc0b7558	-0.008511864
164	0x3c83c4ec	0.01608511
165	0xbc2455ef	-0.010030254
166	0x3d85b7e4	0.06529215
167	0xbcd318b8	-0.025768623
168	0xbda523ab	-0.08063444
169	0x3d4e14db	0.050312858
170	0xbc8955ec	-0.016764604
171	0xbd3dbee0	-0.04632461
172	0x3db233c2	0.08701278
173	0x3d748123	0.059693467
174	0xbc9b5270	-0.018960208
175	0x3d072dd4	0.03300269
176	0x3c21fbd8	0.009886704
177	0x3b21b6ba	0.0024675564
178	0x3dabde92	0.08392061
179	0x3d967d26	0.07348089
180	0xbdd2cb26	-0.10292654
181	0x3d33d8a4	0.043907776
182	0xbcc100b8	-0.023559913
183	0x3c4ab385	0.012371902
184	0xbca49eff	-0.020095346
185	0x3d4edfc9	0.050506387
186	0x3ceaa810	0.028644592
187	0xbc5f3778	-0.013624065
188	0x3d216e3a	0.03941176
189	0x3d90cd05	0.07070354
190	0x3c737ba7	0.014861024
191	0x3c385007	0.011249549
192	0xbd9be006	-0.076110885
193	0x3c1c1aeb	0.009527902
194	0x3b75de2d	0.003751646
195	0xbd1896b9	-0.037253115
196	0x3d88eef0	0.06686199
197	0x3bd319f4	0.006442303
198	0x3cd2857c	0.025698416
199	0xbca5e494	-0.020250596
200	0xbb817120	-0.003950253
201	0xbc547a1f	-0.012968569
202	0xba0bd884	-0.00053346925
203	0x3d600462	0.05469168
204	0xbd193d74	-0.037412122
205	0x3ce0759b	0.027399829
206	0x3c462003	0.012092593
207	0xbc36ae05	-0.011149888
208	0xbcb5f02b	-0.022209248
209	0x3d8d72bc	0.069066495
210	0xbd7c83b8	-0.061649054
211	0x3d047216	0.032335363
212	0x3cfca1c8	0.030838862
213	0x3daf0766	0.08546333
214	0x3c19f5e8	0.0093970075
215	0xbcaf2e60	-0.021384418
216	0xbd0a5c21	-0.033779267
217	0x3c80a3ec	0.015703164
218	0x3cafeb5e	0.021474537
219	0xbd2d4d86	-0.04231026
220	0x3dbf4540	0.0933938
221	0xbcdca3be	-0.026933547
222	0x3c139de8	0.009009816
223	0x3b940640	0.0045173466
224	0x3ad8f640	0.001655288
225	0xbc15c89f	-0.00914207
226	0x3d9275ac	0.071513504
227	0x3a8511e5	0.0010152428
228	0xbdbde1f2	-0.09271611
229	0xbc21e30c	-0.009880792
230	0x3d721a4d	0.059107114
231	0x3ce96695	0.028491298
232	0xbcfdd859	-0.030986952
233	0x3c6335cc	0.013867807
234	0xbd12bedc	-0.03582655
235	0xbbfcf3d0	-0.0077194944
236	0x3c62ad60	0.013835281
237	0x3dad540a	0.08463295
238	0x3d82d8c4	0.06389001
239	0x3d996f7d	0.07491968
240	0xbdcc1cc6	-0.099664256
241	0xbbc07153	-0.0058728843
242	0xbd407c81	-0.046993736
243	0xbc07bb81	-0.0082844505
244	0x3be6b6b7	0.0070408243
245	0x3b67ef40	0.0035390407
246	0xbd7703c6	-0.060306333
247	0xbc7ddb88	-0.015494235
248	0xbd3a3f0a	-0.045470275
249	0x3d7b5476	0.061359845
250	0xbd11457b	-0.035466652
251	0x3d4cedd5	0.0500315
252	0xbd8e4230	-0.06946218
253	0xbcafcceb	-0.021460017
254	0x3d2f60ee	0.04281705
255	0xbda3bda3	-0.07995155

base.seq_fcs.0.bias f4 [256]
0	0x3e015b64	0.12632519
1	0x3e09cd03	0.13457112
2	0x3e04a605	0.12953956
3	0x3e0a5356	0.13508353
4	0x3e096b94	0.13419944
5	0x3e05f2a9	0.13080849
6	0x3e07883c	0.13235563
7	0x3e06d1aa	0.13165918
8	0x3e008587	0.12550937
9	0x3e07f3bc	0.13276571
10	0x3e032acc	0.12809294
11	0x3e07c16d	0.1325738
12	0x3e036bd8	0.12834108
13	0x3e06aeb8	0.13152587
14	0x3e09156c	0.13387078
15	0x3e06ffba	0.1318349
16	0x3e04b355	0.12959035
17	0x3e0908ba	0.13382235
18	0x3e0a1e2f	0.13488077
19	0x3e04826d	0.12940378
20	0x3dfd74d0	0.12375796
21	0x3e0a54e8	0.13508952
22	0x3e09de0e	0.13463613
23	0x3e0a9f10	0.1353724
24	0x3e0a908d	0.13531704
25	0x3e067f34	0.13134462
26	0x3e0432b2	0.12909964
27	0x3e08c8dc	0.13357872
28	0x3e09d152	0.13458756
29	0x3e07cb97	0.13261257
30	0x3e0a2ecb	0.13494413
31	0x3e0b2278	0.13587368
32	0x3e01b405	0.12666328
33	0x3e010c2b	0.12602298
34	0x3e0acac8	0.13553917
35	0x3e085994	0.13315421
36	0x3e018518	0.12648427
37	0x3e02382f	0.12716745
38	0x3e074d55	0.13213094
39	0x3e0878f6	0.13327393
40	0x3e0811c5	0.13288029
41	0x3e0a82ca	0.13526455
42	0x3e09bf0d	0.13451786
43	0x3e09448d	0.13405056
44	0x3e0a1514	0.13484603
45	0x3e068a6e	0.13138744
46	0x3e091a3f	0.13388918
47	0x3e09c413	0.13453703
48	0x3e086339	0.133191
49	0x3e084518	0.13307607
50	0x3e095acd	0.13413544
51	0x3e014b04	0.12626272
52	0x3e07961a	0.13240853
53	0x3e07b59e	0.13252875
54	0x3e04946f	0.12947248
55	0x3e0a757d	0.1352138
56	0x3e062350	0.13099408
57	0x3e2c0874	0.168001
58	0x3e040a60	0.12894583
59	0x3e07fb5d	0.13279481
60	0x3e059d9d	0.13048406
61	0x3e06d3cf	0.13166736
62	0x3e0348fa	0.12820807
63	0x3e09e0f3	0.13464718
64	0x3dfd6efa	0.12374683
65	0x3e08f53f	0.13374804
66	0x3e04bdd4	0.12963039
67	0x3e00f305	0.12592705
68	0x3e0a08a6	0.13479862
69	0x3e01cc1c	0.12675518
70	0x3e0110cb	0.12604062
71	0x3e0544f0	0.13014579
72	0x3e045240	0.12922001
73	0x3e08f2a6	0.13373813
74	0x3e05dbec	0.13072175
75	0x3e081415	0.1328891
76	0x3e0822c4	0.13294512
77	0x3df8622f	0.12128102
78	0x3e012285	0.12610824
79	0x3e0a0e6a	0.13482061
80	0x3df46b13	0.11934485
81	0x3e08ed67	0.13371812
82	0x3e035eab	0.12829082
83	0x3e0062ef	0.1253774
84	0x3e0a622a	0.13514009
85	0x3e0500b4	0.1298855
86	0x3e08ac25	0.13346918
87	0x3e08e04b	0.13366811
88	0x3e072035	0.1319588
89	0x3e0468ad	0.12930556
90	0x3e0814cd	0.13289185
91	0x3e0a755c	0.13521332
92	0x3e039ba3	0.1285234
93	0x3e042d7d	0.12907977
94	0x3e047c6e	0.12938091
95	0x3dfe8712	0.12428106
96	0x3e072c1f	0.13200425
97	0x3e02f301	0.12788011
98	0x3e0867a5	0.13320787
99	0x3e00fd5f	0.12596653
100	0x3e05c0cd	0.13061829
101	0x3e05b67f	0.13057898
102	0x3e05dd43	0.13072686
103	0x3e0a8fab	0.13531367
104	0x3e00e5dd	0.12587686
105	0x3e061afc	0.13096231
106	0x3e092a8f	0.13395141
107	0x3e05d115	0.1306804
108	0x3dfd963c	0.123821706
109	0x3e07b7b7	0.13253675
110	0x3e014fb4	0.1262806
111	0x3e0a3028	0.13494933
112	0x3e00574f	0.12533306
113	0x3e071502	0.13191608
114	0x3e04ae2a	0.12957063
115	0x3e038148	0.12842286
116	0x3e09d6ed	0.13460894
117	0x3e0361b5	0.12830241
118	0x3e0613c4	0.13093477
119	0x3e0a26df	0.1349139
120	0x3e00166c	0.12508553
121	0x3e05cf6b	0.13067405
122	0x3e0ae4fa	0.1356391
123	0x3e081a9c	0.132914
124	0x3e08f1c8	0.13373482
125	0x3e09c06a	0.13452306
126	0x3e085928	0.1331526
127	0x3e08758d	0.13326092
128	0x3e066aaa	0.13126627
129	0x3e0ac9ce	0.13553545
130	0x3e070bdc	0.13188118
131	0x3e08a9d7	0.13346039
132	0x3dfaf554	0.12253824
133	0x3dff1341	0.12454844
134	0x3e0b6613	0.13613157
135	0x3e0a30ba	0.1349515
136	0x3e077393	0.13227682
137	0x3e0ad8e6	0.13559303
138	0x3e08054f	0.13283275
139	0x3e080e1b	0.13286631
140	0x3e00fd10	0.12596536
141	0x3e0943dc	0.13404793
142	0x3e041fbb	0.12902729
143	0x3e0570da	0.1303133
144	0x3e0363d9	0.12831058
145	0x3e075e6e	0.13219616
146	0x3e017441	0.12642004
147	0x3e0367e9	0.12832607
148	0x3e094ee3	0.13408999
149	0x3e08f564	0.13374859
150	0x3e05bb5f	0.13059758
151	0x3e03b295	0.12861092
152	0x3e037808	0.12838757
153	0x3e03b705	0.12862785
154	0x3e073ef2	0.13207605
155	0x3e01b1fc	0.12665552
156	0x3e07cbb9	0.13261308
157	0x3e045b14	0.12925369
158	0x3e0a35b2	0.13497046
159	0x3e071442	0.13191321
160	0x3dfff5cd	0.12498055
161	0x3e0b5551	0.13606764
162	0x3e07e400	0.13270569
163	0x3e034c6d	0.12822123
164	0x3e0a5dab	0.13512294
165	0x3e0765ca	0.13222423
166	0x3e044a1c	0.12918895
167	0x3e017685	0.12642868
168	0x3e08d49d	0.13362356
169	0x3dfc967e	0.123333916
170	0x3e09b537	0.13448034
171	0x3e077eb5	0.13231929
172	0x3e08e0d6	0.13367018
173	0x3e02b1af	0.12763093
174	0x3e060afd	0.13090129
175	0x3e0b529f	0.13605736
176	0x3e07f017	0.13275181
177	0x3e004f53	0.1253026
178	0x3e08abe7	0.13346826
179	0x3e07b65a	0.13253155
180	0x3dcccccd	0.1
181	0x3e033360	0.12812567
182	0x3e081c50	0.1329205
183	0x3e08b8fe	0.13351819
184	0x3e08730c	0.13325137
185	0x3e078315	0.13233598
186	0x3e04a5bd	0.12953849
187	0x3e085b9d	0.13316198
188	0x3e07c6be	0.13259408
189	0x3e001e72	0.12511614
190	0x3e04f405	0.12983711
191	0x3e09b995	0.134497
192	0x3e07b632	0.13253096
193	0x3e048322	0.12940648
194	0x3e036d2b	0.12834613
195	0x3e079db1	0.13243748
196	0x3e0a297c	0.13492388
197	0x3e0a461c	0.13503307
198	0x3e04dc31	0.12974621
199	0x3e074f0a	0.13213745
200	0x3e0b13d6	0.13581786
201	0x3e069a6e	0.13144848
202	0x3e073df2	0.13207224
203	0x3e061a3c	0.13095945
204	0x3e01e62c	0.1268546
205	0x3e0718be	0.13193032
206	0x3e091c6a	0.13389745
207	0x3e0681c0	0.13135433
208	0x3e03f8d6	0.12887892
209	0x3e09466b	0.13405769
210	0x3e05bfa5	0.13061388
211	0x3e048055	0.1293958
212	0x3dfede71	0.12444771
213	0x3e0429ba	0.12906542
214	0x3e01e4c4	0.12684923
215	0x3e0827ea	0.13296476
216	0x3e0a3636	0.13497242
217	0x3e088a98	0.1333412
218	0x3e09e30d	0.13465519
219	0x3e0a8b4c	0.135297
220	0x3dff594e	0.124682054
221	0x3e086de4	0.1332317
222	0x3e02cfa7	0.12774526
223	0x3e04f10f	0.12982582
224	0x3e080549	0.13283266
225	0x3e0165b7	0.12636457
226	0x3deb4f1c	0.11489698
227	0x3dfea75b	0.12434264
228	0x3dff5532	0.124674216
229	0x3e04618a	0.12927833
230	0x3e032bce	0.12809679
231	0x3e095460	0.13411093
232	0x3e061bca	0.13096538
233	0x3e06fc24	0.13182122
234	0x3e02eaed	0.1278493
235	0x3e08c6fb	0.13357155
236	0x3e095e03	0.13414769
237	0x3e08fe39	0.13378228
238	0x3dcccccd	0.1
239	0x3e077eaf	0.1323192
240	0x3e085670	0.13314223
241	0x3e08962e	0.13338539
242	0x3e05c719	0.13064231
243	0x3e051436	0.12995991
244	0x3e05f1fa	0.13080588
245	0x3e0193eb	0.12654082
246	0x3e08511d	0.13312192
247	0x3e0b56c8	0.13607323
248	0x3e0770fa	0.13226691
249	0x3e06f060	0.13177633
250	0x3dfb3044	0.12265065
251	0x3e03abea	0.12858549
252	0x3e09be4b	0.13451497
253	0x3e0a22c0	0.13489819
254	0x3e02211c	0.12707943
255	0x3e08a843	0.13345437

base.seq_fcs.2.weight f4 [256, 256]
0	0xbccba12f	-0.024857132
1	0x3d597641	0.05309129
2	0x3d0b6790	0.03403431
3	0xbcf54c6a	-0.029943664
4	0x3ce5c834	0.028049566
5	0xbc65aac0	-0.014017761
6	0x3bad4f2f	0.0052889804
7	0x3db25d18	0.087091625
8	0x3d7645dc	0.060125217
9	0x3c5f80cc	0.013641547
10	0x3b488582	0.0030597155
11	0x3dba3bd0	0.090934396
12	0x3d8c9adc	0.068654746
13	0xbc15cb3e	-0.009142695
14	0x3d8b8052	0.068115845
15	0xbcc7579d	-0.02433377
16	0x3d4a9ee1	0.049467925
17	0x3b416592	0.0029510004
18	0xbca18c6e	-0.019720282
19	0x3c9b033f	0.018922446
20	0x3dc73399	0.09726638
21	0xbcc55d2c	-0.02409228
22	0xbbdbd47c	-0.0067086797
23	0xbcd7c3f2	-0.026338551
24	0x3d754c4e	0.059887223
25	0x3d86a480	0.06574345
26	0x3d924f7e	0.07144068
27	0x3d1e01d6	0.03857597
28	0x3cd9ecba	0.026602138
29	0x3d99dfb0	0.07513368
30	0x3d183fef	0.037170347
31	0x3d95ce89	0.07314784
32	0xbc18f19f	-0.009334951
33	0xbd0f354a	-0.03496293
34	0xbc35b4c5	-0.011090462
35	0x3c4a34dd	0.012341705
36	0xbd024c78	-0.031811208
37	0x3bd0d006	0.0063724546
38	0x3d245e1d	0.040128816
39	0x3d639fcc	0.055572316
40	0x39be7d25	0.00036332864
41	0x3cd26ec8	0.02568759
42	0xbd129684	-0.035788074
43	0x3cf1542e	0.029459085
44	0x3cbac57a	0.022799242
45	0xbc8232ba	-0.015893329
46	0x3d81ce84	0.06338218
47	0xbd090958	-0.033456177
48	0x3d96cabb	0.073628865
49	0x3c7b6700	0.015344381
50	0x3ca16e26	0.019705843
51	0xbc13814f	-0.009002998
52	0x3ca4aec5	0.020102868
53	0x3d9596ab	0.07304128
54	0xbcc1d19a	-0.023659516
55	0x3d5e1255	0.0542167
56	0x3daed233	0.08536186
57	0x3e09cdae	0.13457367
58	0x3d8995d4	0.067180306
59	0x3d245a3c	0.040125117
60	0x3d75b3b4	0.05998583
61	0xbc163177	-0.009167067
62	0xbc3f3d4a	-0.011672327
63	0x3d9ea3bd	0.07746074
64	0xbc917bf7	-0.017759306
65	0x3c63e6b9	0.013909989
66	0x3c1d7f3c	0.009612855
67	0x3d7dc349	0.061953817
68	0x3d4311e9	0.047624502
69	0xbc827336	-0.015924077
70	0x3d9753c5	0.07389025
71	0x38d40a0d	0.0001011082
72	0x3d8f96f1	0.07011212
73	0xbcb326e3	-0.021869129
74	0x3d081aa7	0.033228543
75	0x3c804882	0.015659574
76	0x3d9b93ee	0.07596575
77	0x3bef6dbf	0.007306784
78	0xbc0ed636	-0.008718064
79	0xbcc454f9	-0.0239663
80	0x3ccc6761	0.024951639
81	0xbc5db101	-0.013530971
82	0x3d6b762d	0.057485748
83	0x3cfbb100	0.030724049
84	0x3cbf7c83	0.023374802
85	0x3d50b852	0.05095703
86	0x3d6911b1	0.056901637
87	0xbcf572fe	-0.02996206
88	0x3db81141	0.08987666
89	0x3d029340	0.03187871
90	0xbc88bff6	-0.016693097
91	0x3cf6ba8d	0.030118251
92	0x3c39b41a	0.011334443
93	0x3d666205	0.056245822
94	0x3d4dc975	0.050240953
95	0x3d571b50	0.05251628
96	0x3d63b7fe	0.05559539
97	0x3da706e2	0.0815561
98	0x3cf64f7d	0.0300672
99	0x3da8aa95	0.08235661
100	0x3bf3c3e0	0.0074391216
101	0x3d7b4f86	0.061355136
102	0xbc3dd441	-0.01158625
103	0x3d1fdc26	0.03902831
104	0x3d231dde	0.039823405
105	0xbc8694ca	-0.01642837
106	0x3d9a7b22	0.07543017
107	0xbc9f227b	-0.019425621
108	0xbbf57e37	-0.0074918526
109	0xbd17c80a	-0.037056006
110	0x3d6bb032	0.05754108
111	0x3c5b378a	0.013379941
112	0x3d026901	0.03183842
113	0xbd0852b3	-0.033281993
114	0xbc663e46	-0.014052933
115	0x3d34c4b5	0.044132907
116	0x3d8023ed	0.06256852
117	0x3d93526d	0.07193456
118	0xbca36682	-0.01994634
119	0xbb473b78	-0.0030400436
120	0x3d74675c	0.059668884
121	0x3db4d939	0.088304944
122	0x38d9a063	0.00010377241
123	0x3cb037c6	0.02151097
124	0x3da58838	0.08082622
125	0xbc1f3f84	-0.009719733
126	0xbb1510c6	-0.0022745593
127	0x3d915e9b	0.07098123
128	0x3c8951ca	0.016762633
129	0x3d0e8c93	0.03480203
130	0x3d840f31	0.0644821
131	0x3d2ace34	0.041700557
132	0x3d489875	0.04897352
133	0x3d03bb29	0.03216091
134	0x3d983c79	0.07433409
135	0x3d19788a	0.03746847
136	0x3d19dfe3	0.03756703
137	0x3bb28efc	0.005449174
138	0x3c8fcdf8	0.017554268
139	0xbb25cd40	-0.002529934
140	0x3c23a284	0.009987477
141	0x3c83845c	0.016054325
142	0x3da17a25	0.07884625
143	0x3db344e8	0.08753377
144	0x3da8aae4	0.0823572
145	0x3bef9e4b	0.007312571
146	0xbb511d65	-0.003190839
147	0x3ba9b368	0.0051788576
148	0x3d919c4c	0.071098894
149	0x3d642608	0.055700332
150	0xb9659e7d	-0.00021898183
151	0x3c25d19a	0.010120774
152	0x3d8c4fd2	0.06851162
153	0xbceea4e2	-0.029131357
154	0x3cb233e3	0.021753257
155	0x3d8fb518	0.07016963
156	0xbce790d2	-0.028267298
157	0x3d54cf1b	0.051955324
158	0x3c81f776	0.015865069
159	0x3c475082	0.012165191
160	0xbcdcb216	-0.026940387
161	0x3d1a8d74	0.037732556
162	0x3d6d090b	0.057869952
163	0x3d93a84a	0.07209833
164	0x3d527f5e	0.051390998
165	0x3db2def8	0.08733934
166	0xbbe2aecb	-0.0069178096
167	0xbc79ec95	-0.015254159
168	0x3d0a8948	0.033822328
169	0x3d9e1d99	0.07720489
170	0xbb5c990e	-0.0033660564
171	0x3cade99a	0.021229554
172	0xbc6a30e3	-0.014293882
173	0x3d9664e4	0.07343462
174	0x3d8f0a06	0.06984334
175	0x3c7d59ec	0.015463334
176	0xbc5e71b9	-0.013576918
177	0xbc35b6a8	-0.011090912
178	0xbb90577b	-0.0044049597
179	0x3bc75c4b	0.006084
180	0x3d6858a2	0.05672515
181	0x3dc0f21a	0.09421177
182	0xbccbf681	-0.024897816
183	0xbd0c8a5d	-0.03431164
184	0x3d7b1cf0	0.061306894
185	0xbbd1aa64	-0.006398486
186	0xbcf20a46	-0.029545914
187	0x3c294a82	0.010332705
188	0xbcb9d42c	-0.02268418
189	0x3da471ef	0.080295436
190	0x3da26a32	0.079304114
191	0x3d55d223	0.052202355
192	0x3d86cbd0	0.06581843
193	0x3d1baae5	0.038004775
194	0x3d60dd2a	0.05489842
195	0x3c983489	0.018579738
196	0x3c4b7bf5	0.01241969
197	0x3d294e0c	0.041334197
198	0x3ccabcd6	0.024748247
199	0xbcb39eeb	-0.021926364
200	0xbcc235d9	-0.023707317
201	0x3d033b46	0.03203895
202	0x3c2fbd0b	0.010726224
203	0x3cbbb304	0.02291251
204	0x3da7be16	0.08190553
205	0x3c528b51	0.012850598
206	0x3d32d5fe	0.04366111
207	0x3d895e01	0.06707383
208	0xbd085176	-0.033280812
209	0x3d7e7293	0.062120985
210	0xbb11cff5	-0.0022249196
211	0x3d6aa8bc	0.057289824
212	0x3d390872	0.04517407
213	0x3da4fe1c	0.0805628
214	0xbc2f0897	-0.0106832
215	0xbce1fdad	-0.027586782
216	0x3cc21113	0.023689782
217	0x3cf96404	0.030443199
218	0xbc0f3796	-0.00874128
219	0x3c93cb02	0.018041138
220	0xbcccf725	-0.025020191
221	0xba1eb759	-0.00060545426
222	0x3c61c7e5	0.013780569
223	0x3b1d4bf0	0.002400156
224	0xbc95c35b	-0.01828163
225	0x3d8209a0	0.06349492
226	0x3c958be4	0.018255182
227	0x3dad0e50	0.084499955
228	0x3d386fdb	0.04502855
229	0x3d097863	0.033562075
230	0xbc3620af	-0.011116191
231	0xbcafd9fc	-0.021466248
232	0x3da4d00a	0.08047493
233	0x3d967964	0.07347372
234	0xbd193a66	-0.03740921
235	0x3bdcab21	0.0067342673
236	0xbd022daa	-0.03178183
237	0xbb38c179	-0.002819149
238	0xbce75554	-0.02823893
239	0x3ce091f0	0.027413338
240	0x3d1016f5	0.035178144
241	0xbd08d5e8	-0.033407122
242	0x3d521936	0.051293574
243	0xbccab92b	-0.024746498
244	0x3b8d6ec7	0.004316184
245	0x3d580807	0.05274203
246	0xbb219444	-0.0024655024
247	0x3d592be6	0.05302038
248	0x3d15ba5e	0.036554687
249	0x3ca80f6a	0.020515162
250	0x3d1ce70c	0.03830628
251	0x3c6a0a7b	0.014284725
252	0xbba1b58e	-0.004934973
253	0x3d4e5c8d	0.050381232
254	0x3d399a6b	0.04531328
255	0x3b003855	0.0019564827

base.seq_fcs.2.bias f4 [256]
0	0x3dfa6da9	0.12227947
1	0x3df9aac1	0.12190772
2	0x3df2739f	0.11838459
3	0x3dcccccd	0.1
4	0x3dfb305e	0.12265085
5	0x3dfa09f7	0.12208932
6	0x3dfcebe1	0.12349678
7	0x3dfe66eb	0.12421974
8	0x3df6b47f	0.12046146
9	0x3dfe01b8	0.124026716
10	0x3dfc24e3	0.12311723
11	0x3dfd53f4	0.123695284
12	0x3dc47ea4	0.09594467
13	0x3dfcacbb	0.12337633
14	0x3df73391	0.120703824
15	0x3dfcf781	0.12351895
16	0x3df754a1	0.120766886
17	0x3dcccccd	0.1
18	0x3dfd142f	0.12357365
19	0x3dfef85d	0.12449715
20	0x3dfc5bfe	0.123222336
21	0x3dfd69c7	0.12373691
22	0x3df5fdd0	0.120113015
23	0x3dfbb0d5	0.122895874
24	0x3dffd917	0.124925785
25	0x3dfe486c	0.12416157
26	0x3df4595d	0.11931107
27	0x3dfc2d41	0.12313319
28	0x3df7bfe4	0.12097147
29	0x3df8dda2	0.12151648
30	0x3dfd6b94	0.123740345
31	0x3dfa3f56	0.122191116
32	0x3dc88915	0.09791771
33	0x3df53263	0.11972501
34	0x3dff8392	0.12476267
35	0x3df359e3	0.11882379
36	0x3dc6ab4f	0.09700643
37	0x3dfddeea	0.12396033
38	0x3dfd0da2	0.12356116
39	0x3dfee473	0.12445917
40	0x3dc8800c	0.09790048
41	0x3dc2e475	0.09516231
42	0x3dfd20a2	0.1235974
43	0x3dc56bfd	0.09639738
44	0x3dc5b4e4	0.09653643
45	0x3dffec78	0.12496275
46	0x3dffaf52	0.124846116
47	0x3e001b9d	0.12510534
48	0x3dfaa33e	0.12238167
49	0x3dff30c9	0.12460477
50	0x3dfb23c9	0.12262685
51	0x3df9c4c7	0.121957354
52	0x3dfb3c5a	0.122673705
53	0x3dfcdea2	0.12347151
54	0x3df7794f	0.12083685
55	0x3dfe29f9	0.124103494
56	0x3dfbd47e	0.12296389
57	0x3dc790f2	0.09744443
58	0x3dfefc8a	0.12450512
59	0x3dfa172e	0.122114524
60	0x3df8b6eb	0.12144264
61	0x3dfe1f4b	0.124083124
62	0x3dfedc61	0.12444378
63	0x3df70dfb	0.120632134
64	0x3dc39e3c	0.09551665
65	0x3dfd9fc3	0.12383988
66	0x3dfdaa30	0.12385976
67	0x3dfec915	0.12440697
68	0x3dc40ddf	0.09572958
69	0x3df8f7b8	0.121566236
70	0x3df4c9df	0.11952566
71	0x3dfca9fa	0.12337108
72	0x3df2f4a4	0.11863068
73	0x3dfad61c	0.12247869
74	0x3dff88c0	0.12477255
75	0x3df8e451	0.12152923
76	0x3dfe1a94	0.12407413
77	0x3dfec5a4	0.12440041
78	0x3e00126d	0.12507029
79	0x3dc79e41	0.097469814
80	0x3dcccccd	0.1
81	0x3dfae12b	0.12249979
82	0x3dc91c3b	0.09819838
83	0x3dfb84e3	0.122812055
84	0x3dc32007	0.09527593
85	0x3dc54faa	0.09634335
86	0x3dff4f03	0.12466242
87	0x3df61de4	0.1201742
88	0x3dfbf777	0.123030595
89	0x3dfa454c	0.122202486
90	0x3dfb2d60	0.12264514
91	0x3dfdbf84	0.12390044
92	0x3dfff5c7	0.1249805
93	0x3dfc75ae	0.12327133
94	0x3dfb9d28	0.122858346
95	0x3dfc3278	0.12314314
96	0x3dfdfc55	0.12401644
97	0x3dcccccd	0.1
98	0x3dfe8e1f	0.12429451
99	0x3dfc8a62	0.12331082
100	0x3dc2c45c	0.09510109
101	0x3dfdd213	0.12393584
102	0x3df45360	0.11929965
103	0x3dfca359	0.123358436
104	0x3dc5b344	0.09653333
105	0x3df75f10	0.120786786
106	0x3dcccccd	0.1
107	0x3dfc643c	0.12323806
108	0x3dfa972d	0.12235866
109	0x3dfe45fa	0.12415691
110	0x3dff92ff	0.12479209
111	0x3dcccccd	0.1
112	0x3dfeef16	0.12447946
113	0x3dc7f121	0.097627886
114	0x3dfeeda8	0.12447673
115	0x3dc2c527	0.0951026
116	0x3dfbf3d6	0.123023674
117	0x3df9dcbc	0.12200305
118	0x3dfad036	0.12246744
119	0x3df750b1	0.120759375
120	0x3dffb3e1	0.12485481
121	0x3dff955d	0.12479661
122	0x3dc6d5e2	0.09708764
123	0x3dfc63c6	0.12323718
124	0x3dfc78e6	0.12327747
125	0x3dfafa24	0.12254742
126	0x3dfb6302	0.122747436
127	0x3dc43e98	0.09582251
128	0x3dc38f6c	0.0954884
129	0x3df16d0c	0.11788377
130	0x3dc48897	0.09596365
131	0x3dfe3e5e	0.12414239
132	0x3df3eaf6	0.119100496
133	0x3e000cc3	0.12504868
134	0x3dfd402b	0.12365755
135	0x3dffb554	0.124857575
136	0x3dc69eac	0.09698233
137	0x3dff6ee6	0.12472324
138	0x3dfdcb79	0.12392325
139	0x3df43fe1	0.119262464
140	0x3dfc4404	0.123176605
141	0x3e00086b	0.12503211
142	0x3dc4d7d4	0.096114784
143	0x3dfc4bc0	0.12319136
144	0x3dff0138	0.12451404
145	0x3dff36e8	0.124616444
146	0x3dc4116b	0.09573635
147	0x3dffa933	0.12483444
148	0x3dfd6120	0.12372041
149	0x3dfc1232	0.12308158
150	0x3df957c1	0.12174941
151	0x3dfb4dd5	0.12270705
152	0x3df7268d	0.120679
153	0x3dfefd33	0.12450638
154	0x3dfebde2	0.12438561
155	0x3df86d2e	0.121301994
156	0x3dfe5c9f	0.1242001
157	0x3dfe2455	0.124092735
158	0x3df701f0	0.120609164
159	0x3dfe1a9c	0.12407419
160	0x3dfa322a	0.12216599
161	0x3dfbb8ca	0.12291105
162	0x3dff0057	0.12451237
163	0x3dfcd673	0.123455904
164	0x3dff98c4	0.124803096
165	0x3df1b289	0.11801631
166	0x3dfb8585	0.12281326
167	0x3dfea24a	0.12433298
168	0x3df5815e	0.119875655
169	0x3df2d1e3	0.11856439
170	0x3dfd1270	0.12357032
171	0x3dffb2ac	0.12485251
172	0x3dfce607	0.12348562
173	0x3dfc04df	0.123056166
174	0x3dfe8720	0.12428117
175	0x3dfcbe4c	0.12340984
176	0x3dfd9bf7	0.123832636
177	0x3dfcf6b6	0.12351744
178	0x3dc52956	0.09627025
179	0x3dc30a2b	0.09523424
180	0x3dff33cb	0.124610506
181	0x3dfb84c2	0.12281181
182	0x3dfd5607	0.12369924
183	0x3dfd9bb9	0.12383217
184	0x3dfef1bc	0.12448451
185	0x3dfa07eb	0.122085415
186	0x3dfffe18	0.124996364
187	0x3dc3c7ca	0.09559591
188	0x3dfba0b1	0.12286509
189	0x3dfde094	0.123963505
190	0x3dfdf4ae	0.124001846
191	0x3dfe4100	0.124147415
192	0x3dfeabad	0.12435088
193	0x3df3d633	0.1190609
194	0x3dc3f487	0.09568124
195	0x3dfb1d3d	0.12261436
196	0x3dcccccd	0.1
197	0x3dfe3a2d	0.1241344
198	0x3dc5084d	0.09620724
199	0x3df74d5b	0.12075301
200	0x3dfde0e0	0.12396407
201	0x3dfebb5b	0.12438079
202	0x3dfe0225	0.12402753
203	0x3dfce33b	0.12348028
204	0x3dff8a6e	0.12477575
205	0x3dfb4a56	0.12270038
206	0x3dfdefba	0.1239924
207	0x3dfdcb98	0.12392348
208	0x3dc64bc9	0.096824236
209	0x3dff60a1	0.124696024
210	0x3dfb1af1	0.12260998
211	0x3dfd5cb6	0.12371199
212	0x3df2a9b3	0.11848774
213	0x3dfdcf5a	0.12393065
214	0x3dfe5925	0.12419347
215	0x3dff4ce8	0.124658406
216	0x3dfb1e6c	0.12261662
217	0x3dfff763	0.12498357
218	0x3dfe0e22	0.12405039
219	0x3dffb837	0.12486308
220	0x3dfe0c20	0.124046564
221	0x3dfe81fd	0.12427137
222	0x3defd65b	0.11710807
223	0x3df1d2af	0.11807763
224	0x3dff0d2f	0.124536864
225	0x3dfb839c	0.12280962
226	0x3dffa928	0.12483436
227	0x3df5ccc9	0.1200195
228	0x3dfba6ea	0.12287696
229	0x3df7564a	0.12077005
230	0x3df29b57	0.11846035
231	0x3dfbf0b4	0.1230177
232	0x3dfb23e4	0.12262705
233	0x3dfea12a	0.12433083
234	0x3defb317	0.117040806
235	0x3dfda399	0.123847194
236	0x3dfabc67	0.12242966
237	0x3dfd77f9	0.123763986
238	0x3dfd57a7	0.12370234
239	0x3df40d7f	0.11916637
240	0x3dfdb183	0.12387373
241	0x3dfb7470	0.12278068
242	0x3dfd010f	0.123537175
243	0x3dfdbedd	0.1238992
244	0x3dff7590	0.12473595
245	0x3dff7b25	0.1247466
246	0x3dfe6910	0.12422383
247	0x3dfc61cf	0.12323343
248	0x3df1d8c7	0.11808925
249	0x3dfb9c84	0.12285712
250	0x3dfd7fe0	0.12377906
251	0x3dc66ca5	0.09688691
252	0x3df7e8c3	0.12104943
253	0x3dff0e82	0.12453939
254	0x3df51fbd	0.11968944
255	0x3dfe6ec4	0.124234706

last.weight f4 [1, 256]
0	0x3ceafcf8	0.028685078
1	0x3cdac047	0.026703013
2	0x3ccb03c1	0.024782063
3	0x3a3e504a	0.0007259889
4	0x3cd3eb7f	0.02586913
5	0x3cf4bc26	0.029874872
6	0x3cea599b	0.02860718
7	0x3cd02d48	0.025412217
8	0x3cd64c80	0.026159525
9	0x3ce366cd	0.02775898
10	0x3cefd54a	0.029276509
11	0x3ceb9e27	0.028761936
12	0x3b22e46c	0.0024855388
13	0x3cf201f9	0.029541956
14	0x3ce7bd47	0.028288497
15	0x3cd8b650	0.02645412
16	0x3ce27a78	0.027646288
17	0x3a8a2893	0.0010540657
18	0x3cd397ea	0.025829274
19	0x3cef1351	0.029184015
20	0x3cea0b1b	0.028569749
21	0x3cdb0233	0.026734447
22	0x3cb8e899	0.022571849
23	0x3cdab71e	0.026698645
24	0x3cd6a7d1	0.026203068
25	0x3cc453c4	0.023965724
26	0x3cdac158	0.026703522
27	0x3cdee1b4	0.027207233
28	0x3cc9f586	0.024653208
29	0x3cdcaa59	0.026936697
30	0x3cc2c887	0.02377726
31	0x3cf4f71b	0.029902985
32	0xb8f3aad6	-0.000116189636
33	0x3ce2270f	0.027606515
34	0x3cccc114	0.02499441
35	0x3cd2638f	0.025682239
36	0x3abb3325	0.001428221
37	0x3cd03955	0.025417963
38	0x3ce1d15a	0.027565647
39	0x3ce6fba9	0.028196173
40	0x3aefbe20	0.0018290915
41	0x3b033b3a	0.0020024315
42	0x3cdf2723	0.027240342
43	0x3b2da13d	0.002649381
44	0x3b42091e	0.0029607485
45	0x3cd98a86	0.026555311
46	0x3cecf98d	0.028927589
47	0x3ce3809c	0.027771287
48	0x3cd1df31	0.025619121
49	0x3cd28013	0.025695836
50	0x3cd10caf	0.025518743
51	0x3ce4658c	0.027880453
52	0x3cf255db	0.029581955
53	0x3cda11a3	0.026619738
54	0x3cd99a93	0.026562965
55	0x3ce7270c	0.028216861
56	0x3cd5d33e	0.026101705
57	0x3b1ce38f	0.0023939346
58	0x3cda6fcb	0.026664635
59	0x3ce035f6	0.02736948
60	0x3cebd535	0.028788188
61	0x3cc95c87	0.024580253
62	0x3cdaba73	0.026700234
63	0x3ccac41c	0.024751715
64	0x3a8e14ae	0.0010839903
65	0x3ce9454b	0.028475424
66	0x3cd356f2	0.025798295
67	0x3cc23022	0.023704592
68	0x3b26cafa	0.0025450573
69	0x3cd6dc4a	0.026228089
70	0x3cc7f42a	0.024408419
71	0x3cd0d36b	0.025491437
72	0x3ce039d4	0.027371325
73	0x3cdb7496	0.026788991
74	0x3cf0c935	0.029392818
75	0x3cc3cb79	0.023900734
76	0x3ccc5583	0.024943119
77	0x3cc139d7	0.02358715
78	0x3ce302ce	0.027711298
79	0xba3a2c0e	-0.00071019016
80	0xba65be2f	-0.00087639963
81	0x3ce9611e	0.028488692
82	0x3786566f	1.6014294e-05
83	0x3cffe6cb	0.03123798
84	0x3b011998	0.0019699093
85	0x3b1ea194	0.0024205195
86	0x3cc7269d	0.024310404
87	0x3cd66c7a	0.026174773
88	0x3ce54a74	0.027989604
89	0x3ceccd9c	0.028906636
90	0x3cd309ab	0.025761446
91	0x3cd6b27b	0.026208153
92	0x3cdacecf	0.026709942
93	0x3cdc216c	0.026871406
94	0x3cd4a9cc	0.025959872
95	0x3cd3bc8d	0.025846744
96	0x3cd7525a	0.026284385
97	0xbaabd865	-0.0013110755
98	0x3cca5da9	0.024702864
99	0x3cf6f647	0.030146731
100	0x3b147708	0.0022653956
101	0x3cc57175	0.024101952
102	0x3ce3d75c	0.027812652
103	0x3cdaea0d	0.026722932
104	0x3b3917e9	0.0028243011
105	0x3cd6fd80	0.026243925
106	0xb8d884dd	-0.0001032443
107	0x3cdc6fb1	0.026908727
108	0x3ceb773a	0.028743375
109	0x3ceaddc9	0.028670209
110	0x3cdca428	0.026933745
111	0x3ac1bb17	0.0014780489
112	0x3cdb176e	0.02674457
113	0x3af395ad	0.0018584036
114	0x3cd78443	0.026308184
115	0x3afac5c6	0.0019132427
116	0x3cf704cf	0.03015366
117	0x3cdaf126	0.026726317
118	0x3cdc3da3	0.02688486
119	0x3cce90c9	0.025215523
120	0x3cd39d26	0.02583177
121	0x3cde075c	0.027103119
122	0x3b1eb69c	0.002421773
123	0x3ccc1d03	0.024916178
124	0x3cd47a87	0.025937332
125	0x3cf36749	0.029712336
126	0x3cf7bc2a	0.03024109
127	0x3b2ab4c9	0.0026047698
128	0x3b0c02eb	0.0021364044
129	0x3cd64fa7	0.026161028
130	0x3b1a039b	0.0023500684
131	0x3cdd97d4	0.027049936
132	0x3cda4c31	0.026647659
133	0x3cdffcc6	0.027342211
134	0x3cda1694	0.026622094
135	0x3cd234f9	0.025660025
136	0x3a965f61	0.0011472517
137	0x3ccdb3ed	0.02511021
138	0x3ce759bd	0.028241033
139	0x3cd25440	0.02567494
140	0x3cf298bc	0.029613845
141	0x3ce50223	0.02795512
142	0x3b1d22df	0.0023977084
143	0x3cee702a	0.029106218
144	0x3cbe24d5	0.023210922
145	0x3cc55e7d	0.024092907
146	0x3b202ba3	0.0024440072
147	0x3cd18b68	0.02557917
148	0x3ce84b52	0.028356228
149	0x3cdfa957	0.027302427
150	0x3ce03c40	0.02737248
151	0x3ce18550	0.027529389
152	0x3ce2e516	0.027697127
153	0x3ceb690f	0.02873662
154	0x3cd10abd	0.025517816
155	0x3ccf8acc	0.025334738
156	0x3cd8f7e0	0.026485384
157	0x3cc895b9	0.024485456
158	0x3cd51c46	0.026014458
159	0x3cc65777	0.024211628
160	0x3cee86c3	0.029116994
161	0x3ce4031a	0.02783351
162	0x3cdfaac4	0.027303107
163	0x3cce2576	0.025164347
164	0x3ce1df9a	0.027572442
165	0x3cc55619	0.024088906
166	0x3cd2fd4a	0.025755543
167	0x3cfa02e2	0.030518953
168	0x3cc7f45a	0.024408508
169	0x3cd625e5	0.026141116
170	0x3cd50b50	0.02600637
171	0x3cd21ce2	0.025648538
172	0x3ce6a121	0.028153004
173	0x3ce07c05	0.027402887
174	0x3cdb27f8	0.026752457
175	0x3cdbdad0	0.026837736
176	0x3ce2d617	0.027689977
177	0x3cdc8996	0.026921075
178	0x3a0d447a	0.0005388927
179	0x3ab7ce99	0.0014023363
180	0x3cd36b4e	0.025808003
181	0x3cf896b6	0.030345302
182	0x3ceaffad	0.028686369
183	0x3cd866fd	0.026416296
184	0x3cbeee59	0.023307012
185	0x3cea497e	0.028599497
186	0x3cdbd9fa	0.026837338
187	0x3aa92f43	0.0012907762
188	0x3ce2d4ec	0.02768942
189	0x3cd85029	0.02640541
190	0x3cdc66a9	0.02690442
191	0x3ce71021	0.028205933
192	0x3ce6b4dd	0.028162414
193	0x3cd85a11	0.026410135
194	0x3b2a117d	0.0025950365
195	0x3ce230ae	0.027611103
196	0x3b2811d8	0.0025645401
197	0x3ccd6be3	0.025075858
198	0x3af82dc8	0.0018934542
199	0x3ccbddfb	0.024886122
200	0x3ce0ee85	0.027457485
201	0x3ce6bca3	0.02816612
202	0x3cd72044	0.026260503
203	0x3cebe936	0.028797727
204	0x3cd2eed9	0.025748657
205	0x3cdd8a74	0.027043559
206	0x3cee0cb4	0.029058792
207	0x3ce9c785	0.028537521
208	0x3b25a2fb	0.0025274146
209	0x3cd62afb	0.026143542
210	0x3cd55729	0.026042538
211	0x3ce0a51e	0.027422484
212	0x3cc766ba	0.024340976
213	0x3cf3df52	0.029769573
214	0x3ce32015	0.027725259
215	0x3cc63b39	0.024198161
216	0x3ceac303	0.028657442
217	0x3cea0277	0.028565628
218	0x3cd3abf3	0.025838828
219	0x3ce788c1	0.028263452
220	0x3cc858ea	0.02445646
221	0x3cc85a1a	0.024457026
222	0x3cba0711	0.022708448
223	0x3cc594db	0.024118831
224	0x3ce950eb	0.028480968
225	0x3cdf6f41	0.02727473
226	0x3ce05bec	0.027387582
227	0x3ce7fbd8	0.02831833
228	0x3ce2e67f	0.0276978
229	0x3ce55970	0.027996749
230	0x3cb297ee	0.021800961
231	0x3ce3ac92	0.027792249
232	0x3cf17940	0.029476762
233	0x3cdcdb50	0.026960045
234	0x3cb6fa97	0.022336287
235	0x3cd9c8d9	0.02658503
236	0x3cf65030	0.030067533
237	0x3cd30ba0	0.02576238
238	0x3cede776	0.029041033
239	0x3ccc5bed	0.024946177
240	0x3ce4bb7e	0.027921434
241	0x3ce044ed	0.027376616
242	0x3cdce580	0.026964903
243	0x3cda13cd	0.02662077
244	0x3ccbaf2c	0.024863802
245	0x3cd4a12b	0.025955757
246	0x3ce233d4	0.027612604
247	0x3ce4a70a	0.027911682
248	0x3cbdf22c	0.023186766
249	0x3cda1ff5	0.026626566
250	0x3cda4721	0.026645245
251	0x3944f908	0.00018784788
252	0x3ccf7619	0.025324868
253	0x3cc2a690	0.023761064
254	0x3cd0fbdb	0.025510719
255	0x3ce78251	0.028260382
