Soft-Module-main/log/model4/model_qf_best.pth (torch, 284133 bytes, 5 tensors)

base.seq_fcs.0.weight f4 [256, 16]
0	0x3e517825	0.20455988
1	0x3cbed455	0.023294607
2	0x3dd21dcc	0.102595896
3	0xbdb7f76e	-0.0898274
4	0xbf5de474	-0.86676717
5	0x3ea50f35	0.32238165
6	0x3ab55180	0.0013833493
7	0x3d55b0da	0.052170612
8	0x3c8eed30	0.017447084
9	0xbe17f5ef	-0.1483991
10	0x3e99bfef	0.30029246
11	0x3eb327be	0.34991258
12	0x3b2d3275	0.002642778
13	0x3c55d552	0.013051348
14	0x392eebfb	0.00016681843
15	0x3a2fced4	0.000670654
16	0x3e09c5c1	0.13454343
17	0xbd46478d	-0.04840808
18	0xbacdfb91	-0.0015715231
19	0xbe0b9715	-0.13631852
20	0xbf50555a	-0.81380236
21	0x3eb8f7b6	0.36126488
22	0x3cb27374	0.021783568
23	0x3c505300	0.012715101
24	0x3c6ebdc0	0.014571607
25	0xbdb867ba	-0.09004159
26	0x3eaef854	0.34173834
27	0x3e851ba1	0.25997642
28	0xbbb9e54c	-0.0056730863
29	0x3ac5f423	0.0015102666
30	0x3cbccea5	0.023047755
31	0xba9e9c9e	-0.0012101119
32	0x3e8c93fe	0.2745666
33	0x3d960f6e	0.07327162
34	0x3d278b2b	0.040904205
35	0xbd60fbc4	-0.054927602
36	0xbf5d01c2	-0.8633081
37	0x3ea739e5	0.32661358
38	0xba822080	-0.0009927899
39	0xbd763c58	-0.060116142
40	0x3d5611a8	0.052262932
41	0xbd91b7a0	-0.07115102
42	0x3e860471	0.26175264
43	0x3e953a4c	0.2914604
44	0x3a338e07	0.0006849472
45	0x38dad6c5	0.00010435054
46	0xba3cbfe7	-0.00072002265
47	0x3b6a4152	0.00357445
48	0x3e9d453b	0.3071688
49	0x3cefc7a6	0.029270004
50	0x3d8f881f	0.07008385
51	0xbdefecdf	-0.117151015
52	0xbf5258f7	-0.82167
53	0x3e6bcb2b	0.23026721
54	0xbd6cf678	-0.05785224
55	0x3d15caf8	0.03657052
56	0xbd159054	-0.036514595
57	0xbe1f1318	-0.15534627
58	0x3e832029	0.25610474
59	0x3e8fed42	0.281107
60	0x3b067694	0.0020517455
61	0x3b8bd78e	0.0042676395
62	0xba8e4aee	-0.0010856071
63	0x395420ea	0.00020230157
64	0x3e5caa3f	0.21549319
65	0xbbd4e678	-0.0064972006
66	0x3bfdfc5a	0.00775103
67	0xbe2bb847	-0.16769515
68	0xbf42876c	-0.7598789
69	0x3eb65167	0.3560898
70	0x3d28d808	0.04122165
71	0xbc6a98c0	-0.014318645
72	0x3c7a2d70	0.015269622
73	0xbe170439	-0.14747705
74	0x3ea3ea7f	0.32014844
75	0x3eb3d70b	0.35125002
76	0x3b5770e0	0.0032873675
77	0x3b964ecc	0.00458703
78	0x3aa792ee	0.0012784877
79	0xbd72173a	-0.05910418
80	0xc0e871cb	-7.2638907
81	0xbdf311b7	-0.11868613
82	0xbed15272	-0.40883213
83	0xbed04502	-0.4067765
84	0x3d7ac062	0.061218627
85	0xbe539b65	-0.20664747
86	0xbc7c27a0	-0.015390307
87	0x3d1c770e	0.038199477
88	0x3d4c3c60	0.049862266
89	0xbee0f424	-0.43936265
90	0xbe2e83be	-0.17042443
91	0xbe4528c2	-0.19253829
92	0xbc88673e	-0.016650792
93	0x3d04abc3	0.032390367
94	0xbbb7e7e9	-0.0056123626
95	0x3c3eed33	0.011653232
96	0x3df7efe7	0.121063046
97	0x3d97d108	0.074129164
98	0x3d9efcec	0.07763085
99	0xbe1297ac	-0.1431567
100	0xbf5a35c0	-0.85238266
101	0x3e8fccc4	0.2808591
102	0xbd6fe708	-0.058569938
103	0x3cf43208	0.029809013
104	0xbc527e68	-0.01284752
105	0xbe1f33ec	-0.1554715
106	0x3ebc9faa	0.36840564
107	0x3ea9edb0	0.33189154
108	0x3a8ebcde	0.0010890027
109	0x3d2c514c	0.04206972
110	0x39266f50	0.00015872461
111	0xbd31e294	-0.043428972
112	0x3fca4155	1.5801188
113	0x3e27ac34	0.16374284
114	0x3ee18582	0.4404717
115	0xbda857b4	-0.08219853
116	0xbf743262	-0.9538938
117	0x3e986a55	0.29768625
118	0x3d215cc0	0.039395094
119	0x3cf36d70	0.02971527
120	0x3bf623c0	0.007511586
121	0xbe1b618e	-0.15173933
122	0x3e8c04f9	0.27347544
123	0x3e8b385a	0.2719143
124	0xbc2c5026	-0.010517156
125	0xbc84bbdd	-0.016202861
126	0xbb11d3f0	-0.0022251569
127	0x3cab94f2	0.020945046
128	0x3e1ffd91	0.15624072
129	0xbe09267d	-0.13393588
130	0x3cb5a7bf	0.022174714
131	0xbdc6f33b	-0.09714361
132	0xbf51cf39	-0.8195682
133	0x3e916665	0.28398433
134	0xbd5b1118	-0.0534831
135	0x3c01fb70	0.0079334825
136	0xbd102a18	-0.035196394
137	0xbe2672e3	-0.16254763
138	0x3eb2512d	0.34827557
139	0x3eaa5091	0.33264592
140	0x3a97ff67	0.0011596502
141	0xbb470c88	-0.003037246
142	0xbaca8fd8	-0.0015454246
143	0xbb17d26c	-0.0023166193
144	0x3e1fc1ce	0.15601274
145	0x3d1c37bd	0.038139094
146	0x3de8f62a	0.11375077
147	0xbe2bdb6c	-0.16782922
148	0xbf461c4a	-0.77386916
149	0x3eb8405f	0.3598661
150	0xbc9d8138	-0.019226655
151	0xbb866980	-0.004101932
152	0x3d19dfa4	0.037566796
153	0xbde8bd00	-0.11364174
154	0x3e9f1a83	0.31074914
155	0x3ea78548	0.32718873
156	0xbd0a45de	-0.033758037
157	0xbc161efb	-0.00916266
158	0xbb2e263f	-0.002657309
159	0x3d89f412	0.06736006
160	0x3e01d75b	0.12679808
161	0x3cb451d0	0.022011667
162	0x3da1d4c6	0.079019114
163	0xbe1faa71	-0.15592362
164	0xbf56c8b7	-0.83900017
165	0x3eb7e71e	0.35918516
166	0xbd17bff8	-0.03704831
167	0x3ce28b78	0.027654395
168	0x3bd52a20	0.006505266
169	0xbd9bcc62	-0.07607342
170	0x3e9f6431	0.31131127
171	0x3e8e8e29	0.27842835
172	0xbb7fb456	-0.00390174
173	0xb9a43f4c	-0.00031327677
174	0xb9a5a3ea	-0.00031593378
175	0xbd2584d5	-0.04040988
176	0x3e4683da	0.19386235
177	0x3ca8bc0c	0.02059748
178	0x3d178e8b	0.037001174
179	0xbd971f3a	-0.07379003
180	0xbf5ec7d4	-0.87023664
181	0x3e969676	0.29411668
182	0x3c5bebb0	0.0134228915
183	0xbb607fc0	-0.0034255832
184	0xbd42c11c	-0.047547445
185	0xbd910120	-0.07080293
186	0x3eaed49a	0.34146577
187	0x3e8f3fc1	0.27978328
188	0x3becc3a6	0.0072254715
189	0x38d8866c	0.00010324721
190	0x3bab8748	0.0052346326
191	0xbc4913b0	-0.01227276
192	0x3e6ee973	0.23331241
193	0x3dd0edcc	0.10201606
194	0x3ca6935a	0.020333935
195	0xbe0052d7	-0.12531601
196	0xbf6aae56	-0.91672266
197	0x3e863804	0.26214612
198	0xbc0d1a08	-0.008612163
199	0xbd1e1fc2	-0.038604505
200	0xbd25a6ea	-0.040442385
201	0xbddeac09	-0.10872657
202	0x3ea8a045	0.32934776
203	0x3ea5841c	0.32327354
204	0x3b67c3a9	0.0035364425
205	0x3a99ee92	0.0011744073
206	0x3c06377c	0.008191939
207	0xba8ef227	-0.0010905907
208	0xbea84aa9	-0.3286946
209	0xbdb929bd	-0.09041164
210	0xbcd11a80	-0.025525331
211	0xbe0d46bf	-0.13796519
212	0xbf67186f	-0.9027166
213	0x3ecd3985	0.40082946
214	0xbd59b8d6	-0.05315479
215	0x3d384666	0.044989012
216	0x3d55b13c	0.052170977
217	0xbe4f5db7	-0.20250593
218	0x3e90d09a	0.2828415
219	0x3e91c42e	0.28469986
220	0xb920224e	-0.00015271569
221	0xbb952cb1	-0.004552447
222	0xbb04f0da	-0.002028516
223	0x3c277a88	0.010222085
224	0x3e2c2e71	0.16814591
225	0x3d80edd4	0.06295362
226	0x3d8f335f	0.0699222
227	0xbe0a45d5	-0.13503201
228	0xbf583eb7	-0.84470695
229	0x3eac010d	0.33594552
230	0xbd4f3646	-0.05058887
231	0xbbc29b90	-0.0059389547
232	0xbd56ddec	-0.052457735
233	0xbe2bc56f	-0.16774534
234	0x3e90d99e	0.2829103
235	0x3e87ce3a	0.26524526
236	0x3cd47a41	0.025937201
237	0xbc14c1cc	-0.009079408
238	0x3b1f81e6	0.00243389
239	0xbb013c8f	-0.0019719934
240	0x3e5aff9b	0.21386568
241	0x3ce07af4	0.027402379
242	0x3cfc14ea	0.030771691
243	0xbda3eaed	-0.08003793
244	0xbf554a3c	-0.833164
245	0x3eabe190	0.33570528
246	0x3c48ef18	0.012264036
247	0xbd60daf4	-0.05489631
248	0x3c99cb20	0.018773615
249	0xbd93c3b9	-0.072150655
250	0x3ea24ed7	0.31700775
251	0x3e97c1b7	0.2963998
252	0x3abd7721	0.0014455059
253	0xbc5186b0	-0.01278846
254	0x3c9da782	0.019244913
255	0xbba908e2	-0.0051585296

base.seq_fcs.0.bias f4 [256]
0	0x3ed6ecb7	0.41977474
1	0x3ed02350	0.4065194
2	0x3ece1be4	0.40255654
3	0x3ec6e11d	0.38843623
4	0x3ed6f682	0.41984946
5	0xbd991da3	-0.07476356
6	0x3ed2f4c5	0.4120237
7	0x3ebfabf5	0.3743588
8	0x3edcd664	0.43132317
9	0x3ed383b8	0.4131143
10	0x3ed3f9b5	0.4140145
11	0x3ed6285e	0.41827673
12	0x3ec9b233	0.39393768
13	0x3ee3e5ef	0.44511363
14	0x3ecf40be	0.40479082
15	0x3ed02263	0.40651235
16	0x3ecebf60	0.40380383
17	0xbe5dfdf0	-0.216789
18	0x3ec04fec	0.37560976
19	0x3edc1393	0.42983684
20	0x3ecd787c	0.40130985
21	0x3edb17a6	0.4279148
22	0x3ece9c66	0.40353698
23	0x3ed2f6cc	0.41203916
24	0x3ed37c61	0.4130583
25	0x3eee9dc3	0.46604738
26	0x3ecf02f2	0.40431935
27	0x3ed1b704	0.40959942
28	0x3ed9ebdd	0.42562762
29	0x3edcaf53	0.43102512
30	0x3e85a6c2	0.2610379
31	0x3ed5b0c1	0.41736415
32	0x3eccf9de	0.40034384
33	0xbdc85de1	-0.09783531
34	0x3ed3a273	0.41334876
35	0x3ed28104	0.41114056
36	0x3ed1d699	0.40984038
37	0x3ed417f3	0.41424522
38	0x3eeafdf3	0.45896873
39	0x3eda30c1	0.4261532
40	0x3ecf4159	0.40479544
41	0x3ed29b9d	0.4113435
42	0x3ed986e2	0.4248572
43	0xbe251242	-0.16120246
44	0x3ecd9602	0.4015351
45	0x3ec9763d	0.3934802
46	0x3ed07e6b	0.4072145
47	0x3ed57159	0.4168804
48	0x3ecd4c39	0.40097216
49	0x3ed2606b	0.41089186
50	0x3ed011ff	0.4063873
51	0x3ed4def8	0.41576362
52	0x3ee12c8b	0.43979296
53	0x3ed41184	0.41419613
54	0x3ecbd920	0.3981409
55	0x3eea0dcc	0.4571365
56	0x3ed671f4	0.41883814
57	0x3ecf6bb9	0.40511873
58	0x3ed0f686	0.40813082
59	0x3ec3582a	0.381532
60	0xbe3ad6af	-0.18245958
61	0x3ed8a95b	0.42316708
62	0x3ed5c0eb	0.41748747
63	0x3ed04ab1	0.40681985
64	0x3ee58ce4	0.44834054
65	0x3ed48707	0.41509268
66	0x3ecd04a8	0.40042615
67	0x3edb03b5	0.42776266
68	0x3ed5303a	0.41638356
69	0x3eefeae1	0.46858886
70	0x3ed2d3ce	0.4117722
71	0x3ec21ab7	0.37911007
72	0x3ecb5a9c	0.39717567
73	0x3ed965a7	0.42460367
74	0x3ed42fed	0.41442814
75	0x3ed2d385	0.41177002
76	0x3ed34c62	0.41269213
77	0x3ed6e905	0.41974655
78	0x3ecf883e	0.40533632
79	0x3ecd7750	0.4013009
80	0x3ed1c30b	0.40969118
81	0x3ed52768	0.41631627
82	0x3ebe7620	0.37199497
83	0x3ed24e1b	0.41075215
84	0x3ec2f888	0.3808024
85	0x3ed42c6e	0.41440147
86	0x3ecf8dfb	0.4053801
87	0x3ed058fe	0.40692896
88	0x3ed92a48	0.4241507
89	0x3ed50ede	0.41612905
90	0x3ed80520	0.4219141
91	0x3ed81efd	0.42211142
92	0x3ee41cf3	0.44553337
93	0x3edf40b4	0.43604052
94	0x3ede6c20	0.43441868
95	0x3ed98473	0.42483863
96	0x3ed5215c	0.41627014
97	0x3edb6bd9	0.4285572
98	0x3ec24333	0.37941894
99	0x3ecb77a6	0.39739722
100	0x3ec7c326	0.39016074
101	0xbe27f5c2	-0.16402343
102	0x3ecb186f	0.3966708
103	0x3ecfbf1c	0.40575492
104	0x3ed93750	0.42425013
105	0x3ed9a16f	0.42505977
106	0x3ed22638	0.41044784
107	0x3edc245e	0.42996496
108	0x3ed6d08b	0.4195598
109	0x3ed4d482	0.4156838
110	0x3ec53c7d	0.3852271
111	0x3ed237c8	0.41058183
112	0x3ed08687	0.40727636
113	0x3edc3969	0.4301255
114	0x3ecdad6e	0.4017138
115	0x3ecf1d6c	0.40452135
116	0x3e14a18c	0.1451475
117	0x3edf8cae	0.43662018
118	0x3eca9a66	0.39570922
119	0x3ddd3200	0.10800552
120	0x3ed393a7	0.41323587
121	0x3ed84c30	0.42245626
122	0x3ec64d1d	0.38730708
123	0x3ecf1d62	0.40452105
124	0x3ed27de0	0.4111166
125	0x3ed1948c	0.40933645
126	0x3ed8ca09	0.4234164
127	0x3ecf5125	0.40491596
128	0x3ed0c062	0.40771776
129	0x3ed0c632	0.4077621
130	0x3edc9047	0.43078825
131	0xbd9a8746	-0.075453326
132	0x3ec9d845	0.39422813
133	0x3ec91d6d	0.39280263
134	0x3ed593e8	0.41714406
135	0x3ecb9664	0.39763176
136	0x3dad278c	0.084548086
137	0x3ed974b6	0.42471856
138	0x3ef173b7	0.47158596
139	0x3ed99393	0.42495403
140	0x3ec3e834	0.38263094
141	0x3ed0e071	0.40796235
142	0x3ed57872	0.41693455
143	0x3eda847a	0.42679197
144	0x3ed14bb4	0.4087807
145	0x3ef22bbf	0.47299
146	0x3ed21c7e	0.41037363
147	0x3ed4c1c6	0.41554087
148	0x3edff484	0.43741238
149	0x3ecb4aa8	0.39705396
150	0x3ee85ce6	0.45383376
151	0x3ee2cf11	0.44298604
152	0x3ed0340c	0.4066471
153	0x3edccb36	0.43123788
154	0x3ec8e4e7	0.3923714
155	0x3ec9f4c8	0.39444566
156	0x3ed3aa4e	0.4134087
157	0xbe1b6d7e	-0.15178487
158	0x3ec6a813	0.38800105
159	0x3edeadba	0.43491918
160	0x3ed44c8f	0.4146466
161	0x3ecfa742	0.40557295
162	0x3ee89afc	0.45430744
163	0x3ed73da5	0.4203922
164	0x3ed7be7a	0.4213751
165	0x3ed3fb89	0.41402844
166	0x3ece0df0	0.40245008
167	0x3ecddec1	0.4020901
168	0x3eced4f0	0.40396833
169	0x3ed5e51a	0.41776353
170	0x3eca38e3	0.39496526
171	0x3ed0cb67	0.40780184
172	0x3eda3beb	0.4262384
173	0x3ed59366	0.4171402
174	0x3ed32028	0.4123547
175	0xbe859826	-0.26092643
176	0x3ed48439	0.41507128
177	0x3ed2a248	0.41139436
178	0x3ecfacec	0.40561616
179	0x3ed6c552	0.41947418
180	0x3eb4774a	0.3524726
181	0x3edabc53	0.42721805
182	0x3ed9be3a	0.42527944
183	0x3ec56f1f	0.3856134
184	0x3ed2cc91	0.41171697
185	0x3ed235fd	0.41056815
186	0x3edafa34	0.42769015
187	0x3edd686d	0.43243733
188	0x3ecda84a	0.40167457
189	0x3ecd2d8d	0.40073815
190	0x3ecc2776	0.39873856
191	0x3ecc1cb0	0.39865637
192	0x3ed7eb44	0.4217168
193	0x3ed26940	0.41095924
194	0x3edba62a	0.4290021
195	0x3ed2e640	0.41191292
196	0x3ecf33cf	0.40469214
197	0x3ed25971	0.41083863
198	0x3ed45870	0.41473722
199	0x3ef793f9	0.48355082
200	0x3ed20a32	0.41023403
201	0x3ede98ee	0.4347605
202	0x3ed61b57	0.41817734
203	0x3edb94ca	0.42886955
204	0x3ed16ea4	0.40904725
205	0x3ed219a0	0.41035175
206	0x3ed46734	0.41484988
207	0xbd8315ab	-0.06400617
208	0x3ed60fdd	0.41808978
209	0x3ec9f9d5	0.3944842
210	0x3eceb79a	0.40374452
211	0x3ecaca5e	0.3960752
212	0xbd9ddfd4	-0.077087075
213	0x3edcc008	0.43115258
214	0x3edead16	0.4349143
215	0x3ecf455b	0.40482602
216	0x3edb45f4	0.42826807
217	0x3ee1e2a0	0.44118214
218	0x3ed587e2	0.41705233
219	0x3eccedf6	0.400253
220	0x3ed98763	0.42486104
221	0x3ecb23e5	0.39675823
222	0x3ececb41	0.40389445
223	0x3ed00b93	0.4063383
224	0x3ed13c29	0.4086621
225	0x3ece448e	0.40286678
226	0x3ed1daf7	0.4098737
227	0x3edb9548	0.4288733
228	0x3ed2d85c	0.41180694
229	0x3eddd133	0.4332367
230	0x3edecabd	0.43514052
231	0x3ed11230	0.40834188
232	0x3ec90d97	0.3926818
233	0x3ed798e7	0.42108843
234	0xbe1fb7c3	-0.15597443
235	0x3d6d717f	0.057969566
236	0x3ed341de	0.4126119
237	0x3ed5f0f9	0.4178541
238	0x3ede3faa	0.43407947
239	0x3edf5441	0.43618968
240	0x3ed94968	0.42438817
241	0x3ed94127	0.4243252
242	0x3ed3e694	0.41386855
243	0x3ed56bcd	0.41683808
244	0x3ed3a0de	0.4133367
245	0x3ec9a93e	0.39386934
246	0x3ed58efd	0.41710654
247	0x3ece8237	0.4033372
248	0x3ec7c153	0.39014682
249	0x3ed58366	0.41701812
250	0x3ed72506	0.42020434
251	0x3ed12402	0.40847784
252	0x3eceb850	0.40374994
253	0xbf283865	-0.6571105
254	0x3ecc8e9e	0.39952558
255	0x3ede41cb	0.4340957

base.seq_fcs.2.weight f4 [256, 256]
0	0x3cb346a1	0.021884264
1	0xbe4ad7ea	-0.19808927
2	0x3d65e3a7	0.05612531
3	0x3c141638	0.0090385005
4	0xbecb0e9c	-0.39659584
5	0xbd02c851	-0.031929318
6	0xbe1a1dae	-0.15050384
7	0x3b98ce66	0.0046632765
8	0xbd259213	-0.04042251
9	0xbe9cc29d	-0.30617228
10	0xbfe02a23	-1.7512859
11	0xbe1706ec	-0.14748734
12	0xbcc5d403	-0.024148947
13	0xbda7c325	-0.08191518
14	0xbe0ce15d	-0.13757844
15	0xbe840e01	-0.25791934
16	0xbc8f78c4	-0.01751364
17	0x3c7ec2b4	0.0155493505
18	0x3eb48201	0.35255435
19	0x3c857fb2	0.016296241
20	0xbef9dd37	-0.48801586
21	0xbdaf9a4c	-0.08574352
22	0xbeb37000	-0.35046387
23	0xba982274	-0.0011606948
24	0x3cc8e487	0.024523033
25	0x3d0bd4c1	0.034138445
26	0xbf41dceb	-0.7572772
27	0xbe8d4c10	-0.27597094
28	0x3e6a42ad	0.22876997
29	0xbca689b0	-0.020329326
30	0xbd2880d2	-0.041138478
31	0xbed44f89	-0.4146693
32	0x3bf71142	0.007539899
33	0xbcd6ce0b	-0.026221296
34	0xbf03ba1c	-0.51455855
35	0xbf22ad3b	-0.6354558
36	0x3f1e9e38	0.6196017
37	0xbef98980	-0.48737717
38	0x3cd192c0	0.025582671
39	0xbfc676a8	-1.5504961
40	0xbe09b7db	-0.13449042
41	0xbdd7a6c3	-0.10529854
42	0xbf615110	-0.88014317
43	0xbcdd548f	-0.02701786
44	0xbebc7675	-0.36809126
45	0xbd01fdf2	-0.03173632
46	0xbce46fd1	-0.02788535
47	0xbc8ea8f6	-0.017414551
48	0x3cfe80ba	0.031067241
49	0x3d25649f	0.040379163
50	0xbdb038c8	-0.0860458
51	0xbda9cbdc	-0.08290836
52	0xbf263bdb	-0.6493508
53	0xbe174356	-0.1477178
54	0xb9b22e83	-0.0003398546
55	0xbc754c1b	-0.014971758
56	0xbffba381	-1.9659272
57	0xbe30459b	-0.17214052
58	0xbee9d177	-0.45667621
59	0xbd4e240c	-0.050327346
60	0x3cd3ec56	0.02586953
61	0x3ef3eeac	0.4764303
62	0xbf815adf	-1.0105857
63	0xbde4c701	-0.111707695
64	0x3f63e5f9	0.89022785
65	0xbdf743f9	-0.12073512
66	0xbf26f070	-0.6521063
67	0xbd9bcaaf	-0.07607018
68	0xbd002e01	-0.031293873
69	0xbd6725e1	-0.05643261
70	0xbdd410df	-0.103547804
71	0xbea7a3b1	-0.32742074
72	0xbdcabed5	-0.098996796
73	0x3ddb4654	0.107067734
74	0xbf247246	-0.6423687
75	0x3c2727f5	0.010202398
76	0x3f9115b8	1.1334753
77	0xbe9c5d20	-0.305398
78	0x3ed7e119	0.42163923
79	0xbeb48e53	-0.35264835
80	0x3e106f3e	0.14104936
81	0xbd1f0e61	-0.038832072
82	0x3ba3eaab	0.00500234
83	0xbed78bac	-0.4209875
84	0x3c87ef24	0.016593523
85	0xbf71d113	-0.94459647
86	0xbe3e6fb9	-0.18597306
87	0xbed4b254	-0.41542304
88	0xbde9a79d	-0.11408923
89	0xbdf2b035	-0.11850015
90	0xbe4b29c8	-0.19840157
91	0xbe72bed1	-0.23705603
92	0xbde040a8	-0.10949832
93	0xbd76b8ca	-0.060234822
94	0x3d2f476b	0.04279272
95	0xbf968847	-1.1760339
96	0xbb19b2af	-0.002345245
97	0x3eb5e8f4	0.35529292
98	0x3ce99157	0.028511686
99	0xbef1d68a	-0.47233993
100	0xbe5e8afc	-0.21732706
101	0xbed3bef5	-0.41356626
102	0xbe617197	-0.22015987
103	0xbd83ad0d	-0.06429491
104	0xbd003421	-0.031299714
105	0xbf95601f	-1.1669959
106	0x3e8026fd	0.25029746
107	0xbff36b1f	-1.9017066
108	0xbf09d545	-0.5384105
109	0xbd8107a6	-0.06300287
110	0xbe386f2b	-0.18011157
111	0xbfc0c4ed	-1.5060097
112	0xbfb913bc	-1.4459147
113	0xc037015f	-2.8594587
114	0xbee75caf	-0.451879
115	0xbe8ca500	-0.27469635
116	0x3ccf28e8	0.02528806
117	0xbddfd4cf	-0.10929262
118	0x3d69324e	0.05693274
119	0x3cbbe1f7	0.022934897
120	0xbfa540e5	-1.2910429
121	0xbeff8836	-0.49908608
122	0xbd1fb8aa	-0.03899447
123	0x3c3a6d4a	0.011378596
124	0xbd1c5ba0	-0.038173318
125	0xbfdd88df	-1.7307395
126	0xbcc37c03	-0.023862844
127	0xbeef3dd8	-0.4672687
128	0x3d529b07	0.051417377
129	0xbc3e8715	-0.011628886
130	0xbf5e4023	-0.86816615
131	0xbd61d913	-0.05513866
132	0xbebd3c3b	-0.36960015
133	0xbd260a94	-0.04053743
134	0x3e1655b6	0.14681134
135	0x3c89ca60	0.016820133
136	0x3a5db8f0	0.0008458039
137	0xbdba4748	-0.09095627
138	0xbd4821b7	-0.048860278
139	0x3e46aaa2	0.19401029
140	0x3f3d0f4d	0.7385147
141	0xbebcba83	-0.36861047
142	0xbe63ab3a	-0.22233286
143	0x3de70a3c	0.11281249
144	0xbedbf118	-0.42957377
145	0xbcaf342d	-0.021387184
146	0x3c91dcd9	0.017805504
147	0xbee439ae	-0.44575256
148	0xbf1f872b	-0.62315625
149	0x3c82e5c7	0.015978707
150	0xbd383df2	-0.04498095
151	0x3c5f8e93	0.013644832
152	0xbf6a628c	-0.9155662
153	0x3cdc7921	0.026913228
154	0xbdc90cb6	-0.098168775
155	0x3e19f29d	0.15033956
156	0x3eb377d1	0.3505235
157	0xbb99901e	-0.0046863696
158	0xbd924799	-0.071425624
159	0xbcfb60b4	-0.03068576
160	0xbd6c1c44	-0.057644144
161	0xbfca51de	-1.5806234
162	0xbd8314b5	-0.06400434
163	0xbf8d602e	-1.1044977
164	0xbdb38c80	-0.087670326
165	0xbe41d906	-0.18930444
166	0xbad830bf	-0.001649402
167	0xbed6e88c	-0.41974294
168	0xbfc7710b	-1.5581373
169	0xbf160a94	-0.5860989
170	0xbed75837	-0.4205949
171	0xbffd50ba	-1.9790261
172	0xbd8870c2	-0.06662132
173	0xbdc1c7ed	-0.09461961
174	0xbe23dcd5	-0.1600221
175	0x3ccd223e	0.025040742
176	0xbd22fa01	-0.039789204
177	0xbf5e02c7	-0.8672299
178	0xbdc1e684	-0.094677955
179	0xbc6d8809	-0.014497765
180	0x3ba1d63c	0.004938869
181	0xbf0eefb0	-0.55834484
182	0x3eb33f52	0.35009247
183	0xbe6dda45	-0.23227794
184	0xbe8f56c4	-0.27995884
185	0xbe9de732	-0.3084045
186	0x3b83adab	0.0040185056
187	0x3a9bb4b0	0.0011879411
188	0xbf5be231	-0.85892016
189	0xbd81da90	-0.063405156
190	0x3c3dc5b6	0.0115827825
191	0xbfe1a5dd	-1.7628742
192	0xbd8a2b08	-0.06746489
193	0xbe7f2d54	-0.24919635
194	0x3f088d14	0.5334027
195	0xbe9816a7	-0.29704782
196	0xbd171ae7	-0.03689089
197	0xbe07ec6c	-0.13273782
198	0x3fb3b1e2	1.403866
199	0xbf1390dc	-0.5764291
200	0xbdde8b43	-0.10866406
201	0xbd32f3f8	-0.043689698
202	0xbd9acbf1	-0.0755843
203	0xbce2682d	-0.027637566
204	0xbd10132a	-0.035174526
205	0xbe6bb9b8	-0.23020065
206	0xbd6a7291	-0.057238165
207	0x3ea39b01	0.31954196
208	0xbb05422a	-0.0020333626
209	0xbec1ab28	-0.37825894
210	0x3e6e9420	0.23298693
211	0xbdb39086	-0.087678
212	0xbd552a9f	-0.0520426
213	0x3e195c1f	0.14976548
214	0xbcb19d8d	-0.021681571
215	0xbe1aa21d	-0.15100904
216	0xbf39a1df	-0.7251262
217	0x3f35794f	0.7088823
218	0xbd958344	-0.073004276
219	0xbd3eba43	-0.04656435
220	0x3d81fdba	0.063472226
221	0xbcbced10	-0.023062259
222	0xbf319e82	-0.6938249
223	0xbe492317	-0.19642292
224	0xbc313393	-0.010815519
225	0xbdf92cbf	-0.12166738
226	0x3d281115	0.041031916
227	0xbe51786f	-0.20456098
228	0x3bcb45e5	0.0062034004
229	0xbe5fac90	-0.21843171
230	0x3ec0fa18	0.37690806
231	0x3f20a092	0.6274501
232	0xbe71826e	-0.23584911
233	0x3fabe899	1.3430358
234	0xbb8e4501	-0.004341722
235	0xbd20fbeb	-0.039302748
236	0xbebabed6	-0.3647372
237	0x3c4100ed	0.011780006
238	0x3c695800	0.014242172
239	0x3ef013c4	0.4689008
240	0x3de5ac51	0.11214507
241	0xbf98175c	-1.1882129
242	0x3cc3b64f	0.023890642
243	0x3f2c0f07	0.6721043
244	0xbe07147f	-0.13191412
245	0xbcb9db72	-0.022687647
246	0xbf25bc95	-0.6474088
247	0xbd80fb7b	-0.06297966
248	0x3df47f7c	0.11938378
249	0xbdbe41b7	-0.09289878
250	0xbde0f7d4	-0.109847695
251	0xbd91e2db	-0.07123347
252	0xbdf537f4	-0.11973563
253	0x3dc4cd83	0.09609511
254	0xbe3ddeec	-0.18542069
255	0xbee279c1	-0.44233516

base.seq_fcs.2.bias f4 [256]
0	0xbec51a57	-0.38496658
1	0x3ed5a0db	0.41724285
2	0xbc56559e	-0.013081936
3	0x3eb92bef	0.3616633
4	0x3eba31f5	0.3636624
5	0x3f03cd13	0.51484793
6	0x3eb0d317	0.3453605
7	0xbcc2d289	-0.023782032
8	0x3d7fb507	0.0624285
9	0x3dacec83	0.084435485
10	0x3dbb968b	0.09159573
11	0x3eba28d8	0.36359286
12	0x3ed8a94d	0.42316666
13	0x3fa5a2cc	1.2940307
14	0x3d8a49c4	0.06752351
15	0x3da0d46a	0.07853015
16	0xbc6bf50b	-0.0144016845
17	0x3bfd4934	0.0077296738
18	0x3dbba698	0.091626346
19	0x3d843680	0.064557076
20	0x3d94777b	0.072493516
21	0x3d97fdc6	0.0742145
22	0x3ebb6882	0.3660317
23	0xbc047616	-0.0080847945
24	0x3db2e192	0.087344304
25	0x3eb65353	0.35610446
26	0x3ed14566	0.4087326
27	0x3e51721f	0.2045369
28	0x3ed4b9c6	0.41547984
29	0x3ed4f1cb	0.41590723
30	0x3ebde82f	0.37091205
31	0x3ec6bb97	0.38814995
32	0x3d8b1678	0.06791395
33	0x3daacea5	0.083401956
34	0x3daee1e8	0.08539182
35	0x3ecd5f47	0.40111753
36	0x3eba66e7	0.36406633
37	0x3ed6d240	0.41957283
38	0x3d6ccb8b	0.0578113
39	0x3edf2da6	0.43589514
40	0x3eaaaba2	0.3333407
41	0xbd19178f	-0.037375983
42	0x3ecd6b6f	0.40121028
43	0x3ece38cd	0.4027771
44	0x3edae602	0.42753607
45	0x3da851c5	0.08218721
46	0x3edb2948	0.42804933
47	0x3ed89d69	0.42307594
48	0x3ecf6157	0.40503952
49	0x3dae63a0	0.08515096
50	0x3eddc992	0.43317848
51	0x3ecfd054	0.4058863
52	0x3ecf1bd2	0.40450913
53	0x3ea2940e	0.31753582
54	0x3ec05c37	0.37570354
55	0x3ebaace2	0.36460024
56	0x3ee410a6	0.44543952
57	0x3d75b938	0.05999109
58	0x3eb8ef5b	0.36120114
59	0x3eb2a6d7	0.34892914
60	0x3db148d2	0.086564675
61	0x3ecdc22b	0.401872
62	0x3ecb59b2	0.3971687
63	0x3d828cae	0.06374489
64	0x3da93418	0.08261889
65	0x3e9b713b	0.30359825
66	0x3d9d02d4	0.07666555
67	0x3d9d39b7	0.07677024
68	0x3bae7ccf	0.005324937
69	0xbcc808e0	-0.024418294
70	0x3edb22d4	0.4280001
71	0xbec97a16	-0.39350957
72	0x3d62f6b9	0.055411074
73	0x3ebc30b5	0.3675591
74	0xbec93573	-0.3929859
75	0x3c38e074	0.011283983
76	0x3eb8ee65	0.3611938
77	0x3afe0b22	0.001938198
78	0x3f4811fb	0.78152436
79	0x3ed8d058	0.42346454
80	0xbebf4ed1	-0.3736482
81	0x3cc9145d	0.024545843
82	0x3d82a7e3	0.06379678
83	0xbbb99753	-0.005663791
84	0x3ec7106b	0.38879713
85	0xbcf6e0d7	-0.030136509
86	0x3eb931a3	0.36170682
87	0x3db30bc6	0.0874248
88	0x3ea6add0	0.32554483
89	0xbed44c7e	-0.4146461
90	0x3ed01272	0.40639073
91	0x3ebfb3be	0.3744182
92	0x3ebb31de	0.36561483
93	0x3ea4d64e	0.32194752
94	0x3dafa4b8	0.085763395
95	0xbc8c2577	-0.017107708
96	0x3eca96cf	0.39568183
97	0x3ee8ca7e	0.4546699
98	0x3ebfb1bc	0.37440288
99	0x3ed413b6	0.41421288
100	0x3ebadae4	0.36495125
101	0x3daf8445	0.0857015
102	0xbca7050b	-0.020388147
103	0x3ebc2cd7	0.3675296
104	0x3f083e3d	0.5321997
105	0x3eac2ab2	0.33626324
106	0x40112d02	2.268372
107	0x3eaf050d	0.3418354
108	0x3ed1927e	0.40932077
109	0xbce6bdb5	-0.028166631
110	0xbee08e8d	-0.43858758
111	0x3ed6963d	0.41911498
112	0x3ebc8564	0.3682052
113	0x3ed9a614	0.4250952
114	0x3ee351b7	0.4439828
115	0x3ea3074e	0.3184151
116	0x3d73a681	0.059484962
117	0x3eb43152	0.35193878
118	0x3eacc9f4	0.33747828
119	0x3d9a1ec4	0.07525399
120	0x3db24adb	0.08705684
121	0x3ea34af8	0.31893134
122	0x3d972efd	0.07382009
123	0x3ea5031e	0.3222894
124	0xbc0fe6af	-0.008783027
125	0x3ebadf0e	0.36498302
126	0x3d868017	0.065674
127	0x3ec52282	0.3850289
128	0x3ee27a7a	0.44234067
129	0x3ed2516a	0.4107774
130	0x3eb102df	0.34572503
131	0x3eb4d86e	0.35321373
132	0x3dab6c0a	0.08370216
133	0x3ebc6e1e	0.36802763
134	0xbcb9720c	-0.02263739
135	0x3ebcb3dc	0.36855972
136	0xbecaec40	-0.3963337
137	0x3ede3d02	0.4340592
138	0x3eb995b6	0.36247033
139	0x3eccc489	0.39993694
140	0xbca9202a	-0.02064522
141	0x3ebca75f	0.36846444
142	0x3da67255	0.08127276
143	0x3ecfa8c9	0.4055846
144	0x3ed7b00c	0.421265
145	0x3db3fa97	0.087880306
146	0x3ecf8535	0.40531316
147	0x3eb25cb4	0.34836352
148	0x3ebe1135	0.37122503
149	0x3da07614	0.078350216
150	0x3d932d0b	0.07186326
151	0x3eb80f0c	0.3594898
152	0x3d9419b7	0.07231467
153	0x3ed9c7d1	0.4253526
154	0xbce63b7c	-0.028104536
155	0x3d9323b1	0.07184542
156	0x3ec93492	0.3929792
157	0xbee64718	-0.44976115
158	0x3ebb0439	0.3652666
159	0x3db255d8	0.0870778
160	0x3eb548d0	0.35407114
161	0x3eb5075e	0.35357183
162	0x3d98ee27	0.07467299
163	0x3edc2ec4	0.4300443
164	0x3db0bfe9	0.08630354
165	0x3dace08b	0.08441266
166	0x3ed5f916	0.417916
167	0x3e88d786	0.2672693
168	0x3ea77702	0.32707983
169	0x3ed23985	0.4105951
170	0x3eae4def	0.34043834
171	0x3eb65ed4	0.35619223
172	0x3ed6544d	0.4186119
173	0x3db0e8b5	0.08638135
174	0xbd03ff53	-0.032225918
175	0x3d9aa2d4	0.07550588
176	0x3eda5834	0.4264542
177	0xbc7cc31f	-0.01542738
178	0x3eed27de	0.4631948
179	0x3ecea468	0.40359807
180	0x3ecd0896	0.40045613
181	0x3dabfbe2	0.08397652
182	0x3dbaee8b	0.0912753
183	0x3ee8a9ca	0.4544204
184	0x3dae6581	0.08515454
185	0x3d80f283	0.062962554
186	0xbd087079	-0.033310387
187	0x3ece871f	0.40337464
188	0x3ebf848d	0.37405816
189	0x3ea1ad3b	0.31577477
190	0x3daf0df9	0.08547587
191	0x3eb1d346	0.347315
192	0x3ea8e048	0.32983613
193	0xbec47a78	-0.38374686
194	0x3ed3b375	0.41347852
195	0x3da504b7	0.0805754
196	0x3eb3ffdd	0.35156146
197	0x3e9c7d6c	0.3056444
198	0xbd10e8ac	-0.035378143
199	0x3eb1f076	0.3475377
200	0x3d95b384	0.073096305
201	0x3ebdb7aa	0.37054187
202	0x3ed75c66	0.42062682
203	0x3eaca606	0.33720416
204	0x3ea8ca56	0.3296687
205	0x3edaa5d9	0.42704657
206	0x3c8a3922	0.016872946
207	0xbecbe8f4	-0.39826167
208	0x3eaceeed	0.33776036
209	0xbcf6a016	-0.030105632
210	0x3d9431bc	0.072360486
211	0x3ed7ac0c	0.4212345
212	0x3d82fcb2	0.06395854
213	0xbec066ae	-0.37578338
214	0x3dadd7cf	0.08488428
215	0x3d96f0b9	0.07370133
216	0x3ed986d1	0.4248567
217	0x3da665e7	0.08124905
218	0x3ed3a8bf	0.4133968
219	0x3ea36cb3	0.31918868
220	0x3d9d2681	0.0767336
221	0x3edc5f07	0.4304125
222	0x3f05221b	0.52005166
223	0x3ef43dc1	0.47703364
224	0x3ecdfdb6	0.4023263
225	0x3eb24b05	0.3482286
226	0xbc4cfc92	-0.012511389
227	0x3eb9e500	0.36307526
228	0x3ea32497	0.31863853
229	0x3ec604a4	0.38675416
230	0xbd2417be	-0.040061705
231	0x3edff3ce	0.43740696
232	0x3ed319c9	0.4123061
233	0x3ef2b273	0.4740177
234	0xbec8a029	-0.39184693
235	0x3ed617b9	0.41814974
236	0x3d6cd7cb	0.057822984
237	0x3ed6d3e4	0.41958535
238	0x3ebee7ad	0.3728613
239	0x3dbe16eb	0.09281715
240	0x3ecc7b19	0.39937666
241	0x3dafe02e	0.08587681
242	0x3d9832da	0.07431574
243	0x3eb6da43	0.35713395
244	0x3ea01436	0.3126542
245	0xbd029ae4	-0.031885996
246	0x3ea41934	0.32050478
247	0x3d86adae	0.065760955
248	0x3ebb7a18	0.36616588
249	0x3d90b0cc	0.07064971
250	0x3ed8dd27	0.42356226
251	0x3ed8de03	0.42356881
252	0xbc46d040	-0.012134612
253	0xbd175e33	-0.03695507
254	0x3c90fcb3	0.017698621
255	0x3b0359cd	0.002004254

last.weight f4 [1, 256]
0	0xc00402f2	-2.0626798
1	0x40b7cf77	5.7440753
2	0xbf4ffc6d	-0.81244546
3	0x40b4aef1	5.646355
4	0x40c2dd98	6.08955
5	0x407522da	3.8302522
6	0x40c6226b	6.1917014
7	0xbf2cd9f9	-0.675201
8	0x3b9a0221	0.004699961
9	0x3c045b8e	0.008078469
10	0x3b191a7a	0.0023361729
11	0x40a9ecca	5.310155
12	0x40bebf52	5.9608545
13	0xc0be88b0	-5.9541855
14	0xbc2d1f03	-0.010566476
15	0x3bf1f061	0.0073833917
16	0xbf171ca1	-0.5902806
17	0xbf2bd1ba	-0.6711689
18	0x3c63ab09	0.013895758
19	0x3b4c30e0	0.0031157061
20	0xba5a4a25	-0.00083270884
21	0x3b0884d1	0.0020831118
22	0x40bfcdb1	5.993859
23	0xbf453e59	-0.7704826
24	0xbabd4493	-0.0014439992
25	0x40a9b1d4	5.3029575
26	0x40be0663	5.9382796
27	0x401188d4	2.2739763
28	0x40b67626	5.7019224
29	0x40bb6f81	5.8573613
30	0x40b2663e	5.5749807
31	0x40a76e58	5.2322197
32	0x3bfe25d1	0.007755973
33	0x3c015edd	0.007896152
34	0x3bd663e6	0.0065426705
35	0x40a6e41b	5.215345
36	0x40a97e81	5.2966924
37	0x40bc6c7b	5.8882422
38	0x3be1bb77	0.0068888026
39	0x40c4f6fe	6.1551504
40	0x40abb847	5.366245
41	0x3f9fabcf	1.2474307
42	0x40bee50a	5.965459
43	0x40a67584	5.201845
44	0x40c5a317	6.1761584
45	0x3beab497	0.0071626413
46	0x40b6143b	5.6899695
47	0x40b863f7	5.7622027
48	0x40a59ee5	5.1756463
49	0x3bf9db64	0.0076250304
50	0x40c22f22	6.0682535
51	0x40bdc118	5.929821
52	0xc029dcb8	-2.6540966
53	0x40ac65eb	5.387441
54	0x40a92523	5.2857833
55	0x40a8f444	5.2798176
56	0x40bf94e6	5.986926
57	0xbc128f6d	-0.008945328
58	0x40bd0324	5.9066334
59	0x40aa84cd	5.328711
60	0x3c2756ec	0.010213595
61	0x40b770cb	5.7325187
62	0x40be5331	5.947655
63	0x3b48113f	0.0030527858
64	0xbb63e6fd	-0.003477513
65	0x40ae8c0c	5.4545956
66	0xbb467230	-0.0030280463
67	0x3bba276a	0.005680968
68	0xbf08403e	-0.53223026
69	0x3f83e21b	1.0303377
70	0x40b83eba	5.757657
71	0xbfb57183	-1.4175266
72	0x40f58a0a	7.6731005
73	0x40b37aa8	5.6087227
74	0xc061cdc4	-3.528184
75	0xbf32e7ba	-0.69884837
76	0x40aa90c7	5.330173
77	0xbf25466b	-0.64560574
78	0xc01757f8	-2.3647442
79	0x40b6b158	5.7091484
80	0xbff2df77	-1.8974446
81	0x410f10bc	8.941586
82	0x3b8a6dfa	0.004224536
83	0xbf312617	-0.69198745
84	0x40bf1e98	5.9724846
85	0x3f80844f	1.0040377
86	0x40a90cd0	5.282814
87	0x3bf717c6	0.007540676
88	0x40ab9dd0	5.363014
89	0xbfbe2bd3	-1.4857124
90	0x40b77834	5.733423
91	0x40a96aa8	5.2942696
92	0x40a9c599	5.305371
93	0x40ab524e	5.353797
94	0x3c036725	0.008020197
95	0xbf27d176	-0.6555399
96	0x40c30c1b	6.0952277
97	0x40485b84	3.1305857
98	0x40a8f232	5.279565
99	0x40bb9167	5.8614993
100	0x40b277fd	5.577147
101	0xba401fd2	-0.00073289603
102	0xbf4798f6	-0.77967775
103	0x40a9348a	5.2876635
104	0xbf45666e	-0.7710942
105	0x40ab6496	5.3560286
106	0xc12d35a9	-10.825601
107	0x40aa9c16	5.3315535
108	0x40bdca4d	5.930945
109	0xbf4bf38f	-0.79668516
110	0xc010d683	-2.2630928
111	0x40b5c266	5.6799803
112	0x40aa0d80	5.314148
113	0x40bb1bea	5.8471575
114	0x40996724	4.7938404
115	0x40abd8ba	5.370206
116	0xbc0cd685	-0.008596067
117	0x40af3486	5.4751616
118	0x40ab0379	5.344174
119	0xbba915d9	-0.005160075
120	0x3be0a47c	0.0068555456
121	0x40af2902	5.473756
122	0xbb4623f0	-0.0030233823
123	0x40ab15c6	5.346408
124	0xbf462281	-0.773964
125	0x40aa49c3	5.321504
126	0x3bc5bbd4	0.0060343537
127	0x40a780a6	5.234454
128	0x40449a8c	3.0719328
129	0x40bbbeb1	5.8670278
130	0x40af5f98	5.480419
131	0x40a99bcd	5.3002687
132	0x37c6869f	2.3666127e-05
133	0x40a9f02e	5.310569
134	0xbf4ea112	-0.80714524
135	0x40aa63ce	5.324683
136	0xc069a17c	-3.6504812
137	0x40b84800	5.758789
138	0x40a97c10	5.2963943
139	0x40bb960c	5.8620663
140	0xbf4815bb	-0.7815816
141	0x40a9ee75	5.3103585
142	0xbae3eecb	-0.0017389891
143	0x40c1ed0f	6.060188
144	0x40be4858	5.946331
145	0x3977c03b	0.00023627367
146	0x40baba93	5.835275
147	0x40a9cfe3	5.306627
148	0x40a8f607	5.2800326
149	0x3beb6e7b	0.007184801
150	0xbc1459e1	-0.009054632
151	0x40b0dcd9	5.526959
152	0x3b2e73c2	0.002661929
153	0x40b7077a	5.7196627
154	0x3f884f88	1.0649271
155	0x3a9c5fa1	0.0011930355
156	0x40a59829	5.174824
157	0xbfd1eea1	-1.6400949
158	0x40b2a8ef	5.583122
159	0x3c01a5e4	0.007913087
160	0x40aaaea9	5.333821
161	0x40aa83e8	5.328602
162	0xba270e66	-0.000637269
163	0x40b70030	5.718773
164	0x3bfa073a	0.007630256
165	0x3be9f86f	0.0071402113
166	0x40bbdf0b	5.870977
167	0x40206530	2.506176
168	0x40abe697	5.371898
169	0x40b884ce	5.7662115
170	0x40ab2ea7	5.349445
171	0x40a96d50	5.294594
172	0x40ba0a1e	5.813735
173	0x3bda9118	0.0066701286
174	0xbf4750d9	-0.7785774
175	0xbb685c10	-0.0035455264
176	0x40b79334	5.736719
177	0xbf590ed0	-0.8478823
178	0x40bc78fb	5.889768
179	0x40b72131	5.7228017
180	0x40a68446	5.2036467
181	0x3bc578b6	0.0060263528
182	0xbaa468fc	-0.0012543495
183	0x40bf5b93	5.9799285
184	0x3be75e16	0.0070607765
185	0x3a89ca36	0.0010512534
186	0xbf5dc35f	-0.8662624
187	0x40bec1f7	5.9611773
188	0x40a839c2	5.2570505
189	0x40abf286	5.373355
190	0x3be024b4	0.006840313
191	0x40bc42de	5.8831625
192	0x40ac11d5	5.377177
193	0xbff4b5e6	-1.9118011
194	0x40b68678	5.7039146
195	0x3a54a0bf	0.0008111111
196	0x40ab01cb	5.343969
197	0x40ad856c	5.422537
198	0xbf596d8b	-0.84932774
199	0x40bcd7d5	5.9013467
200	0x3bc001f8	0.0058596097
201	0x40a81c06	5.253421
202	0x40b8fcff	5.7808833
203	0x40aa71a1	5.3263707
204	0x40aa7eea	5.3279924
205	0x40b89532	5.7682123
206	0xbf2107c0	-0.6290245
207	0xbfc99039	-1.5747138
208	0x40aab6af	5.3348002
209	0x3f81b805	1.0134283
210	0x397b18be	0.00023946443
211	0x40bc67f1	5.887688
212	0xbb06ab52	-0.0020548892
213	0xbff53c2c	-1.9158988
214	0x3bf3866c	0.007431796
215	0x3b492f90	0.0030698515
216	0x40bb09a9	5.844929
217	0x3c739546	0.0148671325
218	0x40b7cd45	5.7438073
219	0x40ac00e7	5.37511
220	0xbb067bf6	-0.0020520664
221	0x40b8b9c6	5.7726774
222	0x408b0407	4.3442416
223	0x40b7f308	5.748417
224	0x40b7e0f5	5.7462106
225	0x40a9f585	5.3112206
226	0xbf4fdfc7	-0.8120083
227	0x40c370e4	6.1075306
228	0x40aacca2	5.3374796
229	0x40bbacac	5.864828
230	0x3f97626d	1.1826912
231	0x40b83992	5.7570276
232	0x40be5798	5.9481926
233	0x40bc4bb9	5.8842435
234	0xc06b87b8	-3.6801586
235	0x402539aa	2.5816445
236	0x3bd54201	0.0065081124
237	0x40bb2d28	5.849262
238	0x40aae944	5.340975
239	0xbb05c787	-0.0020413117
240	0x40bb46d9	5.8523984
241	0x3bdd8c07	0.0067610773
242	0xbab8731f	-0.0014072395
243	0x40a9cc4c	5.3061886
244	0x40abb156	5.3653975
245	0x3f838c6e	1.0277231
246	0x40ad782c	5.4209194
247	0xbbdf5928	-0.006816048
248	0x40aa9269	5.3303723
249	0x3b2aa1a3	0.0026036284
250	0x40b630a1	5.693436
251	0x40ba836a	5.8285418
252	0xbf2c4635	-0.6729463
253	0x3f92ca2b	1.1467947
254	0xbf2b5d0d	-0.6693886
255	0xbf932b1f	-1.1497535
