Soft-Module-main/log/model50_31/model_qf_best.pth (torch, 284133 bytes, 5 tensors)

base.seq_fcs.0.weight f4 [256, 16]
0	0x3f97f937	1.1872929
1	0xbd3ac026	-0.045593403
2	0xbfa4a8ec	-1.2864051
3	0xbf0403fb	-0.51568574
4	0x3bf27366	0.0073990105
5	0x3f00fc70	0.5038519
6	0xbc0df758	-0.008664928
7	0xbd37385a	-0.044731475
8	0x3d28bc1c	0.04119502
9	0xbe4696fe	-0.19393536
10	0x3df6fc67	0.12059861
11	0x3daa7e12	0.08324827
12	0x3c9cd476	0.019144278
13	0xbd0a9df5	-0.033842046
14	0x3b2d3880	0.0026431382
15	0xbc98a13a	-0.018631566
16	0x3e3fbc5f	0.18724202
17	0x3e689e47	0.22716628
18	0xbe8d577a	-0.27605802
19	0xbe90b613	-0.28263912
20	0x3e888e48	0.26671052
21	0xbeda0d26	-0.42588156
22	0xbba3fff0	-0.0050048754
23	0xbd206cd4	-0.039166287
24	0xbcac98c4	-0.021068938
25	0xbd067181	-0.03282309
26	0x3df87718	0.1213209
27	0x3d36a7a2	0.04459346
28	0x3d91c85b	0.07118293
29	0xbcff8be8	-0.031194642
30	0xbcc95745	-0.024577746
31	0x3b3b2215	0.002855425
32	0x3a558cc1	0.0008146279
33	0x3e4b5b7f	0.19859122
34	0xbf19cf71	-0.60082155
35	0x3d6f6774	0.05844827
36	0x3dc0d20c	0.09415063
37	0xbef66a6e	-0.48128074
38	0xbd0d62b4	-0.03451796
39	0xbd25938e	-0.040423922
40	0x3caed94c	0.02134385
41	0x3df88055	0.121338524
42	0xbdae9768	-0.08524972
43	0xbdc7d43d	-0.09757278
44	0x3c78b01a	0.015178705
45	0xbe2a88c5	-0.16653736
46	0xbb801eda	-0.003909928
47	0x3d24af07	0.04020598
48	0x3f18dab1	0.59708697
49	0x3ecae27f	0.39625928
50	0x3edb3ebf	0.4282131
51	0xbf9546ef	-1.1662272
52	0x3ef834ff	0.48477933
53	0x3ee7add8	0.4524982
54	0xbd0237a2	-0.031791337
55	0xbd0d802c	-0.034546062
56	0x3d1f7bd6	0.03893646
57	0xbecba70b	-0.3977588
58	0x3ec07f3f	0.3759708
59	0x3eba019f	0.36329362
60	0x3db36e91	0.08761323
61	0xbe02f06c	-0.12787026
62	0xbdbba013	-0.09161391
63	0xbcc6362a	-0.02419575
64	0xbd7e274b	-0.06204919
65	0x3e6ca79d	0.23110814
66	0xbeb325c4	-0.3498975
67	0x3da1e34f	0.07904684
68	0x3e3c78af	0.18405412
69	0xbec16f77	-0.37780353
70	0x3d61a780	0.05509138
71	0x3d5b5ac8	0.053553373
72	0x3d10f7b0	0.035392463
73	0xbc53fec8	-0.012939163
74	0x3d8a1726	0.067426965
75	0x3d6640bd	0.056214083
76	0x3d83000f	0.063964956
77	0x3d50e795	0.051002104
78	0x3d807eec	0.062742084
79	0x3c06089e	0.008180765
80	0xbee1bd08	-0.44089532
81	0x3e891e33	0.26780853
82	0xbf844fe7	-1.0336884
83	0x3f425df9	0.7592464
84	0x3d93683e	0.07197617
85	0xbf18a77d	-0.59630567
86	0xbcaa787c	-0.020809405
87	0x3c04a278	0.008095376
88	0xbb054bc0	-0.002033934
89	0x3de86876	0.11348049
90	0xbdf61d4c	-0.12017307
91	0xbdb7e90d	-0.08979998
92	0xbd45730c	-0.04820542
93	0xbd1ea0a6	-0.038727425
94	0x3c47a588	0.012185462
95	0x3c1649d3	0.0091728745
96	0x3cf12b75	0.029439667
97	0x3e6782f3	0.22608547
98	0xbe832f46	-0.25622004
99	0xbda51a34	-0.080616385
100	0x3dedc895	0.116105236
101	0xbee27d7b	-0.4423636
102	0xbc821548	-0.015879288
103	0xbcbe94ac	-0.023264252
104	0x3be71e40	0.0070531666
105	0xbd3112a1	-0.043230657
106	0x3d9bc667	0.076062016
107	0x3dcc9bbb	0.09990641
108	0x3c6b1305	0.014347796
109	0x3d76dcbe	0.06026911
110	0x3ab58ec0	0.0013851747
111	0xbcac762c	-0.021052442
112	0x3db55ded	0.088558055
113	0x3e75149d	0.23933645
114	0xbe9aca9b	-0.302327
115	0xbe0ba345	-0.13636501
116	0x3e37ddd3	0.17955713
117	0xbee7906d	-0.45227376
118	0xbcbac684	-0.022799738
119	0x3b4c2aa0	0.0031153336
120	0x3d22bf48	0.0397332
121	0x3d006842	0.031349428
122	0x3d54d083	0.051956665
123	0x3d264f32	0.04060287
124	0x3d4d11a1	0.05006564
125	0xbcd097ea	-0.025463063
126	0x3cc2f391	0.023797782
127	0xba26d194	-0.0006363627
128	0x3e57b962	0.21066812
129	0x3e6befd1	0.23040701
130	0xbf8bfac6	-1.0935905
131	0x3ef115d2	0.4708696
132	0x3d320959	0.043465946
133	0xbf05d769	-0.52281815
134	0x3b9e1950	0.004824795
135	0xbc817a50	-0.015805393
136	0x3c940a24	0.018071242
137	0x3e04d621	0.12972309
138	0xbdefb24a	-0.11703928
139	0xbe0ae593	-0.13564138
140	0x3b99fe37	0.004699494
141	0x3b6f9fcf	0.003656376
142	0x3bd3219b	0.006443215
143	0x3baba189	0.0052377624
144	0x3e5bbe8b	0.21459405
145	0x3e099866	0.13437042
146	0xbf1f029f	-0.62113374
147	0x3c75d9ad	0.015005511
148	0x3df9c9b8	0.12196678
149	0xbece1359	-0.40249136
150	0xbd03436a	-0.032046713
151	0xbc4a0b90	-0.012331858
152	0xbb223600	-0.0024751425
153	0x3cded0ce	0.027199175
154	0xbcfca899	-0.030842112
155	0xbd6c2f9a	-0.057662584
156	0xbd95c2e5	-0.07312564
157	0x3dd2230b	0.1026059
158	0xbdc6526a	-0.09683688
159	0x3c0daedd	0.008647648
160	0xbf34c569	-0.70613724
161	0x3e3ad95a	0.18246976
162	0xbf0d7680	-0.5525894
163	0x3e81c4d5	0.25345483
164	0x3e368fb6	0.17828259
165	0xbe96d625	-0.29460254
166	0x3b613820	0.0034365728
167	0xbb99da40	-0.004695207
168	0x3d140f3c	0.03614734
169	0x3cb9c60a	0.02267744
170	0x3ca5ae4a	0.020224709
171	0x3cb1eae5	0.021718452
172	0x3cb55f4f	0.022140173
173	0xbcee96c9	-0.029124634
174	0xbd33e0b0	-0.04391545
175	0xbc8b3f48	-0.016997948
176	0x3e4d8dd2	0.20073631
177	0x3e5570bd	0.20843787
178	0xbf6546fa	-0.89561427
179	0x3eb13741	0.34612468
180	0x3e1df1f0	0.15424323
181	0xbeeeb72b	-0.4662412
182	0xbabe3780	-0.001451239
183	0xbd5a8abc	-0.053354964
184	0x3d6eb478	0.058277577
185	0x3ca514c3	0.020151502
186	0xbd5d78c9	-0.054070268
187	0xbd537eaf	-0.051634487
188	0xbcf1156c	-0.02942916
189	0x3c7bbe38	0.015365176
190	0x3d0e527b	0.03474663
191	0x3d3df032	0.046371646
192	0xbe532126	-0.20618114
193	0x3e2f4192	0.17114857
194	0xbf50108a	-0.81275237
195	0x3ebdfaf2	0.3710552
196	0x3e08d8b8	0.13363922
197	0xbee2dfdb	-0.44311413
198	0x3cd2a8d4	0.02571527
199	0xbd3bed8a	-0.04588083
200	0xbca1a070	-0.019729823
201	0x3db72933	0.08943405
202	0xbdc70498	-0.09717673
203	0xbddda35f	-0.10822176
204	0x3d887e80	0.06664753
205	0xbcc672b5	-0.024224618
206	0x3be0e846	0.0068636267
207	0xbbdb1de9	-0.006686915
208	0xbeeb2b82	-0.4593163
209	0x3e751d7b	0.23937027
210	0xbf6ac6a6	-0.91709363
211	0x3f073ff3	0.52831954
212	0x3dc980d5	0.09839026
213	0xbf1319e9	-0.5746141
214	0x3a8babc0	0.0010656044
215	0xbccdce88	-0.025122896
216	0x3b782140	0.0037861615
217	0x3e6099b3	0.21933632
218	0xbe3cb998	-0.18430173
219	0xbdb58f82	-0.088652626
220	0xbcbdbea5	-0.023162195
221	0xbcb62472	-0.022234175
222	0x3bef6556	0.0073057814
223	0x3cfa6d0f	0.030569581
224	0xbf07742c	-0.5291164
225	0x3e32246c	0.17396706
226	0xbec60054	-0.38672125
227	0x3e3fa0bd	0.1871366
228	0x3e657774	0.22408849
229	0xbe9b3365	-0.30312648
230	0xbd158212	-0.036500998
231	0x3cb86448	0.022508755
232	0x3d196362	0.037448294
233	0xbda3ef4b	-0.08004626
234	0x3dcabffd	0.098999
235	0x3d46f655	0.048574764
236	0x3da207bb	0.07911631
237	0x3c0f9a06	0.008764749
238	0x3c23bc5b	0.009993638
239	0xbd6f2dff	-0.058393475
240	0x3db0534b	0.08609637
241	0x3e67a87a	0.22622862
242	0xbe8e7e05	-0.2783052
243	0xbda42b82	-0.08016111
244	0x3e47ff99	0.19531097
245	0xbebf7b4c	-0.37398756
246	0x3c1bb3c8	0.009503312
247	0xbd50bb98	-0.050960153
248	0x3d21f08c	0.039536044
249	0x3ad80b85	0.0016482925
250	0x3dc16f42	0.09445049
251	0x3b27a630	0.0025581233
252	0x3d5346fa	0.05158136
253	0x3ca55cf1	0.02018592
254	0x3bca54aa	0.0061746435
255	0xbca515c4	-0.02015198

base.seq_fcs.0.bias f4 [256]
0	0x3e66c35b	0.2253546
1	0x3e30a3b4	0.17249948
2	0x3d79da6b	0.060999315
3	0x3f0685b6	0.52547777
4	0x3e0a1dd9	0.13487948
5	0xbc3e1d3b	-0.011603649
6	0x3e0f9b8a	0.14024177
7	0x3e0d9a90	0.13828492
8	0xbc50fb90	-0.01275529
9	0x3d86b1f3	0.0657691
10	0x3dfee1b6	0.12445395
11	0x3d9cc77f	0.07655238
12	0x3d3709be	0.044687025
13	0xbd25e106	-0.040497802
14	0x3e1b86f9	0.15188207
15	0x3e19d7ff	0.15023802
16	0x3d8c735e	0.06857942
17	0x3df65a0d	0.120288946
18	0x3ddf27d8	0.108962715
19	0xbd827148	-0.06369263
20	0x3e0d2b4e	0.1378605
21	0x3de776fd	0.11301992
22	0xbd2a8661	-0.04163206
23	0x3ccb2e37	0.02480231
24	0x3efd70c2	0.4950009
25	0x3df24253	0.118290566
26	0x3ef8b762	0.4857741
27	0x3e145f2c	0.1448943
28	0xbb67c2fe	-0.0035364027
29	0x3b7ed18f	0.003888223
30	0xbca54f14	-0.020179309
31	0x3e3e7f98	0.1860336
32	0x3e3f4ae2	0.1868091
33	0x3e73b31d	0.23798795
34	0x3e4faa65	0.20279844
35	0x3e1a0f99	0.15045013
36	0x3dfc354d	0.12314854
37	0x3df58a80	0.119893074
38	0x3ed9544a	0.4244712
39	0x3e148497	0.14503704
40	0xbd6d047f	-0.057865616
41	0xbb84ece4	-0.00405656
42	0x3c25117e	0.010074971
43	0x3e1c65b8	0.15273178
44	0x3e09b391	0.13447405
45	0x3cd5c57e	0.026095148
46	0x3edb8b1c	0.4287957
47	0xbb301775	-0.002686945
48	0x3c12f0cd	0.008968544
49	0x3e992869	0.29913643
50	0xbd0abf0a	-0.033873595
51	0x3e015ec5	0.12633808
52	0x3e0fef8c	0.14056224
53	0x3de763a5	0.112983026
54	0x3e137c9b	0.14403002
55	0x3e1deb65	0.15421827
56	0x3e78cbf1	0.24296547
57	0xbcaaae4e	-0.020835068
58	0x3e157871	0.14596726
59	0x3ef03acf	0.46919867
60	0x3e026e42	0.12737373
61	0x3e83cf1c	0.2574395
62	0xbd5b88d8	-0.0535973
63	0x3e1ab71c	0.15108913
64	0x3e335ebc	0.17516607
65	0x3df24777	0.11830037
66	0x3d111173	0.03541703
67	0x3e3e4eec	0.18584794
68	0x3e31032e	0.17286369
69	0x3e0a3827	0.13497983
70	0x3e183a2d	0.14865942
71	0x3e0658a0	0.13119745
72	0x3cf2dec5	0.02964724
73	0x3c23d635	0.009999801
74	0xbc81a2ba	-0.015824664
75	0x3e2dd3ed	0.16975375
76	0x3e0d6d1c	0.13811153
77	0xbd1a47c3	-0.037666094
78	0x3e287af8	0.16453159
79	0x3db53b3d	0.088491894
80	0xbcda4922	-0.0266462
81	0x3f011bd0	0.50433064
82	0x3d1196b7	0.035544124
83	0x3ddb284d	0.10701046
84	0x3e230021	0.15918018
85	0x3def1d16	0.116754696
86	0x3ebbabfb	0.36654648
87	0x3ed3c032	0.4135757
88	0x3e15b1e2	0.14618638
89	0x3e35c2a3	0.1775003
90	0x3e214043	0.1574717
91	0x3df60ec5	0.12014536
92	0x3e914c32	0.28378445
93	0x3e087cc4	0.13328844
94	0x3dff5302	0.12467004
95	0x3e149a4f	0.14511989
96	0x3e5bbd30	0.21458888
97	0x3df75f5a	0.12078734
98	0x3d19293d	0.037392844
99	0x3ef2c168	0.47413182
100	0xbcd2f23c	-0.025750272
101	0x3e172205	0.14759071
102	0x3e39606d	0.1810319
103	0xbd92ad34	-0.07161942
104	0xbd2b29db	-0.041787963
105	0x3e5682d0	0.20948339
106	0x3e8c7002	0.27429205
107	0xbc95b113	-0.018272912
108	0x3e23c7aa	0.15994135
109	0x3e210c5d	0.15727372
110	0x3e0bdb43	0.1365786
111	0x3d3661aa	0.044526733
112	0x3da73c78	0.081658304
113	0x3e93fca6	0.28903693
114	0xbcf529f7	-0.029927237
115	0x3eaf487c	0.3423499
116	0xbbc4e704	-0.0060089845
117	0x3e1cbfaa	0.15307489
118	0x3e6f0adf	0.2334399
119	0x3e142067	0.14465486
120	0xbd332bab	-0.043742817
121	0xbd585c83	-0.0528226
122	0xbca257b3	-0.019817209
123	0x3e0be598	0.13661802
124	0x3b847017	0.0040416825
125	0x3e2427ea	0.16030851
126	0xbd0c1cae	-0.03420704
127	0x3ea2b72f	0.31780383
128	0x3e607892	0.21920994
129	0xbd441583	-0.047872078
130	0x3e000965	0.12503584
131	0xbd0f8fd6	-0.035049282
132	0xbbe72bd0	-0.0070547834
133	0xbd033f84	-0.032042995
134	0x3d4718d9	0.04860768
135	0xbd413e1f	-0.047178384
136	0x3e5aec26	0.21379146
137	0x3e14c3d8	0.14527833
138	0xbc82282d	-0.015888298
139	0xbce5852a	-0.0280176
140	0xbdafbb2b	-0.08580621
141	0x3e18abdc	0.14909309
142	0x3d945e99	0.072446056
143	0x3e154523	0.14577155
144	0x3e23d18b	0.15997903
145	0x3cb0e809	0.021595018
146	0x3e14527a	0.14484587
147	0x3eac96fe	0.33708948
148	0x3e0d14b3	0.13777427
149	0xbd03f7ff	-0.03221893
150	0x3e2fcba8	0.17167532
151	0xbd101751	-0.035178486
152	0x3dbea5c5	0.09308962
153	0x3f02f459	0.51154095
154	0x3df1a81c	0.117996424
155	0x3d27af20	0.040938497
156	0x3e089e97	0.13341747
157	0x3e6a998e	0.22910139
158	0x3e16a436	0.14711079
159	0x3e13fe9e	0.14452597
160	0x3e4853d1	0.19563223
161	0x3e181e56	0.14855322
162	0xbd061bb5	-0.032741267
163	0xbcffa04a	-0.031204361
164	0xbd151dd5	-0.036405403
165	0xbd3ec975	-0.046578843
166	0x3e1a933d	0.1509523
167	0x3e21508b	0.15753381
168	0x3e1e65be	0.15468499
169	0x3dfd8537	0.12378924
170	0xbd9a7e2f	-0.07543599
171	0xbc9e1543	-0.019297248
172	0x3e524ab4	0.2053631
173	0x3d6f38f7	0.058403935
174	0x3e4b8e43	0.19878487
175	0x3d6738fb	0.056450825
176	0xbd0d0e7f	-0.034437653
177	0x3e14709d	0.14496084
178	0x3eef3e9b	0.46727452
179	0x3dec0439	0.11524243
180	0xbd0c58c0	-0.034264326
181	0x3e0f3e01	0.13988496
182	0x3d5d4bef	0.054027494
183	0x3c5dfd60	0.013549179
184	0x3e12d043	0.14337258
185	0x3ce253f7	0.027627928
186	0xbcf8f00b	-0.030387899
187	0x3e102417	0.14076267
188	0x3e340774	0.17580968
189	0xbd4a8a91	-0.049448553
190	0x3efce405	0.49392715
191	0xbd13826e	-0.03601306
192	0x3e9316ad	0.28728238
193	0x3ea1835c	0.31545532
194	0x3e1c1aed	0.15244646
195	0xbcb09596	-0.021555703
196	0x3e0bdbe3	0.13658099
197	0x3dd92bde	0.1060407
198	0x3e08f3e7	0.13374291
199	0xbd21e760	-0.039527297
200	0xbc96c482	-0.01840425
201	0x3e3388c1	0.17532636
202	0x3da5b798	0.08091658
203	0x3e10018c	0.1406309
204	0x3ec3c3ac	0.38235223
205	0x3e8ce572	0.27518803
206	0xbca6370e	-0.020289924
207	0x3dada5a3	0.08478858
208	0x3e4acdde	0.19805095
209	0x3e3696c8	0.17830956
210	0x3e38204d	0.17981072
211	0xbc3e08a3	-0.011598739
212	0x3e68a7a2	0.22720197
213	0x3e16c6ab	0.14724223
214	0x3e582d60	0.21111059
215	0xbcc4becb	-0.024016758
216	0x3e5b6412	0.21424893
217	0xbc78f668	-0.015195467
218	0x3dd0dfb4	0.10198918
219	0xbc1b8488	-0.009492047
220	0x3f1843a2	0.594782
221	0x3e321d25	0.1739393
222	0x3e33da4f	0.17563747
223	0x3e09668d	0.13418026
224	0x3dbdc63b	0.09266325
225	0x3d094bcf	0.033519562
226	0x3dba5e89	0.091000624
227	0x3dd1e6eb	0.10249122
228	0xbcdf14b9	-0.027231561
229	0xbcad0ea9	-0.021125155
230	0x3dcb0d31	0.099146254
231	0x3e2f9696	0.17147288
232	0x3e9f5881	0.3112221
233	0x3e977baf	0.2958655
234	0x3efae621	0.490037
235	0xbd087e2b	-0.03332345
236	0x3f18835a	0.59575427
237	0x3e0a6a1e	0.13517043
238	0x3e819864	0.25311577
239	0x3e15160c	0.14559191
240	0x3e20bb92	0.15696552
241	0x3b3b74a8	0.0028603468
242	0x3e02f43a	0.12788478
243	0xbce54d62	-0.027991
244	0x3d7ad466	0.061237715
245	0x3e217a9d	0.1576943
246	0x3e49b281	0.19697
247	0x3e974068	0.29541326
248	0xbb5c808b	-0.0033645954
249	0x3dea8c25	0.11452512
250	0x3e1656a2	0.14681485
251	0x3d4e6060	0.05038488
252	0x3dff2470	0.12458122
253	0x3c915bf7	0.017744048
254	0x3e1e89e8	0.15482295
255	0x3f1e8364	0.61919236

base.seq_fcs.2.weight f4 [256, 256]
0	0xbbf66356	-0.007519166
1	0x3d075793	0.0330425
2	0x3c05df97	0.008170984
3	0xbb998a63	-0.0046856864
4	0xbd7aeb4b	-0.06125955
5	0x3d36bc0a	0.04461292
6	0xbac993e5	-0.0015379159
7	0x3ce9c85e	0.028537925
8	0xbba11e6a	-0.0049169557
9	0xbcf86c40	-0.030325055
10	0xbcb2a04b	-0.02180495
11	0x3c59c1b7	0.013290814
12	0x3c8f96d8	0.017527983
13	0xbd341c05	-0.043972034
14	0xbd7c9ead	-0.061674763
15	0xbb5ee7c5	-0.0034012657
16	0xbc79be95	-0.015243192
17	0x3ba5015d	0.005035563
18	0x3c3a13be	0.011357246
19	0xbbd59cd5	-0.00651894
20	0xbd006573	-0.03134675
21	0xbd6e81fe	-0.05822944
22	0xbc60a2db	-0.013710703
23	0xbcd231e7	-0.02565856
24	0xbc2fa5b3	-0.010720658
25	0x3c07da76	0.008291831
26	0xbc5dae42	-0.013530316
27	0x3c9b5f04	0.018966205
28	0x3c617ae2	0.013762208
29	0x3d21a21e	0.039461248
30	0xbca93e3c	-0.020659558
31	0xbb615374	-0.0034382017
32	0x3c960e94	0.018317498
33	0xbb24acb5	-0.0025127355
34	0x3d4de0b9	0.05026314
35	0xbce6cbe9	-0.028173404
36	0xbd78a9e8	-0.06070891
37	0xbcb4f47e	-0.02208924
38	0xbcc8282d	-0.02443322
39	0xbd37e28c	-0.044893786
40	0xbd33e258	-0.04391703
41	0xbcc17c49	-0.023618834
42	0xbccf985f	-0.02534121
43	0xbc8cdf1f	-0.017196236
44	0xbd6597fd	-0.05605315
45	0x3cc0ec7f	0.02355027
46	0x3d609ebf	0.054838892
47	0x3cde36c6	0.027125727
48	0xbd5dd6cb	-0.05415992
49	0xbd3dcdff	-0.04633903
50	0x3d402d16	0.046917997
51	0xbc672f7e	-0.014110444
52	0xbd23948a	-0.03993658
53	0x3b184fea	0.0023240992
54	0xbd668178	-0.056275815
55	0x3ca8f537	0.02062474
56	0xbb4a171f	-0.0030836535
57	0x3cdbe869	0.02684422
58	0xbbb98f39	-0.0056628254
59	0x3b380a42	0.0028082286
60	0xbc48762b	-0.012235205
61	0x3a18fb0a	0.00058357476
62	0xbca10725	-0.019656727
63	0xbc70f932	-0.01470785
64	0x3d59c3ae	0.05316513
65	0xbd601378	-0.054706067
66	0x3d4d50ce	0.05012589
67	0x3cb80b32	0.022466276
68	0xbd12ddc3	-0.03585602
69	0x3cb5e506	0.022203933
70	0x3d2682cb	0.040652078
71	0xbd2e6ef5	-0.042586286
72	0xbc534af4	-0.012896288
73	0xbce89c5e	-0.028394874
74	0x3d49a7d1	0.049232308
75	0x3d669817	0.056297388
76	0x3cc20658	0.023684666
77	0x3c3e51ad	0.011616153
78	0xbd846aa5	-0.06465653
79	0xbd652ed8	-0.055952877
80	0xbcfffeef	-0.031249491
81	0x3c0e1dbb	0.0086740805
82	0xbd84c8db	-0.06483623
83	0xbd1bb161	-0.03801096
84	0xbd52191c	-0.051293477
85	0xbce6c23f	-0.028168796
86	0xbd85afab	-0.06527647
87	0x3c141e89	0.009040483
88	0xbce4a79a	-0.02791195
89	0xbd84a2a9	-0.064763375
90	0xbb17a9a4	-0.0023141885
91	0xbca80a14	-0.020512618
92	0x3cc231f4	0.02370546
93	0xbcccda50	-0.025006443
94	0xbd3444e3	-0.044011008
95	0x3d4115dd	0.04713999
96	0x3cd5f7df	0.02611917
97	0xbb66d39f	-0.003522135
98	0xbaa3720d	-0.0012469903
99	0xbd84b102	-0.06479074
100	0x3d057ab5	0.032587726
101	0xbc952e67	-0.018210603
102	0xbd333cce	-0.04375916
103	0x3d4b1350	0.049578965
104	0xbd7150d9	-0.058914993
105	0x3d508220	0.050905347
106	0xbd48ed55	-0.049054462
107	0x3d6a96ea	0.05727283
108	0xbbc4003f	-0.0059814746
109	0xbcba9177	-0.022774441
110	0x3d6a6b8e	0.05723148
111	0xbbd78299	-0.0065768478
112	0x3b952c82	0.004552425
113	0xbc52d31a	-0.012867713
114	0xbce44e16	-0.027869266
115	0x3c194d79	0.00935685
116	0xbd1d4bda	-0.038402416
117	0x3aac1ccb	0.001313114
118	0xbd31e2bf	-0.043429133
119	0x3d1b9b33	0.037989806
120	0x3d53a0f9	0.051667187
121	0xbd7b550a	-0.061360396
122	0xbc1b56e6	-0.009481167
123	0xbd5e5572	-0.054280706
124	0x3c12d85d	0.008962718
125	0x3d01fbf2	0.031734414
126	0xbd4540a9	-0.048157368
127	0xbcc1a860	-0.023639858
128	0xbd3bf54c	-0.04588823
129	0xbd0a3776	-0.033744298
130	0x3b86afc7	0.0041103098
131	0xbd2c4abf	-0.04206347
132	0xbd3cf37e	-0.04613065
133	0xbb319f68	-0.002710307
134	0x3aeab9d1	0.0017908161
135	0x3cf48a93	0.029851234
136	0xbd4cc982	-0.04999686
137	0x3d4282c7	0.047488
138	0xbc8a388e	-0.01687267
139	0x3d41ecbb	0.047344904
140	0x3d1d0133	0.03833122
141	0xbbc90fd2	-0.006135919
142	0x3b8f0e25	0.0043657
143	0xbd48c6ad	-0.049017597
144	0x3d207bae	0.03918045
145	0xbc60db6c	-0.013724189
146	0x3d111361	0.03541887
147	0xbd49ecc1	-0.04929805
148	0x3c606848	0.013696738
149	0xbcd34aae	-0.025792446
150	0xbd4e37d5	-0.050346214
151	0x3caf1966	0.021374416
152	0xbc9219f7	-0.017834647
153	0x3cbba35d	0.022905046
154	0x3d599208	0.053117782
155	0x3cee5969	0.029095368
156	0xbcdf1673	-0.027232384
157	0x3c85dfc9	0.01634206
158	0xbb7aad78	-0.0038250368
159	0xbd3474ba	-0.04405663
160	0x3d219087	0.039444473
161	0xbcb77a97	-0.022397323
162	0xbcae35a5	-0.021265814
163	0x3d32c43f	0.043644186
164	0xbd560f8e	-0.052260928
165	0xbd1d5fd9	-0.038421486
166	0xbd4beaf4	-0.049784616
167	0xbcb2587a	-0.021770705
168	0x3d3004de	0.04297339
169	0xbd8619d7	-0.06547897
170	0x3c6a8472	0.014313804
171	0x3bf1679c	0.0073670875
172	0xbd8133d1	-0.06308711
173	0xbcde871b	-0.027164033
174	0x3d4261e8	0.047456652
175	0xbc714f69	-0.0147284055
176	0xbcb06f8c	-0.021537565
177	0x3cd84a41	0.026402595
178	0xbcee4203	-0.029084211
179	0x3d26c986	0.04071953
180	0x3d119c6b	0.035549562
181	0x3cc1accf	0.023641972
182	0x3d03574a	0.032065667
183	0xbca404b6	-0.020021778
184	0x3cefa8a8	0.029255226
185	0x3d49ecc8	0.049298078
186	0xbc6800ed	-0.014160377
187	0x3d4e46ce	0.050360493
188	0x3c4001d2	0.011719184
189	0xbcfad5bf	-0.0306195
190	0xbb1603c1	-0.002289042
191	0x3d6f89a3	0.05848087
192	0xbd4d5920	-0.050133824
193	0xbd38494f	-0.044991788
194	0x3d091417	0.033466425
195	0xbd27920f	-0.040910777
196	0xbc0c7968	-0.008573867
197	0xbbe5077a	-0.0069894167
198	0x3c812a82	0.01576734
199	0xbbd4c841	-0.0064935987
200	0xbd3e3a84	-0.046442524
201	0x3c82e532	0.01597843
202	0xbbc7a8e2	-0.0060931304
203	0xbcdc197c	-0.02686762
204	0x3bc770f1	0.0060864617
205	0x3d2fc575	0.04291292
206	0xbc485246	-0.012226647
207	0xbc13dc38	-0.009024672
208	0xbd5826d1	-0.052771393
209	0xbc0c9886	-0.008581286
210	0xbd79941f	-0.060932275
211	0xbb0ad913	-0.0021186515
212	0x3d5f2352	0.054477043
213	0x3d391bac	0.045192406
214	0xbcc0a678	-0.023516878
215	0x3bfd5865	0.0077314847
216	0x3d4f973d	0.05068134
217	0x3cf1e97a	0.029530276
218	0xbd23760e	-0.039907508
219	0x3c2a1045	0.0103798555
220	0x3d5008bf	0.05078959
221	0x3ce55074	0.027992465
222	0xbb3d56d0	-0.0028890856
223	0x3d32f999	0.043695066
224	0xbc99f960	-0.01879567
225	0xbcd8b3b8	-0.026452884
226	0xbd6e0759	-0.058112476
227	0xbcfd8c2f	-0.030950634
228	0x3c8f43cd	0.017488385
229	0xbd497744	-0.049186006
230	0x3ace6edd	0.0015749593
231	0xbcb35f00	-0.021895885
232	0x3a0a661c	0.0005279498
233	0xbc946b0f	-0.018117456
234	0xbd295f5d	-0.04135071
235	0xbd5c5f23	-0.053801667
236	0x3cc2c1ea	0.023774106
237	0x3c13cb47	0.009020633
238	0x3b1fabee	0.0024363953
239	0x3d0195fc	0.031637177
240	0x3d2ccf64	0.04218997
241	0xbc1f51cf	-0.0097240945
242	0x3d3ff338	0.04686281
243	0x3d23163c	0.039816126
244	0xbbd6b45b	-0.0065522618
245	0x3ae16841	0.0017197208
246	0x3d19cabb	0.037546854
247	0xbd1d664b	-0.038427632
248	0x3d34748a	0.044056453
249	0xbd3be661	-0.045874003
250	0x3d08e60d	0.03342252
251	0xbd5e6287	-0.05429318
252	0xbd24b645	-0.04021289
253	0xbc6b7469	-0.014371016
254	0xbd70fffd	-0.05883788
255	0xbd1ecfd4	-0.03877242

base.seq_fcs.2.bias f4 [256]
0	0x3dc4a4c8	0.09601742
1	0x3e08b851	0.13351561
2	0x3c5213c7	0.012822098
3	0x3e07da37	0.13266836
4	0x3dc5adc9	0.096522875
5	0x3db5c9f9	0.08876414
6	0x3df11d57	0.11773174
7	0x3db7bf9a	0.08972092
8	0x3e013565	0.12618025
9	0x3dc31074	0.095246226
10	0x3e01a54d	0.12660713
11	0x3e09771a	0.1342434
12	0x3dc2811b	0.09497281
13	0x3db8682e	0.09004246
14	0x3dbe84ba	0.09302659
15	0x3db4b20f	0.088230245
16	0x3e017d95	0.12645562
17	0x3e0a96b6	0.13534054
18	0x3dafe3dc	0.085883826
19	0x3e011e3b	0.12609188
20	0x3dae6b00	0.085165024
21	0x3e01b9ac	0.12668484
22	0x3dc458d0	0.09587252
23	0x3daef9cb	0.08543738
24	0x3db037b1	0.08604372
25	0x3dac66ed	0.08418069
26	0x3e050e77	0.12993799
27	0x3e015b18	0.12632406
28	0x3dc3c5b7	0.095591955
29	0x3e106fd1	0.14105155
30	0x3e917421	0.28408912
31	0x3e078598	0.13234556
32	0x3dbfd0b8	0.09365982
33	0x3e0c9911	0.13730265
34	0x3dd5a225	0.10431317
35	0x3df18632	0.11793174
36	0x3dc0685d	0.09394906
37	0x3e095ed7	0.13415085
38	0x3e012726	0.1261259
39	0x3e08b57b	0.1335048
40	0x3dbd0f46	0.09231429
41	0x3dfda5f2	0.12385167
42	0x3db019d6	0.08598678
43	0x3dc61231	0.096714385
44	0x3dc16b48	0.094442904
45	0x3dac5d52	0.08416237
46	0xbd935f62	-0.07195927
47	0x3dbf02cb	0.093267046
48	0x3e07a7d2	0.13247612
49	0x3e018395	0.12647851
50	0x3e02e496	0.12782511
51	0x3e09de67	0.13463746
52	0x3dc0c10d	0.094118215
53	0x3dfd1ea1	0.123593576
54	0x3dbfd403	0.0936661
55	0x3dad9a74	0.08476725
56	0x3e32a168	0.17444384
57	0x3dcccccd	0.1
58	0x3db70626	0.089367196
59	0x3e057830	0.13034129
60	0x3db8f837	0.09031718
61	0x3e018a2e	0.12650368
62	0x3e0c8289	0.1372167
63	0x397fb682	0.00024386685
64	0x3daea260	0.08527064
65	0x3dafbf73	0.08581438
66	0x3dfeae6a	0.124356106
67	0x3de0b679	0.10972304
68	0x3e00ca11	0.12577082
69	0x3db4ca23	0.08827617
70	0x3dc1bf52	0.094603196
71	0xbdaeef11	-0.08541692
72	0x3daf7b36	0.085684225
73	0x3dbf0b53	0.09328332
74	0x3d3df839	0.0463793
75	0x3dfc895e	0.12330888
76	0x3e0a3f8f	0.13500808
77	0x3db221ad	0.086978294
78	0x3dffc773	0.12489214
79	0x3dfc3d8d	0.123164274
80	0x3de3b28d	0.1111804
81	0x3dc0e781	0.09419156
82	0x3df980e2	0.121827856
83	0x3e06857d	0.13136859
84	0x3ddeb89f	0.108750574
85	0x3e0397ce	0.12850878
86	0x3dc170d0	0.094453454
87	0x3dc6d321	0.097082384
88	0x3df2a859	0.11848516
89	0x3e97e8bf	0.2966976
90	0x3dfb12a7	0.12259417
91	0x3dc11b48	0.094290316
92	0x3dc560f1	0.09637631
93	0x3e097ef8	0.13427341
94	0x3dfd8f42	0.1238084
95	0x3e0510f2	0.12994745
96	0x3e0a7c47	0.1352397
97	0x3d8dc469	0.06922228
98	0x3e0c9dfa	0.13732138
99	0x3db2e547	0.087351374
100	0x3df17c38	0.11791271
101	0x3dbc4367	0.091925435
102	0x3db19163	0.086703084
103	0x3e01e154	0.12683612
104	0x3dbded20	0.09273744
105	0x3db9ae40	0.09066439
106	0x3e0822e5	0.13294561
107	0x3e05a4cd	0.13051148
108	0x3df3d048	0.11904961
109	0x3dbf8722	0.093519464
110	0x3db7b85a	0.08970709
111	0x3e02ce7d	0.12774082
112	0x3df4798b	0.11937245
113	0x3dc470a0	0.09591794
114	0x3f2ec177	0.68263954
115	0x3dcea98a	0.10090931
116	0x3e06003c	0.13086027
117	0x3de264f4	0.110544115
118	0x3e0bded2	0.13659218
119	0x3e0a9b01	0.13535692
120	0x3e9ccf0b	0.3062671
121	0x3dbe4024	0.092895776
122	0x3e071efa	0.1319541
123	0x3e9d69c3	0.30744752
124	0x3e0241bb	0.12720387
125	0x3dbda131	0.092592604
126	0x3dc4ac73	0.096032046
127	0x3e05c839	0.1306466
128	0x3e0dd9b8	0.13852584
129	0x3ea0895b	0.31354794
130	0x3dc15283	0.09439566
131	0x3e235e8a	0.15954033
132	0x3efaa56e	0.48954338
133	0x3df3c60c	0.11903009
134	0x3dfb1d93	0.122615
135	0x3e043d1c	0.12913936
136	0x3e076bfe	0.1322479
137	0x3dbc0d7f	0.09182262
138	0x3dc1f41f	0.094703905
139	0x3e01f1b9	0.12689866
140	0x3dc11199	0.094271846
141	0x3db64849	0.08900506
142	0x3e02085a	0.12698498
143	0x3dc3a26f	0.09552466
144	0x3dff7cf3	0.12475004
145	0x3e02d6b1	0.12777211
146	0x3dbf1888	0.09330851
147	0x3db0969d	0.08622477
148	0x3db5d430	0.08878362
149	0x3e03cab3	0.12870292
150	0x3df28c45	0.118431605
151	0x3e040bc9	0.1289512
152	0x3d9d326b	0.07675632
153	0x3dac1854	0.08403078
154	0x3e0724a3	0.1319757
155	0x3e06adde	0.13152263
156	0x3df0fff4	0.11767569
157	0x3e9d2b27	0.30696985
158	0x3e0c541a	0.13703957
159	0x3dc107fb	0.0942535
160	0x3e11151d	0.1416821
161	0x3e0806df	0.13283871
162	0x3e072717	0.13198505
163	0x3dfe908a	0.124299124
164	0x3db79c52	0.089653626
165	0x3dbe1817	0.092819385
166	0x3e063273	0.13105182
167	0x3dc3dc9e	0.09563564
168	0x3dc3f64f	0.09568464
169	0x3e01be45	0.12670238
170	0x3de83139	0.113375135
171	0x3e022aee	0.12711689
172	0x3e10b6b0	0.1413219
173	0x3dbcdf6f	0.09222304
174	0x3db3c5ae	0.08777939
175	0x3da67b69	0.08129007
176	0x3dfba7b0	0.12287843
177	0x3df9cd50	0.121973634
178	0x3df8e3ab	0.12152799
179	0x3db3d6f0	0.087812304
180	0xbda82d9a	-0.08211823
181	0x3d631685	0.0554414
182	0x3e0bb576	0.1364344
183	0x3e074154	0.13208514
184	0x3dba8807	0.091079764
185	0x3d870237	0.06592219
186	0x3db4c49f	0.08826565
187	0x3dc6d1db	0.097079955
188	0x3de91e50	0.11382735
189	0x3dbd258e	0.092356786
190	0x3dbe291e	0.09285186
191	0x3df3680f	0.11885082
192	0x3e04641e	0.12928817
193	0x3dc530c5	0.09628443
194	0x3dc3f675	0.09568492
195	0x3e02b3dc	0.12763923
196	0x3e0415eb	0.12898986
197	0x3db97297	0.090550594
198	0x3de50f61	0.11184574
199	0x3dab99b3	0.08378925
200	0x3de6f17e	0.1127653
201	0x3dc249bc	0.0948672
202	0x3db279d0	0.0871464
203	0x3e061474	0.1309374
204	0x3e01cad5	0.1267503
205	0x3e0541ac	0.13013333
206	0x3dbf6273	0.093449496
207	0x3e030509	0.1279489
208	0x3e048efb	0.12945168
209	0x3db1f95a	0.08690138
210	0x3dc6bb3d	0.097036816
211	0x3dc0ef1b	0.09420606
212	0x3df6dd18	0.12053889
213	0x3db65250	0.089024186
214	0x3daf79e8	0.08568174
215	0x3e108b1c	0.14115566
216	0x3e0bdeb9	0.1365918
217	0x3dcccccd	0.1
218	0x3e0507ed	0.12991305
219	0x3df6dc10	0.12053692
220	0x3dc8673d	0.09785316
221	0x3e02c35c	0.12769836
222	0x3e007d01	0.12547685
223	0x3e10a2e5	0.1412464
224	0x3df54add	0.1197717
225	0x3df35b15	0.11882607
226	0xbd385956	-0.045007072
227	0x3dba6c09	0.09102637
228	0x3dfdc6b9	0.12391419
229	0x3dc42813	0.09577956
230	0x3ddc47df	0.10755896
231	0x3db1d8a0	0.08683896
232	0x3dc00718	0.09376353
233	0x3e0ab589	0.13545813
234	0x3e0a395e	0.13498446
235	0x3dc5f253	0.0966536
236	0x3ea67402	0.32510382
237	0x3dc1c601	0.094615944
238	0x3e00d757	0.12582146
239	0x3dbfd8cd	0.09367523
240	0x3e04a52f	0.12953638
241	0x3dc92b87	0.09822755
242	0x3e083ada	0.133037
243	0x3dc1f24e	0.09470044
244	0x3e0241e7	0.12720452
245	0x3db9f8cb	0.090806566
246	0x3e09bf22	0.13451818
247	0x3e04b62d	0.1296012
248	0x3dcb31be	0.09921597
249	0x3dc85dff	0.09783553
250	0x3e9ba78b	0.30401263
251	0x3dc5b0b3	0.09652843
252	0x3e054e22	0.13018087
253	0x3df9e47b	0.12201782
254	0x3e05b93c	0.13058943
255	0x3f03a5fe	0.5142516

last.weight f4 [1, 256]
0	0xbb2390b8	-0.0024958085
1	0x3ea3aff1	0.3197017
2	0xbf8779ac	-1.0584006
3	0x3ea69394	0.32534468
4	0xba1d6e84	-0.0006005543
5	0x3c0f99e5	0.008764719
6	0x3eb97415	0.36221376
7	0xbb2aa6a8	-0.0026039276
8	0xbf4e5da8	-0.8061166
9	0xba90f6ef	-0.001105992
10	0x3eae223d	0.34010497
11	0x3ea93d28	0.3305447
12	0x3aabfb49	0.0013121153
13	0xbab1f27e	-0.0013576297
14	0xbaa67d2c	-0.0012702099
15	0x3bc1c2bc	0.0059131067
16	0x3eb5f81a	0.3554085
17	0x3eac7768	0.3368485
18	0x3bd32e2b	0.0064447126
19	0x3eaff3e7	0.3436577
20	0xbf616924	-0.88051057
21	0x3ea59c33	0.32345733
22	0xba5a7f10	-0.0008334974
23	0xbb02a3d7	-0.0019934082
24	0x3bd577b6	0.006514515
25	0x3bd4d8bd	0.006495564
26	0x3ea9abae	0.33138794
27	0x3ea9d872	0.33172947
28	0xbb2d5161	-0.002644621
29	0xbf49243e	-0.78570926
30	0xbf9f50a5	-1.2446486
31	0x3ead16fe	0.33806604
32	0xbb05a94e	-0.0020395103
33	0x3eaf9041	0.34289744
34	0x3ed3cd5d	0.41367617
35	0x3eb537fa	0.3539427
36	0xba6799ae	-0.0008834851
37	0x3ea64359	0.32473257
38	0x3ea76a06	0.32698077
39	0x3ea6926d	0.3253359
40	0xbbb70d69	-0.0055863154
41	0x3eb2efb4	0.34948504
42	0x3be6de12	0.007045516
43	0xbacff503	-0.0015865866
44	0xbb10735d	-0.0022041418
45	0xbbe04735	-0.006844426
46	0xbfa46404	-1.2843022
47	0xbb0622db	-0.0020467553
48	0x3ea5fd77	0.3241994
49	0x3eafd3f0	0.34341383
50	0x3eb2f3a7	0.34951517
51	0x3eb0a13c	0.34498012
52	0xbb2d3fb2	-0.002643567
53	0x3eb1d6b3	0.34734115
54	0xba92c3e6	-0.0011197298
55	0x3babbd6e	0.0052410876
56	0xbf3dd9dc	-0.7416055
57	0x3a836d28	0.0010027038
58	0xbad880fb	-0.0016517931
59	0x3ea97f71	0.33105043
60	0xba99a5fa	-0.0011722439
61	0x3eb0cc04	0.34530652
62	0x3ea50b92	0.3223539
63	0xbf8cd070	-1.100111
64	0x3c01dba7	0.007925904
65	0x3bd892a0	0.006609276
66	0x3eb2d470	0.34927702
67	0x3ecd22ad	0.40065518
68	0x3ea8384e	0.32855457
69	0x3bdb689e	0.006695821
70	0xbb0406d3	-0.002014567
71	0xbfb00ee3	-1.3754543
72	0x3bcfacc2	0.006337733
73	0xbb1e2d4e	-0.002413589
74	0xbf7a7f89	-0.97850853
75	0x3eb05c17	0.3444526
76	0x3ea90751	0.33013394
77	0x3bc80c64	0.0061049927
78	0x3eae01cb	0.33985743
79	0x3eb39a08	0.35078454
80	0x3ecb133c	0.39663112
81	0xbb2e778d	-0.002662155
82	0x3eb3405c	0.3501004
83	0x3eb23950	0.3480935
84	0xbf551560	-0.8323574
85	0x3eb836dd	0.35979357
86	0xbaf8653d	-0.001895107
87	0xb9469083	-0.00018936586
88	0x3ebf69a5	0.37385288
89	0xbf9dd933	-1.2331909
90	0x3ebb477b	0.36577973
91	0xbb27c28f	-0.0025598144
92	0xbb0e004d	-0.002166766
93	0x3eace2e8	0.33766866
94	0x3ea9cf97	0.3316619
95	0x3eaf816a	0.34278423
96	0x3eaa4cab	0.33261618
97	0xbf693643	-0.9109842
98	0x3ea95a0a	0.33076507
99	0x3bce8797	0.0063027847
100	0x3eba3e6f	0.36375758
101	0xbc29c4ca	-0.01036186
102	0x3bee1db0	0.0072667226
103	0x3ea977ff	0.33099362
104	0xbb1911d1	-0.0023356567
105	0xbab1d1e9	-0.0013566586
106	0x3eba6f77	0.36413166
107	0x3eb07c1e	0.34469694
108	0x3ec09c27	0.37619135
109	0xbb282b83	-0.00256607
110	0xba91d123	-0.001112495
111	0x3eae1379	0.3399923
112	0x3eb1012c	0.34571207
113	0xbaa5ae1b	-0.0012640388
114	0x3f36c25d	0.71390325
115	0x3ed70e84	0.42003262
116	0x3eae056b	0.3398851
117	0x3ebfdc51	0.37472776
118	0x3ea66eda	0.32506448
119	0x3eaac4ad	0.33353177
120	0xbfa338d5	-1.2751719
121	0xbabab7b9	-0.0014245427
122	0x3eac8eee	0.33702797
123	0xbfa0144a	-1.2506192
124	0x3eb47b87	0.35250494
125	0xbf61e58d	-0.8824089
126	0xbb2e0731	-0.002655458
127	0xbf4c48c6	-0.79798543
128	0x3ead44bf	0.33841512
129	0xbfaed106	-1.3657539
130	0xbb1b5e55	-0.002370735
131	0xbf3774ae	-0.71662414
132	0x3fffd1d7	1.9985913
133	0x3eb38f24	0.35070145
134	0xbf4e4be2	-0.8058454
135	0x3eaf4fb9	0.3424051
136	0x3eadd030	0.33947897
137	0xbb00dd7a	-0.001966326
138	0xbc87d472	-0.016580794
139	0x3eaa239e	0.332303
140	0xbae6ca5f	-0.0017607919
141	0x3c09db65	0.008414124
142	0x3eaf26bb	0.34209237
143	0xbaf17baf	-0.0018423701
144	0x3eaf46ab	0.34233603
145	0x3eb18ce2	0.34677798
146	0xbb2d4664	-0.002643966
147	0x3bb4afcb	0.00551412
148	0x3b030b14	0.0019995617
149	0x3eaf3309	0.34218624
150	0x3eb321c8	0.3498671
151	0x3eae033b	0.3398684
152	0xbf614902	-0.88002026
153	0x3bce6622	0.0062987963
154	0x3eacc307	0.33742544
155	0x3eb4fd7b	0.3534964
156	0x3eb55c1a	0.3542183
157	0xbfb1fd6e	-1.3905466
158	0x3eaaca20	0.33357334
159	0xbabc5882	-0.0014369639
160	0x3ea89396	0.329251
161	0x3ea173a3	0.31533536
162	0x3eaa6fb4	0.33288348
163	0x3ead67c9	0.33868244
164	0xbbe6137f	-0.007021367
165	0x38f57757	0.00011704739
166	0x3ea2a688	0.31767678
167	0xbb08e8dc	-0.0020890748
168	0xbab2e31e	-0.0013648008
169	0x3ea81b28	0.3283322
170	0xbf4ba9af	-0.7955579
171	0x3eb01956	0.3439433
172	0xbf47f59f	-0.78109163
173	0xbb125593	-0.0022328838
174	0x3be0e371	0.0068630506
175	0x3c06028e	0.00817932
176	0x3eadd47e	0.3395118
177	0x3eb4556b	0.3522142
178	0x3eb1e011	0.34741262
179	0x3ac226e4	0.0014812616
180	0xbfb236bb	-1.3922952
181	0x3d303b46	0.043025278
182	0x3ea559e1	0.32295135
183	0x3e9d1b6a	0.30684978
184	0xbc4fe260	-0.012688249
185	0xbf73c939	-0.95228916
186	0x3bb2ef86	0.0054606823
187	0xbadfcb0e	-0.0017074065
188	0x3eb57b22	0.35445505
189	0xbaf2a6ab	-0.0018512806
190	0x3bcded75	0.0062844106
191	0x3eb1d1d3	0.34730396
192	0x3eaddc17	0.33956978
193	0x39e1dc20	0.0004307935
194	0xbad6bc55	-0.0016383032
195	0x3eb89435	0.36050573
196	0x3eb18f3d	0.34679595
197	0xbaedd30d	-0.0018144563
198	0xbf4f5315	-0.8098615
199	0x3c0a2ac2	0.008433046
200	0x3ec0f8f8	0.37689948
201	0xbb2289ab	-0.0024801295
202	0x3bf10969	0.007355858
203	0x3eae51f6	0.34046906
204	0x3eae6b08	0.34066033
205	0x3eb186a9	0.3467305
206	0xbf568ed0	-0.83811665
207	0x3ea587cb	0.32330164
208	0x3eb30f12	0.34972435
209	0x3bdac8e6	0.006676781
210	0x36e9bfee	6.9662847e-06
211	0xbb0e886e	-0.00217488
212	0xbf4d9e7b	-0.80319947
213	0x3bc29d9d	0.005939199
214	0x3bdb649a	0.0066953423
215	0xbf4eaa16	-0.8072828
216	0x3ea9db0f	0.3317494
217	0x3a0a989e	0.0005287024
218	0x3eb1619f	0.3464479
219	0x3eb18cc4	0.34677708
220	0xba523cc8	-0.00080199214
221	0x3eafab39	0.3431032
222	0x3eaa2651	0.33232358
223	0x3ea9d5dd	0.33170977
224	0x3eb0322b	0.34413275
225	0xbf4c846d	-0.79889566
226	0xbfa03c43	-1.251839
227	0xbb0df3e5	-0.0021660265
228	0x3eb4a986	0.35285586
229	0xbb343383	-0.0027496524
230	0xbf4f1314	-0.80888486
231	0x3b8f3ed3	0.004371503
232	0xbb16a4ad	-0.0022986338
233	0x3eab603b	0.33471856
234	0x3eb76c09	0.35824612
235	0xba22607f	-0.00061941886
236	0xbfb0178c	-1.3757186
237	0xbb331541	-0.00273259
238	0x3eb79f5d	0.35863772
239	0xba951e2e	-0.0011376792
240	0x3ea6b157	0.32557175
241	0xba010b6f	-0.0004922663
242	0x3eaac2ab	0.33351645
243	0xbb2e6aae	-0.002661388
244	0x3eacb492	0.33731514
245	0xba87d714	-0.0010363781
246	0x3ea97ef8	0.33104682
247	0x3ead6b19	0.33870772
248	0xb9752b9b	-0.00023381265
249	0xbabe5b14	-0.0014522993
250	0xbfabdeb1	-1.3427335
251	0xbb16c0f9	-0.0023003204
252	0x3eaac728	0.3335507
253	0x3eb30b96	0.34969777
254	0x3ea91180	0.33021164
255	0x3f0da508	0.5532994
