Soft-Module-main/log/model50_47/model_pf_best.pth (torch, 287205 bytes, 6 tensors)

base.seq_fcs.0.weight f4 [256, 12]
000000 cf 48 4c bc 82 bd 09 bb ac 4b 0a bd 2a 14 3a bd
       -0.012468531 -0.0021017496 -0.033763573 -0.045429386
000010 98 30 ab bd 72 55 21 bc 4e f5 05 bd 88 0a 02 3c
       -0.08358878 -0.009847032 -0.032704644 0.007937081
000020 a4 62 94 3c 4d e8 83 3c 0b d1 1a bd b6 7e 00 3d
       0.018113442 0.01610198 -0.037797015 0.03137084
000030 fc 82 0e bd a1 f5 ff bc 21 6b a9 bd ae 3b 80 3d
       -0.034792885 -0.031245055 -0.08272386 0.06261383
000040 01 cf 74 bc c0 95 75 bb 1e a0 20 3d 60 b2 c3 3b
       -0.014941932 -0.003747329 0.0392152 0.0059721917
000050 90 8e 57 3d 24 9c 5b ba db da 82 bd 78 39 b6 bc
       0.052626193 -0.0008377454 -0.063893996 -0.0222442
000060 5d 07 6a 3b 78 4b c9 ba b4 d9 77 bc 20 f9 b4 3d
       0.0035709955 -0.0015357574 -0.015127588 0.08836579
000070 f6 20 a9 bd 27 31 e2 bd bc 07 b9 bc e0 dd 2d bc
       -0.0825824 -0.11044531 -0.022586696 -0.010611981
000080 fc da f0 bc e7 54 72 bd e4 de b0 bb 9e 53 86 3d
       -0.029401295 -0.059163 -0.0053976644 0.065589175
000090 a5 fc 82 bc d6 2f 16 bc 54 5e 02 bb e0 08 38 3d
       -0.01598961 -0.009166678 -0.001989265 0.04493034
0000a0 c9 23 76 bc 44 9a a4 bd a4 56 b0 bc e0 df 33 3b
       -0.01502318 -0.08037236 -0.021525688 0.0027446672
0000b0 a8 39 ac 3c 62 d0 99 bd 7e c5 a0 bd d3 95 ae bc
       0.021023586 -0.07510449 -0.07850169 -0.021311676
0000c0 3b f7 16 bd 57 58 1c bd 6d e1 93 bd 63 d3 98 3c
       -0.03685687 -0.038170185 -0.07220731 0.018655485
0000d0 f9 d5 14 bd 9b 79 17 bd 58 d4 df 3c a0 f0 19 bb
       -0.036336873 -0.036981206 0.027322933 -0.002348937
0000e0 18 80 06 bd e2 85 79 3c 90 df 8f bc bb 53 de 3d
       -0.032837003 0.015229674 -0.017562658 0.10855814
0000f0 5b da 65 bd 64 0c 00 3a 68 f1 58 bd d7 71 81 bc
       -0.056116443 0.0004884659 -0.052964598 -0.015801353
000100 97 4a 8b bd 09 cd 48 3a b0 a2 92 3c 1e 03 4f 3d
       -0.06801336 0.0007659947 0.017899841 0.050540082
000110 76 9c 4e bd 8b 25 b7 bd 5e 1a 5f bd 07 46 5f 3c
       -0.05044218 -0.08942708 -0.054468505 0.013627536
000120 62 5b b7 bc e6 46 82 bc 16 ef 2d bc 30 73 6f 3d
       -0.022382442 -0.015902948 -0.010616085 0.05845946
000130 c9 f3 32 bd 23 33 d5 bd 0c 3a 55 bd 98 ff 3f bd
       -0.043689523 -0.10410144 -0.05205731 -0.046874613
000140 96 ea 2a 3d 37 c5 17 bd 02 32 30 bd 76 30 c1 3d
       0.041727625 -0.037053313 -0.04301644 0.09433071
000150 f0 88 2d be 8f 9e 01 bb 57 b7 c8 bd 0c 79 54 3d
       -0.16946769 -0.0019778346 -0.09800594 0.05187325
000160 8c fc c7 bc 34 7d ea bd 34 94 3a 3d 74 b8 2d bd
       -0.024412416 -0.11449662 0.045551494 -0.042412236
000170 64 78 a5 3c d3 d9 8a bd 00 77 30 bd f7 67 b7 3c
       0.020199008 -0.06779828 -0.043082237 0.022388441
000180 91 9c 2c bd 0a f0 da 3b 53 f2 9b bd de f4 1b 3d
       -0.0421415 0.006681447 -0.07614579 0.03807532
000190 27 1b 3a bd 6f 6a 83 bd c0 46 12 bb 64 44 07 3d
       -0.04543605 -0.06416785 -0.0022320002 0.033024207
0001a0 04 3b 2b 3d c3 b8 e0 bc 5d 99 9e bd 83 a1 ab 3d
       0.04180433 -0.027431851 -0.077440955 0.08380415
0001b0 b1 fb 40 bd 21 dc f8 bc 1f 51 89 bd 00 1d 4c bc
       -0.04711503 -0.030378403 -0.06704926 -0.012458086
0001c0 e7 f5 a2 bd 44 c7 58 bd a0 5a 79 bd 96 29 29 3d
       -0.079570584 -0.05292441 -0.060877442 0.041299425
0001d0 18 4c 9c 3c 53 b1 7d bd bf c3 35 bc 4c e5 bf bb
       0.019079253 -0.061936688 -0.011094033 -0.0058561917
0001e0 93 d6 97 3c 58 bf 7d bc ae d3 ba bd e4 f0 cb bb
       0.018534934 -0.015487514 -0.09122406 -0.0062237848
0001f0 6a 3e b3 bd f6 53 8e 39 4c af 69 bd 00 72 14 3c
       -0.08752139 0.00027146906 -0.05705194 0.009060383
000200 e2 11 12 3d 9f 81 c5 bd a6 62 2a bc c8 b7 0b 3d
       0.035661586 -0.09643864 -0.010399496 0.034110814
000210 46 08 50 bd 94 f8 83 bd da 50 f8 bc 37 7d 06 bc
       -0.05078914 -0.06443897 -0.03031199 -0.0082085645
000220 c5 b7 d6 3b 48 c0 1a bd 1e d4 14 3d b0 e5 d3 3b
       0.0065526688 -0.03778103 0.036335103 0.00646659
000230 58 da 9a bc 16 74 e3 bc 0b 57 6d bd c3 73 37 3d
       -0.018902943 -0.027765315 -0.05794434 0.044788133
000240 9b 03 4f bd 09 ae 5e bd 03 c0 ba bd b8 f9 80 3d
       -0.050540548 -0.05436519 -0.091186546 0.0629763
000250 fc 25 27 bd 43 40 e6 3b ac 9c 0a 3d 4a 46 41 3d
       -0.04080771 0.0070267036 0.03384082 0.047186173
000260 80 7f b8 3b 5f d8 91 bd e3 d8 ac bc ff ce e3 3b
       0.0056304336 -0.07121348 -0.021099513 0.006952166
000270 d2 dd a4 bc b8 a6 c3 bd b8 2c 46 3c b5 6f 7f 3c
       -0.020125303 -0.095532835 0.012095623 0.015590598
000280 dc 34 e8 3a 96 97 89 bd 00 ec 7c b9 40 a9 f7 3a
       0.0017715949 -0.06718366 -0.0002412051 0.0018895045
000290 60 b8 a8 bb 5d 4a af bd bd a9 bf bc 73 a3 38 3c
       -0.0051489323 -0.085591055 -0.023396367 0.011269438
0002a0 11 c6 33 3e 14 23 d7 bd 18 8e b8 bd 31 63 4d bd
       0.17556025 -0.105047375 -0.09011477 -0.050143424
0002b0 90 60 0b 3c cf 4f 46 3b 90 aa 75 bc 20 76 6d 3b
       0.008506909 0.0030259972 -0.014994279 0.0036233738
0002c0 cc c2 6d bd 18 9a e7 bb 8b d7 1e bd 86 bb e5 3b
       -0.0580471 -0.00706793 -0.038779777 0.00701088
0002d0 66 76 94 be f0 ee 4d be a1 74 49 3e fa 7a 38 3d
       -0.2899658 -0.20110679 0.19673397 0.045039155
0002e0 a1 3c 2a 3d 99 07 dd 3c e0 3d ef bc 28 12 a8 3c
       0.041561726 0.026981162 -0.029204309 0.02051647
0002f0 98 34 51 3c bc f4 82 bb 01 d3 73 3d 57 53 80 bd
       0.012768887 -0.00399646 0.0595274 -0.06265896
000300 6e bf 81 39 54 4c b0 bd 71 c0 8f 3c 87 36 14 bc
       0.00024747424 -0.086083084 0.017547818 -0.009046203
000310 2f 36 d2 3c 88 5e a7 bd 1a 16 5e 3d ec 71 39 bd
       0.025660602 -0.08172327 0.054220296 -0.04527466
000320 0c 3b 9a 3c d5 04 73 bd 7c 88 9c bd 42 2a 88 3d
       0.018826984 -0.05933078 -0.0764322 0.06648685
000330 ce 9a 30 bc 28 dd 10 bd 33 89 ad bb 74 06 25 3b
       -0.010779096 -0.03536716 -0.0052958964 0.0025180848
000340 9d 15 22 bd ee 55 70 bd 24 d1 fe bc 00 3e d7 3a
       -0.039571393 -0.0586757 -0.031105585 0.0016421676
000350 1a 1b 1f bd 89 fd 4e bd 76 a4 32 bd a2 10 59 3d
       -0.038844205 -0.05053476 -0.043613873 0.052994378
000360 60 74 5f bd bf 6e 76 bd 42 fd e3 bc e4 af 3a bd
       -0.054554343 -0.06016421 -0.027830724 -0.0455779
000370 25 8e 60 bc 63 2e 6b bd 24 26 7c bd 60 47 28 bc
       -0.013705765 -0.057417285 -0.06155981 -0.010270923
000380 58 1e af bc 00 a1 85 bc 08 0f 91 bd 4c 54 63 3d
       -0.021376774 -0.016312122 -0.07082945 0.055500314
000390 e6 ca b4 bc 82 ce 61 bc 09 44 8b bd 5d 50 7a bb
       -0.022069406 -0.013782145 -0.06800086 -0.0038194873
0003a0 f7 cb 64 3c 9e cd 60 3c f8 f4 2d bc f8 cb 57 bd
       0.013964645 0.013720898 -0.010617487 -0.052684754
0003b0 20 ab c1 bc 6f 23 a8 bd d1 e2 cd bd 91 33 c5 3c
       -0.02364117 -0.082098834 -0.100530274 0.02407244
0003c0 3d 56 44 bc e9 b5 97 bc 2d a5 55 bd b2 e2 2a 3d
       -0.011983451 -0.018519359 -0.052159477 0.0417201
0003d0 f5 49 f6 bc fd 0a d7 3c ac 91 15 3d 7c a0 7d 3d
       -0.030064562 0.026250357 0.036515877 0.061920628
0003e0 90 de a4 bb 6e 06 2f 3d fa 07 b6 bd b3 62 68 3c
       -0.0050314143 0.04273074 -0.0888824 0.014183688
0003f0 f1 36 e1 bb 39 30 dc bc a7 4a 6c bd d4 aa 66 3c
       -0.0068730046 -0.026878463 -0.05768838 0.014078815

base.seq_fcs.0.bias f4 [256]
000000 04 a9 8e 3d 3a 82 87 3d d3 e4 4e 3d 61 54 8e 3d
       0.06965831 0.066166356 0.050511193 0.06949688
000010 87 ff 27 3d 56 cb 4b 3d 8d e8 43 3d df a6 97 3c
       0.041015174 0.049754463 0.0478292 0.018512188
000020 86 87 a0 3d 6a a5 5d 3d fa 8e 21 3d f3 76 86 3d
       0.07838349 0.05411283 0.039442994 0.065656565
000030 47 c7 85 3d ed 52 7d 3d f5 ea 45 3d b2 8b fc 3d
       0.0653215 0.061846662 0.048319776 0.12331332
000040 0d 59 89 3d 63 37 9e 3d 53 c3 93 3d 0f c9 70 3d
       0.06706438 0.07725408 0.072149895 0.058785494
000050 b8 37 94 3d 66 e6 9f 3d 9e 48 b2 3d d6 24 88 3d
       0.0723719 0.07807617 0.08705257 0.06647651
000060 a0 e5 aa 3d ad 52 07 3d d4 90 87 3d 30 b7 95 3d
       0.08344579 0.03303783 0.06619421 0.07310331
000070 ac f7 81 3d 16 96 61 3d c0 a9 a5 3d 0f b8 80 3d
       0.06346068 0.055074774 0.08089018 0.062851064
000080 bb f5 4a 3d 49 71 58 3d d7 80 98 3d 43 d1 7b 3d
       0.049550753 0.052842412 0.07446449 0.061478864
000090 f3 4e e3 3c 57 5a 72 3d a2 9c 8f 3d 70 97 92 3d
       0.027747607 0.059168186 0.07012297 0.07157791
0000a0 cc 24 88 3d 9b 54 76 3d 12 ce 75 3d 53 12 1b 3d
       0.066476434 0.06013928 0.060010977 0.037859272
0000b0 1b f9 45 3d 97 f9 b3 3d 85 ea 37 3d 75 b3 35 3d
       0.04833327 0.0878784 0.04490139 0.044360597
0000c0 2e ce ab 3d e2 c1 5e 3d 1b 56 d1 3d c7 70 9d 3d
       0.08388935 0.05438412 0.102215014 0.07687526
0000d0 5a 2c d7 3c a9 75 4e 3d 77 78 6e 3d b7 4a aa 3d
       0.026266266 0.05040518 0.058220353 0.08315032
0000e0 ae b3 78 3d b0 44 60 3d 16 0b b9 3d 80 b8 6a 3d
       0.06071823 0.054753006 0.090353176 0.05730486
0000f0 b2 00 34 3d 8c 9b 91 3d 22 d1 6e 3d 34 c5 f4 3d
       0.043945976 0.07109746 0.058304913 0.11951676
000100 3a 1e 81 3d 2f 4d b0 3d 30 42 30 3d fe 1d 74 3d
       0.063045934 0.086084716 0.04303187 0.059598915
000110 59 cc 92 3d 79 2b 90 3d d4 92 08 3e 5b 96 95 3d
       0.071678825 0.07039542 0.1333726 0.07304069
000120 ee b9 61 3d dd 40 89 3d d3 1b 5d 3d 1d ad ec 3d
       0.055108957 0.06701825 0.053981613 0.11556456
000130 f9 52 27 3d 0f 3f a4 3d a1 a7 5e 3d 4c 75 7c 3d
       0.040850613 0.0801984 0.054359082 0.0616353
000140 2a 37 64 3d a8 63 af 3d b1 73 6f 3d ba f2 51 3d
       0.05571667 0.0856393 0.05845994 0.051256873
000150 f4 17 ba 3d 30 fb 8e 3d 3c 15 89 3d 3b 1b 56 3d
       0.090866 0.06981504 0.06693503 0.052272063
000160 1d ce 45 3d 6c 7a 95 3d 45 c5 84 3d b0 14 80 3d
       0.048292268 0.07298741 0.06482939 0.06253946
000170 6b f9 86 3d 79 9a 5d 3d 0c be 45 3d 32 7f 2a 3d
       0.065905415 0.054102395 0.048276946 0.04162521
000180 81 c3 6b 3d 0d 81 91 3d ea 95 b1 3d 88 a5 36 3d
       0.057559494 0.071046926 0.08671172 0.044591457
000190 35 99 fa 3c 32 e6 73 3d 6b 8f 6c 3d 37 8c 53 3d
       0.030590633 0.059545703 0.05775396 0.05164739
0001a0 05 d7 86 3d 0b f2 d2 3d 84 83 a1 3d 24 6a 30 3d
       0.065839805 0.10300072 0.07886413 0.043069974
0001b0 74 56 7f 3d cf 5e 8f 3d 45 3a 83 3d 95 e6 1a 3d
       0.062338307 0.07000505 0.064075984 0.037817556
0001c0 17 e1 b8 3d 77 94 8a 3d 10 81 83 3d 03 d7 66 3d
       0.090273075 0.06766599 0.06421101 0.056357395
0001d0 a8 df 5f 3d 7a 2b 62 3d 9e 2e 84 3d 99 b6 6e 3d
       0.054656655 0.055217244 0.06454204 0.058279607
0001e0 1a ce 15 3d 28 d9 99 3d 52 f6 f4 3d f7 13 50 3d
       0.036573507 0.075121224 0.11961044 0.05080029
0001f0 4e 63 87 3d bf 72 ef 3c 43 2b a1 3d 36 b0 41 3d
       0.06610738 0.02922952 0.0786958 0.04728719
000200 c1 7a 9d 3d f3 e3 69 3d 7e 6d 8b 3d 42 f9 a5 3d
       0.07689429 0.057102155 0.06807993 0.08104183
000210 bc 63 36 3d d2 ab de 3c 09 c9 81 3d ce 35 71 3d
       0.044528708 0.02718154 0.063371725 0.058889203
000220 7e d1 6d 3d ce 27 5e 3d e8 44 83 3d c9 75 a5 3d
       0.058061115 0.05423718 0.06409627 0.08079106
000230 51 29 21 3d ac 31 4b 3d 1d ec 2f 3e 12 2c b2 3d
       0.039346043 0.049607918 0.17179914 0.08699812
000240 3d 86 b4 3d 3a 97 a7 3d 40 30 88 3d e4 8a 71 3d
       0.088146664 0.08183141 0.06649828 0.058970347
000250 3b 07 84 3d 78 21 80 3d e5 e8 45 3d 16 a6 6b 3d
       0.064466916 0.06256384 0.04831781 0.05753144
000260 48 26 9b 3d 63 ee 9a 3d 4b 67 19 3d 2a 84 8c 3d
       0.07575661 0.07565 0.037452023 0.06861146
000270 19 b0 5b 3d 74 0f 5b 3d 5b 4c bc 3d b3 09 31 3d
       0.053634737 0.053481534 0.09194251 0.04322214
000280 d4 d7 8f 3d 99 bf 8b 3d 2f 78 5f 3d 00 2f a6 3d
       0.07023588 0.06823654 0.054557975 0.08114433
000290 79 1a 8b 3d 1d db 68 3d 85 4c 97 3d 7a ff 6c 3d
       0.06792159 0.056849588 0.07387642 0.05786083
0002a0 22 02 a1 3d 6e 4a ac 3d c4 07 7d 3d c3 63 73 3d
       0.07861735 0.08412634 0.061774984 0.059421312
0002b0 f9 70 77 3d 9a da e9 3a 46 1a 97 3d 2d f1 8d 3d
       0.060410473 0.0017841638 0.07378058 0.06930766
0002c0 4e ca 86 3d 2b 81 89 3d 2c 0a 91 3d 1f 98 59 3d
       0.06581555 0.0671409 0.07082018 0.05312359
0002d0 c8 37 92 3d 34 b9 8d 3d 39 38 fd 3d a7 fe 57 3d
       0.07139546 0.0692009 0.12364239 0.05273309
0002e0 cd 74 60 3d c4 e1 94 3d 40 7a 87 3d 74 65 ab 3d
       0.05479889 0.07269624 0.06615114 0.0836896
0002f0 66 90 89 3d 85 bc 70 3d 4d 7f 84 3d 82 12 92 3d
       0.06716995 0.058773536 0.06469593 0.07132436
000300 af 3e 95 3d 1c 1a bd 3d ca 52 8e 3d 28 ac 7f 3d
       0.072873466 0.092334956 0.069493845 0.06242004
000310 ba 9f 96 3d ca ad 88 3d 54 ca 48 3d 51 db a0 3d
       0.07354684 0.06673773 0.04902108 0.07854331
000320 ac 98 86 3d 77 cd b9 3d fe 44 4f 3d c1 46 96 3d
       0.065720886 0.090723924 0.050602905 0.07337714
000330 f0 26 43 3d 0c de 76 3d eb 11 99 3d a8 7f 71 3d
       0.047644556 0.060270354 0.07474121 0.058959633
000340 10 8e 49 3c 58 76 b3 3d 3b f7 72 3d a2 d8 02 3d
       0.012301937 0.08762807 0.05931781 0.03194488
000350 bd e1 ec 3d e0 c8 4a 3d e6 0b 8e 3d e5 5a 84 3d
       0.11566494 0.049507976 0.06935863 0.06462649
000360 d2 8d 22 3d 26 a6 86 3d 28 37 97 3d 23 16 86 3d
       0.03968603 0.06574659 0.07383567 0.06547191
000370 62 78 79 3d af 97 50 3d ea 0a 9d 3d fb 06 2b 3d
       0.06090582 0.050925907 0.07668097 0.041754704
000380 33 e4 a6 3d 54 19 8a 3d 9f a3 5f 3d f0 b7 80 3d
       0.08148994 0.06743112 0.0545994 0.06285083
000390 1f cf 31 3d e3 f3 8f 3d dd 16 7c 3d 37 5f 1c 3d
       0.043410417 0.070289396 0.06154524 0.03817674
0003a0 13 66 b3 3d 2f 52 89 3d 98 a5 35 3d d2 21 c5 3c
       0.087597035 0.067051284 0.044347376 0.024063978
0003b0 e9 1a a3 3d 99 f7 61 3d 62 1f 75 3d 1b 9a 96 3c
       0.07964117 0.05516777 0.059844382 0.01838403
0003c0 be 4c 65 3d 6b 8f 8f 3d d5 b7 88 3d 5d 00 b6 3d
       0.05598139 0.07009777 0.06675688 0.08886788
0003d0 b0 d0 8e 3d 91 e2 7e 3d 77 28 2f 3d fc 54 7d 3d
       0.06973398 0.06222779 0.0427632 0.061848626
0003e0 4e 2e 74 3d 18 d2 97 3c 7a ec 28 3e c8 9c 59 3d
       0.059614472 0.018532798 0.16496459 0.053128034
0003f0 8f 4c 35 3d de 0e 5e 3d 20 d3 1d 3e a9 51 91 3d
       0.044262465 0.054213397 0.15412569 0.070956536

base.seq_fcs.2.weight f4 [256, 256]
000000 3a dc 59 bc de 45 24 3d da 08 56 bd d6 42 80 bd
       -0.013297135 0.040105693 -0.052254535 -0.06262748
000010 a4 ac ac bd a2 79 c4 ba 73 74 50 bc 05 43 cf bb
       -0.08431366 -0.0014989863 -0.012723076 -0.006325128
000020 88 9e 3a 3c a5 6f d6 bb 1d 98 17 bd a0 c3 c5 bb
       0.011390336 -0.006544071 -0.0370103 -0.006035283
000030 b9 d0 2b bd 70 8d 0a 3d f0 70 62 bd 47 09 e4 be
       -0.0419471 0.03382629 -0.055283487 -0.44538328
000040 2e d6 11 3d 63 bd 30 3c 7d 78 20 3d 2b bf fb bc
       0.03560465 0.010787341 0.039177407 -0.030730804
000050 c8 97 65 bd b9 12 15 3d 31 36 d6 3c 75 27 f1 3c
       -0.056052953 0.03639481 0.026148887 0.02943776
000060 04 ba 2d 3b e8 29 8a bd c4 78 cb 3c 1b 9f 0a 3c
       0.002650858 -0.06746274 0.024837859 0.008460785
000070 2c 7f 58 bd 0a bd 18 3d 95 bd 38 3d 76 97 fc bc
       -0.052855656 0.037289657 0.045102675 -0.030833941
000080 fd 3e 61 bc e8 9b 8d bd b1 1c 9c bd 68 96 b4 bc
       -0.013747928 -0.069145024 -0.0762266 -0.022044376
000090 a2 8f 96 bd dd 71 8b bd d5 5e 8a bc c3 97 06 bd
       -0.073516145 -0.06808827 -0.016890923 -0.032859575
0000a0 cf 95 3c bd 9e 8a 93 bd 01 a2 63 3d c2 61 b9 bc
       -0.046041306 -0.072041735 0.05557442 -0.022629622
0000b0 99 35 76 bd f1 ce 6b bd f6 48 73 3c 2d c8 87 bd
       -0.06010971 -0.0575704 0.014848938 -0.066299774
0000c0 a0 4b d1 3c 5b d1 87 bd a5 40 9e be 97 68 4b bd
       0.025548756 -0.06631728 -0.30908695 -0.04966029
0000d0 ce 6a e5 bb 1c 8a 8e 3c 6f 0b c8 bb 66 b9 2a bc
       -0.0070012575 0.01739984 -0.0061048786 -0.010420179
0000e0 b9 fa 68 3c 61 bb be 3a 5e dd 49 bd 75 06 75 bd
       0.014219933 0.0014551693 -0.049283378 -0.05982061
0000f0 5b 4b 48 3d 00 87 8a bd 41 96 2a bd ec b2 6a bf
       0.04889999 -0.067640305 -0.0416472 -0.91679263
000100 71 52 40 bc 5c 5e 42 3d 1e 43 64 bd 9e 20 27 3d
       -0.011738406 0.04745327 -0.05572807 0.04080259
000110 23 e1 a0 bd 9c 01 2d bd 5d 99 b8 bd 1d b0 d9 3c
       -0.078554414 -0.042237863 -0.09013627 0.026573235
000120 54 f8 5d bd 56 b2 0a bd 12 a7 0e bd af 9f da bf
       -0.054191902 -0.03386148 -0.0348273 -1.7079982
000130 dd 7b fb 3d 36 96 12 bd ae aa 19 3d 06 5c 86 3c
       0.122794844 -0.035787784 0.03751629 0.016401302
000140 90 97 06 bb cb e2 1a bc 50 51 be bc f1 69 f5 3a
       -0.0020537116 -0.009453486 -0.023232132 0.001872359
000150 14 17 7b bd 7d 16 5a bd 17 ef 57 3d 7c ce b7 3c
       -0.061301306 -0.053244103 0.05271825 0.022437327
000160 ff 94 6a bd 77 de 5c bc e3 69 63 bd 41 b4 9e 3b
       -0.057271 -0.013480774 -0.055520903 0.0048432653
000170 cf a9 23 3d ee a8 64 b9 7c 19 a8 bc bb 2b 78 bd
       0.039956864 -0.00021806706 -0.020519964 -0.06058858
000180 42 d1 a4 3a 99 0c 61 bd d5 48 52 3a e2 0e 3e 3a
       0.0012574571 -0.054943655 0.0008021717 0.00072501425
000190 c3 6e 90 bd 55 b6 49 3d bf 58 1f 3e f7 3c a6 bb
       -0.07052376 0.04924615 0.15561198 -0.0050731855
0001a0 0e 59 40 3d 0f 9a 8b bf f5 f0 00 bc a4 69 c2 bd
       0.04695993 -1.090639 -0.007869949 -0.094928056
0001b0 85 33 3a 3b 89 c1 99 3c 88 f0 17 bd 3d 28 5a bd
       0.0028412056 0.018769043 -0.037094623 -0.05326103
0001c0 e3 65 38 3d 89 e3 12 bd e8 d9 b7 3c c8 59 56 bc
       0.04501904 -0.035861526 0.022442773 -0.013082929
0001d0 4e 58 b3 3b 50 47 b0 bc d7 66 28 3d b3 ad 3e 3d
       0.005473173 -0.02151838 0.0411137 0.04655237
0001e0 6c b6 80 bd 57 fc 14 3b 99 a9 43 bf c6 d0 e8 bb
       -0.06284794 0.0022733414 -0.7643066 -0.007104966
0001f0 4d fa 46 bd a8 6b e1 3d ca 5f 50 bd be 0e 61 bc
       -0.04857855 0.11006862 -0.0508726 -0.013736425
000200 c8 2e af bc 1c 5c 44 bd 72 47 07 3d 73 e1 84 bc
       -0.021384612 -0.047939405 0.03302712 -0.016220784
000210 df 54 b9 bc c0 53 94 3d ed 77 aa 3b 63 7e 24 bd
       -0.022623478 0.072425365 0.0052022845 -0.040159594
000220 2f 51 3f bd ee 81 5a bd 3f e3 3d bd d9 d7 69 3d
       -0.046708282 -0.053346567 -0.046359297 0.057090614
000230 e1 44 f1 bb 00 3b 60 bd e9 4c f5 3e 73 45 9b 3c
       -0.0073629473 -0.054743767 0.4791024 0.018954014
000240 96 fb 5b 3b ee 76 97 bc 20 c4 4b 3d e9 d9 22 bc
       0.0033566705 -0.018489327 0.049747586 -0.009939649
000250 f3 7b 20 bc 26 dd 36 3c 75 e2 7d bd 7a d5 c3 3c
       -0.009795177 0.011161124 -0.061983544 0.023905504
000260 ba 01 61 bd 9f 64 50 bd 43 62 95 bd cc d1 3c bd
       -0.054933287 -0.05087721 -0.072941326 -0.046098515
000270 7b b8 5a 3c 5a 40 ee 3c c4 94 ad 3c a7 90 12 3d
       0.013349648 0.02908342 0.021189101 0.035782482
000280 3e 66 d4 bc b0 e6 09 bd 23 bb 05 3d 73 e1 86 bc
       -0.02592766 -0.033667266 0.03264917 -0.016464924
000290 f0 2a 37 bd 71 d9 19 3d 37 61 85 bd 07 24 02 bd
       -0.044718683 0.037560884 -0.06512683 -0.03177264
0002a0 0e 9f 01 bd a1 fb 1e bd fe e9 20 bd b1 3e c0 3b
       -0.031645827 -0.03881419 -0.039285652 0.0058668484
0002b0 b7 15 78 bd f9 d0 66 3e 35 53 0b 3d 9b 3e a9 bb
       -0.060567584 0.22540654 0.0340149 -0.005164934
0002c0 6c ab 1f 3c a5 0f 85 3b 6d b0 a7 bc 45 30 e1 bb
       0.00974546 0.004060703 -0.020469869 -0.0068722093
0002d0 06 d1 62 3d 01 e4 21 3d 94 91 6a be c6 42 2d 3d
       0.05537512 0.039524082 -0.22907096 0.04230001
0002e0 6b c6 af bc 32 e7 ed bc 27 ac 2d 3d c4 de f5 bc
       -0.021456918 -0.029040907 0.042400505 -0.03001345
0002f0 eb 39 97 3c 8f ad a0 3b c1 1e 3e bd be e6 5b 3d
       0.018460235 0.0049035023 -0.046416048 0.05368685
000300 9e 55 d8 ba bb 91 1b bd aa 92 0c bd c4 b5 78 bc
       -0.0016505008 -0.037980776 -0.034319557 -0.015180055
000310 72 63 49 bb 9e ae 45 3b 54 d6 c4 3c 46 b6 2e 3d
       -0.003072944 0.0030163894 0.02402798 0.0426543
000320 51 42 1d 3c 2e 1e a7 3c 91 73 87 bd 6b 16 c3 bb
       0.009598331 0.020400133 -0.066138394 -0.0059536
000330 a7 ab 97 3d 3b 13 a7 bd 75 9c 6a bd de 8a 79 bc
       0.07405787 -0.08157965 -0.057278115 -0.015230862
000340 4e 73 93 bd ca 98 20 3d 61 4a cd bb 56 be 72 bd
       -0.07199727 0.03920821 -0.00626497 -0.05926355
000350 86 30 6b bf 3d ff 20 3d 50 91 36 bd cb 35 89 3c
       -0.91870916 0.039305914 -0.044572175 0.016749283
000360 64 85 d6 3c d8 26 2f bb 96 ee dc bc 11 a5 77 3c
       0.026186652 -0.0026726034 -0.026969235 0.0151150385
000370 8d 79 00 bd f6 f9 23 3c 65 bf d0 3c 10 37 8c bd
       -0.03136592 0.010008326 0.025481889 -0.0684644
000380 e6 ab 9a 3b c2 c5 48 bc ed 46 47 bd b2 14 a4 ba
       0.004720199 -0.01225418 -0.048651624 -0.0012518375
000390 81 1f a1 bc e9 5f fe 3c fc 79 83 bd 8f 43 89 3b
       -0.019668343 0.031051593 -0.06419751 0.004188962
0003a0 ce 63 aa 3b 7d 0f d1 3c 9a 6c f6 3c 03 6e db bc
       0.005199886 0.02552008 0.030081082 -0.026785856
0003b0 44 f3 4e 3d 31 ef 3f bd b0 4c 36 3c b0 f3 22 3d
       0.050524965 -0.04685897 0.011126682 0.03978318
0003c0 22 5a 5b bd dd fe af 3c 3b 56 49 bd c9 f0 1a bd
       -0.053552754 0.021483833 -0.0491545 -0.037827287
0003d0 f7 74 43 bd 67 8b 96 bc ee e6 ad bd a2 36 04 bd
       -0.04771897 -0.01837702 -0.08491312 -0.032278664
0003e0 aa 81 05 3d b2 e6 e3 bb 60 57 ca 3c cd 92 56 3c
       0.03259436 -0.0069549913 0.024699867 0.0130965235
0003f0 ef 17 ff bc b4 01 f8 bc 73 69 7c 3e 6f b2 27 bc
       -0.031139342 -0.03027425 0.246496 -0.010235413

base.seq_fcs.2.bias f4 [256]
000000 27 f4 06 3e 1f e9 b1 3c 00 7f 98 3c 90 d0 c4 3c
       0.13179074 0.021717606 0.018615246 0.024025232
000010 c8 76 ad 3c 48 c0 ce 3d 7d d7 36 3d 9e a8 cf 3b
       0.021174803 0.100952685 0.0446391 0.0063372394
000020 8a bd 48 3e 43 b2 11 3e 23 4e e1 3b ec c3 68 3c
       0.19603553 0.14228158 0.0068757697 0.014206868
000030 a2 d3 9b 3b ca 11 cc 3c 70 2e 80 3e e7 5c 12 3d
       0.004755453 0.024910826 0.2503543 0.03573313
000040 ae c4 b9 3d 09 76 09 3e 66 a3 c4 3c 8d c3 23 3e
       0.09070717 0.13423933 0.024003696 0.15992565
000050 24 b2 75 3c 4c 38 b1 3b 68 9a dd 3d be 19 aa 3c
       0.014996085 0.0054083224 0.10820466 0.020764228
000060 06 c3 cf 3d 7d e4 b0 3c 70 2e 24 ba 5d e8 b5 3c
       0.1014462 0.021593327 -0.0006263023 0.022205526
000070 b0 48 4e 3c a9 cb 25 3c 03 35 0d 3d 0b ba 0c 3d
       0.012590572 0.010119357 0.034474384 0.034357112
000080 df 77 f3 3c fc 93 1e 3e 2f e9 13 3e 0b 9d 85 3c
       0.029720245 0.15486139 0.14444421 0.016310235
000090 7c 38 c0 3d 83 1b a5 3c 7a 5d 2f 3c be a6 af 3b
       0.093857735 0.02015472 0.010703439 0.0053604534
0000a0 7d 7e e5 3d 4f 23 2b 3e 43 d6 c3 b9 a8 23 8a 3c
       0.11205766 0.16712688 -0.00037352936 0.016862705
0000b0 ce 24 29 3e 13 d6 75 3c bf 90 7e 3c ed 1e f4 3d
       0.16517946 0.015004653 0.01553744 0.11919961
0000c0 7b c5 64 3c 28 05 bd 3c 5f 88 8a 3c 44 8a b1 3d
       0.013963099 0.023073748 0.01691073 0.0866895
0000d0 f5 7f 0f 3e 2d d4 91 3c f1 f2 1a 3c 0e 2b fe 3d
       0.14013655 0.017801369 0.009457336 0.12410556
0000e0 8b ee 87 3c 38 bb 25 3c b7 5b cb 3c e6 de c8 3c
       0.016593238 0.010115437 0.024824006 0.024520349
0000f0 3a 44 87 3c 5c e4 f0 3c dc b9 b2 3c e4 00 c0 3b
       0.016512025 0.029405765 0.02181714 0.005859481
000100 de ab 4e 3d 33 e8 d8 3d 47 a8 f5 3d 05 5e 04 3c
       0.050456874 0.105911635 0.11994987 0.008079057
000110 45 fb 8b 3c 0c ab 5d 3c 5b c8 3f 3c e4 1c ab 3c
       0.017087588 0.01352955 0.011705483 0.0208878
000120 71 09 5b 3d dc de ea 3c 99 e6 85 3b c5 3c 92 3d
       0.0534758 0.02867072 0.0040863273 0.07140497
000130 50 40 9b 3d a1 9e 20 3e 45 2f 69 3c 9f ff 15 3e
       0.07580626 0.15685512 0.014232461 0.14648293
000140 48 54 78 3c af 70 90 3b 18 e9 4e 3c 9b e3 00 3c
       0.015156813 0.004407964 0.012628816 0.007866765
000150 5f 3c b5 3c d4 f5 6d 3c c6 8b 92 3e c2 d5 9e 3c
       0.022123514 0.014523942 0.28622264 0.019389037
000160 c7 2a 2b 3c 65 eb 95 3e 5f bf b6 3d 51 95 26 3e
       0.010447211 0.29281154 0.0892322 0.16267897
000170 cb 22 e7 3c c2 f3 53 3c 9c 94 93 3d 02 76 e1 3d
       0.028214833 0.012936534 0.07206079 0.11008836
000180 b4 56 b3 3d 9c 76 f5 3c 36 1f 10 3d 53 2e 14 3e
       0.08756772 0.029963784 0.035186015 0.14470796
000190 e0 8d a5 3c 99 8a 57 3c 62 04 21 3e a6 eb 5f 39
       0.020209253 0.013155603 0.15724328 0.00021354723
0001a0 17 a8 93 3c 68 d0 39 3d 18 98 78 3c 9b 9f db 3c
       0.018024487 0.045364767 0.015172981 0.026809504
0001b0 04 ae 1d 3b d9 68 c3 3c 77 62 be 3c 75 26 01 3e
       0.002406002 0.023853706 0.023240311 0.12612326
0001c0 79 f0 dc 3d 24 d8 cc 3c 97 30 8d 3c 4e 8b 9b 3d
       0.10788054 0.025005408 0.017235084 0.0759493
0001d0 f2 62 dc 3d 8c a1 d8 ba 58 08 de 3d 2c 6f 06 3e
       0.1076106 -0.0016527637 0.10841435 0.13128346
0001e0 52 25 34 3c 51 59 c9 3d 99 3f 96 3c a6 56 20 bc
       0.010995226 0.09831489 0.018340873 -0.009786284
0001f0 12 5c 75 3d 80 7d 56 3c c3 ec df 3d 7b 7a 27 3e
       0.05990226 0.013091445 0.109338306 0.16355316
000200 91 79 9a 3c 98 bf 35 3c 9a 09 1b 3e 73 63 31 3c
       0.018856796 0.011093043 0.15140381 0.010826933
000210 01 1e fa 3b e8 68 d9 3c eb 4d fa 3d 64 27 d1 3c
       0.0076329713 0.026539281 0.12221893 0.025531478
000220 61 fa 1a 3e c6 c0 ea bb 07 83 b9 3c 19 6c 24 3e
       0.15134574 -0.0071640937 0.022645487 0.16056861
000230 fd 82 fc 3d d5 dd 10 3e d2 b1 aa 3b 03 4f bb 3c
       0.123296715 0.14147122 0.005209186 0.022864824
000240 07 b6 77 3b 7d b1 95 3c 5c f7 c7 3d 34 a9 cd 3d
       0.0037797706 0.01827311 0.09763977 0.100420386
000250 18 1a 34 3c 5e 7b 93 3e 8a 7d 2e 3e 9e 9c 95 3c
       0.010992549 0.2880506 0.17040077 0.018263157
000260 cf 5d 26 3c 9c 87 0d 3e 69 4e b5 3d c0 16 a4 3c
       0.010154202 0.13821262 0.08852846 0.02003038
000270 ae 9c 0d 3e 3a 40 8e 3c e8 30 95 3c 48 a3 f2 3c
       0.138293 0.01736461 0.018211797 0.029618874
000280 02 26 4c 3c c2 39 4e 3d 75 2e c6 3d 23 0d 4b 3e
       0.012460234 0.05034805 0.0967683 0.1982923
000290 1d 47 a9 3d 53 3a a9 3d 3d 7b e8 3d 66 2f 94 3c
       0.08265517 0.082630776 0.11351631 0.018089008
0002a0 15 9d c5 3c bf a9 11 3e 95 4d c3 3d f0 86 4b bb
       0.024122754 0.14224909 0.09536282 -0.003105577
0002b0 f7 99 f6 3d 7e d0 25 3e 85 1c 01 3e 85 47 e6 3d
       0.12041085 0.16192815 0.12608536 0.1124411
0002c0 06 a9 44 3c 8f d1 d7 3d 7b fc af 3b 7d 2d d3 3d
       0.012003189 0.10538017 0.005370674 0.103114106
0002d0 61 bf 00 3e 42 82 90 ba cc 83 d8 3d 01 7c 53 3b
       0.12573005 -0.0011025148 0.10572013 0.0032269957
0002e0 4a 17 2f 3e ff b3 50 3c c6 e3 5c 3c dc f4 36 3e
       0.17098728 0.012738227 0.01348204 0.17866844
0002f0 13 ee 9d 3b 74 b5 82 3d ae 20 e0 3d 7f f4 f3 3d
       0.0048196404 0.06382266 0.10943733 0.11911868
000300 b6 49 97 3c 71 95 e8 3d d4 53 b9 3b d2 9e 8b 3d
       0.018467765 0.11356629 0.005655745 0.06817402
000310 a1 7d 1f 3d 37 a6 1d 3e 7d 3a c0 3c c6 bb c4 3c
       0.03893817 0.15395437 0.02346539 0.024015319
000320 92 40 2c 3e 6a b0 07 3d fb da 80 3d 57 20 8f 3c
       0.16821507 0.033127226 0.06291767 0.017471476
000330 2c 79 1d 3c d8 08 9b 3b 83 ec 21 3c db cf d7 3c
       0.009611409 0.004731279 0.009883049 0.02634423
000340 46 91 c6 3c 51 a2 9a 3c a1 fa 2d 3e 09 f7 84 3d
       0.024239194 0.018876227 0.16990139 0.06492431
000350 d7 97 b0 3c 8a 9e 7b 3e d8 49 72 3c eb 30 8c 3c
       0.021556778 0.24572197 0.014788114 0.01711317
000360 74 93 d5 3c 8f 44 d2 3d f1 19 e5 3b 07 ce 85 3c
       0.026071288 0.10266983 0.006991618 0.016333593
000370 52 1c ce 3b a9 fa 80 3b 42 6d a6 3c e3 fe 46 3e
       0.006289997 0.003936131 0.02031577 0.19433169
000380 1a 41 a2 3c 8c 3a 91 3c be a1 bb 3d c2 a6 d4 3c
       0.019806433 0.017728113 0.09161709 0.025958423
000390 e9 8a 03 3e c0 72 d7 3c b1 4c 55 3c ff 82 ab 3b
       0.12845959 0.026299834 0.013018773 0.005234122
0003a0 f7 43 7b 3d c6 bf c5 3c 0f 70 b7 3c 89 40 ea 3c
       0.061344113 0.024139296 0.0223923 0.028595226
0003b0 90 b9 82 3d a2 e0 12 3e 79 4e b4 3c 70 c2 0f 3e
       0.063830495 0.14343503 0.022010075 0.14039016
0003c0 73 12 7e 3c 51 60 91 3c 20 8d 3a 3c e3 13 bc 3c
       0.015507328 0.017746123 0.011386186 0.022958701
0003d0 e8 b0 a8 3d 21 14 aa 3d 52 96 c7 3c d7 33 e3 3a
       0.08236867 0.083046205 0.02436367 0.0017334175
0003e0 5f a0 92 3b 9c 04 96 3d 13 c3 87 3c 43 39 c7 3c
       0.004474684 0.07325098 0.01657251 0.024319297
0003f0 ae 57 45 3e 9a 23 31 3e fc 41 ac 3c a0 60 0a 3e
       0.19271728 0.17298737 0.021027558 0.13513422

last.weight f4 [8, 256]
000000 85 e8 a3 3e 1e 66 3c bb a1 e2 06 bc 81 6e 6d bd
       0.32013336 -0.002874739 -0.0082327435 -0.057966713
000010 e0 07 a8 bd 59 be dd 3e 6f f6 0d 3e d3 2b a4 bb
       -0.08204627 0.43309286 0.13863538 -0.005010107
000020 ef 15 5a be ba f6 e2 3e c5 2c 9e bb ad d8 c1 bb
       -0.2129743 0.44328862 -0.0048271143 -0.0059157223
000030 bd df ff bc eb 07 4e 3b be 54 5a be e8 20 89 bd
       -0.031234616 0.0031437825 -0.21321389 -0.066957295
000040 46 a5 d0 3e d8 6a a7 be 10 13 48 bb 43 d7 63 be
       0.40751094 -0.32698703 -0.003052894 -0.22250085
000050 32 c9 2e bc b7 d5 5c bc eb af 93 3e 65 93 e1 ba
       -0.010668086 -0.013478688 0.28845152 -0.0017210065
000060 b5 99 76 bf f5 60 2f bd 10 1f bd 39 8c fe 7b bc
       -0.9632829 -0.042817075 0.00036072033 -0.015380513
000070 ea 31 24 bd 19 8a ad bc 0e 4c 93 bb 48 e0 00 bd
       -0.040086664 -0.021184014 -0.0044951504 -0.03146389
000080 75 63 0a bd 3f 02 67 be 9b 21 cb bd b6 b6 de 3b
       -0.033786256 -0.2255945 -0.09918519 0.006796683
000090 4b 01 ca 3e 1d 23 9b bb b4 4c 47 ba 8e 80 c0 bc
       0.3945411 -0.0047344104 -0.0007602677 -0.0234988
0000a0 9c 92 ba bb 5e fd 2b bd ff d4 f2 bc b8 7f ad bc
       -0.0056937467 -0.041989677 -0.02964258 -0.021179065
0000b0 e3 72 a9 3e ae 0b ac 39 33 76 bc bc a9 d0 c6 3e
       0.33095464 0.00032815099 -0.02300558 0.3883107
0000c0 a1 94 9b 3c d8 77 14 3c 47 ba dc 38 60 85 98 3e
       0.01899177 0.009061776 0.00010525114 0.29789257
0000d0 fe fa 02 3f 56 e6 0f 3b da fc e6 bb fe 0c 21 bf
       0.51164234 0.002195736 -0.007049185 -0.6291045
0000e0 6f c5 30 bb fb c1 22 bb 78 fe fe bc 3a dd 7e 3c
       -0.0026973148 -0.002483486 -0.0311272 0.015555674
0000f0 1e aa 40 bd 1f f5 4b bc 90 f3 b5 3c ca e6 43 ba
       -0.047037236 -0.012448578 0.022210866 -0.000747305
000100 af 83 0f 3d 17 1a 1e 3d 27 92 8d be a3 dc 8c 3b
       0.035037693 0.0385991 -0.27650568 0.004298763
000110 8f 2c 81 3c 7d 92 82 bb 11 db 42 ba 6e a0 3c bc
       0.015768318 -0.003984748 -0.0007433156 -0.011512859
000120 a0 98 9c 3e 1f 0a 06 bc 33 fa b8 bb 1e e2 4c be
       0.30585194 -0.008181124 -0.0056450604 -0.20008132
000130 17 74 ca 3e 29 2f fe 3e fa a8 0f 3c d6 90 0b be
       0.39541695 0.49645355 0.0087683145 -0.1362947
000140 0c ec 4b bc 61 d7 8b bc 7f a4 19 3c e6 a6 13 3c
       -0.012446415 -0.017070474 0.009377598 0.00901196
000150 88 65 09 bc 3d 86 49 bc 12 a5 20 be cc 0d 29 bd
       -0.008386023 -0.012300071 -0.1568797 -0.041272923
000160 65 18 76 bb 14 4e cb bd 92 4e 05 bf f3 34 37 be
       -0.0037551161 -0.099270016 -0.52073014 -0.17891292
000170 d2 20 17 bd 0b ea eb bd e0 3f c2 3e e7 24 6d be
       -0.036896534 -0.115192495 0.37939358 -0.23158608
000180 59 27 a3 3b 75 38 cb 3c 52 30 da 3d 3b fa 73 3e
       0.004979056 0.024807194 0.106537476 0.23825924
000190 f2 04 15 bd 43 4a b7 3b f9 10 51 bf fa fa 81 bc
       -0.03638167 0.0055935695 -0.81666523 -0.015866745
0001a0 3b 46 ec 3b d4 22 ac be 20 d1 ce 3c 1b 7c 00 bc
       0.0072105206 -0.33620322 0.025246203 -0.007842089
0001b0 07 98 23 bc 75 97 b4 bc b6 a3 a6 3c 08 fb 5b bf
       -0.009984977 -0.022044877 0.020341735 -0.8592992
0001c0 3a f4 ab 3e 2d cf 58 bd 2c a6 84 bc 5c b4 d2 be
       0.33584768 -0.052931953 -0.016192518 -0.41153228
0001d0 82 c8 d1 3e 84 88 75 bc fd 0d b9 3e 94 69 ee 3e
       0.40973288 -0.014986161 0.36143485 0.46564925
0001e0 c6 c9 99 3c a4 2c db 3e 17 63 82 3c 16 37 89 3c
       0.01877297 0.42807496 0.01591639 0.0167499
0001f0 39 d6 b6 be b2 72 32 bc db 7b ff 3e a0 df 7a be
       -0.35710314 -0.010891603 0.49899182 -0.24499369
000200 e7 33 23 3c d9 8d 3f bd 9a ef eb 3e e8 b5 18 bd
       0.009961105 -0.046766136 0.4608124 -0.037282854
000210 5c 32 38 bb 2d 74 b3 bb 2b 4f d9 3e 26 c7 37 bc
       -0.0028106188 -0.0054764957 0.42443213 -0.011216914
000220 fc 94 16 be 4c b6 fa bb e8 f4 1e 3b 62 26 5b bf
       -0.1470527 -0.007651126 0.0024254862 -0.8560544
000230 50 57 12 be 9e 23 cc 3e f3 e4 3b 3b e6 c7 41 bc
       -0.1429112 0.39870924 0.00286704 -0.011827445
000240 18 66 be bb 0a d6 cd ba f2 62 92 be 33 fa a6 3e
       -0.0058105104 -0.0015704047 -0.28591114 0.32612762
000250 71 e2 b4 3b 1b c6 e8 bd 8e d3 8f be b1 a0 cc 3b
       0.005520158 -0.113659106 -0.2809109 0.006244742
000260 b1 18 d4 3c 31 db 7f bf 5f f0 65 3d 59 c9 ba 3b
       0.02589068 -0.99943835 0.05613744 0.005700272
000270 32 bd 7d be 4b ef ac bc 66 76 ba ba 92 aa 8c 3c
       -0.24779204 -0.021110198 -0.0014225959 0.017171178
000280 dd 95 82 3c 0e f1 ba be 1f a8 36 bf 9a 2e 78 be
       0.015940601 -0.36512035 -0.7135028 -0.24236527
000290 58 80 06 3f d1 07 c4 be 45 06 ad 3c 7f b5 83 bc
       0.5253959 -0.38287213 0.021121154 -0.016077755
0002a0 1d 60 09 be 0d 04 f0 3e 4d 2e be 3e 59 6c 03 bc
       -0.1341557 0.4687809 0.371447 -0.008021438
0002b0 c6 61 f4 3e 3c 2f 00 bd f7 7a 4a bd c2 a5 ea 3e
       0.47730845 -0.031295046 -0.049433675 0.45829588
0002c0 40 63 29 bd 25 c4 7f be b3 44 f6 bd 6e 3b 9a 3d
       -0.041354418 -0.24977167 -0.12024822 0.075308666
0002d0 29 02 d4 3e 33 a4 03 bc f3 2b 53 bf cb 6c fe bb
       0.41407898 -0.008034754 -0.82488936 -0.007764434
0002e0 23 a4 75 be 15 5c 68 39 74 82 c5 bb e3 46 28 be
       -0.23988394 0.00022159547 -0.006027514 -0.16433291
0002f0 d4 1a 11 3b 5b f3 ee bc f3 24 d7 be 59 ee ef 3c
       0.0022141235 -0.029168775 -0.42020378 0.029288458
000300 b7 dd 63 3c dc 38 6e 3e 01 ac 0e bd 0a 1a 53 be
       0.013907841 0.23263878 -0.034832004 -0.20615402
000310 e8 e5 1d bd 16 4e 73 be 82 9a 1e bb 4c 09 06 bb
       -0.038549334 -0.23760256 -0.002420098 -0.0020452319
000320 77 a5 e1 bc 76 14 97 bd d9 9e bc 3e fa 78 a9 bb
       -0.02754472 -0.073769495 0.3683994 -0.0051718922
000330 37 b8 d4 3b e4 29 1d 3c d0 34 53 bc 2e 11 e8 bb
       0.0064916867 0.009592507 -0.012891009 -0.007082126
000340 ef ec 2d bc eb aa d9 bd 86 d5 34 be c8 cc d0 be
       -0.010615571 -0.10628303 -0.17659578 -0.40781236
000350 0e c5 71 3b 04 84 05 be b8 e7 c3 bc e1 52 14 bd
       0.0036891135 -0.13038641 -0.023914203 -0.036211852
000360 70 fd 58 3c 55 9f e7 3e 48 f8 95 bc 63 1c 9b bb
       0.013244018 0.45238748 -0.018306866 -0.0047336086
000370 c9 76 00 3d c5 a7 20 bc 00 47 0e 3b 91 5f 79 be
       0.031363282 -0.009805624 0.00217098 -0.24352862
000380 68 8f 3e bc 8f 02 d1 bb 11 be 98 bd e5 11 e1 ba
       -0.01163087 -0.006378479 -0.07458127 -0.0017171471
000390 38 3e b4 3e e6 16 4e bd d7 d2 f8 bc 1f 3a 54 bd
       0.3520372 -0.050314806 -0.030373974 -0.05181324
0003a0 de 3a 6e be 20 c2 f6 bc 1d d6 51 39 9e 51 dd bb
       -0.23264644 -0.030121863 0.00020011557 -0.0067541143
0003b0 ba f6 23 be f7 37 a4 bd 6c 71 3e bc 21 26 28 be
       -0.16012087 -0.08018487 -0.011623722 -0.16420795
0003c0 1d a1 06 bb 13 48 96 bc 90 1c fa 3b 34 b0 02 bd
       -0.0020542808 -0.018344915 0.0076327994 -0.03190632
0003d0 26 ff dd be dc df df 3e 76 a1 75 bb ea 12 ac 3d
       -0.43358725 0.4372548 -0.0037480271 0.08402045
0003e0 08 75 96 bd e8 b3 94 be 77 f1 b4 3b 27 03 49 bc
       -0.07346541 -0.29043508 0.005521949 -0.012268818
0003f0 ac 94 6d bf f2 d5 81 bf 5e cb 86 3c 97 8d 29 be
       -0.9280498 -1.0143416 0.016454395 -0.16557918

last.bias f4 [8]
000000 ea d8 80 bd 0b b2 31 3e 78 b1 a8 3d a3 a7 d2 bd
       -0.06291373 0.17353074 0.082369745 -0.102858804
000010 81 8e 20 bd bb 95 45 bd a4 a3 02 be 49 eb 51 bc
       -0.039198402 -0.048238497 -0.12757736 -0.012812444
