Soft-Module-main/log/model50_10/model_vf_best.pth (torch, 280037 bytes, 5 tensors)

base.seq_fcs.0.weight f4 [256, 12]
0	0xbf3c116f	-0.734641
1	0x3e26dab9	0.16294374
2	0xbcf35a16	-0.029706042
3	0xbbcc04b9	-0.006226149
4	0xbdad18be	-0.08451985
5	0x3c692129	0.014229097
6	0xbce96fc8	-0.028495684
7	0x3d618ad2	0.05506403
8	0x3c7d26b8	0.015451126
9	0xbc56a620	-0.013101131
10	0xbd4f208b	-0.050568145
11	0x3b1ff628	0.0024408195
12	0xbf4417c0	-0.7659874
13	0x3de1b0ad	0.11020026
14	0xbc29a27c	-0.010353681
15	0xbd12ffee	-0.035888605
16	0xbd81d1cd	-0.063388444
17	0x3d15948b	0.036518615
18	0xbc5b4a10	-0.013384357
19	0x3d1ceafa	0.03831003
20	0x3ccee8b8	0.025257453
21	0x3d158e7f	0.036512848
22	0xbd1be2e5	-0.03805818
23	0xbd20447d	-0.039127816
24	0xbf0b693a	-0.5445744
25	0x3d2a2436	0.04153844
26	0xbdd0760d	-0.101787664
27	0xbe16f3fb	-0.14741509
28	0x3d540421	0.05176175
29	0x3dbaf502	0.09128763
30	0x3aa83600	0.0012833476
31	0x3d4adaea	0.04952518
32	0xbd77a8c8	-0.060463697
33	0x3d8382a9	0.06421406
34	0x3cfd59bd	0.03092658
35	0x3c8af698	0.016963288
36	0xbf201bfa	-0.6254269
37	0x3da432e8	0.08017522
38	0xbd3156c9	-0.043295655
39	0xbe011d51	-0.1260884
40	0xbdd346b5	-0.10316221
41	0x3ae79ed2	0.0017671234
42	0xbd18fe28	-0.037351757
43	0x3cc9b534	0.024622537
44	0xbc2b6c98	-0.0104629025
45	0xbd87d9f7	-0.0663337
46	0xbd3b6861	-0.04575384
47	0xbc1719e9	-0.009222486
48	0xbf478e51	-0.7795153
49	0x3e167f6d	0.14697047
50	0xbc624792	-0.013811009
51	0xbb5208af	-0.0032048633
52	0xbd70e9fc	-0.058816895
53	0xbd0cadac	-0.034345314
54	0x3b4934c0	0.0030701607
55	0x3cec5cf0	0.02885291
56	0x3c778210	0.015106693
57	0xbd3f2c36	-0.046673022
58	0xbd4547b5	-0.04816409
59	0x3d08b98c	0.033380076
60	0xbf74e474	-0.9566109
61	0x3dc596c5	0.09647898
62	0x3dfb9c28	0.12285644
63	0xbe023cdb	-0.12718527
64	0xbd18d27d	-0.037310112
65	0xbd57e455	-0.05270799
66	0x3d569cfa	0.0523958
67	0xbd0cd4c4	-0.034382597
68	0xbba8b910	-0.0051490143
69	0xbe00b966	-0.12570724
70	0xbdbb787c	-0.0915384
71	0xbdbbd3f4	-0.09171286
72	0xbf1cd126	-0.61256635
73	0x3e1b59bd	0.15170951
74	0xbc8efab9	-0.017453538
75	0xbd50ebdb	-0.05100618
76	0xbd482660	-0.048864722
77	0x3da84a98	0.08217353
78	0x3d21568a	0.03938917
79	0xbd72d4b0	-0.059284866
80	0x3d7bf668	0.06151429
81	0x3d92e538	0.07172626
82	0x3bc569d0	0.0060245767
83	0x3c3274a1	0.010892064
84	0xbf3e5d56	-0.7436117
85	0x3dcada62	0.099049345
86	0xbd7ad083	-0.06123401
87	0xbd22522a	-0.03962914
88	0xbd704cf1	-0.058667127
89	0x3ce22645	0.027606139
90	0x3d1bb366	0.038012885
91	0x3d28d26a	0.04121629
92	0xbd1cb626	-0.038259648
93	0x3d74fe42	0.05981279
94	0xbd6a1629	-0.05715004
95	0x3d3a6588	0.045506984
96	0xbf21511c	-0.6301439
97	0x3e26a324	0.1627317
98	0x3c8c0c3f	0.017095683
99	0xbd449d79	-0.04800174
100	0x3dbce2a8	0.09222919
101	0x3de9178f	0.113814466
102	0x3d15b714	0.03655155
103	0xbd293a0a	-0.041315116
104	0x3d6c1836	0.057640277
105	0x3dda5464	0.106606275
106	0x3e06952c	0.13142842
107	0x3d988106	0.07446484
108	0xbf413510	-0.7547159
109	0x3e038c4c	0.12846488
110	0xbd98bf85	-0.074584045
111	0x3cc235f4	0.023707367
112	0x3c61e561	0.013787598
113	0x3c1a4196	0.009415051
114	0x3c82876c	0.015933715
115	0x3d5c50d8	0.053788036
116	0x3d7447f8	0.059638947
117	0x3d85acb9	0.06527085
118	0x3d5682fd	0.052371014
119	0xbaf10afa	-0.0018390112
120	0xbe0e79b2	-0.1391361
121	0x3e0a1679	0.13485135
122	0xbd8da08e	-0.06915389
123	0xbe98ae87	-0.29820654
124	0xbcfe459d	-0.031039054
125	0xbda919a0	-0.08256841
126	0xbb6afda0	-0.0035856739
127	0x3d79b4ee	0.060963564
128	0xbd00a46a	-0.031406797
129	0xbdad7df9	-0.08471293
130	0x3c66442f	0.014054342
131	0x3cb87e4f	0.022521166
132	0xbf26e4bc	-0.6519277
133	0x3ddce967	0.107867055
134	0xbd9338fa	-0.07188602
135	0xbde3162d	-0.11088214
136	0xbdd39d08	-0.10332686
137	0xbd8156dd	-0.06315396
138	0xbc47a8a0	-0.012186199
139	0xbc6d6718	-0.0144899115
140	0xbd7ff254	-0.06248696
141	0x3c2cdf2f	0.010551258
142	0xbd80904a	-0.06277521
143	0x3b7700e7	0.0037689747
144	0xbf7312d9	-0.94950634
145	0x3d0d93b3	0.034564685
146	0x3e85f4ef	0.26163432
147	0xbdd85115	-0.1056234
148	0xbda3fffb	-0.08007809
149	0xbd7b8c53	-0.06141312
150	0xbbbd6650	-0.005780019
151	0x3d54e2f6	0.05197426
152	0x3cde53e0	0.027139604
153	0xbde5ddb8	-0.1122393
154	0xbd496c12	-0.04917533
155	0xbd4ae122	-0.04953111
156	0xbef07a80	-0.4696846
157	0xbda818b6	-0.08207838
158	0xbdb4530b	-0.08804902
159	0xbe7bb3df	-0.24580334
160	0xbd0f4bc5	-0.03498437
161	0xbe1e7849	-0.15475573
162	0xbd2d9e8a	-0.042387523
163	0xbc0b7558	-0.008511864
164	0x3c83c4ec	0.01608511
165	0xbe0e79be	-0.13913628
166	0xbd82b122	-0.06381442
167	0xbe1e9771	-0.15487458
168	0xbf2c9bf6	-0.6742548
169	0x3dfd24f5	0.123605646
170	0xbdb6c22f	-0.08923756
171	0xbd8aa91d	-0.06770537
172	0x3d5d3b2e	0.054011516
173	0x3da11249	0.07864816
174	0xbc9b5270	-0.018960208
175	0x3d072dd4	0.03300269
176	0x3c21fbd8	0.009886704
177	0x3caf7e77	0.021422608
178	0x3dd2aff7	0.10287469
179	0x3dbd4e7f	0.092434876
180	0xbf41b93c	-0.7567327
181	0x3dfcaa7e	0.12337206
182	0xbd9b25f4	-0.07575598
183	0xbbced1c5	-0.0063116276
184	0xbda59cbb	-0.080865346
185	0x3d199edb	0.037505012
186	0x3ceaa810	0.028644592
187	0xbc5f3778	-0.013624065
188	0x3d216e3a	0.03941176
189	0x3d6c5964	0.057702437
190	0x3af3ca27	0.0018599675
191	0xbae58d29	-0.0017513382
192	0xbe279802	-0.1636658
193	0x3dd7ed87	0.105433516
194	0xbe181e32	-0.14855269
195	0xbee62a80	-0.449543
196	0x3d243ce1	0.04009712
197	0xbd727279	-0.0591912
198	0x3cd2857c	0.025698416
199	0xbca5e494	-0.020250596
200	0xbb817120	-0.003950253
201	0xbda0f9e7	-0.07860165
202	0xbd878282	-0.06616689
203	0xbc334104	-0.010940794
204	0xbf2f7b7a	-0.68547785
205	0x3dc9180d	0.098190404
206	0xbd5f7b46	-0.054560922
207	0xbcfc6dfa	-0.03081416
208	0xbdc5facb	-0.096669756
209	0x3d2a483f	0.041572805
210	0xbd7c83b8	-0.061649054
211	0x3d047216	0.032335363
212	0x3cfca1c8	0.030838862
213	0x3d6d72f1	0.057970945
214	0xbc943d23	-0.018095559
215	0xbd483413	-0.048877787
216	0xbf17424f	-0.59085554
217	0x3db471fa	0.08810802
218	0xbd8e6fc6	-0.06954913
219	0xbd9fb423	-0.0779803
220	0x3d8eabeb	0.069663845
221	0xbb415021	-0.0029497223
222	0x3c139de8	0.009009816
223	0x3b940640	0.0045173466
224	0x3ad8f640	0.001655288
225	0x3c732af6	0.014841786
226	0x3dc39442	0.09549762
227	0x3ccccb21	0.024999203
228	0xbe823417	-0.25430366
229	0x3d79a948	0.060952455
230	0xbd317570	-0.043324888
231	0xbeba2ecd	-0.3636383
232	0xbd63cf92	-0.055617876
233	0xbd3244ae	-0.04352253
234	0xbd12bedc	-0.03582655
235	0xbbfcf3d0	-0.0077194944
236	0x3c62ad60	0.013835281
237	0x3cdf2bcb	0.027242562
238	0x3bd4f10c	0.0064984616
239	0x3c8f98bb	0.017528882
240	0xbf2da451	-0.6782885
241	0x3d97378e	0.07383643
242	0xbe0c95e2	-0.13729051
243	0xbd4a0792	-0.049323626
244	0xbd80b49b	-0.06284448
245	0xbc97bf5b	-0.018523863
246	0xbd7703c6	-0.060306333
247	0xbc7ddb88	-0.015494235
248	0xbd3a3f0a	-0.045470275
249	0x3d20f6a7	0.039297726
250	0xbd6ba419	-0.057529543
251	0x3ce51f24	0.02796895
252	0xbf2c91b9	-0.67409855
253	0x3d1ac1ab	0.037782352
254	0xbd399d1c	-0.045315847
255	0xbdee72dd	-0.11643002

base.seq_fcs.0.bias f4 [256]
0	0x3de4f060	0.111786604
1	0x3dbe512d	0.09292827
2	0x3e0d4ef6	0.13799652
3	0x3da41ac0	0.08012915
4	0x3dc2f644	0.09519628
5	0x3be703cd	0.0070500136
6	0x3dfb2630	0.12263143
7	0x3dcb08c1	0.09913779
8	0x3e3d9571	0.18514039
9	0x3e09ca79	0.13456143
10	0x3d7b5141	0.061356787
11	0x3dc699f2	0.096973315
12	0x3d02a19c	0.031892404
13	0x3b1e7fba	0.0024185018
14	0x3e1c7ed7	0.1528276
15	0x3df35f21	0.11883379
16	0x3d82fc0b	0.0639573
17	0x3dd9c2f0	0.106328845
18	0x3e22ad99	0.15886535
19	0x3d937bb9	0.072013326
20	0x3dd044ab	0.101693474
21	0x3dc81433	0.09769478
22	0x3dc087a1	0.09400869
23	0x3e450eae	0.19243881
24	0x3de4467f	0.111462586
25	0x3daf4cb3	0.08559551
26	0x3da75e0d	0.08172236
27	0x3dd06f84	0.1017752
28	0x3de2ea60	0.1107986
29	0x3daa2c8a	0.083092764
30	0x3ce0672e	0.02739295
31	0x3d83278f	0.064040296
32	0x3dfdd446	0.123940036
33	0x3e33b301	0.17548753
34	0x3de418d2	0.111375466
35	0x3d96751a	0.07346554
36	0x3d6378fd	0.055535305
37	0x3daa7bc1	0.083243854
38	0x3df790c5	0.120881595
39	0x3e03ed2a	0.1288344
40	0x3db6445e	0.08899759
41	0x3e0aa1f6	0.13538346
42	0x3e024756	0.12722525
43	0x3d6bc5c3	0.057561647
44	0x3db92622	0.090404764
45	0x3d926132	0.07147445
46	0x3dfbf6cf	0.123029344
47	0x3e02ac3e	0.12761018
48	0x3db50f31	0.08840788
49	0x3e1a3ff9	0.15063466
50	0x3dac9b7c	0.08428094
51	0x3e148f84	0.14507872
52	0x3e1c467b	0.15261261
53	0x3dd852e0	0.10562682
54	0x3dc3fbd5	0.095695175
55	0x3dbff30b	0.09372529
56	0x3e260882	0.16214183
57	0x3daf3701	0.08555413
58	0x3e119de8	0.14220393
59	0x3e49cbec	0.19706696
60	0x3dee9786	0.116499946
61	0x3e02fd7a	0.12792006
62	0x3e11d1c6	0.14240178
63	0x3da0737f	0.07834529
64	0x3d8ba509	0.06818587
65	0x3d2aa1d7	0.04165825
66	0x3e0cf4ad	0.13765211
67	0x3d90dd41	0.07073451
68	0x3d0a403b	0.03375266
69	0x3cf5895c	0.029972725
70	0x3d965b27	0.07341605
71	0x3e02a3a2	0.12757733
72	0x3d958d99	0.07302398
73	0x3dc5cbe2	0.09658028
74	0x3df5552a	0.119791344
75	0x3cd9f208	0.026604667
76	0x3ddadaef	0.106862895
77	0x3dd209ea	0.10255797
78	0x3dc28bf3	0.094993494
79	0x3ddb3367	0.107031636
80	0x3da6baa4	0.081410676
81	0x3dd52dae	0.10409103
82	0x3dbde9d1	0.092731126
83	0xbc6355d6	-0.013875445
84	0xbd0aabc8	-0.03385523
85	0x3e07808a	0.13232628
86	0x3dfa3597	0.12217253
87	0x3df1f7e1	0.11814857
88	0x3de9eee4	0.11422518
89	0x3d951176	0.07278721
90	0x3db1ea6d	0.08687291
91	0x3e231ba6	0.15928516
92	0x3db511b6	0.08841269
93	0x3e14f6ed	0.1454732
94	0x3da16f06	0.07882504
95	0x3da06645	0.07832006
96	0x3d94b6da	0.07261439
97	0x3dece090	0.115662694
98	0x3dc0b019	0.09408588
99	0x3e4acad5	0.19803937
100	0x3e01d631	0.12679364
101	0x3dc97def	0.09838473
102	0x3d7fcb29	0.062449608
103	0x3e0c7616	0.13716921
104	0x3dacf27f	0.0844469
105	0x3e04a2d8	0.12952745
106	0x3db1f596	0.0868942
107	0x3da384cc	0.07984313
108	0x3e0162a4	0.12635285
109	0x3dfc0c3d	0.12307022
110	0x3e264939	0.1623887
111	0x3e1e977c	0.15487474
112	0x3dcb132c	0.09915766
113	0x3db0b5ad	0.08628402
114	0x3df24978	0.11830419
115	0x3dcccc9e	0.09999965
116	0x3de55e95	0.11199681
117	0x3df94879	0.12172026
118	0x3dbc9613	0.09208312
119	0x3e1cbcff	0.15306471
120	0x3e0038be	0.12521645
121	0x3dbe39df	0.09288382
122	0x3db94acf	0.09047472
123	0x3db5389f	0.0884869
124	0x3dac81b6	0.08423178
125	0x3dca80a6	0.09887819
126	0x3da7ee7e	0.08199786
127	0x3df743f3	0.12073507
128	0x3dd49597	0.103800945
129	0x3de359b7	0.11101096
130	0x3dd11be9	0.102104016
131	0x3e01a7a1	0.12661602
132	0x3dab28c8	0.08357388
133	0x3da70808	0.08155829
134	0x3e0aa1a2	0.1353822
135	0x3e0d273e	0.13784501
136	0x3e0e6143	0.1390429
137	0x3d8f9732	0.0701126
138	0x3dcb81dd	0.09936879
139	0x3e108954	0.14114887
140	0x3da9af19	0.0828535
141	0x3d9a6183	0.0753813
142	0x3d8c91c8	0.06863743
143	0x3dbdb092	0.09262194
144	0x3d74d2b2	0.059771247
145	0x3e42ed1f	0.19035767
146	0x3dfa6895	0.12226979
147	0x3d9e3ea8	0.077267945
148	0x3e018aa8	0.1265055
149	0x3e44427e	0.1916599
150	0x3daf1f9a	0.085509494
151	0x3d9d0b02	0.07668115
152	0x3e049fa2	0.1295152
153	0x3de3258c	0.11091146
154	0x3dff97d7	0.12480133
155	0x3dbf8a28	0.09352523
156	0x3df93403	0.121681236
157	0x3e0cadd9	0.13738193
158	0x3e0218db	0.12704794
159	0x3e00e598	0.12587583
160	0x3c88a631	0.016680809
161	0x3dd676c1	0.10471869
162	0x3e02bee3	0.1276813
163	0x3de7f6f0	0.113263965
164	0x3db124c2	0.08649589
165	0x3ba633f4	0.0050721113
166	0x3e0c14d6	0.13679823
167	0x3db317fd	0.0874481
168	0x3cb9cc9e	0.022680577
169	0x3dbc85ee	0.092052326
170	0x3e041c30	0.12901378
171	0x3e106a27	0.14102994
172	0x3dabb763	0.083845876
173	0x3df29016	0.118438885
174	0x3da5e2c6	0.08099894
175	0x3db08fe3	0.08621194
176	0x3d89b167	0.0672329
177	0x3dbf9e1f	0.09356331
178	0x3dfa017e	0.12207316
179	0x3e177ba5	0.1479326
180	0x3dcccccd	0.1
181	0x3e1cc8af	0.1531093
182	0x3dfd504f	0.12368833
183	0x3d4ae8c1	0.049538378
184	0x3dbe1aa8	0.09282428
185	0x3dd0c7f8	0.10194391
186	0x3a7d5a19	0.00096646097
187	0x3df2351b	0.11826535
188	0x3e20bed0	0.15697789
189	0x3de2bd70	0.110712886
190	0x3da99bb6	0.08281653
191	0x3e0bb431	0.13642956
192	0x3e003e1b	0.12523691
193	0x3dc25a4d	0.0948988
194	0x3d96e1a7	0.073672585
195	0x3d97859f	0.07398533
196	0x3e000f3f	0.12505816
197	0x3da6660d	0.081249334
198	0x3d810eb8	0.063016355
199	0x3da5b7a9	0.08091671
200	0x3e1857d4	0.14877254
201	0x3dae9d87	0.0852614
202	0x3d8f38cd	0.06993256
203	0x3dcd71f4	0.100315005
204	0x3da94eb8	0.082669675
205	0x3dfc66a7	0.12324267
206	0x3df02356	0.1172549
207	0x3db41637	0.087933
208	0x3e067d59	0.13133754
209	0x3e2d052b	0.16896503
210	0x3dfb8c7a	0.12282653
211	0x3dfe65c6	0.124217555
212	0x3d804dc0	0.0626483
213	0x3d9e8108	0.077394545
214	0x3dcb6652	0.099316254
215	0x3dbc8530	0.09205091
216	0x3e02bd6b	0.1276757
217	0x3dcef6d0	0.101056695
218	0x3db650e6	0.08902149
219	0x3d9a87b7	0.07545417
220	0x3dbdaef9	0.09261889
221	0xbc214b28	-0.009844579
222	0x3ddb012b	0.10693582
223	0x3dd8eebc	0.1059241
224	0x3e0938f5	0.13400634
225	0x3dedb09a	0.1160595
226	0x3db2055c	0.086924285
227	0x3e0c6590	0.13710618
228	0x3dbbcc22	0.091697946
229	0x3df57aa4	0.119862825
230	0x3dc095d1	0.09403575
231	0x3dca4516	0.09876458
232	0x3d8d824b	0.06909617
233	0xbc6ccc8f	-0.014453067
234	0x3ded6acc	0.115926355
235	0x3e057faa	0.13036981
236	0x3df46291	0.119328626
237	0x3e051d24	0.12999398
238	0x3dcccccd	0.1
239	0x3e0550e8	0.13019145
240	0x3dff28d6	0.12458961
241	0x3d842bad	0.06453643
242	0x3e1249ad	0.14285918
243	0x3dc07294	0.09396854
244	0x3d8ec4fa	0.06971164
245	0x3da5d7d7	0.08097809
246	0x3e01c365	0.12672193
247	0x3db3a468	0.087715924
248	0x3dc51f00	0.096250534
249	0x3db83f5e	0.08996461
250	0x3dee3572	0.11631288
251	0x3d8f3d87	0.06994157
252	0x3e0b764c	0.13619345
253	0x3e235ced	0.15953417
254	0x3ddfa22d	0.109196045
255	0x3dfc066e	0.12305914

base.seq_fcs.2.weight f4 [256, 256]
0	0x3cf171c7	0.029473199
1	0x3d9096b4	0.07059994
2	0x3d2039b9	0.03911755
3	0xbc71c26c	-0.014755826
4	0x3d586fd4	0.052841023
5	0xbf0a4a49	-0.540196
6	0x3cfeead3	0.031117832
7	0x3de7137d	0.11283014
8	0x3d88bc4d	0.066765405
9	0x3cdfde02	0.027327541
10	0xbdc168f1	-0.09443844
11	0x3e150965	0.14554365
12	0xbeef63d6	-0.46755856
13	0xbe1c88a2	-0.15286496
14	0x3d9ac9a9	0.07557995
15	0x3c209b73	0.009802687
16	0xbdc8ffd1	-0.09814418
17	0x3d0af4b5	0.033924777
18	0xbc93fd05	-0.018064985
19	0xbd8b956a	-0.06815608
20	0x3e231074	0.15924245
21	0xbc8cce64	-0.017188258
22	0x3bfcf10f	0.007719166
23	0xbceb01c8	-0.028687373
24	0x3dabe8ca	0.0839401
25	0x3dcd9765	0.10038642
26	0x3dd13488	0.10215098
27	0x3da2fb8a	0.079581335
28	0x3d521ee6	0.051299
29	0x3dca25ac	0.098704666
30	0xbeb70206	-0.3574373
31	0x3d77a406	0.06045916
32	0x3c619fbc	0.013770994
33	0xbd12a19a	-0.035798647
34	0xbb5d06c2	-0.0033725952
35	0x3d3373d0	0.04381162
36	0xbd269b93	-0.04067571
37	0x3d1a9dab	0.03774802
38	0x3d7a9484	0.06117679
39	0x3d9dc99a	0.07704468
40	0x3b43c67e	0.002987295
41	0x3d0e8ffa	0.034805275
42	0xbc0c13a9	-0.008549609
43	0xbe236d96	-0.15959772
44	0x3d2a5dbf	0.04159331
45	0xbdfd782b	-0.12376436
46	0x3db11541	0.08646632
47	0xbcabbc9a	-0.020963956
48	0x3db7824d	0.089604
49	0x3cd3d6eb	0.025859317
50	0x3cd3ce38	0.025855169
51	0x3c5fa806	0.0136509
52	0x3cdeec8e	0.027212407
53	0x3db886a3	0.09010055
54	0x39a6ffdd	0.0003185262
55	0xbebd5838	-0.36981368
56	0x3dbf3947	0.09337097
57	0x3cfc586f	0.030803887
58	0x3d92ea60	0.0717361
59	0x3d3caa38	0.04606077
60	0x3d8b0f80	0.06790066
61	0x3bbc21b8	0.0057413243
62	0x3b38d1e0	0.0028201267
63	0xbd72c46a	-0.059269346
64	0x3c09c8ca	0.008409688
65	0xbec7c000	-0.39013672
66	0xbb6347af	-0.0034680178
67	0xbd87a57b	-0.0662336
68	0xbd946976	-0.072466776
69	0xbf1ad428	-0.60479975
70	0xbe667a08	-0.22507489
71	0x3c87c182	0.016571764
72	0xbcf6cf62	-0.030128185
73	0xbb207c65	-0.0024488207
74	0x3d2206bb	0.0395572
75	0xbe90ce5f	-0.2828245
76	0x3dcadce8	0.09905416
77	0x3d0d3dcd	0.034482766
78	0x3bb09e44	0.0053899605
79	0x3bd6268f	0.0065353583
80	0xbe6b4805	-0.22976692
81	0x3c90bf27	0.017669274
82	0x3d89bb10	0.067251325
83	0xbea9071c	-0.33013237
84	0x3eacfdac	0.33787286
85	0x3d86412c	0.06555399
86	0x3d8b2ee9	0.06796057
87	0xbc0f995a	-0.008764589
88	0x3df62d0c	0.12020311
89	0x3d92fd68	0.0717724
90	0xbbc92a40	-0.00613907
91	0x3d24a3e1	0.04019535
92	0x3d0aa173	0.033845376
93	0x3dab6eb8	0.08370727
94	0x3d9b73d5	0.075904526
95	0x3daa12e8	0.08304387
96	0x3d8baced	0.06820092
97	0x3deb08bd	0.11476276
98	0x3d02f331	0.031970207
99	0x3de1960c	0.11014947
100	0x3cf2197a	0.029553164
101	0x3dbe487c	0.09291169
102	0xbe0a7e6d	-0.1352479
103	0x3d150ff7	0.03639218
104	0x3dae4831	0.08509863
105	0x3afd33a1	0.0019317755
106	0xbc4f8619	-0.012666249
107	0xbd8ad374	-0.06778613
108	0x39cc5541	0.0003897343
109	0xbce1284f	-0.027485041
110	0x3d6c5596	0.05769881
111	0x3cfa09dd	0.030522281
112	0x3d5f0a41	0.05445314
113	0xbb94b452	-0.0045380974
114	0x3c65224c	0.013985228
115	0x3d56cb5d	0.052440036
116	0x3dcecfcc	0.10098228
117	0x3dbe6a31	0.09297598
118	0xbb2829ea	-0.0025659748
119	0x3bc34d69	0.0059601557
120	0x3d9b03ba	0.0756907
121	0x3e075c1c	0.1321873
122	0x3c249a77	0.010046593
123	0x3d600107	0.05468848
124	0xbd2b6ec9	-0.0418537
125	0x3c3ccbd6	0.011523208
126	0xbdf1e31c	-0.11810896
127	0x3dd0b7ba	0.10191293
128	0x3ceed0e9	0.02915235
129	0x3d8939f8	0.0670051
130	0x3d8e08b9	0.069352575
131	0x3d86d4d3	0.06583562
132	0x3dd7d9e5	0.10539607
133	0xbe9e215d	-0.3088483
134	0x3dc14456	0.09436862
135	0x3d591fb4	0.05300875
136	0x3d5d303b	0.054001074
137	0x3cecd144	0.02890838
138	0x3d29b30b	0.041430514
139	0x3c25c913	0.010118741
140	0xbda7a7a0	-0.08186269
141	0x3d763ab5	0.06011458
142	0x3e050ede	0.12993953
143	0x3dda6725	0.106642045
144	0x3d8ed7b4	0.06974736
145	0x3c3e0e46	0.011600083
146	0x3c5392c9	0.012913414
147	0xbe88ca29	-0.26716736
148	0x3dc28f7c	0.09500024
149	0x3d6aafc8	0.057296544
150	0xbd24d3f4	-0.040241197
151	0x3d05e192	0.032685824
152	0x3daaa558	0.08332318
153	0xbc9b2e72	-0.018943045
154	0x3d02935a	0.031878807
155	0x3dcfc1e6	0.10144405
156	0xbc235a9e	-0.009970335
157	0x3d494796	0.049140535
158	0x3cb30971	0.021855088
159	0x3ca03e23	0.01956088
160	0xbe488a44	-0.19583994
161	0x3dab147c	0.083535165
162	0x3d8ee5ce	0.069774255
163	0x3db3badf	0.08775877
164	0x3d84d66d	0.06486211
165	0xbeb5c6fd	-0.3550338
166	0x3bde4249	0.006782804
167	0xbc4b0142	-0.012390437
168	0xbefe4196	-0.49659413
169	0x3daa22fc	0.08307454
170	0x3c4a150d	0.01233412
171	0x3cde5fa7	0.02714522
172	0xbb6841ab	-0.0035439532
173	0x3dbc4ecb	0.09194716
174	0x3da5bc21	0.08092523
175	0x3ccb464c	0.024813794
176	0x3b3bd41b	0.002866036
177	0x3cab0b66	0.020879459
178	0x3c2345d9	0.009965383
179	0x3c8e7288	0.017388597
180	0x3d6858a2	0.05672515
181	0x3de259cd	0.110522844
182	0xbc469ce4	-0.012122367
183	0xbd3d89bd	-0.046273936
184	0x3d9c5f62	0.0763538
185	0x3ceeafb2	0.029136512
186	0xbf2dcac1	-0.678875
187	0x3ca25da0	0.019820035
188	0xbc854078	-0.016266093
189	0x3dc64aeb	0.09682258
190	0x3de989f7	0.11403268
191	0x3d817a24	0.063221246
192	0x3db0ccc5	0.08632807
193	0x3d8ddef2	0.06927289
194	0xbe090794	-0.13381797
195	0xbe8f9829	-0.28045776
196	0x3cb59edc	0.022170477
197	0xbe8ec797	-0.2788665
198	0xbe0a96c1	-0.1353407
199	0xbba7f78c	-0.0051259454
200	0x3c263168	0.010143615
201	0x3d917561	0.071024664
202	0x3ce98aa5	0.028508494
203	0x3d0963ee	0.033542566
204	0x3dcaaded	0.09896455
205	0x3cf2e5c9	0.029650586
206	0x3d7acd25	0.061230797
207	0x3d8ea21c	0.06964514
208	0xbc412143	-0.011787715
209	0x3d89ab96	0.067221805
210	0x3cd21e45	0.0256492
211	0x3d87a8de	0.06624006
212	0xbdacfad1	-0.08446277
213	0x3d97f824	0.07420376
214	0x3d0ce513	0.03439815
215	0xbc526e92	-0.012843745
216	0x3d55f1ed	0.05223267
217	0x3d4018b7	0.04689857
218	0x3c21b004	0.009868626
219	0xbcb87c08	-0.02252008
220	0xbb6b0852	-0.0035863114
221	0xbedf5f0f	-0.4362721
222	0x3d36eb5f	0.04465806
223	0x3cf8d950	0.03037706
224	0xbc30cf86	-0.010791665
225	0x3daa06e0	0.083020926
226	0x3d51ea7b	0.05124901
227	0x3dd802ed	0.10547433
228	0x3d95c7ba	0.073134854
229	0x3d26f4dd	0.040760864
230	0x3d43a77c	0.047767147
231	0x3b74eb5a	0.0037371726
232	0xbe4c391a	-0.19943658
233	0xbf0d68fd	-0.55238324
234	0xbcab299d	-0.020893866
235	0x3cd94156	0.026520412
236	0xbca6899e	-0.020329293
237	0x3c9aeded	0.01891228
238	0xbce75554	-0.02823893
239	0x3d1b025a	0.03784404
240	0x3d4d7917	0.05016431
241	0xbdb18047	-0.08667045
242	0x3d5a6def	0.053327497
243	0x3ba3d3b0	0.0049996004
244	0xbddd82cb	-0.108159624
245	0x3d96c4c1	0.073617466
246	0x3c8cfcc3	0.01721037
247	0x3d8a6500	0.067575455
248	0x3d607117	0.05479535
249	0x3ce3d754	0.027812637
250	0x3d5ac56a	0.053410925
251	0x3d5bbcc2	0.05364681
252	0x39f26b94	0.0004623799
253	0x3d755140	0.05989194
254	0x3d9b7428	0.075905144
255	0x3ca682f4	0.020326115

base.seq_fcs.2.bias f4 [256]
0	0x3df2fcb7	0.11864608
1	0x3dc6bb96	0.09703748
2	0x3df76c9f	0.12081265
3	0x3dd848db	0.10560771
4	0x3dea2c26	0.11434202
5	0x3dd01d46	0.101618335
6	0x3d8fc4e9	0.070199795
7	0x3df9cf42	0.121977344
8	0x3df61c9b	0.12017175
9	0x3dc7f79f	0.09764027
10	0x3d9041c0	0.07043791
11	0x3da463c5	0.08026842
12	0x3da6f97f	0.08153056
13	0x3da0e176	0.07855503
14	0x3dfa4291	0.12219728
15	0x3defef89	0.117156096
16	0x3df4960b	0.11942681
17	0x3dda568b	0.10661038
18	0x3df3b6e6	0.119001195
19	0x3d86fb42	0.065908924
20	0x3d7dcc25	0.061962266
21	0x3dfba9df	0.1228826
22	0x3de79818	0.113083065
23	0x3dbf1089	0.09329326
24	0x3df2ec0f	0.11861431
25	0x3de9465a	0.113903716
26	0x3da2a203	0.079410575
27	0x3d8b8fdf	0.068145506
28	0x3df9f3d7	0.12204712
29	0x3dea60ce	0.11444245
30	0x3def7971	0.11693085
31	0x3e00c8ab	0.12576549
32	0x3de96a5e	0.11397241
33	0x3e036d9c	0.12834781
34	0x3df6d3ff	0.12052154
35	0x3d8d85bb	0.06910273
36	0x3db70c58	0.08937901
37	0x3dfb04c2	0.12256767
38	0x3d8fb432	0.070167914
39	0x3d808239	0.06274838
40	0x3db94b4d	0.090475656
41	0x3db28ff5	0.08718864
42	0x3dc3cdfa	0.09560771
43	0x3da4f172	0.080538645
44	0x3dc9b4d1	0.09848941
45	0x3df1e724	0.11811665
46	0x3d920ba7	0.07131129
47	0x3d940473	0.07227411
48	0x3df55472	0.11978997
49	0x3df5dcd9	0.12005014
50	0x3df6899b	0.12037965
51	0x3df58025	0.11987332
52	0x3dcd5adc	0.10027096
53	0x3dc43205	0.09579853
54	0x3dff94b7	0.12479537
55	0x3e025372	0.12727144
56	0x3df51a5a	0.11967917
57	0x3dcecafd	0.10097311
58	0x3dd84d85	0.10561661
59	0x3dcaaa9a	0.09895821
60	0x3dcb34d5	0.09922186
61	0x3df6285e	0.12019418
62	0x3de77377	0.1130132
63	0x3df31a3a	0.11870237
64	0x3de51a90	0.11186707
65	0x3d817cea	0.063226536
66	0x3e04b09b	0.12957995
67	0x3dec4e71	0.11538399
68	0x3dcf58a2	0.10124327
69	0x3dc9973b	0.09843298
70	0x3dc395d6	0.09550063
71	0x3df1862b	0.11793169
72	0x3df7f5df	0.12107443
73	0x3df2d7b0	0.118575454
74	0x3d96caa1	0.07362867
75	0x3de508d4	0.111833245
76	0x3deee8bc	0.11665484
77	0x3df7f86e	0.12107931
78	0x3e006e9b	0.12542193
79	0x3e6fd2e6	0.23420295
80	0x3e1ce9e0	0.15323591
81	0x3dc14ec9	0.09438855
82	0x3e8bb701	0.27288058
83	0x3e01a8de	0.12662074
84	0x3dcfacfa	0.101404145
85	0x3da4cb6b	0.080466114
86	0x3debf685	0.11521629
87	0x3df63125	0.12021092
88	0x3df92154	0.1216456
89	0x3dccc1b3	0.09997883
90	0x3df9ae89	0.12191493
91	0x3dfa8626	0.12232618
92	0x3dc965d9	0.09833879
93	0x3dbe8273	0.09302225
94	0x3dbedc21	0.0931933
95	0x3dd86b47	0.105673365
96	0x3df2fea3	0.11864974
97	0x3e75479e	0.23953101
98	0x3df829c3	0.121173404
99	0x3dfcc605	0.12342457
100	0x3db9422e	0.09045826
101	0x3dea3164	0.11435202
102	0x3dfd75bd	0.123759724
103	0x3df54933	0.11976852
104	0x3da418e5	0.08012561
105	0x3df52966	0.11970787
106	0x3dfa6d65	0.122278966
107	0x3dd36ece	0.10323869
108	0x3e047331	0.12934567
109	0x3d8e6e32	0.06954612
110	0x3dfdfce8	0.12401754
111	0x3e815b28	0.2526486
112	0x3d88e1b3	0.06683674
113	0x3e221443	0.15828042
114	0x3dc66105	0.09686474
115	0x3dd23944	0.10264829
116	0x3df63e67	0.12023621
117	0x3dd02552	0.10163368
118	0x3dc68e23	0.09695079
119	0x3df80f89	0.12112338
120	0x3dc58c2e	0.09645878
121	0x3dc6cab9	0.09706635
122	0x3ef7253f	0.48270604
123	0x3df426fb	0.119214974
124	0x3df9abc8	0.12190968
125	0x3df97406	0.12180333
126	0x3db08a89	0.086201735
127	0x3dab8304	0.083745986
128	0x3dbabb6f	0.09117781
129	0x3d8cb470	0.06870353
130	0x3d9b741e	0.07590507
131	0x3dc54fac	0.09634337
132	0x3dfa40b6	0.12219374
133	0x3def6354	0.11688867
134	0x3df2381d	0.11827109
135	0x3df3fc0e	0.1191331
136	0x3dd5869f	0.104260676
137	0x3dfa8afb	0.1223354
138	0x3d8f9f5b	0.070128165
139	0x3dcd5e36	0.10027735
140	0x3d95ba58	0.07310933
141	0x3da6e813	0.081497334
142	0x3dbae2be	0.09125279
143	0x3d8e51e9	0.06949217
144	0x3dec30ac	0.11532721
145	0x3df67186	0.120333716
146	0x3dab3d58	0.0836131
147	0x3df4fb65	0.11962012
148	0x3d7ef7ca	0.06224803
149	0x3d8d0f16	0.06887643
150	0x3dca904a	0.09890802
151	0x3defbd24	0.117059976
152	0x3df8b846	0.12144522
153	0x3d94b560	0.07261157
154	0x3dfac0e7	0.122438245
155	0x3de8d432	0.11368598
156	0x3dc595dc	0.09647724
157	0x3df8065f	0.1211059
158	0x3dc00e9d	0.09377787
159	0x3dc4f91b	0.096178256
160	0x3dcc9245	0.09988836
161	0x3d89fab9	0.06737275
162	0x3df22a5e	0.11824487
163	0x3defd6a2	0.1171086
164	0x3ddfa9fd	0.109210946
165	0x3dd70560	0.10499072
166	0x3dc36c76	0.09542172
167	0x3dfacc3a	0.122459844
168	0x3ddcfa19	0.1078989
169	0x3df59aea	0.11992438
170	0x3de7683e	0.112991795
171	0x3df66af2	0.12032117
172	0x3d8efb58	0.06981534
173	0x3d891dae	0.06695114
174	0x3d8b0863	0.06788709
175	0x3d8061bd	0.06268642
176	0x3dc4a44d	0.096016504
177	0x3dc392ca	0.09549482
178	0x3e2ce46c	0.16884011
179	0x3db39ef2	0.08770551
180	0x3dfd7e28	0.12377578
181	0x3dfd4087	0.12365823
182	0x3d8fc305	0.07019619
183	0x3e0532be	0.13007638
184	0x3de494fc	0.11161229
185	0x3e02a8d6	0.12759718
186	0x3ddf3f48	0.10900742
187	0x3dbd3aaf	0.09239709
188	0x3dd0abdf	0.10189032
189	0x3df5526c	0.11978611
190	0x3dceb13f	0.10092401
191	0x3ddc89f1	0.10768498
192	0x3dc43782	0.095809
193	0x3dfeb62c	0.1243709
194	0x3da42aba	0.08015962
195	0x3df1fe0f	0.11816036
196	0x3dbf0b9f	0.093283884
197	0x3dfcaa2b	0.123371445
198	0x3dce1af5	0.100637354
199	0x3dd4e825	0.103958406
200	0x3d8fdf2e	0.0702499
201	0x3d81b540	0.06333399
202	0x3dd3f073	0.103485964
203	0x3d8d2ea8	0.068936646
204	0x3df3280f	0.11872875
205	0x3db870e5	0.09005908
206	0x3dd9a13d	0.10626457
207	0x3d91d0a3	0.071198724
208	0x3da4a6ad	0.080396034
209	0x3df5e3fc	0.12006375
210	0x3dc15f11	0.094419606
211	0x3dc1caf5	0.09462539
212	0x3d8be4b3	0.0683073
213	0x3dcca72c	0.09992823
214	0x3dfbe2bc	0.122991055
215	0x3dee91df	0.116489165
216	0x3d912951	0.070879586
217	0x3e0389b7	0.12845503
218	0x3df07d2b	0.11742624
219	0x3d83ee4c	0.06441936
220	0x3dda050a	0.106454924
221	0x3df6903b	0.120392285
222	0x3d6a21c4	0.057161108
223	0x3dcfd7d8	0.10148591
224	0x3dcb60cc	0.09930572
225	0x3d88c849	0.06678826
226	0x3d92795d	0.071520545
227	0x3dfc0fa2	0.12307669
228	0x3df0f72d	0.11765895
229	0x3dfbcd36	0.12295
230	0x3dec8815	0.11549393
231	0x3d8ed05b	0.069733344
232	0x3e043eaf	0.12914537
233	0x3dddb628	0.10825759
234	0x3d62c556	0.055363975
235	0x3dc250ed	0.094880916
236	0x3dff27fc	0.12458798
237	0x3df9fc08	0.12206274
238	0x3da0e4f2	0.07856168
239	0x3dc0f8d6	0.09422462
240	0x3d8e70a2	0.06955077
241	0x3d8561c0	0.06512785
242	0x3dc6c827	0.09706145
243	0x3de13977	0.10997289
244	0x3dec658f	0.11542808
245	0x3df0f457	0.11765354
246	0x3d916268	0.07098848
247	0x3d891101	0.06692696
248	0x3d71544d	0.058918286
249	0x3dc3754c	0.09543857
250	0x3def7e57	0.11694019
251	0x3dd94285	0.10608391
252	0x3df3ed45	0.1191049
253	0x3df559e5	0.11980037
254	0x3d8a8c23	0.0676501
255	0x3d844833	0.064590834

last.weight f4 [1, 256]
0	0x3dc15a0c	0.09441003
1	0x3d4fa134	0.050690845
2	0x3dbb832c	0.091558784
3	0xbc5cabbd	-0.01346868
4	0x3db69eb7	0.08916991
5	0x3d77f1c3	0.060533296
6	0x3d6fc495	0.058537085
7	0x3dab221d	0.08356116
8	0x3dc0641a	0.09394093
9	0x3d4cfb23	0.05004419
10	0x3d82805b	0.06372138
11	0x3d8022e9	0.062566586
12	0xbbd50354	-0.006500641
13	0x3d6f470a	0.058417358
14	0x3dc517ed	0.09623704
15	0x3dadc11d	0.08484099
16	0x3db7e14b	0.08978518
17	0xbc3bb9d6	-0.011457881
18	0x3db2ebde	0.08736394
19	0x3d4b42dc	0.04962431
20	0x3d40d621	0.04707921
21	0x3db2f557	0.08738201
22	0x3db0952f	0.086222045
23	0x3d57962b	0.052633446
24	0x3db9589e	0.090501055
25	0x3dac487c	0.08412263
26	0xbc1940cb	-0.009353827
27	0x3d5af04e	0.05345183
28	0x3db84e0c	0.08999261
29	0x3dadf535	0.08494035
30	0x3dab3d41	0.08361293
31	0x3dc01683	0.09379294
32	0xbcd0775a	-0.025447536
33	0x3dc10daf	0.09426438
34	0x3dafdd11	0.08587087
35	0x3d75d16f	0.060014185
36	0xbbc13d1d	-0.005897178
37	0x3db7a67e	0.08967303
38	0x3d6406cb	0.05567054
39	0x3d44f2a9	0.04808298
40	0x3a847ba4	0.0010107649
41	0xbafccad1	-0.0019286518
42	0x3d550815	0.05200966
43	0xbb7198a5	-0.0036864665
44	0xbba4c220	-0.0050280243
45	0x3daee622	0.08539988
46	0x3d84b60a	0.06480034
47	0x3d5b847a	0.053593136
48	0x3dc78b8e	0.09743415
49	0x3daabbb0	0.0833658
50	0x3db3d92e	0.08781658
51	0x3db98c73	0.09059992
52	0x3e046906	0.12930688
53	0x3d4ffd0e	0.05077844
54	0x3dbc6f4b	0.09200915
55	0x3dbd6a6b	0.09248813
56	0x3db5dd87	0.088801436
57	0xbadeca21	-0.0016997495
58	0x3dbc4e76	0.09194653
59	0x3d58f6d2	0.05296976
60	0x3d597fc7	0.053100374
61	0x3da9fde6	0.083003804
62	0x3dc59a14	0.09648529
63	0x3dba8f67	0.09109383
64	0xbc93facd	-0.018063927
65	0x3d413751	0.047171894
66	0x3eafb952	0.34321076
67	0x3da17766	0.078841016
68	0xbb9261a5	-0.0044672065
69	0x3dbac1ce	0.091189966
70	0x3d21f8aa	0.039543785
71	0x3dbe685e	0.0929725
72	0x3db8478a	0.0899802
73	0x3dc857bf	0.09782361
74	0x3d8025f4	0.06257239
75	0x3da1db75	0.07903186
76	0x3da82e51	0.08211959
77	0x3dad7df6	0.08471291
78	0x3db35e82	0.0875826
79	0xbf22f3ba	-0.6365315
80	0xbd68830e	-0.05676561
81	0x3d239ea0	0.0399462
82	0xbf1538d4	-0.5828984
83	0x3db59123	0.08865573
84	0xbc1fcc23	-0.00975326
85	0xbbb76f01	-0.0055979495
86	0x3d92afc5	0.07162432
87	0x3db8bfe9	0.09020979
88	0x3dc1c988	0.09462267
89	0x3d70dddb	0.058805328
90	0x3db5c5a1	0.08875585
91	0x3dbab461	0.09116436
92	0x3d68dd99	0.056851957
93	0x3d0cf421	0.034412507
94	0x3d3c3fcb	0.045959275
95	0x3d98c0c9	0.07458646
96	0x3dbaf1ab	0.09128126
97	0xbeaad426	-0.3336498
98	0x3da68dab	0.0813249
99	0x3dbd290e	0.09236346
100	0xbc9515c9	-0.018198865
101	0x3db1c18e	0.08679496
102	0x3db855c0	0.090007305
103	0x3dc26c12	0.09493269
104	0xbbb31a45	-0.005465778
105	0x3db8e833	0.090286635
106	0xbccf0be5	-0.025274226
107	0x3e3cf6d9	0.1845354
108	0x3dbedd3c	0.09319541
109	0x3d730c75	0.05933805
110	0x3dbf3bbb	0.093375646
111	0xbef46200	-0.47731018
112	0x3d457912	0.048211165
113	0xbec43238	-0.38319564
114	0x3d4a6ea1	0.04942191
115	0xbc979d84	-0.018507726
116	0x3dc11425	0.094276704
117	0x3dcddff2	0.1005248
118	0x3d52462d	0.051336456
119	0x3ed5a56a	0.41727763
120	0x3d493c7f	0.04912996
121	0x3d485b05	0.048914928
122	0x3eb5493a	0.3540743
123	0x3dae6675	0.08515636
124	0x3db4ba8f	0.08824646
125	0x3dc6e2be	0.097112164
126	0xbc0494b3	-0.008092093
127	0xbc0cfcbc	-0.008605178
128	0xbc4ab54e	-0.012372328
129	0x3d6fd5c7	0.058553483
130	0xbbbb7289	-0.0057204408
131	0x3d651b2e	0.055934124
132	0x3dba8bf6	0.09108727
133	0x3dab6f12	0.08370794
134	0x3da94b78	0.08266348
135	0x3db87557	0.09006756
136	0xbc618ca2	-0.01376644
137	0x3db85b98	0.09001845
138	0x3d7bcea0	0.06147635
139	0x3dc24dde	0.09487508
140	0x3d76976e	0.06020301
141	0x3d508090	0.050903857
142	0xbc5a9bfd	-0.013342855
143	0x3d4e0835	0.050300796
144	0x3dadb43e	0.08481644
145	0x3dac77b0	0.08421266
146	0xbc9feb4b	-0.019521376
147	0x3db93b7f	0.09044551
148	0x3d35d1ed	0.044389654
149	0x3d5912aa	0.052996315
150	0x3d5a4b11	0.053294245
151	0x3db9d6f3	0.090742014
152	0x3dbaad19	0.09115047
153	0x3d6b8303	0.05749799
154	0x3da7dac0	0.0819602
155	0x3db76b04	0.089559585
156	0x3d55216c	0.052033827
157	0x3da7d7ea	0.08195479
158	0x3d3751bd	0.044755686
159	0x3d887f53	0.0666491
160	0x3d3b7f54	0.045775726
161	0x3d6595f6	0.056051217
162	0x3dc2a0c3	0.09503319
163	0x3daa67cf	0.08320581
164	0x3db6b91d	0.08922026
165	0x3da638d6	0.08116309
166	0x3d49ee8a	0.049299754
167	0x3dc3ecef	0.09566676
168	0x3dcf557c	0.10123727
169	0x3dc6f206	0.09714131
170	0x3db2e9e3	0.087360166
171	0x3db7d982	0.08977033
172	0x3d7f9cb7	0.062405314
173	0x3d62f3ba	0.055408217
174	0x3d4d1984	0.05007316
175	0x3d34d4f6	0.044148408
176	0x3d568514	0.052373007
177	0x3d50afd7	0.050948944
178	0xbdcef957	-0.101061516
179	0xbc236add	-0.009974209
180	0x3db666e6	0.08906345
181	0x3db7c21b	0.089725696
182	0x3d84c863	0.06483533
183	0x3ec17d52	0.37790924
184	0x3d9aa2e9	0.07550604
185	0x3eaf17f9	0.34197977
186	0x3dc3a69d	0.09553263
187	0xbca4505a	-0.020057846
188	0x3db7fd91	0.08983911
189	0x3db734b7	0.089456014
190	0x3e0466e0	0.12929869
191	0x3db6dc8a	0.08928783
192	0x3d410bd6	0.04713043
193	0x3db3b61d	0.0877497
194	0xbbf0bfff	-0.0073471065
195	0x3dbfaae5	0.093587674
196	0xbb9a8e0c	-0.0047166403
197	0x3db3f383	0.087866805
198	0xbc0a410b	-0.008438359
199	0x3da7e121	0.08197237
200	0x3d644f85	0.0557399
201	0x3d4d310c	0.050095603
202	0x3dad7126	0.08468847
203	0x3d70a27a	0.0587487
204	0x3da63273	0.08115091
205	0x3e83b08d	0.25720635
206	0x3db6eae7	0.08931523
207	0x3d8029a7	0.062579446
208	0xbc13a444	-0.009011332
209	0x3db83ae4	0.089956075
210	0x3d19674c	0.037452027
211	0x3d4f3bea	0.050594248
212	0x3d5ffb2a	0.054682888
213	0x3d4d7f60	0.050170302
214	0x3db96955	0.090532936
215	0x3da6de82	0.08147909
216	0x3d75ac4e	0.059978776
217	0x3e6070ff	0.21918105
218	0x3db9578a	0.090499
219	0x3d4a9e4d	0.049467374
220	0x3d92ce6d	0.07168279
221	0x3da6bc10	0.08141339
222	0x3d28aa5d	0.041178096
223	0x3e42f588	0.19038975
224	0x3d63ce6c	0.05561678
225	0x3d649243	0.05580355
226	0x3d5f5b6a	0.05453054
227	0x3dbcbfc8	0.09216267
228	0x3dade853	0.08491578
229	0x3db5617b	0.088564835
230	0x3da95eb3	0.082700156
231	0x3d751bd4	0.059840992
232	0x3dc6bd54	0.0970408
233	0x3dbf29fb	0.09334179
234	0x3d2917f3	0.041282605
235	0x3d633b6e	0.0554766
236	0x3dba32b6	0.090917036
237	0x3db09f0b	0.08624085
238	0x3d6d676e	0.057959966
239	0x3d5c9dd4	0.053861454
240	0x3d6a9bb8	0.05727741
241	0x3d76eab4	0.060282424
242	0x3d68acda	0.05680547
243	0x3d9d1fa9	0.07672054
244	0x3da4462d	0.080211975
245	0x3da8483c	0.082169026
246	0x3d630110	0.055420935
247	0x3d75e218	0.060030073
248	0x3d12fa35	0.035883147
249	0x3e06d16f	0.1316583
250	0x3dba8961	0.09108234
251	0xbbf40565	-0.007446932
252	0x3dba2b84	0.09090331
253	0x3daae5bd	0.083446
254	0x3d61a09f	0.05508482
255	0x3d1dc4ee	0.038517885
