Soft-Module-main/log/model10_9/model_pf_best.pth (torch, 287205 bytes, 6 tensors)

base.seq_fcs.0.weight f4 [256, 12]
0	0x3f49259f	0.7857303
1	0xbef7ac2b	-0.4837354
2	0x3ef80237	0.4843919
3	0x4083c189	4.117375
4	0xbd69cb29	-0.057078514
5	0xbd282fc3	-0.041061174
6	0xbd1a8368	-0.037722975
7	0x3c1a63f0	0.009423241
8	0x3c94701c	0.018119864
9	0x3de9af96	0.114104435
10	0x3b8963f7	0.004192825
11	0xbce5ef5b	-0.028068235
12	0x3cbd08a3	0.023075407
13	0xbcb42403	-0.021989828
14	0x3c0294a3	0.007970008
15	0xbcd10381	-0.025514366
16	0xbda9d016	-0.08291642
17	0xbd0db1c4	-0.03459336
18	0xbce0df10	-0.027450114
19	0xbc46cde8	-0.012134053
20	0x3cefe584	0.029284246
21	0x3cc9e948	0.02464737
22	0xbc6ae978	-0.01433789
23	0xbd062eb8	-0.0327594
24	0xbe48878d	-0.19582959
25	0xbbd99741	-0.0066403453
26	0x3f608e4a	0.87717116
27	0xbedebaa0	-0.4350176
28	0x3b145427	0.0022633167
29	0xbccfe3ac	-0.025377117
30	0xbd0cd1fa	-0.034379937
31	0x3c703170	0.014660224
32	0xbd57bc8c	-0.052670047
33	0xbcc8e01b	-0.024520924
34	0x3c5c5922	0.013448985
35	0x3d5b2de0	0.053510547
36	0x3c3cfa4a	0.011534283
37	0xbd264872	-0.040596433
38	0xbd91c7a4	-0.071181566
39	0x3d35affd	0.04435729
40	0xbd94891d	-0.07252715
41	0x3beb1950	0.0071746483
42	0xbd565b62	-0.052333243
43	0x3cfe2f28	0.031028345
44	0xbbbe6e40	-0.0058114827
45	0x3d3c1f50	0.0459283
46	0xbd105bf9	-0.035243962
47	0xbc38c4aa	-0.011277357
48	0x3f247467	0.64240116
49	0xbd6405cf	-0.055669602
50	0x3fe4b52a	1.7867787
51	0x3e09b5c1	0.1344824
52	0xbd9c724e	-0.076389894
53	0xbe2ec86f	-0.17068647
54	0xbd48cb6a	-0.049022116
55	0x3d1cecb2	0.038311668
56	0xbba25fe0	-0.004955277
57	0x3e2eb3ed	0.17060824
58	0xbd9a3acc	-0.07530746
59	0xbdb79542	-0.089640155
60	0x3da05c83	0.07830145
61	0x3ce1a5a6	0.027544808
62	0xbd7d8645	-0.061895628
63	0xbc54b7f0	-0.012983307
64	0xbd848140	-0.06469965
65	0xbd07a4bd	-0.03311609
66	0xbb84da50	-0.004054345
67	0xbc0aa4f8	-0.008462183
68	0x3d35afde	0.044357173
69	0x3dad8839	0.08473248
70	0xbda6c8b7	-0.08143752
71	0xbd45b0b0	-0.048264205
72	0x3fab32bd	1.3374859
73	0xbec0c206	-0.37648028
74	0xbf3a564c	-0.7278793
75	0xbd69d13f	-0.05708432
76	0xbe286cd3	-0.16447763
77	0xbe29ef1d	-0.1659512
78	0x3cf92d30	0.030417055
79	0x3d2df07e	0.04246568
80	0xbc821ad8	-0.01588194
81	0x3e510bcf	0.20414661
82	0xbe258a8f	-0.16166137
83	0xbe84029d	-0.25783244
84	0xc01b7602	-2.4290776
85	0xbe876a0e	-0.264481
86	0xbf6e5f17	-0.93113846
87	0xc0131a00	-2.298462
88	0x3dc9eca0	0.09859586
89	0x3daccf17	0.08437937
90	0xbcb143ec	-0.021638833
91	0xbd0e719a	-0.034776308
92	0xbc3fcd10	-0.011706606
93	0xbcf17799	-0.029475974
94	0x3d7017b2	0.058616348
95	0x3b3d78c2	0.0028911089
96	0xbcc81082	-0.024421934
97	0x3c8d350e	0.017237213
98	0xbcc898ba	-0.024486888
99	0xbca21b80	-0.019788504
100	0xbd965d2a	-0.073419884
101	0xbda05ecb	-0.0783058
102	0x3ccd0638	0.02502738
103	0x3cc91398	0.024545476
104	0xbcf6cf64	-0.030128188
105	0x3d710f10	0.058852255
106	0xbce5a5b7	-0.02803312
107	0xbd5d268a	-0.05399183
108	0xbde7db42	-0.11321117
109	0x3dbbe4b7	0.09174483
110	0xbeaca2ba	-0.337179
111	0xbe388d51	-0.18022658
112	0xbda44188	-0.080203116
113	0xbd0ba915	-0.034096796
114	0x3d0b368a	0.03398756
115	0xbd1df802	-0.038566597
116	0x3d479660	0.048727393
117	0x3dabdcac	0.08391699
118	0xbd81ec14	-0.063438565
119	0xbdaf4701	-0.08558465
120	0xbe0705c4	-0.13185793
121	0x3dd5cbcb	0.10439261
122	0xbe9f12ef	-0.31069133
123	0xbe41756e	-0.18892452
124	0xbd6ea972	-0.058267064
125	0xbda962eb	-0.0827082
126	0xbba30a00	-0.0049755573
127	0xbd2d0e54	-0.042249992
128	0xbd448acc	-0.04798393
129	0x3d9f03a2	0.07764365
130	0xbd928831	-0.07154883
131	0xbd32a032	-0.043609805
132	0xbf001c33	-0.5004303
133	0xbf2c01db	-0.6719033
134	0x3e999ed4	0.3000399
135	0x3e860f85	0.26183715
136	0x3e446c41	0.1918192
137	0x3deb68c2	0.1149459
138	0xbd7ab74a	-0.061209954
139	0xbce36f70	-0.027763098
140	0xbd6db706	-0.058035873
141	0xbdff42e7	-0.124639325
142	0x3e254201	0.1613846
143	0x3e134abe	0.1438398
144	0x3dbcb695	0.09214512
145	0x3ca489a5	0.020085165
146	0xbf4e337a	-0.80547297
147	0xbe3f0fe0	-0.186584
148	0xbd69f678	-0.057119817
149	0xb9702ace	-0.0002290413
150	0xbc7d8a90	-0.01547493
151	0xbd30a972	-0.043130346
152	0x3d12c6a6	0.035833977
153	0x3dc1c929	0.094621964
154	0xbca3b99a	-0.019985963
155	0xbcc31e00	-0.023818016
156	0xbf85ca8d	-1.0452439
157	0xbe65991c	-0.22421688
158	0x3fb4cdca	1.4125302
159	0x3ea078ad	0.31342068
160	0x3c4dd342	0.012562575
161	0x3cc6f32f	0.02428588
162	0x3d5e4204	0.054262176
163	0x3d48f118	0.04905805
164	0x3d6b5a3a	0.057459094
165	0xbd5cdb72	-0.053920217
166	0x3d923d0c	0.0714055
167	0xbd0a4c31	-0.033764068
168	0xbe01f4fa	-0.12691107
169	0xbe46fdff	-0.1943283
170	0xbef1bd93	-0.47214946
171	0xbd09b361	-0.033618335
172	0xba95d5f4	-0.0011431561
173	0xbd8b442f	-0.06800114
174	0x3d6aa5b2	0.057286926
175	0x3c3ecd48	0.011645623
176	0x3ce3a068	0.027786449
177	0xbad9d816	-0.0016620185
178	0xbd331b4f	-0.043727215
179	0x3ce30236	0.027711015
180	0xbb86156d	-0.0040919096
181	0xbd7938ad	-0.060845066
182	0xbccd5687	-0.025065674
183	0x3c83b91c	0.016079478
184	0xbd98e8ee	-0.07466303
185	0xbda974d8	-0.08274239
186	0x3d5af4ea	0.053456225
187	0x3bf78020	0.0075531155
188	0x3d3f6b3a	0.04673312
189	0x3d8d817d	0.069094636
190	0x3c86650d	0.016405607
191	0xbc8b3d5b	-0.01699703
192	0xbd2b6e7a	-0.041853406
193	0xbc49c381	-0.012314678
194	0xbca04b99	-0.019567298
195	0xbcf05163	-0.029335683
196	0xbd534550	-0.051579773
197	0xbd1da65c	-0.03848873
198	0x3d0e7884	0.0347829
199	0xbc30b9d0	-0.010786489
200	0x3cee5ab4	0.029095985
201	0x3d7adbc6	0.06124475
202	0xbd1f13e1	-0.038837317
203	0xbb08afc3	-0.0020856715
204	0x3cd5d7f2	0.026103947
205	0xbcdcbfbe	-0.026946899
206	0xbcbd09ab	-0.0230759
207	0xbd3d203f	-0.04617333
208	0xbcafdb56	-0.021466892
209	0xbdb20433	-0.08692207
210	0xbba1e490	-0.004940577
211	0xbca24d4c	-0.019812249
212	0x3d3ef43e	0.046619646
213	0x3db8bb47	0.09020095
214	0xbd182e6d	-0.03715365
215	0xbdaba4c6	-0.083810374
216	0xba841be2	-0.001007911
217	0xbf0d336c	-0.5515659
218	0x3f36b1db	0.71365136
219	0x40c64d29	6.196919
220	0x3e11cc6c	0.14238137
221	0x3d3e2f24	0.046431676
222	0xbd09c746	-0.033637308
223	0x3d288768	0.04114476
224	0x39488600	0.00019123405
225	0xbe18d6bc	-0.14925665
226	0x3e106180	0.14099693
227	0x3e04bf6f	0.12963651
228	0x3c8bde7c	0.017073862
229	0xbbf8c022	-0.0075912634
230	0xbd94975b	-0.07255431
231	0xbd1850c0	-0.037186384
232	0xbd92404d	-0.07141171
233	0xbbe0faec	-0.0068658497
234	0xbd378c94	-0.0448118
235	0xbbcbaf50	-0.0062159672
236	0xbd00343e	-0.031299822
237	0x39955d22	0.00028488884
238	0xbd7b1ff3	-0.061309766
239	0x3cae13c7	0.021249665
240	0x3d40f2f4	0.0471067
241	0x3ea15624	0.31511033
242	0xbdd82473	-0.10553827
243	0xbf62cc7b	-0.8859326
244	0xbd138795	-0.036017973
245	0x3da1cf33	0.07900848
246	0xbc2f63b0	-0.01070492
247	0x3b14bd40	0.002269581
248	0xbd1171a2	-0.03550876
249	0x3d00684b	0.03134946
250	0xbc943137	-0.018089874
251	0x3d1c937e	0.038226597
252	0x401322a4	2.2989893
253	0x3c7b3cc9	0.0153343165
254	0x3ea45db0	0.32102728
255	0xbf7d41d3	-0.98928565

base.seq_fcs.0.bias f4 [256]
0	0x3d2fd2a7	0.042925503
1	0x3d5c179c	0.053733453
2	0x3e0971a4	0.13422257
3	0x3dafd1de	0.08584951
4	0xbd182bf5	-0.037151296
5	0x3d85aa2f	0.065266006
6	0xbdf521ed	-0.119693615
7	0x3e1dceca	0.15410915
8	0x3d9837d0	0.074325204
9	0x3c83ca62	0.016087715
10	0x3c36ab9e	0.011149315
11	0x3e72449a	0.23658982
12	0x3d59f6ec	0.053214
13	0x3de46002	0.111511245
14	0x3da2d8ce	0.079515085
15	0x3d8ec0c0	0.06970358
16	0x3d91b46c	0.07114491
17	0x3d888109	0.066652365
18	0x3e46509d	0.19366689
19	0x3d903578	0.07041448
20	0x3df25247	0.118320994
21	0x3e2b3599	0.16719665
22	0x3db94087	0.09045511
23	0x3dad9e90	0.08477509
24	0x3d6ca039	0.057769988
25	0xbdfa64df	-0.12226271
26	0x3d823b07	0.06358915
27	0x3d73af99	0.059493635
28	0x3d8d80ee	0.06909357
29	0x3d419825	0.047264237
30	0x3d563cc1	0.052304033
31	0xbc8bad5f	-0.017050443
32	0x3e4eff36	0.20214543
33	0xbdc6558b	-0.09684285
34	0x3d99d55e	0.075114
35	0x3d8230f2	0.06356992
36	0x3d685150	0.05671817
37	0x3d852526	0.06501226
38	0x3d9a207e	0.07525729
39	0x3e4c92fe	0.19977948
40	0xbdcdc41c	-0.100471705
41	0x3d8464d6	0.064645454
42	0x3d898eaa	0.06716664
43	0x3e7b2067	0.2452408
44	0x3d785a18	0.060632795
45	0x3d87ebb7	0.06636756
46	0x3e02fe86	0.12792405
47	0xbdc590e0	-0.09646773
48	0x3e2bcb3d	0.16776748
49	0x3d9c7211	0.07638944
50	0x3d51d817	0.05123147
51	0xbd200fbe	-0.039077513
52	0x3e41dd63	0.18932109
53	0xbdb60afb	-0.08888813
54	0x3e1bf11b	0.15228693
55	0x3d6fd883	0.05855609
56	0x3d8b3a52	0.06798233
57	0x3d9b5d0a	0.07586105
58	0x3d9fc976	0.078020975
59	0x3e35e4ee	0.17763111
60	0x3eb03739	0.34417132
61	0x3e285492	0.16438511
62	0x3d9862a1	0.07440687
63	0x3dae3f3c	0.08508155
64	0x3d9fbb48	0.07799393
65	0x3d829d63	0.063776754
66	0x3dfed107	0.124422126
67	0x3e80039b	0.2500275
68	0x3c1f237a	0.009713048
69	0x3e3b4931	0.18289639
70	0x3d6f2d11	0.058392588
71	0x3d682eb9	0.056685183
72	0x3e19d92f	0.15024255
73	0x3d31fd63	0.04345454
74	0x3db07d48	0.086176455
75	0x3e70a5d9	0.23500766
76	0x3e053c4d	0.13011284
77	0x3d7b0fb3	0.06129427
78	0x3d80f979	0.06297583
79	0x3d7c81a3	0.06164707
80	0x3dc0dfb9	0.09417672
81	0x3d5e1059	0.05421481
82	0x3d093761	0.03350008
83	0x3d8f01b0	0.06982744
84	0x3d8fd2b1	0.07022608
85	0x3d31a8a6	0.043373726
86	0x3dbe971f	0.09306168
87	0x3d6b862e	0.05750101
88	0xbcb39f32	-0.021926496
89	0x3d83a5a0	0.06428075
90	0x3d6e1d11	0.05813319
91	0x3d9aa12e	0.07550274
92	0x3e4af911	0.19821574
93	0x3d9ccf80	0.07656765
94	0x3e43342f	0.19062875
95	0x3d272040	0.04080224
96	0x3d8cc520	0.06873536
97	0x3d60aa33	0.054849815
98	0x3d1c0a2b	0.038095634
99	0x3d6a081c	0.05713664
100	0x3d87b70c	0.0662671
101	0x3c6297b3	0.013830113
102	0x3d1289a5	0.0357758
103	0x3dce9284	0.100865394
104	0x3d8eefc8	0.069793284
105	0x3d8ac760	0.06776309
106	0x3e755753	0.23959093
107	0x3decb20d	0.11557398
108	0x3d9419f3	0.07231512
109	0x3e8f4dc9	0.27989033
110	0x3e78c00b	0.24292009
111	0x3d4e163a	0.050314166
112	0x3d44063d	0.04785751
113	0xbde18f6f	-0.11013686
114	0x3d224c08	0.03962329
115	0x3d83cd64	0.064356595
116	0x3c3df752	0.01159461
117	0x3d7975d4	0.060903385
118	0x3d7a7d97	0.061154928
119	0x3e873081	0.26404193
120	0x3dd391d7	0.10330551
121	0x3d08a070	0.03335613
122	0x3e737d14	0.23778182
123	0xbe5e66b3	-0.21718864
124	0x3d6e9510	0.058247626
125	0x3dbf8e85	0.09353355
126	0x3e2e5a6b	0.17026679
127	0xbdf07e42	-0.11742832
128	0x3d951863	0.07280042
129	0x3cfeb291	0.031091006
130	0x3d95fdbe	0.07323788
131	0x3cf814f3	0.030283427
132	0x3d9009bd	0.070331074
133	0x3d9fcf62	0.07803227
134	0x3d681935	0.056664664
135	0x3dc5e8b0	0.09663522
136	0xbda9fe07	-0.08300405
137	0x3d7286fa	0.059210755
138	0xbd282cea	-0.04105846
139	0x3d4c520d	0.049882937
140	0x3d5cc323	0.053897034
141	0x3d31c29c	0.043398485
142	0xbb294642	-0.002582923
143	0x3dcccccd	0.1
144	0x3d5851ca	0.052812375
145	0x3d519cf6	0.05117508
146	0x3da6f530	0.081522346
147	0x3d03e141	0.03219724
148	0x3d8b12e5	0.06790713
149	0x3ba1548e	0.00492341
150	0xbc137ba4	-0.009001646
151	0x3d575108	0.05256751
152	0x3da40dd0	0.08010447
153	0xbdd7c20a	-0.10535057
154	0x3d9c1b67	0.07622414
155	0xbde6cf95	-0.11270062
156	0x3d52285a	0.051308013
157	0x3e40f6f3	0.18844204
158	0x3d9dfe8f	0.07714569
159	0x3e556b96	0.20841822
160	0x3d9156a6	0.07096605
161	0x3d71f907	0.05907538
162	0x3da0991d	0.07841704
163	0xbe9aff2f	-0.30272815
164	0x3d717757	0.058951702
165	0xbd373c1c	-0.04473506
166	0x3d8ca018	0.06866473
167	0x3da537f2	0.08067311
168	0x3d68930d	0.056780864
169	0x3d581b32	0.05276031
170	0x3d6b73e0	0.057483554
171	0x3d2fa48b	0.04288153
172	0x3d638fa9	0.055556927
173	0x3d1c7b1b	0.03820334
174	0x3d674f88	0.05647233
175	0x3d94adb2	0.07259692
176	0xbdd571c7	-0.10422092
177	0x3db1a1c1	0.0867343
178	0x3e56e88a	0.20987144
179	0x3cdb2730	0.026752084
180	0x3b0d7293	0.0021583184
181	0xbe1c3a54	-0.15256625
182	0x3c4d4fd7	0.012531242
183	0x3d20b793	0.03923757
184	0x3d688367	0.05676594
185	0xbd842e5f	-0.06454157
186	0x3e08f6eb	0.13375442
187	0xbd4bc643	-0.049749624
188	0x3e0b9def	0.13634466
189	0x3d8241de	0.063602194
190	0x3d8632c8	0.065526545
191	0x3dabd7d5	0.08390776
192	0x3d89559a	0.0670578
193	0x3bc912bf	0.006136268
194	0x3d8f6052	0.070007935
195	0x3d9774d0	0.07395327
196	0x3a674441	0.00088221213
197	0xbb0f8dc9	-0.002190458
198	0x3e45a39d	0.19300695
199	0x3d7fc381	0.062442306
200	0xbc1c5c54	-0.009543497
201	0x3d89d8b9	0.0673079
202	0x3d5cceee	0.05390828
203	0x3d516626	0.051122807
204	0x3d713e5d	0.058897365
205	0x3d530d4b	0.05152635
206	0x3d5939b3	0.053033542
207	0x3d88ec5b	0.06685706
208	0x3db5af40	0.08871317
209	0x3d3bb64e	0.045828156
210	0x3d81533d	0.063147046
211	0xbd9eec6f	-0.0775994
212	0xbdd64351	-0.10462058
213	0x3d8c7487	0.06858163
214	0xbc0d7515	-0.008633872
215	0x3dad9b72	0.084769145
216	0x3d9408fc	0.07228276
217	0x3d98372e	0.074324
218	0x3d3315ad	0.043721844
219	0xbe0ddc12	-0.13853481
220	0x3d8deff1	0.06930531
221	0xb9eb3dfe	-0.0004486888
222	0x3e13cdd4	0.14433986
223	0x3da5c8fb	0.080949746
224	0x3e1e66a8	0.15468848
225	0xbd340645	-0.04395129
226	0xbc999595	-0.018748084
227	0xbdc4f9c2	-0.0961795
228	0x3d27b721	0.04094613
229	0x3cc442af	0.023957578
230	0x3da13cb0	0.07872903
231	0x3cd12f04	0.025535114
232	0x3d345939	0.0440304
233	0x3d9f6c58	0.07784337
234	0x3d2f1aff	0.042750355
235	0x3d9b2c38	0.075767934
236	0x3e825f6b	0.25463423
237	0x3d3adec1	0.04562259
238	0x3da68925	0.08131627
239	0x3d57be70	0.05267185
240	0x3d39228e	0.04519897
241	0x3d905f27	0.07049399
242	0x3e80309c	0.25037086
243	0x3d7550a1	0.059891347
244	0x3db505c1	0.08838988
245	0xbd88a3c1	-0.066718586
246	0x3dd3abae	0.1033548
247	0x3d4dc4a6	0.050236367
248	0x3d63cb4c	0.0556138
249	0x3d7a3c2d	0.061092544
250	0x3c395660	0.011312097
251	0x3d55d34a	0.052203454
252	0x3e595d60	0.21227026
253	0xbd4fa231	-0.050691787
254	0x3d24e540	0.040257692
255	0x3d25832d	0.040408302

base.seq_fcs.2.weight f4 [256, 256]
0	0x3f06178e	0.5237969
1	0xbc67854f	-0.014130904
2	0xbde7157f	-0.11283397
3	0xbd585db7	-0.05282375
4	0x3f70c037	0.94043297
5	0xbc230075	-0.009948839
6	0x3c132ccd	0.008982849
7	0x3c8c5fd1	0.017135533
8	0xbcc51210	-0.024056464
9	0xbeddd03d	-0.43322936
10	0xbead5690	-0.33855104
11	0xbdf3961a	-0.11893864
12	0xbe645475	-0.22297843
13	0xbf373d1c	-0.7157762
14	0x3f0a0afb	0.53923005
15	0xbd09ef1b	-0.033675294
16	0xbce49770	-0.027904242
17	0x3d11eea6	0.035627984
18	0x3ee2d470	0.44302702
19	0xbd1396e5	-0.036032576
20	0x3eb2bc13	0.34909114
21	0x3f049cdc	0.5180185
22	0xbd8e91a8	-0.069613755
23	0xbd7c1551	-0.061543766
24	0xbcfc265d	-0.030780012
25	0xbda30e52	-0.07961716
26	0xbd832c90	-0.06404984
27	0xbb8fba0c	-0.004386192
28	0xbd520c15	-0.051281054
29	0x3d031c6e	0.032009535
30	0x3b82792e	0.003981731
31	0xbd7e3d36	-0.062070094
32	0xbed1d596	-0.40983266
33	0xbfad80ce	-1.3554933
34	0xba3c88bc	-0.0007192006
35	0x3cbb5a75	0.022870282
36	0xbd921f51	-0.071348794
37	0x3d6e279b	0.05814324
38	0xbd88223b	-0.06647154
39	0xbf4b7431	-0.7947417
40	0xbdf7d905	-0.1210194
41	0x3a14d35b	0.00056772464
42	0xbca5f606	-0.020258915
43	0x3f38cf1a	0.7219101
44	0x3c14beb3	0.009078669
45	0x3b6926c3	0.0035576082
46	0x3fa3873a	1.2775643
47	0xbf53ebf0	-0.8278189
48	0x3f28082e	0.6563748
49	0x3c84a73a	0.016193021
50	0x3d377c0e	0.044796042
51	0xbec3ae56	-0.38218945
52	0xbe0709aa	-0.1318728
53	0xbf28ada7	-0.6588997
54	0x3e1fc9ab	0.15604274
55	0xbbbac655	-0.0056999126
56	0xbd5010a7	-0.05079713
57	0xbd456373	-0.048190545
58	0x3d620b41	0.055186514
59	0x3f0357f8	0.51306105
60	0x3f9416e7	1.1569489
61	0xc002ed8d	-2.045749
62	0x3d0a1da6	0.03371968
63	0x3d3a5e24	0.045499936
64	0xb97681a6	-0.00023508686
65	0xbd68a489	-0.056797538
66	0x3f06a968	0.52602243
67	0xbf1a9818	-0.60388327
68	0xbebcd89c	-0.3688401
69	0xbd3f3476	-0.04668089
70	0xbd525b7f	-0.05135679
71	0x3e0143f6	0.12623581
72	0x3f13b73f	0.57701486
73	0x3c0d84e5	0.008637642
74	0xbd42b921	-0.047539834
75	0xbe8ca9ee	-0.27473396
76	0xbeab3a77	-0.33443043
77	0xbc469664	-0.012120817
78	0xbd03fba7	-0.032222416
79	0xbd276fce	-0.04087811
80	0xbf78303f	-0.9694862
81	0x3caa3e22	0.02078158
82	0xbdb6fc5a	-0.08934851
83	0xbd6e6aae	-0.058207206
84	0xbd49e4d1	-0.049290482
85	0xbd9894f3	-0.07450285
86	0x3d53b45d	0.05168568
87	0x3c8c06e0	0.017093122
88	0x3d036585	0.03207924
89	0xbd3fdbb8	-0.0468404
90	0x3c836968	0.016041473
91	0x3d65e1e3	0.056123625
92	0xbf0fd928	-0.5619073
93	0x3d5f8e4e	0.05457907
94	0xbf97cb16	-1.1858852
95	0xbca219a0	-0.01978761
96	0x3d706c40	0.058696985
97	0x3cf0e685	0.029406795
98	0xbe687e15	-0.22704346
99	0x3d3d19f9	0.046167348
100	0x3c3980d7	0.011322222
101	0xbff47f17	-1.9101285
102	0x3d7db5dd	0.061941016
103	0x3ef92f8f	0.48669097
104	0x3d5f4c99	0.05451641
105	0x3d6cc697	0.057806578
106	0x3f146490	0.57965946
107	0x3eddb3af	0.4330115
108	0x3f25c8a5	0.64759284
109	0xbee0f500	-0.4393692
110	0x3f1198cb	0.5687377
111	0x3c96ef90	0.01842478
112	0x3ceae4f1	0.02867362
113	0xbe89f7c7	-0.26946852
114	0xbd6db8d3	-0.05803759
115	0xbd3b8e7f	-0.04579019
116	0xbe98d434	-0.29849398
117	0xbd55abb6	-0.05216571
118	0xbc7e658f	-0.015527143
119	0x3f5e86b8	0.86924314
120	0xbf6fe8e8	-0.9371476
121	0xbe198d9d	-0.14995427
122	0xbfbce512	-1.4757407
123	0x3ff92e47	1.9467248
124	0x3c3af96b	0.011412005
125	0x3e2dff44	0.16991907
126	0xbf036265	-0.51322013
127	0xbc9e7754	-0.01934401
128	0xbc80d71f	-0.015727578
129	0xbdae1b10	-0.085012555
130	0xbd29f9b4	-0.0414979
131	0xbe857fda	-0.26074106
132	0x3cf7dce1	0.03025669
133	0xbd9c84de	-0.0764253
134	0x3d67a0d5	0.056549866
135	0x3f9873d8	1.1910353
136	0xbf16bb9e	-0.5888003
137	0x3d337234	0.043810084
138	0xbf6d6b88	-0.92742205
139	0xbdacd600	-0.08439255
140	0xbda96839	-0.08271832
141	0xbe448c12	-0.19194058
142	0xbe551675	-0.20809348
143	0xbcbfcab8	-0.023412094
144	0x3d39ee3f	0.045393225
145	0x3cb41a92	0.021985326
146	0x3f256e7e	0.6462172
147	0xbe69a392	-0.22816303
148	0xbd0e55c0	-0.034749746
149	0xbde01033	-0.1094059
150	0xbe1f82c7	-0.15577231
151	0xbd1a6f81	-0.037703995
152	0xbd0d5ec9	-0.034514222
153	0xbfe29ce0	-1.7704124
154	0x3d1ee342	0.03879095
155	0xbee87bf3	-0.45407066
156	0xbe662112	-0.22473553
157	0x3f84bd62	1.0370295
158	0xbba5e1b5	-0.0050623068
159	0x3f2be7fe	0.67150867
160	0x3ca2cd4e	0.019873288
161	0x3c0bf6c6	0.008542722
162	0x3c742564	0.014901493
163	0xc0252650	-2.5804634
164	0xbcee4e37	-0.02909003
165	0xbe7c19f5	-0.24619277
166	0xbd7738e6	-0.060356997
167	0x3e38bf19	0.18041648
168	0xbd2fd413	-0.04292686
169	0xbd42b5b0	-0.047536552
170	0x3d3a1d41	0.045438055
171	0xbd087244	-0.033312097
172	0xbd87ec2b	-0.06636842
173	0x3f01bb94	0.50676847
174	0x3d057edf	0.032591697
175	0x3d054226	0.032533787
176	0xbeba42a8	-0.3637898
177	0xb9c705fd	-0.000379607
178	0xbdba0cb1	-0.09084452
179	0x3ea3ff03	0.32030496
180	0xbe4c16bd	-0.19930549
181	0xc012a2a6	-2.2911773
182	0xbf85fa9e	-1.0467107
183	0xbe92a627	-0.2864239
184	0x3c9f2e5f	0.019431291
185	0x3fa7e734	1.3117433
186	0x3df1cb71	0.118063815
187	0x3f546398	0.8296447
188	0x3e0bd0e2	0.13653901
189	0xbd2bf135	-0.04197808
190	0x3cafe98a	0.021473665
191	0xbf67e7e3	-0.90588206
192	0x3cbb6462	0.022875015
193	0x3f477be5	0.77923423
194	0xbd118e7b	-0.03553627
195	0xbb905092	-0.004404136
196	0x3decee82	0.11568929
197	0xbeabf868	-0.33587956
198	0x3eab7482	0.33487326
199	0xbcc8767c	-0.02447056
200	0x3dc7f252	0.09763016
201	0x3d2db353	0.042407345
202	0x3c82f33c	0.015985124
203	0x3ca55950	0.02018419
204	0xbd08490a	-0.03327278
205	0xbd8daf3a	-0.069181874
206	0x3c653b1f	0.013991146
207	0x3d3cf5ee	0.046132974
208	0xbd47e89e	-0.048805825
209	0xbaf4e472	-0.0018683805
210	0xbcc1d571	-0.023661347
211	0xbf979a3d	-1.1843945
212	0xc01c0a12	-2.4381146
213	0xbd6a97d9	-0.05727372
214	0xbf11127e	-0.5666884
215	0xbad9a8a5	-0.0016606046
216	0x3ae4e9d3	0.0017464705
217	0x3e37c3e7	0.17945825
218	0x3d463466	0.048389815
219	0x3d8f64ed	0.07001672
220	0xbd288e06	-0.04115107
221	0x3faa01cc	1.3281798
222	0x3efaa69f	0.48955247
223	0xbd12a9d1	-0.03580648
224	0x3eb8bf7a	0.36083585
225	0x3d80c84c	0.062882036
226	0x3d55ce28	0.05219856
227	0xbee662fb	-0.4499739
228	0xbcaf8105	-0.021423826
229	0xbe7437b5	-0.23849376
230	0xbd75d366	-0.06001606
231	0xbd6dfbd5	-0.058101494
232	0x3c59df35	0.013297846
233	0xbd114aff	-0.035471912
234	0xbd0d0364	-0.03442706
235	0xbc6d680b	-0.014490138
236	0x3deef95c	0.11668655
237	0xbaec76d1	-0.0018040781
238	0x3e1c7af1	0.15281273
239	0xbc2c766f	-0.010526284
240	0x3d4c0907	0.049813297
241	0x3c83c3b9	0.016084539
242	0xbe5b3046	-0.21405134
243	0xbf47bf92	-0.7802669
244	0xbd1eaedd	-0.03874098
245	0xbffcfa21	-1.9763833
246	0x3ebef865	0.37298885
247	0x3cfb964e	0.03071132
248	0xbd53afb3	-0.05168123
249	0xbc351fa3	-0.011054906
250	0xbe881c45	-0.26584068
251	0xbc9d2a08	-0.019185081
252	0xc0157a4c	-2.3355894
253	0x3eabfecf	0.3359284
254	0xbd45ba8f	-0.04827362
255	0xbd238714	-0.039923742

base.seq_fcs.2.bias f4 [256]
0	0x3ea0439e	0.31301588
1	0x3dea713d	0.1144738
2	0x3e881353	0.26577243
3	0xbc8906ab	-0.016726812
4	0x3e2844cd	0.16432495
5	0x3e3a9346	0.18220243
6	0x3e4fb1b4	0.20282632
7	0x3d6f7177	0.058457818
8	0x3e36cdd2	0.17851952
9	0x3e80402a	0.25048953
10	0x3e0e2a8a	0.13883415
11	0x3c955a3f	0.01823151
12	0x3ecfbe3a	0.4057482
13	0x3db1011d	0.086427905
14	0x3dc6d373	0.097082995
15	0xbd6084d4	-0.054814175
16	0x3e72b339	0.2370118
17	0x3d89af12	0.06722845
18	0x3e9893c6	0.29800242
19	0x3e8287e2	0.25494295
20	0x3ebe567e	0.37175363
21	0x3eeff13a	0.4686373
22	0x3e99ffeb	0.30078062
23	0x3f11dd53	0.5697834
24	0xbd6ecdd7	-0.058301773
25	0x3dd75245	0.105137385
26	0x3d8f04d1	0.069833405
27	0x3e01a0da	0.12659016
28	0x3ec27d50	0.3798623
29	0x38c86985	9.556398e-05
30	0x3edc5639	0.43034533
31	0x3d8ea0d9	0.06964273
32	0x3d68b8c7	0.056816842
33	0x3e29efb0	0.1659534
34	0x3daed3f9	0.08536524
35	0x3e8d8e13	0.27647457
36	0x3edfdb63	0.43722066
37	0x3e6fdd43	0.23424248
38	0x3f3388a8	0.70130396
39	0x3eb8ea36	0.3611619
40	0x3d0a3e20	0.033750653
41	0x3efcc026	0.49365348
42	0x3cd0f85d	0.025509054
43	0x3d68bc31	0.0568201
44	0x3d679a72	0.056543775
45	0x3c2cc195	0.0105442
46	0x3e431735	0.19051822
47	0x3d693a4d	0.056940366
48	0xbce03593	-0.027369296
49	0x3dc0b746	0.09409957
50	0x3e344a58	0.17606485
51	0x3ded164e	0.1157652
52	0x3e9b9a1d	0.30391017
53	0x3f26ea89	0.6520162
54	0x3e81b71d	0.25335017
55	0x3bc0815c	0.005874796
56	0x3d27e3e6	0.040988825
57	0x3e8da108	0.2766192
58	0x3efe1184	0.49622738
59	0x3d69509f	0.056961652
60	0x3e4e91b3	0.20172767
61	0x3e53be30	0.2067802
62	0x3aca0720	0.00154135
63	0x3c684446	0.014176434
64	0x3d1a2875	0.03763624
65	0x3d162f40	0.036666155
66	0x3ddc21dc	0.10748646
67	0x3ef90d19	0.48642805
68	0x3dde5d30	0.10857618
69	0x3e78cb67	0.24296342
70	0x3b7edee9	0.003889019
71	0x3ed04b43	0.4068242
72	0x3d6786ec	0.056525156
73	0x3e81151e	0.25211424
74	0x3dd67857	0.10472172
75	0xbd884cd3	-0.06655278
76	0xbc3bcff9	-0.011463159
77	0x3d9dd93a	0.07707448
78	0x3d5ff757	0.05467924
79	0xbd72e44a	-0.059299745
80	0x3dec37de	0.11534093
81	0x3cc648a3	0.024204558
82	0x3d7cafb7	0.061691012
83	0xbacc0bd3	-0.0015567489
84	0x3c64d93d	0.013967809
85	0x3ec5b1d6	0.3861224
86	0x3dad8e59	0.08474416
87	0x3e626e1d	0.22112317
88	0x3e9608c7	0.29303572
89	0x3dfa9a92	0.12236513
90	0x3c21944e	0.009862019
91	0x3d5dfece	0.05419808
92	0x3ebd1c97	0.36935875
93	0xbe5019e8	-0.20322382
94	0x3cb6cd26	0.02231462
95	0x3c87609a	0.016525555
96	0x3d2021cb	0.039094727
97	0x3dde8af3	0.10866346
98	0x3f08302d	0.5319851
99	0xbd6ea410	-0.05826193
100	0x3e05c2bd	0.13062568
101	0x3e608ce0	0.2192874
102	0x3d386e18	0.04502687
103	0x3ec2516e	0.3795275
104	0x3d3bb263	0.04582442
105	0x3df1c849	0.118057795
106	0x3ed15373	0.4088398
107	0x3e0607e7	0.13088952
108	0x3eaa16fa	0.33220655
109	0xbb83f3e9	-0.004026879
110	0x3e2cc13d	0.1687059
111	0x3e1a4b0d	0.15067692
112	0xbe179409	-0.14802565
113	0x3d6b7963	0.05748881
114	0xbcedb2c5	-0.029015908
115	0x3df1344c	0.11777553
116	0x3d3800f4	0.044922784
117	0x3d8a2739	0.067457624
118	0x3da1ded7	0.079038315
119	0x3d935ad4	0.071950585
120	0x3f301eb1	0.6879683
121	0x3ea904d8	0.33011508
122	0x3d0bd4a0	0.034138322
123	0x3d026f72	0.031844564
124	0x3ae9ea2c	0.0017846278
125	0x3ee66020	0.44995213
126	0x3f10a44e	0.5650071
127	0x3ebd545b	0.3697842
128	0x3c70f0ad	0.014705819
129	0xbd47001b	-0.048584085
130	0xbdb254cd	-0.08707581
131	0x3edb8851	0.4287744
132	0xbd5e9ec6	-0.054350637
133	0x3eb5798b	0.35444292
134	0xbab34a23	-0.0013678711
135	0xbca57e22	-0.020201746
136	0x3d04c591	0.032414977
137	0x3f09ddf7	0.53854316
138	0x3e7b71a2	0.24555066
139	0x3d947528	0.07248908
140	0x3eb94fce	0.361937
141	0x3e77fdf8	0.24217975
142	0x3e16f174	0.14740545
143	0x3bcca09e	0.006244733
144	0xbc90b30f	-0.017663507
145	0x3df2b103	0.118501686
146	0x3e2bd48e	0.16780302
147	0xbcb2d48c	-0.021829866
148	0x3db702ff	0.08936118
149	0x3ee0caee	0.43904823
150	0xbd66e3af	-0.05636948
151	0x3e2a0e90	0.16607118
152	0x3e99cf1c	0.30040824
153	0x3cc737d7	0.024318619
154	0x3f297fb7	0.662105
155	0x3e2310d2	0.15924385
156	0x3cdb9fad	0.026809538
157	0x3bf8dc85	0.0075946474
158	0x3d4b2936	0.04959985
159	0x3d71d921	0.05904496
160	0x3c92c090	0.017914087
161	0x3de60523	0.112314485
162	0x3ef48370	0.4775653
163	0x3d579f7c	0.05264233
164	0x3dc4fcff	0.09618568
165	0x3e113d36	0.14183506
166	0x3e072663	0.13198237
167	0xbe04bf3a	-0.12963572
168	0x3e36fd06	0.17869958
169	0x3d4d17f0	0.050071657
170	0x3eb2e1fb	0.34938034
171	0x3c5b895c	0.013399448
172	0x3e20e12e	0.15710899
173	0x3dc74040	0.097290516
174	0x3dd0df44	0.101988345
175	0x3d963a9f	0.073354
176	0x3e4f3231	0.2023399
177	0x3eb87a17	0.36030647
178	0x3dd5e72c	0.10444483
179	0x3edf13da	0.43569833
180	0x3cabaa1f	0.020955143
181	0x3b9a71aa	0.004713257
182	0x3d245b41	0.04012609
183	0x3ef4314f	0.4769387
184	0x3de071db	0.10959216
185	0x3ece8878	0.40338492
186	0x3c9526ea	0.018207032
187	0xba9f9640	-0.0012175515
188	0x3daf7390	0.08566964
189	0xbcae0094	-0.02124051
190	0x3ea37876	0.31927842
191	0x3d39e244	0.0453818
192	0xbd21a0a6	-0.039459847
193	0x3dfedd91	0.12444604
194	0x3e1e2e47	0.15447341
195	0x3e1f5e1b	0.15563242
196	0x3e8960d0	0.26831675
197	0x3dfe96bf	0.12431096
198	0x3db77fb5	0.08959905
199	0x3e555d4b	0.2083637
200	0x3e438f78	0.19097698
201	0x3d95ec55	0.073204674
202	0xbea2f25b	-0.31825528
203	0x3eea2c71	0.4573703
204	0x3da26e6b	0.07931217
205	0x3eff55ce	0.4987015
206	0x3dad5e3d	0.0846524
207	0x3ca53620	0.02016741
208	0x3d7ec7ad	0.062202144
209	0x3c888ec0	0.016669631
210	0x3dcc3cf1	0.09972561
211	0x3dc1126a	0.0942734
212	0x3ea0d1ef	0.31410167
213	0x3c9f66f0	0.019458264
214	0x3d3627a0	0.044471383
215	0x3bd9f57c	0.0066515785
216	0x3e03245d	0.1280684
217	0x3e7be10f	0.24597572
218	0x3e0c04d5	0.13673718
219	0x3e424411	0.18971278
220	0x3ef3f9bb	0.47651467
221	0x3ef4d7bd	0.47820845
222	0x3d88d8fa	0.0668201
223	0x3e11fb8d	0.14256115
224	0x3c0c2301	0.008553267
225	0x3d415772	0.047202535
226	0x3e4a0829	0.19729675
227	0x3dd892a5	0.10574845
228	0x3ec081c0	0.3759899
229	0x3e3f262f	0.1866691
230	0xbc394c9b	-0.011309768
231	0x3e52a97a	0.20572463
232	0x3cb33866	0.021877479
233	0x3b031ebd	0.0020007335
234	0x3dfa544e	0.12223111
235	0x3dce6ff2	0.100799456
236	0x3e43e6a0	0.19130945
237	0x3d15bb0f	0.036555346
238	0x3f2ce844	0.6754191
239	0xbe1d9a4d	-0.15390892
240	0xbe06e033	-0.13171463
241	0x3e925f04	0.28588116
242	0x3e938b60	0.28817272
243	0x3ca13ad1	0.019681366
244	0x3e89ed3f	0.26938817
245	0x3dafb7bf	0.08579969
246	0x3ec22360	0.37917614
247	0x3cb1f744	0.02172435
248	0x3e080dc0	0.13286495
249	0x3ee8ee82	0.45494467
250	0x3e8a9f2c	0.27074564
251	0x3e2743be	0.16334435
252	0x3b7e9691	0.0038847069
253	0x3da53532	0.08066787
254	0x3e978c3b	0.29599175
255	0x3dcfe862	0.101517454

last.weight f4 [8, 256]
0	0xc021e4b2	-2.5295835
1	0xbf818d02	-1.0121157
2	0x3d48f719	0.049063776
3	0xbeef73c8	-0.46768022
4	0xbb8dd2b7	-0.0043280977
5	0x3f362068	0.711432
6	0x3e68607e	0.22693059
7	0xbe61877c	-0.2202434
8	0xbf16d87a	-0.5892407
9	0x3f7dc25c	0.99124694
10	0xbf099183	-0.5373766
11	0xbed57ca1	-0.41696647
12	0x3f6e81e6	0.9316696
13	0xbf9919da	-1.1961014
14	0xbef3b617	-0.4759986
15	0x3f101498	0.56281424
16	0xc01644eb	-2.3479564
17	0x3ebe3480	0.3714943
18	0x3fd13fa1	1.6347543
19	0x3f4cd35a	0.80009997
20	0xc0304814	-2.7543993
21	0x3e5544ad	0.20826979
22	0xbf98be85	-1.1933142
23	0x3e5ff10d	0.21869297
24	0xbf55888a	-0.8341147
25	0xbd3ac0af	-0.045593914
26	0xbf1e3112	-0.61793625
27	0xbd84182f	-0.06449925
28	0x3d1aa20f	0.037752207
29	0xbf2c5363	-0.6731474
30	0x3ff4337c	1.9078212
31	0xbffcc0d4	-1.9746346
32	0xbea11bed	-0.31466618
33	0xc00491b5	-2.0713933
34	0xbf7c5ebb	-0.9858205
35	0x40284632	2.6292844
36	0x3f875d11	1.0575277
37	0x3f58f101	0.8474274
38	0x3f507562	0.8142911
39	0xc014a050	-2.3222847
40	0x3f569b5e	0.8383082
41	0x3fe7d207	1.811097
42	0xbd2d5b44	-0.042323366
43	0xbee9241a	-0.45535356
44	0xbea2b8ce	-0.3178162
45	0xbf75ca8f	-0.96012205
46	0x3f394429	0.7236963
47	0xbe0eade1	-0.13933517
48	0x4007cfe2	2.1220632
49	0x3ece6b6d	0.40316334
50	0x3f6db7de	0.92858684
51	0xbf413f52	-0.75487244
52	0xbe898886	-0.26861972
53	0x3f25266f	0.6451177
54	0x3eaff30d	0.3436512
55	0x3c1edfd8	0.009696923
56	0x3ea97a92	0.33101326
57	0xc00b9c5c	-2.1814184
58	0x3f861981	1.0476533
59	0xbff74a67	-1.9319581
60	0xbeffa34f	-0.49929282
61	0xc077493e	-3.8638453
62	0xbd8d8785	-0.06910614
63	0xbea977c8	-0.33099198
64	0xbde342d6	-0.11096732
65	0xbdd4fb18	-0.10399455
66	0xbe3ab049	-0.1823131
67	0x3efbc369	0.49172524
68	0xbec5fe5f	-0.38670632
69	0xc026f4e8	-2.608698
70	0xbbe09a24	-0.0068543125
71	0x3ea7cdb5	0.3277413
72	0xbddcbb57	-0.1077792
73	0xbdabafbb	-0.08383127
74	0xbe765fee	-0.24060032
75	0xbfc582ba	-1.543052
76	0x3f1c31fe	0.6101378
77	0x3fa65d4f	1.2997226
78	0xbeba38c8	-0.36371446
79	0x3eba31d0	0.3636613
80	0x3de17f3d	0.11010597
81	0xbeb2dd15	-0.34934297
82	0xbfc7d1e2	-1.5610926
83	0x3e47f56b	0.19527213
84	0xc023721b	-2.5538394
85	0xbe8902f1	-0.26760057
86	0xbfc6381e	-1.5485876
87	0x3f952d8f	1.1654528
88	0x3e8cc010	0.27490282
89	0xbf6aa1a4	-0.91652894
90	0xbcdc0ac2	-0.026860598
91	0xbf33c259	-0.70218426
92	0xbf795940	-0.9740181
93	0xbe15f348	-0.14643586
94	0xbe692262	-0.22767022
95	0xbf01a28c	-0.5063865
96	0x3f4fb225	0.811312
97	0x3fed4236	1.8535831
98	0xbfe5f4dd	-1.7965351
99	0x3e365362	0.17805246
100	0x3f89ac21	1.0755655
101	0xbfa6357f	-1.2985076
102	0xbe973843	-0.29535112
103	0x3ff805cf	1.9376773
104	0x3d06e3c9	0.032932077
105	0xbfb5ba27	-1.4197434
106	0xc0362027	-2.8457124
107	0x3fef7613	1.8707908
108	0xbfbbe68a	-1.467973
109	0xbde85ee1	-0.11346222
110	0xc0985af6	-4.7611036
111	0x3f249909	0.64296013
112	0xc0415bed	-3.0212357
113	0xbf444d96	-0.76680887
114	0xc082921f	-4.080337
115	0x3ddcf31b	0.10788556
116	0xc025484c	-2.5825377
117	0xbdadd494	-0.08487812
118	0x3f2c0bb9	0.6720539
119	0x3ec24fe9	0.37951592
120	0xbf4c2d7d	-0.7975691
121	0xbeb3486c	-0.3501619
122	0xc01d05a1	-2.4534686
123	0x3e767517	0.24068104
124	0x3c2bf2bd	0.010494885
125	0xbe9d87e2	-0.30767733
126	0xbee24484	-0.44192898
127	0x3d82a232	0.063785926
128	0xbc4e0547	-0.0125745
129	0xbf678cb3	-0.90449065
130	0xbea3e032	-0.32006985
131	0x4035dc92	2.8415875
132	0x3e071a15	0.13193543
133	0xc00d0588	-2.2034626
134	0xbb957c39	-0.0045619276
135	0x3f8f54dd	1.1197773
136	0xbe5a59a6	-0.2132326
137	0x3f256316	0.6460432
138	0xbcd6fd9c	-0.026243977
139	0x3f2d5ea8	0.6772256
140	0x3e335c33	0.1751564
141	0xbfeb1036	-1.8364322
142	0x3f551d64	0.8324797
143	0x3cc9c8cb	0.024631878
144	0x3e2d5f19	0.16930808
145	0xbe411391	-0.1885512
146	0xc05f219c	-3.4864264
147	0xbf4dd3e7	-0.8040146
148	0xbf4e3d3d	-0.8056219
149	0xc016cfa2	-2.356423
150	0xbf5676f3	-0.8377525
151	0xbf19fa59	-0.60147625
152	0xc024a9de	-2.5728679
153	0xbdac511d	-0.08413909
154	0xc03a264f	-2.9085882
155	0xbf4de7c6	-0.80431783
156	0xbe2d6d33	-0.16936187
157	0xbe9bc366	-0.30422515
158	0xbf62b3da	-0.8855568
159	0x3e8523b7	0.2600381
160	0xbecdcce7	-0.4019539
161	0xbd952772	-0.07282914
162	0xc0476008	-3.1152363
163	0xbe5076d4	-0.2035783
164	0x40573dbf	3.3631437
165	0xc01ef39e	-2.4836192
166	0xbe78aa49	-0.24283709
167	0x40071528	2.1106663
168	0xbf99c121	-1.2012063
169	0xc00953bb	-2.1457355
170	0xbfef2a7b	-1.8684839
171	0xbf0f8afc	-0.5607145
172	0x403c2e32	2.9403195
173	0xc012483a	-2.2856584
174	0x3edde809	0.4334109
175	0x4086d0ab	4.212972
176	0xc039fa8f	-2.905918
177	0xbff09eea	-1.8798497
178	0xbe0c9a72	-0.13730791
179	0xbec941b0	-0.39307928
180	0x3cfac4f4	0.030611493
181	0xbd9ee058	-0.07757634
182	0xbe99d4cf	-0.30045173
183	0x3f2190ef	0.63111776
184	0xc061d0b3	-3.528363
185	0x3f98bcaa	1.1932576
186	0x3d10bc0a	0.035335578
187	0xbdb22c67	-0.08699875
188	0xbf095510	-0.5364542
189	0xbfbb23ea	-1.4620335
190	0xc037901a	-2.8681703
191	0xbf1ec65b	-0.62021416
192	0xbfd8bb31	-1.6932126
193	0xbfdb6821	-1.7141153
194	0x3f7b1235	0.98074657
195	0xbf163344	-0.58671975
196	0x400fa656	2.2445273
197	0x3f236dcd	0.6383942
198	0xbf90be41	-1.1308061
199	0xbfc31ef3	-1.524382
200	0xbfc46a86	-1.5345008
201	0xbf4609df	-0.7735881
202	0x3d0f8597	0.03503951
203	0x400ca452	2.1975293
204	0xbf934b64	-1.1507382
205	0x3fca2c04	1.5794683
206	0xbf009967	-0.50234073
207	0xbf8fd46d	-1.1236702
208	0xbdc353c1	-0.09537459
209	0xbbe9d393	-0.0071358173
210	0xbf387e3d	-0.72067624
211	0xbdcf1b22	-0.10112597
212	0xc04e4579	-3.2229903
213	0xbe17e38b	-0.14832895
214	0xbf94ff7e	-1.164047
215	0xbc0bf846	-0.00854308
216	0xbe6bad97	-0.23015438
217	0xbf897862	-1.0739863
218	0xbf17d842	-0.5931436
219	0xbf1dd8f4	-0.6165917
220	0xbf379c64	-0.7172301
221	0x3f499476	0.7874216
222	0xbe99b7ae	-0.3002295
223	0xbfa92cbb	-1.3216776
224	0x3b99d88e	0.004695005
225	0x3ea771c9	0.32704
226	0x3ed8d041	0.42346385
227	0x3de2ad32	0.11068191
228	0xbdce3dfe	-0.10070418
229	0xbec19b3d	-0.3781375
230	0x39f8a3c8	0.00047424273
231	0xbe93143c	-0.28726375
232	0x3e981597	0.29703972
233	0x3b1a6227	0.0023557039
234	0x3e250069	0.16113438
235	0x3fc0420d	1.5020157
236	0x3f49f9c2	0.78896725
237	0xbf2c6d05	-0.6735385
238	0x3ea93075	0.33044782
239	0xbf288ab7	-0.6583666
240	0xbdf994d2	-0.12186588
241	0x3fa438bb	1.2829813
242	0x4001e5e8	2.0296574
243	0xbe9893a5	-0.29800144
244	0xbec078d4	-0.37592185
245	0xbf32ae28	-0.6979699
246	0x3fbf0e32	1.4926207
247	0x40628b12	3.5397382
248	0xbfe5ae0c	-1.794374
249	0x3fb3238e	1.3995225
250	0xbc6a1dac	-0.014289301
251	0xbfa194d3	-1.2623543
252	0xbb82c8d5	-0.003991226
253	0x3ea4be70	0.32176542
254	0x3f3a2805	0.72717315
255	0xbd9bdc81	-0.07610417

last.bias f4 [8]
0	0x3d8bdb30	0.06828916
1	0x3d9875bb	0.0744433
2	0xbc519d81	-0.0127938995
3	0x3e1ee810	0.15518212
4	0xbeb1707d	-0.34656134
5	0xbf17bcbe	-0.5927237
6	0xbed18715	-0.40923372
7	0xbddc55f6	-0.10758583
