Soft-Module-main/log/model50_new_23/model_vf_best.pth (torch, 280037 bytes, 5 tensors)

base.seq_fcs.0.weight f4 [256, 12]
00000000: 9819 b53b 3492 2a3d 9140 a13c ca58 bfbd
00000010: 7c19 8a3d 9592 35bc 00ed 9d3b f898 053c
00000020: 8039 243a 208c 9c3d 6a30 6ebc c38f 223c
00000030: 8146 853c dd46 f43c 4a8b 773c aea6 52bd
00000040: de47 533b 7354 bd3d 182a 123d cc2e b23c
00000050: e4b1 5a3d 3649 0b3d 0fe1 9d3b 8ffb b0bc
00000060: 3ca8 f23b d152 023d c117 ecbc 0012 943b
00000070: ead2 a2bc 64b9 d3bb ae21 2ebd e479 5f3d
00000080: 0858 68bd a643 f4bc e603 123c 3aa3 07bb
00000090: 4b48 33bd 2ec0 d2bc ecb1 b2bb a026 8f3c
000000a0: 40bc 623c 223a c03d 80c9 e93b 50dc 333c
000000b0: 1cd3 0fbd 827d 823c 4b57 8b3d 14cb 913d
000000c0: 5c86 9b3c 4e51 773d a463 733d 8926 51bc
000000d0: 498e a03d 8bb9 5e3d 38bc f93c a023 193c
000000e0: 40ab 2e3b b210 693c eca1 ad3d 6dc6 873d
000000f0: 8ed8 a9bc 0700 9d3c fb53 0cbc 2dbd 42bd
00000100: 2e4a f33c 3164 e63c 745e bcbc c8fa 5fbd
00000110: e207 673d 87ed e4bc da6c f33c 4ba9 8c3d
00000120: 4d82 313d 0b45 c53c d370 46bc 3148 45bd
00000130: 6eca 683d 4107 d93c fc91 83bc d6c7 73bd
00000140: b6a3 06bd 661a d1bc c1de 9dbb fe3a 87ba
00000150: e5ad fd3c 8532 b8bc b87c 3abd a2ce a5bd
00000160: 451b 8a3c 97bf 85bc 9cfd 21bd a832 c3bc
00000170: d0b4 9ebc 23f5 29bc 39e7 9bbc f507 093d
00000180: 3043 8bbd 5de0 923d 0a6b 123c 777d 9e3c
00000190: bac4 02bc e019 943d 0023 ecbc 74d4 1cbd
000001a0: d0ea cabb 0b3f 283d 8d20 bd3d 9f6c d7bc
000001b0: dc47 d6bc 0c33 453d 186c 033a 4f2a 393c
000001c0: 7afa 16bc d16b bd3d d8b3 ed3c a894 e7bc
000001d0: 087c 123d 4cbe ec3c 806c 383d 6f6c bc3d
000001e0: f4af 0e3d 7486 c63c e90d 84bd d985 50bd
000001f0: bddd 2b3d d936 803b b0d3 38bc 0036 fcb9
00000200: a084 c83b 4721 403d 6de7 0e3d 1f99 733d
00000210: 7947 e8bc 188a 8f3d 1abc 053d 5bff 94bd
00000220: a9fe 943b 25f0 603d 2478 603d c851 963c
00000230: 5aeb 5f3d 457f f5bb 7bda ba3d 85c9 313d
00000240: 4ae7 423c 97b5 b3bc c6e1 b53c 503f 663c
00000250: 7b03 3e39 9e00 c23d 8013 a83b 6058 c53b
00000260: e00d 5c3c ecc7 4a3a 0f74 243c 6d72 893c
00000270: 7013 7b3c a0d9 3b3d e553 583d 8ed6 b0bc
00000280: 4cd7 aa3d 046b 7f3d 00ea 243a 2a4f 24bd
00000290: 281b 973c 6a71 c33d 727c 403d 4049 963c
000002a0: d813 73bd 3fcb 2f3c 02d0 823d 8b4b 7bbd
000002b0: a629 f53c 76db 9c3d 9280 41bd 706e b13c
000002c0: 7eab 0fbd d1a7 063d a181 803d 6f8a a93d
000002d0: d8ac ab3b d95a 3c3b b911 c6bc d805 883c
000002e0: 0331 943c 68aa 433d c0fb bf3a 2ecd 723d
000002f0: 1c62 03bd be36 013d e51f 8e3d c2bf 803c
00000300: 1718 4abd 158e cb3d b16a 1c3d 8ba3 b4bb
00000310: 2bef 4d3d a336 873d 602e 24bd d0ab 933b
00000320: 1837 783d 5f5b 023d b7a2 1e3d 8db7 933d
00000330: 27bc 9ebd a231 853d d2a7 d4bc 75c9 b6bc
00000340: d132 4b3d f9b2 8c3d 22eb 333d 46ae 30bd
00000350: 0c84 62bd 240a 973d f2fc 9e3c 263c 8e3d
00000360: fbec 1fbd 8877 eabc 1988 7d3d 65b2 37bc
00000370: 9ea0 be3b 8075 a13d c6d9 0f3d 5448 aabc
00000380: 4069 0d3d 238a 3a3d 7c57 273d db21 d43b
00000390: 8d7a 6ebd 6819 283d 2290 5b3b a055 63bd
000003a0: aab4 d8bb 9100 2c3c 4049 393d f05a 10bc
000003b0: 4426 6b3d 7c2a 4d3d 2314 27bc 4de7 943d
000003c0: 8e71 213c 5383 c93c 98fc 4cbd 411c b8bc
000003d0: d214 f7bc 9ea3 523d 9e2c 67bd a0a7 7fbd
000003e0: 6a5a 4bbd 77b4 22bc 4ad2 743d 26ed 98bc
000003f0: 0881 27bd bee2 68bc 7dcf 323d 8baa 00bd
0.0055267327 0.041643336 0.019684108 -0.09343107 0.06743142 -0.011082311 0.0048195124 0.008154146
0.00062646717 0.07643914 -0.01453791 0.009921971 0.01626897 0.029818946 0.015108893 -0.05142849
0.003223888 0.09244623 0.035684675 0.02175083 0.053392306 0.034005366 0.004818089 -0.021604327
0.007405309 0.03181726 -0.02881992 0.0045187473 -0.019875962 -0.0064613093 -0.04251259 0.054559603
-0.05672458 -0.029817414 0.008912062 -0.0020696656 -0.043770116 -0.025726404 -0.005453339 0.017474473
0.013838828 0.09386088 0.0071346164 0.01097782 -0.03511344 0.015928987 0.06803759 0.07118812
0.018984966 0.060380273 0.059421197 -0.012765535 0.07839639 0.054376166 0.030485258 0.009346873
0.0026652366 0.014225172 0.0847815 0.066296436 -0.020733144 0.019165052 -0.008564944 -0.047543693
0.029698458 0.028123947 -0.022994258 -0.054682523 0.056404002 -0.027945293 0.02971499 0.068682276
0.043337155 0.024080774 -0.01211186 -0.04816455 0.056833677 0.026492717 -0.016060822 -0.05951675
-0.03287097 -0.025525283 -0.004817814 -0.0010317264 0.030966708 -0.022485027 -0.045529097 -0.08096053
0.016858706 -0.016326709 -0.0395485 -0.023827866 -0.019373327 -0.010373387 -0.019031154 0.033454854
-0.067999244 0.071717 0.008936653 0.019346936 -0.007981474 0.07231498 -0.028825283 -0.03828855
-0.0061925426 0.041075747 0.09234724 -0.026296912 -0.026157312 0.048144385 0.00050133606 0.011301591
-0.009214992 0.0924908 0.02901642 -0.028269127 0.035762817 0.028899334 0.04502535 0.092003696
0.03483577 0.024234034 -0.06447966 -0.050908897 0.041959513 0.0039127884 -0.011280939 -0.0004810542
0.0061193258 0.046906736 0.034888674 0.0594722 -0.028354393 0.07008761 0.03265009 -0.07275268
0.0045469594 0.05491652 0.054802075 0.018349543 0.054667808 -0.0074919784 0.09123703 0.043405075
0.011895964 -0.021937175 0.022202384 0.014053181 0.00018121109 0.09472774 0.0051292777 0.006022498
0.013431042 0.0007735479 0.010037436 0.016778195 0.0153244585 0.04586184 0.052814383 -0.021586683
0.08341846 0.062357917 0.0006290972 -0.04011456 0.018445566 0.095431164 0.04699368 0.018345475
-0.059345096 0.01072961 0.063873306 -0.06135134 0.029927086 0.07659046 -0.047241755 0.021659106
-0.035075657 0.032874886 0.06274725 0.08278357 0.0052391104 0.0028740673 -0.024178373 0.016604349
0.018089777 0.047769934 0.0014647171 0.059277706 -0.032075986 0.031546347 0.06939677 0.015716437
-0.04933938 0.09939209 0.038187686 -0.00551266 0.050276916 0.06602218 -0.04008329 0.0045065656
0.060599416 0.03182542 0.038729396 0.07212744 -0.07750731 0.06503607 -0.02595893 -0.02231286
0.04960901 0.06870074 0.043925412 -0.04313495 -0.05530171 0.07374981 0.019407723 0.06945066
-0.03904436 -0.02862145 0.06189737 -0.011211966 0.005817487 0.078837395 0.035119794 -0.020786442
0.034524202 0.045541894 0.040854916 0.0064737624 -0.058222342 0.041039854 0.0033502658 -0.05550158
-0.0066133337 0.010498182 0.045235872 -0.008810744 0.05740954 0.050089344 -0.010197672 0.072706796
0.009853734 0.024598753 -0.05004558 -0.02247441 -0.030161295 0.05142557 -0.056439035 -0.06241572
-0.049646772 -0.0099307215 0.05977086 -0.018667769 -0.04089454 -0.014214216 0.043654907 -0.031412642

base.seq_fcs.0.bias f4 [256]
00000000: 2bc1 063e dbc8 053e edfb 063e c2b9 083e
00000010: 226e 0a3e c799 043e ee68 023e 667f 093e
00000020: 2bea 073e 384b 093e 9015 043e 3e95 0d3e
00000030: 21dd 0a3e f922 0c3e 2689 083e 6359 013e
00000040: e9b4 0b3e 355a 0c3e cee0 053e 7359 083e
00000050: 8030 053e ef17 093e 6d18 0d3e a35b 0b3e
00000060: 5d39 053e 1b98 083e ec45 093e ed38 0c3e
00000070: 3351 0a3e f8c6 083e 9dae 0c3e 0c61 053e
00000080: a83f 043e 4b00 0c3e d5f2 093e 65c0 083e
00000090: 5dca 023e e2af 063e 5349 043e 11e1 023e
000000a0: 66f9 073e 9833 0b3e 7855 083e 1087 0c3e
000000b0: c74f 073e d1e8 083e 0f9a 053e 8290 0c3e
000000c0: a52c fb3d 9e8a 0a3e a716 053e f506 0b3e
000000d0: 4c61 073e 2728 043e 8af7 033e 5a80 093e
000000e0: bd45 083e cdcc cc3d d399 083e 795b 0b3e
000000f0: a86a 053e 8687 0a3e 5203 0a3e 0d61 053e
00000100: 5730 0c3e 3ec5 093e e880 053e 18c0 073e
00000110: d3c2 0a3e a104 0a3e f37f 073e f80c 0b3e
00000120: 60ce 0b3e 7b93 063e 208d 083e 36fb 063e
00000130: f62e 063e aa17 043e e48e 0c3e 0d33 013e
00000140: 5f9b 083e 5a1b 063e c261 0c3e b50c 0e3e
00000150: bb43 0d3e f1f9 053e 0d8d 013e 2cdf 093e
00000160: 4efc 043e 265e 093e 506d 083e 718c 063e
00000170: 4f98 053e 11d0 093e 51a2 063e c01c 0e3e
00000180: f645 063e ee01 093e 23bc 083e c95a 063e
00000190: 1418 c23d 3c82 0d3e 877d 093e 77b3 073e
000001a0: 3a08 0d3e 3c42 0d3e 6ae5 0b3e 6839 063e
000001b0: f00b 023e be27 083e c968 063e 6bf7 093e
000001c0: a316 063e ec71 093e e14f 063e 18b0 0d3e
000001d0: 07b5 0a3e 26aa 083e c9a9 0a3e 5d1c 0b3e
000001e0: 6fce 0b3e c680 0a3e 03c7 023e fd42 073e
000001f0: a0f6 053e db61 063e aa47 093e 3dd6 053e
00000200: ae2a 0c3e 8875 033e de66 003e 0efd 093e
00000210: bbf9 0a3e 7a18 093e 6253 093e 02f4 0b3e
00000220: b070 0c3e be78 0a3e 9f88 003e 1ac2 023e
00000230: cf84 093e 6f12 0b3e 83c9 073e fbae 033e
00000240: fa30 0a3e 42d1 093e 86e1 053e e85f 083e
00000250: b628 093e e504 0d3e afc4 033e 81ce 0c3e
00000260: cc77 033e fc71 0b3e c8f6 063e f33c 0b3e
00000270: e8f9 0a3e cbcb 033e d393 043e 0ad4 0b3e
00000280: 1921 073e 0dee 083e 33d9 0d3e 1557 0d3e
00000290: 2bc5 043e 4b83 063e 9646 0a3e 4bef 043e
000002a0: bb08 013e 8211 0d3e 8264 0b3e c4e2 063e
000002b0: 109c 093e 482e 093e 7be0 0b3e 2f7c 093e
000002c0: b745 083e 3c92 073e 9be3 013e 9ba6 043e
000002d0: c47a 0c3e c475 033e 9b51 073e 614c 063e
000002e0: d4d7 073e fcb2 053e b90e 0d3e 8f40 0b3e
000002f0: 6574 033e f756 063e 7830 083e 6f0d 033e
00000300: 5387 073e 5f38 033e ad31 093e 44f7 063e
00000310: 8a59 063e f9fd 093e 074d 0c3e 7bbb 0d3e
00000320: 3158 053e 909e 083e ab1a 003e 2585 083e
00000330: 282c 073e a2e0 053e 4f9a 023e 8eba 083e
00000340: 94fa 093e f502 043e c5ea 0a3e e34a 093e
00000350: 59bb 073e 27a6 083e 09a0 013e 1752 073e
00000360: 54aa 0a3e a9af 0b3e 1cee 0a3e 07a1 0b3e
00000370: dd41 063e d4b4 093e 6d1c 093e b52a 093e
00000380: a152 0c3e 7dc2 063e f5e8 013e 2270 083e
00000390: 23cb 0b3e 3bbf 0a3e be77 0b3e aae8 0c3e
000003a0: 7282 073e 0ff1 043e c937 0b3e 6d41 093e
000003b0: 3bf1 033e d5b9 093e a30a 063e 475c 0b3e
000003c0: 313f 0a3e 2cbe 053e 7347 083e 803c 043e
000003d0: 9843 093e 05ce 083e cf9c 043e a543 0d3e
000003e0: 3e16 073e c765 0a3e 9bff 0a3e 8fdd 083e
000003f0: 2163 0a3e b707 0a3e 5208 083e 0a13 0e3e
0.13159625 0.13064902 0.1318204 0.13352111 0.13518575 0.12949286 0.1273534 0.13427505
0.13272922 0.134076 0.1289885 0.13826463 0.13560916 0.13685216 0.13333568 0.12631755
0.1364323 0.13706286 0.13074037 0.13315372 0.13006783 0.13388036 0.13778849 0.13609175
0.13010164 0.13339274 0.1340558 0.1369359 0.13507538 0.1335715 0.13738485 0.13025302
0.12914908 0.13671987 0.1347154 0.13354643 0.12772508 0.13153031 0.12918596 0.12781169
0.13278732 0.135939 0.13313854 0.13723397 0.13214026 0.13370062 0.1304705 0.13727
0.12264375 0.13529441 0.12996922 0.13576873 0.1322071 0.12905942 0.12887397 0.13427868
0.13307853 0.1 0.1333993 0.13609113 0.13028967 0.1352826 0.13477829 0.13025303
0.13690315 0.13454148 0.13037455 0.13256872 0.13550882 0.13478328 0.13232403 0.13579166
0.13652945 0.13142197 0.13335085 0.13181767 0.13103852 0.12899652 0.13726383 0.1261713
0.1334052 0.13096371 0.13709167 0.13872035 0.13795368 0.13083626 0.12651463 0.1346404
0.12986872 0.13414821 0.1332295 0.13139512 0.13046382 0.13458277 0.13147856 0.13878155
0.13112625 0.13379642 0.13353018 0.1312057 0.09477249 0.13819212 0.13426791 0.13252054
0.1377267 0.13794798 0.13661733 0.13107836 0.12699866 0.1329641 0.1312591 0.13473289
0.13094573 0.13422364 0.13116409 0.13836706 0.13545619 0.13346156 0.1354133 0.13585038
0.13652967 0.13525686 0.1277123 0.13209148 0.13082361 0.13123266 0.13406244 0.13070007
0.13688156 0.12837803 0.1253924 0.13475439 0.13571827 0.13388243 0.13410714 0.136673
0.13714862 0.13522622 0.12552117 0.12769356 0.13429569 0.1358125 0.13260464 0.12859719
0.13495246 0.13458732 0.13074312 0.13317835 0.13394436 0.13771398 0.12867998 0.1375065
0.12838668 0.136177 0.13180077 0.13597469 0.13571894 0.1287071 0.12947015 0.13655105
0.1319622 0.13372059 0.13852386 0.1380275 0.12965839 0.13136022 0.13503489 0.12981908
0.12600987 0.1377621 0.1361256 0.13172442 0.1343844 0.13396561 0.13659851 0.13426279
0.13307844 0.13239378 0.12684481 0.1295418 0.13718706 0.12837893 0.13214724 0.13115074
0.13265926 0.13056558 0.13775147 0.13598846 0.1283737 0.13119112 0.1329974 0.12798093
0.13235216 0.12814473 0.13397856 0.13180262 0.13120094 0.13475789 0.13701259 0.1384105
0.13021924 0.13341737 0.12510173 0.1333204 0.13200438 0.13073972 0.12754177 0.13352415
0.13474494 0.12891753 0.1356612 0.13407473 0.13255061 0.13344632 0.12658705 0.13214909
0.13541538 0.13641228 0.13567394 0.13635646 0.13111062 0.13447887 0.1338975 0.13395198
0.13703395 0.13160129 0.12686522 0.13324025 0.1365171 0.13549511 0.13619897 0.1376063
0.13233355 0.12982582 0.13595499 0.13403864 0.12884991 0.13449796 0.13089995 0.1360942
0.13500668 0.13060826 0.13308506 0.12913704 0.13404691 0.1335984 0.12950443 0.13795336
0.13192078 0.13515387 0.13574068 0.13365768 0.13514377 0.13479505 0.13284424 0.1387445

base.seq_fcs.2.weight f4 [256, 256]
00000000: 27ea e23c 296d 8f3d 38cc 133c 72a9 063c
00000010: e87d d8bc 50e3 64bc 4936 d1bc 068e 273d
00000020: 64ef 98bc d458 013d 4f6b f43c 0983 893d
00000030: bc6c 04bd a888 b23c da3a c3bc 9099 89bc
00000040: 9b05 933d 0130 9b3d 246d 84bb dd46 833d
00000050: 0179 e13c daa7 a63c 7160 a93d 0bb0 773d
00000060: f052 4a3d 42aa 883d 2f4d 213d edc2 5dbc
00000070: c02d 05bc 57f4 c13c 1684 403d 17e5 2c3d
00000080: 160d a93d 878f a03d 5e42 99bc 4d49 95bc
00000090: 2e76 f3bb 2c08 203d 167b 8c3d eb11 a93d
000000a0: 334d ddbb fb30 583d b8dd 993d 8ab9 c2bc
000000b0: 41ff acbc b5da b13d fa84 2e3d 08c8 af3d
000000c0: 6c96 493d 563e 8abc 7d6b bcbc 2e9f 843d
000000d0: 7da5 113d 3661 b5bc 33a3 11bc 6a53 9a3c
000000e0: 14dc ba3c 7c9a 243d d4a4 a73d 3b6f ab3d
000000f0: 3948 23bc 38b8 a1bb c600 04bc 06b5 073d
00000100: c58d 3c3d dbd3 bb3c 5a3f a73d fd75 8b3d
00000110: 2284 953d 24f7 a13d 1592 653d b0f8 de3c
00000120: 7c2a c6bc 3dd9 3d3c bb63 0e3d 7f31 443a
00000130: f122 0c3c aa05 5a3d fd94 bb3c c0f6 853d
00000140: 00c6 cd3c 2380 47bc a8e7 133d 47db e1bb
00000150: dce5 3b3d 4eab 0039 0442 d7bc 58ce e43c
00000160: 8158 e8bc 32b8 a13c 5494 67bb 9e71 87bc
00000170: a0cd 503d 48ef 5e3d f1e1 f43b 6300 ad3d
00000180: bdbe fabc e4a0 723d 16db d3bc 8e95 273d
00000190: 7607 4bbd 6fc0 a93c e337 39bc 98ff 5b3d
000001a0: 8be8 473d 087b f3bc 86f9 993d f788 7d3d
000001b0: 861a d7bc 372d e53c 1228 d4bc 36c7 b03c
000001c0: c60a 3c3d 40c3 1f3c 1062 443d 4208 3d3c
000001d0: 26c4 acbc 45b6 6f3d 1f5b 953d b23a 913d
000001e0: 2ba1 1bbc ba5e 933d 0416 2bbc 2c09 c8bc
000001f0: 43c0 853b c433 99bc d955 2f3d 7c3a 923d
00000200: adbc 5dbb 5582 6d3c d138 d43c 2f1d 12bc
00000210: bebd 023d 7907 b73c 4434 ae3d e9b8 443d
00000220: 9375 503d af6b 7e3d 9bde 193c f8ec 233c
00000230: d775 7bbb 7678 7c3c 97d6 a33c 6361 c23c
00000240: 2473 9d3d 8813 12bd 1399 9fbc a62f 373c
00000250: c753 993d a1a7 3a3c d0a2 dbbc 9a96 88bc
00000260: 8424 c83c bc5a 02bd 1c94 943d a692 c83b
00000270: 2f74 743d 9475 c6bb ebe0 e5bc dbe8 553d
00000280: efe6 acbc 7854 48bb 7b95 b43d 3b6f 413d
00000290: 79b5 f8bc f0e7 acbb 215a 963d 9967 dcbc
000002a0: 5694 6abc c6bc 03bd d833 01bc 1f4d 5f3c
000002b0: c9e7 873c 991e 9dbb 337c 813d e4bb 833d
000002c0: 29a4 ac3d 7b5c 193d 9333 25bc 1893 ae3c
000002d0: cfef 843d a156 c03b 8740 95bc 66aa 5b3c
000002e0: ffbb a33d 9b64 523d 3b3e c73c 0fc8 fd3c
000002f0: ee69 823d abb3 8dbc 3ceb 803d 131c 523d
00000300: 960a 4bbc 8aa6 bc3c ff6e 0a3c 2ae8 933d
00000310: c2c9 bb3d 5227 8a3d 180d abbc f8f5 b43c
00000320: 3618 f9bc 625d 883d f13a 393c e535 c5bc
00000330: 28aa 973d 943a 0a3d 52ca cabc 2c04 893d
00000340: eefb 103d 3287 6a3d 789d a93c 4dd1 86bc
00000350: 8949 b63d b35f ed3c a278 a4bc aab3 823d
00000360: 628c 733d efd8 2a3d 9d3e 8d3d 6060 893d
00000370: ba12 3c3d 050b 933a 3748 203d e9ad 053d
00000380: 2309 f7bc 9bfe 853d 52ef 6c3d 8467 cebc
00000390: 7016 423c 202e b13d 9e94 61bc b3a3 943d
000003a0: 6763 e7bb f8b1 8e3d fcb5 bebc cc62 5cbb
000003b0: 3c25 903d 1158 993d 02ab b43c a6e6 bdbb
000003c0: c10e 3cbb f45f b5bc 7839 43bc a004 a73d
000003d0: ac62 8f3d ddcd ddbc d68a 093b 1a93 a53d
000003e0: f394 433d 8cac 0dbb 1832 7b3d 1f39 743d
000003f0: c8c3 c2bc 917b f83c e5f3 bb3d a24d 96bc
0.027699543 0.070032425 0.0090208575 0.00821911 -0.026427224 -0.013970211 -0.02553858 0.04090693
-0.018668838 0.031578854 0.029836325 0.06714446 -0.03233026 0.021793678 -0.023831774 -0.016796857
0.071788035 0.075775154 -0.004041331 0.064100005 0.02752352 0.02034371 0.08270348 0.060470622
0.0493955 0.06673099 0.03938025 -0.013535243 -0.008128583 0.02367608 0.047000967 0.042210665
0.08254449 0.07839876 -0.018708404 -0.01822343 -0.0074298596 0.039070293 0.06859414 0.08255371
-0.0067535876 0.052781086 0.075129926 -0.023770113 -0.021117808 0.08684293 0.042607285 0.08583075
0.04921572 -0.016875427 -0.023000473 0.064756736 0.035558213 -0.02214108 -0.008889007 0.018838603
0.02281002 0.04018639 0.08185735 0.08370825 -0.00996595 -0.0049352907 -0.008056825 0.03313162
0.04603364 0.022928169 0.0816638 0.06809614 0.07300593 0.079084665 0.056047518 0.027218193
-0.02419018 0.011587438 0.03476308 0.0007484182 0.008553253 0.053228058 0.022898192 0.065412045
0.025118828 -0.012176546 0.036109596 -0.006892595 0.045873508 0.00012270847 -0.026276596 0.027930424
-0.028362514 0.019741151 -0.0035336213 -0.01653367 0.05097735 0.054427415 0.0074732234 0.084473394
-0.03060853 0.05923547 -0.025861304 0.04091411 -0.049567662 0.020721642 -0.011304828 0.05371055
0.048805755 -0.029721752 0.07518296 0.061898198 -0.026257765 0.027975662 -0.025898013 0.021579366
0.04590871 0.009751141 0.047945082 0.011537613 -0.021089625 0.058523435 0.072927706 0.07091273
-0.009498875 0.07195802 -0.010442261 -0.024418436 0.0040817573 -0.018701442 0.04280648 0.07140061
-0.0033834383 0.014496406 0.025905998 -0.008918091 0.031919234 0.02234243 0.085060626 0.048027907
0.050893378 0.062114414 0.009391452 0.010005228 -0.0038369799 0.0154095795 0.019999785 0.023728078
0.07687977 -0.035663158 -0.019482171 0.011180794 0.074866824 0.011392505 -0.026811033 -0.016673375
0.024431475 -0.031824812 0.07254812 0.0061209975 0.059681114 -0.006056497 -0.02806135 0.05222402
-0.021106211 -0.0030567925 0.08817574 0.04722522 -0.03035997 -0.0052766725 0.073414095 -0.026904868
-0.014317593 -0.03216245 -0.007885896 0.013629227 0.016590016 -0.0047949073 0.06322517 0.06432322
0.084297486 0.037441712 -0.010083097 0.021310374 0.06491052 0.005869702 -0.018219246 0.013407325
0.07994842 0.051365476 0.024321666 0.030979184 0.06367861 -0.017297586 0.062948674 0.051296305
-0.012392661 0.02302863 0.008449315 0.07222016 0.091693416 0.06745781 -0.020880267 0.022089943
-0.030407052 0.06658436 0.011305557 -0.02407355 0.074055016 0.03374727 -0.024754677 0.06690249
0.03539651 0.05725784 0.02070497 -0.016457224 0.089007445 0.028976297 -0.020077053 0.063819245
0.05946005 0.04171079 0.06896708 0.06707835 0.045916297 0.0011218494 0.03913137 0.032636557
-0.030155724 0.06542703 0.05784542 -0.025195844 0.01184617 0.08651376 -0.013768343 0.07257786
-0.00706141 0.069675386 -0.023280136 -0.0033628223 0.07038352 0.074875005 0.0220542 -0.0057953177
-0.0028695317 -0.02214048 -0.011915557 0.08155179 0.07001242 -0.027075702 0.0020987294 0.08084698
0.04774947 -0.0021617739 0.06132707 0.059624787 -0.023774996 0.030332359 0.091773786 -0.018347565

base.seq_fcs.2.bias f4 [256]
00000000: 4333 fd3d b309 013e cdcc cc3d 9b2b 003e
00000010: bf56 003e 5e2f fc3d 3c2b 013e f4cd ff3d
00000020: f6c6 fa3d 1f7c c43d dc50 003e e13b fd3d
00000030: 1886 fa3d 451c fb3d af72 fe3d 5ad0 ff3d
00000040: 501b 003e 1378 003e 9a81 f63d 662a ff3d
00000050: f086 c53d 2ead fd3d 0870 003e 9b4a fd3d
00000060: cdcc cc3d a1fa fd3d be0e f63d 06a7 c73d
00000070: 46ef fc3d 6aa7 fd3d 6ba7 c93d cd5d 003e
00000080: 5e68 fb3d 8f4a fb3d e46f 003e 0bcc c33d
00000090: 93b9 fc3d d453 fd3d 5caf f83d 21cf fc3d
000000a0: 20c2 003e 8fa6 ff3d 3a12 ff3d e8b7 ff3d
000000b0: 850e 003e fba4 003e bdb9 fe3d 7507 c93d
000000c0: 9f6c 003e e0e1 fe3d 7e38 003e 5468 fe3d
000000d0: dbdb fe3d 7c91 003e 8b69 fd3d 59d5 fe3d
000000e0: b3b2 c33d 9559 fe3d e57b f43d 1e1f ff3d
000000f0: fd4c 003e 90d7 f83d 62f1 fd3d a032 ff3d
00000100: 9fdc fd3d ed64 ff3d 01be f93d 3da2 f43d
00000110: 4094 fd3d 7814 ff3d abe5 fb3d 6ff8 c53d
00000120: d3ea fb3d ff2f fd3d 0de8 f13d cdcc cc3d
00000130: 78eb 003e cdcc cc3d 34b3 fe3d c9b3 ff3d
00000140: d675 fe3d bc3e f53d 0be1 f53d cdcc cc3d
00000150: bc69 ff3d 82f5 ff3d a2c4 fd3d af99 f83d
00000160: 8829 f43d 862e 003e 95af 003e e0c3 f73d
00000170: 1f8a c63d db21 f73d ea27 003e 675e 003e
00000180: cdcc cc3d fc7c 003e cdcc cc3d fbf4 fd3d
00000190: 99c1 ff3d cdcc cc3d 1ec1 fc3d 2a32 fe3d
000001a0: 5e5d ff3d e8d3 fd3d 80b4 fe3d 54aa ff3d
000001b0: 67b0 fe3d e152 003e a20f 003e 2a2e c43d
000001c0: a653 c33d 7d4e ff3d 6fa9 ff3d 51fe fb3d
000001d0: 04a9 ff3d 3b23 ff3d a44f 013e 67cc 003e
000001e0: 80a2 fd3d 6016 fd3d c78f fd3d 6f74 ff3d
000001f0: bfc1 c43d 2aac f73d 64a8 fb3d 9097 c53d
00000200: b8df ff3d b87a 003e e8db f33d 0e43 003e
00000210: 6748 fa3d 8d5e 003e bf2d fd3d a26c 003e
00000220: 6049 fe3d ae06 ff3d 5f2d ff3d 721f 003e
00000230: ed89 f63d 6575 fb3d 8a69 fe3d 4bdb ff3d
00000240: b575 f13d 7a69 fd3d f538 fd3d 99dc fe3d
00000250: 22fd f63d 065c 013e 3f65 fd3d cdcc cc3d
00000260: 0ca3 fb3d 60c1 003e da7b f83d cdcc cc3d
00000270: fb36 c63d ce85 003e 8952 ff3d b53e fd3d
00000280: 83f4 ff3d cdcc cc3d d549 fd3d 347c ff3d
00000290: 243f 003e 6228 f83d 7daf f93d e1b1 003e
000002a0: 0a53 ff3d 6172 ff3d 2a5f ff3d 4d90 c33d
000002b0: 35dc fd3d 4b9f fd3d b009 fd3d 8b47 003e
000002c0: c3ed fd3d b8db fa3d 8e57 fb3d 1511 003e
000002d0: 0db7 ff3d 283d fe3d 30eb 003e 26d8 fd3d
000002e0: 274c fe3d 91a4 fd3d a6f2 ff3d fc5b fe3d
000002f0: 0641 fe3d 84ee c43d 1e28 fd3d de23 fd3d
00000300: 5c1c c93d 8a89 f63d 1274 f43d 55ae fd3d
00000310: e56a c53d 0e38 ff3d 97ca 003e 208b f73d
00000320: cdcc cc3d 88b2 fd3d c99a fb3d 8f07 fd3d
00000330: 8a0f c83d cc8f 003e 34a8 fe3d d5df 003e
00000340: beb8 ff3d 09f7 ff3d 5e60 003e e9e7 fe3d
00000350: cd3b ff3d cf8a fd3d 1844 003e e4bd fd3d
00000360: a82a fd3d 0506 c63d 6ee3 003e 241b ff3d
00000370: cdcc cc3d df7b 003e e7b1 fb3d a643 fe3d
00000380: 7fb1 c23d e675 fb3d 5955 f83d 3b1c c93d
00000390: 1b37 c83d 27e8 ff3d bfe1 003e 89af fe3d
000003a0: 4d2a fe3d d523 f93d c33d f83d 3ee3 fe3d
000003b0: 8a88 fd3d 6ff3 f73d 1704 f63d c2bf fd3d
000003c0: 502e f73d 568a 003e dde1 fd3d fcda fc3d
000003d0: 34d8 c53d 1a7a 003e 5867 f63d 80a4 003e
000003e0: 59f4 fe3d 3ea0 f63d cdcc cc3d d488 fb3d
000003f0: 56c8 fd3d 25f5 c33d c0e4 ff3d 4227 ff3d
0.12363293 0.12601356 0.1 0.12516634 0.12533091 0.12313722 0.12614149 0.12490454
0.1224498 0.09593987 0.12530845 0.123649366 0.122326076 0.12261251 0.12424218 0.12490912
0.12510419 0.12545805 0.12036438 0.12459259 0.09644878 0.12386547 0.12542737 0.123677455
0.1 0.12401319 0.120145306 0.09748654 0.12350325 0.12385447 0.098463856 0.12535782
0.12275766 0.1227008 0.12542683 0.095604025 0.12340083 0.123695046 0.12142822 0.12344194
0.12574053 0.124829404 0.12454648 0.12486249 0.12505539 0.12562935 0.124377705 0.098158754
0.12541436 0.12445426 0.1252155 0.12422243 0.12444278 0.12555498 0.12373646 0.124430366
0.095555685 0.1241943 0.119376935 0.12457107 0.12529369 0.1215049 0.12399556 0.12460828
0.12395596 0.12470422 0.121944435 0.11945007 0.12381792 0.12455076 0.12299665 0.096665256
0.123006485 0.1236267 0.11811838 0.1 0.12589824 0.1 0.12436524 0.12485463
0.12424819 0.11974856 0.12005814 0.1 0.12471339 0.12497999 0.1239102 0.12138688
0.11921984 0.12517747 0.12566979 0.12097907 0.09694313 0.12067004 0.12515226 0.12536012
0.1 0.12547678 0.1 0.12400242 0.12488098 0.1 0.12341522 0.12411912
0.1246898 0.123939335 0.124367714 0.124836594 0.1243599 0.12531616 0.12505963 0.095791176
0.09537439 0.12466142 0.12483489 0.123043664 0.12483409 0.124578916 0.12628037 0.12577973
0.1238451 0.12357783 0.12380939 0.1247338 0.09607267 0.120933846 0.12287977 0.09648049
0.12493843 0.12546813 0.11907178 0.1252558 0.12220841 0.12536068 0.12362241 0.1254144
0.12416339 0.12452446 0.12459826 0.12511995 0.12038026 0.122782506 0.12422474 0.12492999
0.11790029 0.12373634 0.12364379 0.124444194 0.1206 0.1263276 0.12372827 0.1
0.12286958 0.12573767 0.12132998 0.1 0.096784554 0.12551042 0.12466914 0.12365476
0.12497809 0.1 0.12367598 0.12474862 0.12524086 0.121170774 0.12191675 0.12567855
0.1246701 0.12472988 0.12469323 0.095490076 0.12395517 0.12383898 0.12355363 0.12527291
0.12398865 0.12248939 0.12272559 0.12506516 0.12486086 0.124140084 0.12589717 0.12394743
0.12416869 0.12384904 0.124974534 0.124198884 0.12414746 0.09615806 0.12361167 0.12360357
0.09819862 0.12037952 0.11936201 0.12386767 0.09639529 0.124618635 0.12577282 0.12087083
0.1 0.12387568 0.12285382 0.12354957 0.09768589 0.12554854 0.12434426 0.12585385
0.12486409 0.1249829 0.12536761 0.12446577 0.12462578 0.12379991 0.12525976 0.123897344
0.12361652 0.09669117 0.12586758 0.124563485 0.1 0.12547253 0.122897916 0.12415247
0.09506511 0.12278347 0.12125654 0.09819838 0.097761355 0.124954514 0.12586115 0.124358244
0.12410412 0.121650375 0.12121155 0.12445687 0.123795584 0.12106978 0.12012499 0.123900905
0.1206938 0.12552771 0.123965956 0.123464555 0.09660378 0.12546578 0.1203143 0.12562752
0.12448949 0.120422825 0.1 0.12281957 0.12391727 0.09568242 0.124948025 0.1245866

last.weight f4 [1, 256]
00000000: fbb7 f23c dda6 eb3c ad98 9c3a 8323 003d
00000010: 5572 cd3c 8c03 ef3c ed74 f13c 1a3f ef3c
00000020: c04f ce3c c87d 113b 2002 e73c 117a d43c
00000030: 4d42 dc3c efbb f63c 2254 dd3c edfa e23c
00000040: b667 da3c 4c18 e93c eb11 cb3c f8a2 ee3c
00000050: fe04 ce3a 3ea4 e63c 6733 c93c 820d e03c
00000060: cb67 0cba 6172 d03c 3371 d63c e36d e939
00000070: a016 e23c fee5 e93c 8a0f a93a 439a c53c
00000080: 721e f83c c818 f73c c49a e13c a646 a83a
00000090: 47cb ec3c 2a55 c93c ccce d23c 5ff5 d93c
000000a0: 1bc8 e73c 3fdd e13c 140c e43c ca89 f53c
000000b0: 7de0 e43c 0fc3 de3c 5010 f83c d55a a53a
000000c0: e33f c83c 8f68 f03c 5440 ec3c 210d e83c
000000d0: 6365 e13c 3bcf d63c 263f e03c 2bc0 023d
000000e0: 4c47 123b 0e82 d83c 4c89 d73c 037c d43c
000000f0: aeca ea3c 8c9c cd3c 3c8e d73c 3d3e f43c
00000100: 3313 dc3c 3b1f e23c 720b df3c be09 d93c
00000110: 79bd f13c 5e89 e33c a7e0 e43c e542 093b
00000120: ec94 d93c 35f7 e33c 98e6 ad3c b7d3 043b
00000130: 1141 e33c f87e bb3a d2a3 ca3c cfc8 d53c
00000140: 8720 fb3c 9e8e d93c 2a09 c83c 004c 0f3a
00000150: 2d02 d03c 6afa d03c adb5 f63c 089a cf3c
00000160: f46f c73c 6e8b d23c 5ff9 d73c 9eae f03c
00000170: 42da c939 9e08 db3c 6596 d53c f51e d63c
00000180: f982 ef3a 11ed cf3c 276a b1ba f05f dd3c
00000190: 1413 d23c 0e9c 023b f21c d63c 0446 e53c
000001a0: f552 d03c c2e7 db3c 3e85 d13c ffaa fb3c
000001b0: 19ab db3c 5c66 f63c 435b e33c 5109 013b
000001c0: 880d 033b fd4b d33c 06bc ff3c 39d8 c83c
000001d0: c474 e13c 091c dc3c 02ea ef3c ebb1 db3c
000001e0: 46b0 ee3c 6855 e53c d02b f03c 6c07 ec3c
000001f0: be80 123b e4d0 d53c d7fc 003d 9bde 363b
00000200: 4b3d 003d 13db d03c 154a d13c 1ac2 ce3c
00000210: a878 d83c b3a7 f93c 3b6c e43c 76f1 d83c
00000220: 34c7 ec3c 2470 e03c 6581 d83c 15ec db3c
00000230: 6f06 f13c 7048 fa3c c23f 023d ce92 ee3c
00000240: 7d67 b83c 81f2 e73c 4e8e d63c f64f cf3c
00000250: 4d6a d63c 60cb f33c c724 eb3c edaa 2a3b
00000260: 2a2a e23c 1e15 d93c d55f d23c 8bd7 fcba
00000270: 3efd 4ab8 82d7 d43c 0790 bf3c a3e1 d93c
00000280: 89e3 ec3c d59d 2fbb 9e1a dc3c 22e0 d83c
00000290: 8904 d63c 083d e73c 6ae5 bf3c 251d d53c
000002a0: 2744 013d e7a7 d83c 8c87 d43c e099 0d3b
000002b0: bbca d93c 7083 da3c 646e d93c 4553 e53c
000002c0: 577d d53c ba2e ec3c 36be d53c ac6f e13c
000002d0: f7c9 cc3c 8fa5 e43c 43b3 e23c 465e d33c
000002e0: f0fd df3c d30b e13c 0f3c ce3c ff56 dc3c
000002f0: cbed ea3c ae38 a73a 3b39 ea3c 65d3 e53c
00000300: 725c e73a 6c73 e23c 6dc7 b93c 912d ed3c
00000310: b4ab ee3a 847d fc3c 247a e23c 19c3 d63c
00000320: 2c02 253b 22a5 ea3c b9d4 d43c 20fd e43c
00000330: 75b1 243a 3ee8 ce3c 7826 e53c 893e e33c
00000340: 6e51 e73c 8484 d43c e6b5 ca3c 7832 cc3c
00000350: df23 d83c f074 e63c 3ff3 ec3c 8805 d63c
00000360: a266 ef3c 8c63 343b 48c5 f53c 1388 f83c
00000370: cd8b 2eba 54c5 db3c db40 d23c ddfe dc3c
00000380: e41a 053b b705 dc3c 2165 d93c 2c3e 253a
00000390: 2c1b 143b 1b62 dc3c ee49 ee3c e681 ee3c
000003a0: b56b e73c a3ac e73c 5817 f43c 0494 d93c
000003b0: de4f de3c 45d1 c83c 5cc5 c43c ac04 e93c
000003c0: a952 d63c 34f8 ef3c 7c1e e63c 00cb df3c
000003d0: b983 2c3b e8a8 f93c 2dc7 ca3c 7aa6 f63c
000003e0: e7d1 d93c 2cf0 ca3c 7bf8 353a 39dd d43c
000003f0: ee54 013d 829c 313b 4e1d d93c 12b1 f93c
0.029628744 0.02876609 0.0011947356 0.031283867 0.025078932 0.029176496 0.0294747 0.029204894
0.025184512 0.0022200216 0.028199255 0.025937112 0.026887083 0.03011891 0.027017657 0.027707541
0.026660781 0.028453968 0.024788817 0.029130444 0.001571804 0.028154489 0.024560643 0.027350191
-0.00053560425 0.025445165 0.026177024 0.00044523095 0.027598679 0.028552052 0.0012898308 0.02412141
0.030287955 0.030163184 0.027539618 0.0012838438 0.028905524 0.024576742 0.025733374 0.02660626
0.02829366 0.027571319 0.02783779 0.02997293 0.027939076 0.02719262 0.030281216 0.0012615571
0.024444526 0.029346732 0.028839268 0.028326573 0.027514165 0.026221862 0.027373862 0.031921547
0.0022320328 0.026429202 0.026310585 0.02593804 0.028661098 0.025099061 0.02631294 0.029814834
0.026864624 0.027602782 0.027227137 0.026493903 0.029509293 0.027775463 0.027939154 0.0020944413
0.02656027 0.027827838 0.02122812 0.0020267793 0.027740987 0.0014304807 0.024736319 0.02609673
0.030655159 0.026557263 0.024418432 0.0005466342 0.025391662 0.025510032 0.030115927 0.025342003
0.024345376 0.02570125 0.026364027 0.029380139 0.00038500322 0.026737507 0.02607269 0.026137808
0.0018273286 0.025381597 -0.0013535664 0.027023286 0.025643863 0.0019929442 0.02613685 0.027987488
0.025430182 0.02684391 0.02557623 0.030721186 0.026814984 0.030078106 0.027753478 0.001968939
0.001999708 0.02579307 0.031217586 0.024517165 0.027521499 0.026868837 0.029286388 0.026818236
0.029136788 0.027994826 0.029317766 0.028812133 0.0022354568 0.026100583 0.031491127 0.002790368
0.031308454 0.025495088 0.02554802 0.02523904 0.02642472 0.030475473 0.02788364 0.026482325
0.028903581 0.027397223 0.026428888 0.026845971 0.029422013 0.030552119 0.031799085 0.029122736
0.022510285 0.028313877 0.026190903 0.025306683 0.026173735 0.029760063 0.02870406 0.002604182
0.027607996 0.026499327 0.025680462 -0.0019290311 -4.8396403e-05 0.025981668 0.023384107 0.02659685
0.028917091 -0.0026796956 0.02686816 0.026474062 0.02612521 0.028227344 0.023424823 0.026014874
0.031559136 0.02644725 0.02594354 0.002160661 0.026585927 0.026674002 0.026541896 0.027993808
0.026060743 0.028830875 0.026091676 0.02751907 0.024998648 0.027910976 0.02767337 0.025801789
0.027342767 0.027471459 0.025175123 0.026896952 0.028677842 0.0012757981 0.028591743 0.028054902
0.0017651452 0.027642928 0.022678101 0.028952392 0.001820913 0.03082157 0.027646132 0.026216077
0.0025178296 0.028643195 0.02598034 0.02795273 0.00062825467 0.025257226 0.027972445 0.02773978
0.02823707 0.025942095 0.024744939 0.02492641 0.026384292 0.028131932 0.028924583 0.026125684
0.029223744 0.0027525155 0.030001298 0.030338323 -0.0006658405 0.026827492 0.025665691 0.026976997
0.0020310218 0.026858194 0.02653748 0.0006303515 0.0022599204 0.02690225 0.029087987 0.029114675
0.0282496 0.028280562 0.029796287 0.026559837 0.027137693 0.02451385 0.02401989 0.02844461
0.026162462 0.029293157 0.028090708 0.027318478 0.002632363 0.030476049 0.024753178 0.03010868
0.026589347 0.024772726 0.00069416285 0.025984393 0.031575136 0.0027101343 0.026503231 0.030479942
