Soft-Module-main/log/model0/model_qf_best.pth (torch, 284133 bytes, 5 tensors)

base.seq_fcs.0.weight f4 [256, 16]
00000000: 6391 c5be f874 7cbe 5b93 17bf ed45 1ec0
00000010: 4ac8 b43e 0f9f ca3f 18db 95bc a26e 713d
00000020: e067 fc3c b117 c3be ed6b 603f 83b5 653f
00000030: de26 a2bd 8b71 b1bc 925f 4ebe f017 38bd
00000040: 6c9f 36c0 7a24 48bc 60bc a9bd d4cc 1fc0
00000050: 79d8 543e b8c1 843f 007b 1b3b e0f6 c53b
00000060: d05c 91bb e693 7fbe 4350 143f 2c4c 193f
00000070: 4374 8f3d c768 4e3e 9667 01be 34bc be3d
00000080: 8921 0441 9769 d3bf 00c4 e7bf ee94 38c0
00000090: 17da 073f 9f98 4f40 1e1f 70bd 1840 33bd
000000a0: cc1b 343d 03c0 993d 2b72 b83f 4d00 c03f
000000b0: 1dec 413d d1aa 663e 008d 433d b0b0 513d
000000c0: b65a d2c0 681f d13e 19a6 afbd d951 01c0
000000d0: 474d bd3e 5238 ad3e 4030 943b 0020 e43a
000000e0: c851 dfbc 0e26 0ebf cf95 1b3f 8894 343f
000000f0: f299 0f3c e5e2 8dbd 2053 f4bc 39dd 4e3e
00000100: 484c 0441 91bb c0bf b7b0 a8bf 83c2 2cc0
00000110: 7f96 353f 0ad0 6240 e671 1b3d d05e 2a3c
00000120: b25b 5a3d 3de4 1ebe a6d1 cf3f 1226 c43f
00000130: 70fd 813c 11df 9fbc 9016 9f3d 56bd 083c
00000140: 3962 6041 4e3c 3e40 268a 9540 6c62 66c0
00000150: e6e7 8fbf b049 0740 e2e5 293d 74ac 173d
00000160: 8495 f03c fcb2 953f a4ba 76be bb23 81be
00000170: cf25 363d 114d e43c 3bc8 1cbd f3b7 1fbd
00000180: adb3 c640 8400 d83f f318 2740 d97b 43c0
00000190: 2ae3 1bbe 4ccb 6540 5a81 1ebd c852 36bd
000001a0: 6cfc a0bc faba 6e3e 4439 de3e 09a3 d63e
000001b0: 77d8 2abc 43f7 10be c8a6 35be 0335 963d
000001c0: 9751 6d40 f3a0 3c3e 6d61 b33f b5e4 2fc0
000001d0: f9e3 953d 7cd5 1840 409e a13a bce9 673d
000001e0: 660e 723d 92ec f5bd 1e19 213f 04bc 1a3f
000001f0: 60de 923d bfc8 f3bc edeb 88bc 7c24 9fbd
00000200: 1366 4bbe b7da dcbd 6129 203f f5bd 21c0
00000210: a522 893e 36c8 dc3f a43b 4cbd ceea 073d
00000220: ac2f da3c 8e02 8fbe acea 463f 51e3 373f
00000230: 742d 20bd 894c 89bc 3f24 a8ba e44d b7bd
00000240: 0dd3 1741 1cbf a0bf e5f2 0cbf 523e 2ec0
00000250: 8563 ca3e 6d58 5540 f077 24bd 00b0 7bba
00000260: a8f0 3e3c 46b1 8d3e 2d3d a53f 9ff0 a73f
00000270: c58a 343d e600 19be dab6 423e c764 543e
00000280: beb1 14c1 9c90 da3e 741d fe3f 67cd 29c0
00000290: 6725 efbd ed23 603e 0801 a53c 1e17 373d
000002a0: f00c 543c fe3f f23c 29f2 2a3e f464 873e
000002b0: 651e 8fbd 60eb 58be 8cf0 b1bc 4eb8 373e
000002c0: d5fb 92c0 c496 183f 4fb8 c63f f469 16c0
000002d0: 317d 4e3e 777d 493f b072 2bbc e6d4 2dbd
000002e0: 60c8 95bc 08b5 76be efbe ef3e bab7 043f
000002f0: 0c2f 873d ab34 ce3d adc2 8a3b 0267 a83d
00000300: 9e0e 1f41 353f 07bf 41f8 a63e 2b5b 33c0
00000310: ea77 a43e 4ddb 5440 4c1a 153d c007 36bb
00000320: 5e05 5f3d c04d 06be 1504 963f 7dca 8e3f
00000330: 4956 1d3e e4fa 97be 957c 10be 58cb 90bd
00000340: 1fc1 69c0 483b 803e 61ef a03f d7fb 15c0
00000350: e066 663e 0701 893f 84e2 483d ee88 2ebd
00000360: 8827 723d 4d77 82be dc9e 2b3f 0c62 1b3f
00000370: d492 12bb 4781 433d c80a 63bc deb0 d8bc
00000380: 9142 68c0 cae8 5e3f cd57 2d40 7ca6 18c0
00000390: a224 403e 3b23 903f 5069 723c 2806 0bbc
000003a0: 58ce e7bc 0463 8abe f9c3 0b3f 0fc2 fe3e
000003b0: 741b 2abe bf6f 483b 472f d63d 9214 82bd
000003c0: d2a2 03c0 ac96 693f e932 3040 6d95 1bc0
000003d0: cb07 193e 995d a43f aa53 623d e473 143d
000003e0: 40e4 ab3a cecb b1be 640c 293f b741 133f
000003f0: e52f 93bd 3042 19bd f2ae fc3c b937 713d
-0.38587484 -0.24653995 -0.5920922 -2.473018 0.35309058 1.5829791 -0.018292949 0.0589434
0.03081125 -0.38104013 0.8766468 0.8973009 -0.079175696 -0.021660587 -0.20153645 -0.044944704
-2.8534803 -0.012215728 -0.08287883 -2.4968767 0.20785703 1.0371618 0.0023724437 0.0060413927
-0.004436113 -0.24958763 0.5793497 0.59881854 0.07004597 0.20157157 -0.12637171 0.09313241
8.258187 -1.6516598 -1.810669 -2.88409 0.53067154 3.2436903 -0.058623426 -0.043762296
0.04397182 0.075073265 1.4409841 1.5000092 0.047344316 0.22526099 0.04774189 0.051193893
-6.573573 0.40844274 -0.085766025 -2.0206206 0.3697302 0.3383203 0.0045223534 0.0017404556
-0.027260676 -0.55526817 0.60775465 0.7053914 0.008764731 -0.06928042 -0.029824793 0.20201577
8.268623 -1.5057241 -1.3178929 -2.699372 0.70932764 3.5439477 0.03795042 0.010398582
0.053310104 -0.15516753 1.6235855 1.5324118 0.015867919 -0.019515546 0.07767975 0.008345922
14.02398 2.9724307 4.673114 -3.5997572 -1.1242645 2.1138725 0.041479 0.0370297
0.02936817 1.1695247 -0.24094635 -0.25222573 0.04446965 0.02786878 -0.038276892 -0.038993787
6.209433 1.6875157 2.6108978 -3.054434 -0.15223375 3.5905333 -0.038697578 -0.04451254
-0.019651614 0.23313513 0.43403065 0.4192126 -0.010427586 -0.14156823 -0.17739403 0.0733433
3.7081048 0.18420772 1.4014107 -2.7483342 0.07318873 2.38803 0.0012330487 0.05661939
0.059095763 -0.12008013 0.6292895 0.6044314 0.07171321 -0.02975881 -0.01671406 -0.07770631
-0.19863157 -0.10783904 0.6256314 -2.527219 0.26784244 1.72486 -0.049861565 0.03318291
0.02663406 -0.27931637 0.7770183 0.7183123 -0.039105847 -0.016760128 -0.0012828185 -0.08950403
9.489026 -1.2558322 -0.5505813 -2.7225537 0.39529052 3.333522 -0.040153444 -0.0009601116
0.011654057 0.2767431 1.2909294 1.3120307 0.044077653 -0.14941749 0.19015065 0.20741569
-9.293394 0.42688453 1.9852738 -2.6531618 -0.11677056 0.21888705 0.020142093 0.04469978
0.012942538 0.02957153 0.1669394 0.2644421 -0.06988219 -0.21183538 -0.021721147 0.179414
-4.593241 0.5960505 1.5524997 -2.3502169 0.20164944 0.7870707 -0.010464355 -0.042439364
-0.018284023 -0.24092495 0.46825358 0.51842844 0.0660077 0.10068639 0.004234633 0.08222772
9.941069 -0.5283082 0.32611278 -2.8024395 0.32122737 3.325885 0.03640203 -0.0027775615
0.054448478 -0.13115597 1.1719996 1.1155545 0.15364946 -0.29683602 -0.14110024 -0.07070035
-3.6524122 0.25045228 1.2573053 -2.343496 0.22500181 1.0703439 0.049044147 -0.042611055
0.05911973 -0.25481644 0.67039275 0.6069648 -0.0022365348 0.04773071 -0.013857551 -0.026451524
-3.629063 0.8707396 2.708484 -2.3851614 0.18763974 1.1260751 0.014795616 -0.0084853545
-0.028296635 -0.27028668 0.54595906 0.4975743 -0.16612035 0.0030584184 0.10458236 -0.0635158
-2.0568128 0.9124553 2.7531073 -2.4309952 0.14944379 1.2841064 0.05525557 0.036243334
0.0013114288 -0.34725803 0.6603453 0.5752215 -0.071868695 -0.037416637 0.03084514 0.058891032

base.seq_fcs.0.bias f4 [256]
00000000: 7b22 803f 9035 3d3f e421 c93f 84ac 403f
00000010: 01cb d83f 74c0 43be 0ad7 093f 51a7 413f
00000020: 14f3 5b3f 61e5 b53f bb4d 9f3e 9ad2 1e3f
00000030: c22d 9d3f 6560 383f f1e2 223f c8ea 323f
00000040: fa3b 3b3f 12ac 393e 700a 713e abf3 223f
00000050: 860d 2b3f 5006 0e3f ad09 373f 4281 c8be
00000060: 1ce9 593f 35aa 303f 2b38 623f 17fe 483e
00000070: 16d9 403f efb6 743f 23de b43f e22d 393f
00000080: 0f30 163e a83e 653e 28ab 423f 5056 9c3f
00000090: ce1a a43f b396 4f3f ff73 7e3f c503 31be
000000a0: abfa 243f 7c8b 413f a960 4b3e 2b87 29be
000000b0: 93c6 613f 9000 f93e d77a 143f da26 003f
000000c0: 50c8 d03e 7e95 f43f ba2e 483f dda0 2b3f
000000d0: 7d51 283f c3c6 e73c fca4 173e 5582 063f
000000e0: 71d8 763f fe42 a73f 8703 4b3f 5719 503f
000000f0: c9b1 5e3f 8ad1 0b3b c614 07be 3515 893f
00000100: b572 423f 7066 423f 92a4 573f fa6d 903d
00000110: 8667 113f efcb 8a3f 9212 ff3e 7075 f5bd
00000120: b3d7 893f a3f1 133d a220 423f 49b7 31be
00000130: 5685 ed3e 6ebd d13e 403c 2b3f ecff 933f
00000140: b563 263f 84eb 2d3f da0b 4e3f 68e2 303f
00000150: 6dbe 213f 9414 3b3f 513f 0e3f a840 563f
00000160: c3f1 3e3f 0947 4f3f 1824 633f 2173 3e3f
00000170: d75c 6a3f 413e aa3f 4d1f 953f a1bb 4a3e
00000180: b090 d33e 5677 bd3f e03b 833f 90a2 923f
00000190: e7d6 ba3f 52e7 563f 4669 6f3f 978d 983e
000001a0: bcbe 413f 74b4 283f afb6 4c3f 61cf 943d
000001b0: 5ef6 423f a32b dfbe 4731 463f be65 653f
000001c0: f69a 263f ca5a 293f b10a 963f a1b7 763f
000001d0: 697e 583f b4a5 063f 3dac 3e3f 4230 ef3e
000001e0: 46a3 3a3f a57b 2f3f b1d7 533f d08d 613f
000001f0: f835 063f 788d a53f 18cb 0c3f f46c bc3d
00000200: 1a92 3b40 7ae3 9c3f 040e 7e3e 5bce b03f
00000210: 7922 313f 91f5 a23e 747a 1c3f 7e09 573f
00000220: 85d3 8a3f b572 a73e b8a1 4e3f 4cfc bb3e
00000230: 833f 33bc 72f3 0e3e fdac 5f3f b1b6 173f
00000240: c4bb babe be38 2b3f 9552 473f 16b2 c73f
00000250: 8e0f 233f 5dbf 653f f5fa 673f a29f a03e
00000260: 10d8 3e3f 771e 113f 08d4 6a3f e9f2 423f
00000270: 1344 143d 42d1 343f e786 863f 68b7 233f
00000280: 0dd2 ca3f 6cf3 483f 817d 0b3f f754 313f
00000290: 2d53 443e cf00 163f bee3 933f a591 2d3f
000002a0: c9a6 433f 3c70 ec3e a254 cf3e 2d1e 173f
000002b0: fb67 773f 6c45 b13f ba1d 463f c1b3 693d
000002c0: 04ed 04be 9f49 493f 5433 573f e552 73bd
000002d0: 2e79 453f 26c3 413f 18db 7f3f f84f 653f
000002e0: 1c02 ef3f 0acb 823f ba84 2c3f 9116 6abe
000002f0: e49e 1b3f 97a5 403f eebd 3c3f 440d 763f
00000300: 2dd6 d63f 6a1b 803f 26ce 633f 3969 3f3f
00000310: 14ad ab3f 237c 6d3f a8d4 163f 58a1 a6be
00000320: 3265 be3f b352 3e3f 6826 0f3f a467 e0be
00000330: 7b9b 9c3f f84b 823f 076b 253f d66e 193f
00000340: a934 433f d4c5 993e 444a a03d 601a 103e
00000350: e3fd 343f 072d 2a3f d4f6 653f 9dfc 2a3f
00000360: 269f 0abf 0b49 f93e a015 923e 8d29 0c3f
00000370: 209c 41be 8ad1 4f3f 27a4 2e3f 6f9a 083f
00000380: 7717 703e e1be 4e3f b52c 5c3f 32e5 4c3f
00000390: 5ab0 663f dcaf e23f df54 5a3f c84b 923f
000003a0: bed1 223f c531 053f cfb4 403f adc5 363f
000003b0: c2a2 363f a2ef 323f 8e87 163f c331 193f
000003c0: 3ff4 1a3f 7d51 f53e e54a 403f 80b4 2f3f
000003d0: 570f 403f 8e3d 743f 6ba0 863f c858 3cbd
000003e0: dda2 273f 00cb 293d a748 263f 85b0 493f
000003f0: 5849 3f3f d83f 3a3f 1a52 1f3e 7ce5 ae3e
1.0010523 0.73909855 1.5713468 0.7526324 1.6936952 -0.19116384 0.5384375 0.7564593
0.8591778 1.4210626 0.3111399 0.620401 1.2279589 0.72022086 0.63627535 0.698895
0.7313839 0.18132046 0.23539138 0.6365306 0.6681751 0.5547838 0.7149914 -0.39161116
0.8512132 0.69009715 0.88366956 0.19628178 0.75331247 0.95591635 1.4130291 0.72335637
0.1466677 0.22387183 0.76042414 1.221384 1.282068 0.81089324 0.99395746 -0.17286594
0.6444499 0.7560346 0.19861092 -0.16555469 0.88193625 0.48633242 0.5799994 0.5005928
0.40777826 1.9108121 0.781963 0.6704233 0.6574934 0.02829302 0.1480903 0.5254262
0.96424013 1.3067319 0.7930226 0.81288666 0.8699003 0.0021334612 -0.13191518 1.0709597
0.7595628 0.7593756 0.8423549 0.07052226 0.5679859 1.0843486 0.49818856 -0.1198529
1.0768951 0.036119115 0.75831044 -0.17355074 0.4639079 0.40964836 0.6688881 1.1562476
0.6499589 0.67937493 0.80486834 0.6909547 0.6318119 0.73078275 0.55565363 0.8369241
0.7458765 0.80967766 0.8872695 0.7439442 0.9154791 1.3300248 1.1650177 0.19798137
0.41321325 1.4802043 1.0252647 1.145586 1.4596833 0.83946717 0.9352001 0.29795524
0.7568166 0.6590035 0.79966253 0.07266117 0.76157176 -0.4358798 0.7741894 0.8960837
0.650802 0.6615416 1.1722013 0.96373945 0.84567887 0.5259659 0.74481565 0.46716505
0.72905385 0.6854804 0.82750994 0.88107014 0.524261 1.2933798 0.54997396 0.09200469
2.9307923 1.225692 0.24810034 1.3812975 0.69193226 0.31827977 0.6112435 0.8399886
1.0845801 0.32704702 0.80715513 0.36715925 -0.010940435 0.13960055 0.87373334 0.5926314
-0.3647138 0.66883457 0.77860385 1.5601223 0.6369561 0.8974512 0.90617305 0.3137179
0.74548435 0.5668711 0.91729784 0.761519 0.036197733 0.706318 1.0509919 0.6395173
1.5845352 0.7849643 0.5448838 0.6927027 0.19172354 0.58594984 1.1553876 0.6780036
0.7642637 0.46179378 0.40494257 0.5903042 0.96643037 1.3849311 0.7738911 0.057056192
-0.1298104 0.7862796 0.84062696 -0.059405226 0.7713803 0.756884 0.99943686 0.8957515
1.8672519 1.0218213 0.67390025 -0.22860171 0.6078932 0.7525267 0.7372731 0.9611399
1.6784111 1.0008366 0.8898643 0.7476993 1.3412194 0.9276754 0.5891824 -0.3254497
1.4874632 0.7434494 0.5591798 -0.43829072 1.2234949 1.0179434 0.64616436 0.5993475
0.7625223 0.30033743 0.07826665 0.14072561 0.706999 0.66474956 0.89829755 0.6679171
-0.5414909 0.4868854 0.28532124 0.547509 -0.18907213 0.81179106 0.68219227 0.53360647
0.23446451 0.8076001 0.8600572 0.80037224 0.9011284 1.7709918 0.85285753 1.1429377
0.6360129 0.5202907 0.7527589 0.7139538 0.713421 0.698969 0.5880059 0.59841555
0.6052894 0.47913733 0.7511428 0.68634796 0.75023407 0.95406425 1.0517706 -0.045983106
0.65482885 0.04145336 0.6495461 0.7878497 0.7472129 0.7275367 0.15558663 0.34159458

base.seq_fcs.2.weight f4 [256, 256]
00000000: b877 643f a188 3b3f 2e6c a33f d13a 0f3f
00000010: 39c1 963f 47c8 553f 7c90 613f 7032 593f
00000020: 5f11 503f e575 c53f 2fae 843f c9e2 2a3f
00000030: a8af 953f 5019 323f 8c8d 533f 2618 3f3f
00000040: 7f94 363f 8d9e 3a3f 0ffc 5d3f 5210 5d3f
00000050: 74ef 493f 622e 343f 7604 193f f746 9a3f
00000060: 318e 613f c17d 6b3f b428 553f a2c7 5d40
00000070: 9f70 623f fdfa 693f 75c8 923f 06d1 3b3f
00000080: 272d 753f 74d8 513f b170 473f bab2 8d3f
00000090: 5a1d 903f ffdf 5a3f b7b3 5f3f 7602 8a3f
000000a0: 4cc1 653f 581a 4c3f 812d 7b40 21bb 4d3f
000000b0: 180b 593f 3587 563f b71d 773f ba5b 613f
000000c0: 275a 3440 103d 953f 525c 823f 4007 493f
000000d0: 6b33 513f df6b 4f3f cc0a 973f f48c 413f
000000e0: 1bd0 823f a45f 993f d3e9 303f cf9f d73f
000000f0: 3362 8b3f 7b06 3d3f bc93 733f 2e8e 543f
00000100: 6497 5e3f 94a0 613f eec8 573f 3d8e 443f
00000110: 2052 2a3f d8bc 8e3f db15 503f 451b 603f
00000120: 800b 9a3f 1fe2 6c3f f94d 583f 60eb 6c3f
00000130: eb46 523f 3e73 303f b46a 4f3f bc28 993f
00000140: 9e7c 233f 2f50 2f3f 6f66 aa3f 162e 6b3f
00000150: ffdf 2d3f 342d 3b3f 69c3 353f ebb6 463f
00000160: a5ad 5c3f a922 483f e846 693f 2238 543f
00000170: 143c 3f3f 3f01 8b3f d9b8 9a3f ca9b 9a3f
00000180: de57 753f 98fb a83f 408b c93f b83e 713f
00000190: 2daa 923f a2a0 5d3f 5d96 5b3f ab8f 363f
000001a0: 3f04 933f c2ef 323f 1fdf 493f 2769 323f
000001b0: 91c3 3b3f 0b9d bd40 ac49 553f 896a 423f
000001c0: 58f3 523f 462e 423f 2e39 883f ee68 5d3f
000001d0: a6db 9d3f 42f9 5f3f a4b7 303f 87a4 7b3f
000001e0: c52a 5b3f 2b82 4a3f 9402 5d3f 4d4f 563f
000001f0: 6ea1 7f3f 9c2b 893f cbc0 c740 17ba c63f
00000200: 973d 8abd 3e3b 943f 92de 533f 452c 973f
00000210: 5284 473f ec80 723f a258 4c3f d14c 663f
00000220: 7111 133f 8865 3f3f 8ad0 153f 237d 7e3f
00000230: 5962 633f 1a8d 433f ec94 433f 5f31 463f
00000240: ec77 603f 7352 253f 02ef 4b3f 5f87 a73f
00000250: f7d5 5f3f d029 553f 3a61 2b3f 3a4d 5e3f
00000260: c839 593f c85f 433f ad8f 853f 0cc9 5e3f
00000270: de2c 513f a4ea 4f3f 3c16 9f3f 6c6f 5c3f
00000280: 6a41 af3f f446 563f ac22 273f fa44 693f
00000290: c854 1f40 fd18 6c3f cb79 933f cc01 663f
000002a0: cf2a 4f3f 982b 513f ebec 5a3f 5325 283f
000002b0: 8d0c 523f 6cf1 c63f d267 693f e23e 333f
000002c0: 894e 553f f9f3 3b3f 080b 523f b068 603f
000002d0: 2809 4e3f 0f65 1f3f be44 523f 568b 513f
000002e0: 8b71 c43f 3eb3 503f d5c9 673f 7577 413f
000002f0: 33ff 513f 7282 5c3f 6747 3f3f b5d0 653f
00000300: 7b9a 973f 3e68 553f 18f0 513f e9a9 533f
00000310: 708b 033f ff0e 853f e0e5 893f 11e7 5a3f
00000320: f268 ab3f d520 413f f7bf 863f d6c1 443f
00000330: 0cc0 ad3f e766 533f 93a2 373f eef4 133f
00000340: 8623 5b3f 2784 4b3f 0599 433f c74d 5b3f
00000350: 073a 693f a666 3b3f 7278 a63f 4b24 ecbf
00000360: 2f5e 893f 369a 453f 1aa4 723f 7e1f b83f
00000370: 8e32 423f e625 3e3f 99d0 213f f23f 263f
00000380: c388 5e3f 8e38 193e 6077 453f 3965 4c3f
00000390: e3ea 8e3f b3ff a83f 6721 463f d131 9b3f
000003a0: 9a13 273f aa67 413f 37d1 4d3f 64c2 423f
000003b0: 74f4 3a3f ce07 333f 84dc b53f 2879 3b3f
000003c0: d956 533f 5ebb 523f 9fba 563f f10c 4f3f
000003d0: 1748 413f ec22 4f3f 573e 853f 5f6c 3b3f
000003e0: 3a77 473f 8f56 4d3f e5f9 523f 4e87 3e3f
000003f0: ef7c 773f 0d30 4c3f 12d3 913f cc0d ac3e
0.89245176 0.73255354 1.2767389 0.5594912 1.1777717 0.83508724 0.8811109 0.84842587
0.81276506 1.5426604 1.0365657 0.66752297 1.1694231 0.69569874 0.8263786 0.7464622
0.7132034 0.7289818 0.86712736 0.8635303 0.78881 0.70383275 0.5977243 1.2052907
0.8810759 0.9198876 0.83265233 3.4653096 0.88453096 0.913986 1.1467425 0.7336582
0.9577202 0.81970906 0.7790633 1.1070168 1.1258957 0.8549804 0.873836 1.0782001
0.8974807 0.797277 3.9246523 0.8036366 0.8478255 0.8380006 0.96529716 0.8803059
2.8180025 1.165926 1.0184424 0.7852669 0.8171908 0.81023973 1.180017 0.756057
1.0219759 1.1982312 0.6910679 1.6845645 1.0889343 0.73838013 0.951473 0.8302945
0.86949754 0.8813565 0.8429097 0.7677954 0.6653156 1.115138 0.8128335 0.8754161
1.203476 0.92532533 0.84493977 0.92546654 0.8213946 0.68925846 0.8102219 1.1965556
0.63862026 0.68481725 1.331251 0.91867197 0.67919916 0.7311585 0.710013 0.7762286
0.8620246 0.7817789 0.9112382 0.8289815 0.74701047 1.0859755 1.2087661 1.2078793
0.958372 1.320178 1.5745621 0.94236326 1.1458184 0.8657323 0.8577631 0.7131297
1.1485671 0.6989709 0.7885608 0.696917 0.73345286 5.9254203 0.8331554 0.7594381
0.82402563 0.7585186 1.064245 0.86488235 1.2332656 0.8748971 0.69030213 0.98297924
0.85612136 0.7910487 0.8633206 0.83714753 0.998557 1.0716434 6.2422843 1.552554
-0.067500286 1.1580579 0.8276149 1.1810385 0.7793628 0.9472797 0.7982274 0.8996096
0.5744849 0.747643 0.5852133 0.99409693 0.8882194 0.7638718 0.7639911 0.77419084
0.87682986 0.6457893 0.7966157 1.3088187 0.8743586 0.83266926 0.6694523 0.8683659
0.8485379 0.76318026 1.0434471 0.87025523 0.81709087 0.8121741 1.242866 0.86107516
1.3691838 0.83702016 0.6528728 0.91120875 2.4895496 0.9222563 1.1521543 0.8984649
0.80924696 0.81707144 0.8551776 0.6568195 0.820504 1.5542426 0.9117404 0.70017827
0.8332296 0.7341915 0.8204808 0.8765974 0.8048272 0.6226358 0.8213614 0.81853235
1.534715 0.815235 0.90542346 0.755729 0.8203003 0.86136544 0.74718326 0.89771587
1.1844019 0.83362186 0.8200698 0.8268114 0.5138464 1.0395201 1.0773277 0.8550883
1.3391402 0.7544072 1.0527333 0.7685827 1.3574233 0.8257889 0.71732444 0.5779561
0.8560108 0.79498523 0.76405364 0.85665554 0.9110417 0.73203504 1.3005507 -1.8448576
1.0731868 0.7718843 0.9478165 1.4384611 0.7585839 0.7427658 0.6320892 0.6494132
0.8692743 0.1496298 0.77135277 0.79841954 1.1165432 1.3203033 0.7739472 1.2124578
0.65264285 0.75548804 0.8039736 0.76077867 0.73029256 0.69933784 1.4207921 0.73231745
0.82554394 0.8231715 0.8387851 0.8087912 0.75500625 0.8091266 1.040965 0.73212236
0.779163 0.802102 0.8241256 0.7442521 0.9667501 0.7976082 1.1392539 0.33604276

base.seq_fcs.2.bias f4 [256]
00000000: 1815 363f 21fe 353f 9c17 363f 1f0a 363f
00000010: f76a 363f 78a3 343f 723b 363f d05b 363f
00000020: 5940 363f 5b3a 363f a03c 363f ad7e 353f
00000030: e86f 343f 4c1a 363f 171b 363f 0c32 363f
00000040: f263 0d3f ba1f 363f 314f 363f ac24 363f
00000050: 2a43 363f 6d39 363f 483d 153f 8b28 353f
00000060: 4b1c 353f f629 353f c19e 353f 345d 363f
00000070: 5753 343f ea4f 363f f941 363f c273 353f
00000080: 6871 95be e740 363f e33b 363f b886 353f
00000090: aac8 343f 466a 363f a43a 363f ec25 363f
000000a0: 2823 353f 2d4f 363f 450a 363f 4e22 363f
000000b0: fe3e 363f 3779 363f c640 363f 63d9 333f
000000c0: c9b6 343f 6358 363f ed68 363f c43b 363f
000000d0: ba0e f93e 5f26 363f adbc 353f 496f 363f
000000e0: ec97 353f 822e 353f 4f5b 363f 9b48 363f
000000f0: bc61 353f ef11 363f 6b51 363f ab51 363f
00000100: 393e 363f f941 353f bc1b 363f 987e 353f
00000110: 007f 343f 9d37 363f 0c87 343f f050 093f
00000120: 3c41 353f 7027 363f 073f 353f 1106 363f
00000130: 09a1 343f 5c4d 363f 8bbc 353f e557 363f
00000140: 5f18 363f c361 143f f85c 6f3c 7742 363f
00000150: e40c 363f f759 363f c427 363f 1a65 363f
00000160: abdc 343f d83e 363f 5518 363f 3b43 363f
00000170: 89bf 343f eb3d 353f da8a 363f df5c 363f
00000180: 6f47 363f d14b 363f a9af 953f 3559 353f
00000190: d05d 363f 8463 333f 0a53 363f ab15 363f
000001a0: cb61 363f 2963 363f e529 363f 41da 343f
000001b0: 44df 343f 925a 363f a92b 353f 231a 363f
000001c0: 0512 363f e907 353f 271e 363f 4dc3 343f
000001d0: a4af 353f 7914 363f 1648 363f 7718 363f
000001e0: eea1 353f afe6 353f 3bca 343f 5ba4 353f
000001f0: 4b57 363f 77d6 353f 7127 363f 1f66 983f
00000200: b860 343f 344f 363f 6742 363f 9474 363f
00000210: 4e3c 363f 0571 3d3f 4ace 343f 68e2 353f
00000220: c710 363f 1934 363f 192c 363f 41f0 343f
00000230: 005f 363f 4c1b 363f a8e3 353f b49c 353f
00000240: 9238 db3e d075 363f a263 363f 433f 8bbf
00000250: 3d1a 353f fb50 353f 8836 363f d8c5 353f
00000260: d657 363f 86df 433f ed44 363f 9dae 353f
00000270: 903e 363f b726 363f 4881 353f 1f28 363f
00000280: 659c 353f 3531 363f 4c31 363f d82f 363f
00000290: 2130 363f 50ed 8bbf d255 363f 7fc3 b33e
000002a0: 3b22 363f 93b0 343f 481c 363f 5b35 353f
000002b0: ce25 363f f383 343f 20ec 343f 4fb4 343f
000002c0: 4350 363f 5111 363f 4697 353f 6e86 a23f
000002d0: 7677 353f ba51 363f 04a2 353f 3f50 363f
000002e0: a776 343f c376 343f e546 fa3e 7c70 363f
000002f0: c501 353f f857 363f ad9e 343f 8c3a 363f
00000300: a66d 363f 717a 363f e30f 363f e740 363f
00000310: 0055 363f c3a6 0b3f 6610 363f 23c1 353f
00000320: 7270 363f cd56 363f 9aeb 353f 1787 343f
00000330: 6a4f 363f cc25 333f fc16 663f d439 363f
00000340: de38 353f a268 363f 6235 363f 3d59 363f
00000350: 026c 363f 9968 363f b50d 353f 5540 363f
00000360: 9442 363f bf84 353f 2444 363f d7a7 353f
00000370: 47f6 353f c752 353f 4f27 363f 8253 363f
00000380: 45eb 353f c5e7 353f 9827 363f 4080 363f
00000390: 23ff 353f 58c8 343f 374d 363f 4b36 363f
000003a0: a67a 363f d992 343f 3925 363f a3b9 d73e
000003b0: a429 363f 9580 353f 5312 5a3f c4e1 e63e
000003c0: fd55 363f 8e3a 363f 41eb d73d 50fa 353f
000003d0: d6ff 353f 7864 fa3e 215f 363f 0304 c2bd
000003e0: 6c42 363f ef08 363f 9780 353f 30b6 353f
000003f0: 502f 363f 3eea 353f b651 363f f626 363f
0.71125937 0.71090895 0.71129775 0.71109194 0.71256965 0.70561934 0.71184456 0.71233845
0.71191937 0.71182793 0.71186256 0.70896417 0.70483255 0.71133876 0.71135086 0.71170115
0.5523063 0.7114216 0.71214586 0.71149707 0.71196234 0.71181375 0.5829663 0.7076499
0.70746297 0.7076715 0.70945364 0.71235967 0.70439667 0.7121569 0.71194416 0.7087976
-0.29188085 0.71192783 0.7118513 0.7090869 0.7061869 0.7125591 0.7118323 0.71151614
0.7075677 0.7121456 0.7110942 0.71146095 0.7118987 0.7127871 0.71192586 0.7025358
0.7059141 0.7122862 0.71253854 0.71184945 0.48644048 0.711523 0.7099102 0.7126356
0.7093494 0.7077409 0.71233076 0.7120454 0.70852256 0.71121114 0.71217984 0.71218365
0.71188694 0.7080379 0.7113607 0.7089629 0.70506287 0.7117861 0.70518565 0.53639126
0.70802665 0.71153927 0.707993 0.71103007 0.7055822 0.7121179 0.7099082 0.71227866
0.7113094 0.5796167 0.014609568 0.7119517 0.7111342 0.71231025 0.7115443 0.7124802
0.7064921 0.7118964 0.7113088 0.71196336 0.7060476 0.70797604 0.7130562 0.7123546
0.7120275 0.71209437 1.1694232 0.70839244 0.71236897 0.70073724 0.7122046 0.7112681
0.7124297 0.71245056 0.71157676 0.7064553 0.70653176 0.7123195 0.70769745 0.7113363
0.71121246 0.70715195 0.7113976 0.70610505 0.7097113 0.7112499 0.71203744 0.7113108
0.7095021 0.7105512 0.7062108 0.7095391 0.7122695 0.7103037 0.7115393 1.1906165
0.7046008 0.71214604 0.7119507 0.71271634 0.7118577 0.7400058 0.7062727 0.71048594
0.7111935 0.71173245 0.7116104 0.706791 0.7123871 0.711354 0.710505 0.70942235
0.42816597 0.7127352 0.7124578 -1.0878681 0.7074316 0.7082669 0.7117696 0.7100501
0.71227777 0.76512945 0.7119892 0.70969564 0.7118921 0.71152824 0.7090039 0.7115497
0.70941764 0.71168834 0.7116897 0.71166754 0.7116719 -1.0931797 0.712247 0.3511009
0.7114598 0.7058193 0.71136904 0.7078454 0.71151435 0.7051384 0.706728 0.7058763
0.7121622 0.7112017 0.7093395 1.2697275 0.7088541 0.71218455 0.7095034 0.71216196
0.7049355 0.70493716 0.48882213 0.7126539 0.70705825 0.7122798 0.7055462 0.71183085
0.7126106 0.7128058 0.7111799 0.71192783 0.7122345 0.54551333 0.7111877 0.7099783
0.7126533 0.712262 0.71062624 0.7051863 0.71214926 0.6997955 0.8987882 0.7118199
0.707899 0.71253407 0.71175206 0.71229917 0.71258557 0.71253353 0.7072404 0.7119191
0.7119534 0.7090568 0.71197724 0.7095923 0.71078914 0.70829433 0.7115373 0.7122117
0.7106212 0.7105678 0.71154165 0.71289444 0.7109243 0.706182 0.7121157 0.71176594
0.71280897 0.7053657 0.7115055 0.42133817 0.7115729 0.70899326 0.8518421 0.4509412
0.7122496 0.711831 0.10542918 0.7108507 0.710935 0.48904777 0.71238905 -0.094734214
0.711951 0.7110738 0.7089934 0.7098112 0.71165943 0.7106055 0.7121843 0.711532

last.weight f4 [1, 256]
00000000: 5202 6a3f 9ed0 683f 486b 6b3f db5c 693f
00000010: 7d0a 6a3f 89b1 6b3f 2e72 693f 9463 693f
00000020: f42c 6a3f b979 693f 19e2 6a3f 2855 6b3f
00000030: d7d4 6b3f dbd7 693f c04d 683f 1dd7 683f
00000040: 0a74 bbc1 e41b 6a3f bde5 693f 6e70 693f
00000050: 21b6 6a3f 448f 693f ba40 3ac1 dc35 6b3f
00000060: bdc7 693f 3387 693f 3d81 683f 18d7 693f
00000070: a566 6c3f e69c 693f 23b3 693f 8764 6a3f
00000080: 1a87 4cc1 9230 693f e3d9 6b3f eb50 683f
00000090: b3b0 6a3f 539e 693f f011 693f 956e 693f
000000a0: b340 6a3f c709 693f 16ce 693f ef1c 693f
000000b0: 32d4 693f 11a5 6a3f 4a19 6a3f 0fec 6c3f
000000c0: 875b 6a3f f4c0 683f 4b7c 693f 3b7a 693f
000000d0: 4e25 f8bf 2528 6a3f b0a9 693f e4de 6a3f
000000e0: edc7 6b3f 217a 6b3f b01d 6a3f 2cbd 683f
000000f0: 3d69 6b3f ad97 693f 74c3 6a3f 5add 693f
00000100: 1833 683f a13b 6a3f f250 683f ec9a 693f
00000110: 5795 6b3f e77e 693f dace 6b3f e5dc 38c1
00000120: 6d34 693f ebad 693f a42b 6c3f b946 683f
00000130: 6118 6c3f 62eb 673f acc3 6b3f 79cf 683f
00000140: a73a 693f c6b5 40c1 1812 35c1 07c0 683f
00000150: fb8f 683f 1363 693f ffb2 693f d418 6a3f
00000160: 8739 6b3f 109e 693f 23fb 6a3f 69c5 693f
00000170: 8a1a 6b3f e482 6b3f 8cc4 6b3f e159 693f
00000180: 9b0c 6a3f 3aec 683f 4bd2 44c1 eec2 6a3f
00000190: 549f 683f 8bf0 6c3f 1992 693f 8d8b 673f
000001a0: ec2e 693f 8423 6c3f fc17 693f 676a 6b3f
000001b0: f9f1 673f ae19 6a3f 7743 6a3f 9b9d 683f
000001c0: 60ac 693f 20c3 693f 107f 693f 76d0 6a3f
000001d0: f464 6b3f d84e 6a3f 73ea 693f 2e0f 6a3f
000001e0: 8156 693f f3f8 673f 81b1 6b3f f574 693f
000001f0: c72c 693f 7634 6b3f 92f4 6b3f 0d67 3ac1
00000200: b1ac 693f 8994 683f 5fdd 693f 1147 6a3f
00000210: c7aa 683f 6f43 bfc1 afaa 6a3f 9bac 693f
00000220: 7fd0 693f 3c79 693f 0ff4 693f 17c0 6a3f
00000230: 7783 693f 6e7d 6a3f 8cb1 6a3f 9034 693f
00000240: ba9e f2bf 85f4 6a3f 60da 693f 2963 1cc2
00000250: d1a3 6a3f b5a8 693f 7b66 6a3f 3354 693f
00000260: c977 683f de5c 46c1 4d54 683f 53be 693f
00000270: b080 693f 543f 6b3f d84e 6b3f c542 6b3f
00000280: e7aa 6b3f 7abf 683f bd29 6a3f a912 693f
00000290: ddac 6a3f 34e3 a7c1 5b67 693f 5692 6fc1
000002a0: 451b 6a3f 9df7 6a3f 6372 693f 593c 6b3f
000002b0: c43b 6a3f 02f3 6b3f 4399 6b3f b2cb 6b3f
000002c0: 9035 6a3f 5781 683f 4188 6a3f 7119 33c1
000002d0: f5aa 6b3f a09c 683f 562b 6a3f 862c 693f
000002e0: 5496 6b3f 2bb8 6b3f dee0 fabf 3602 6b3f
000002f0: 6c8d 6b3f 7bd1 693f 7837 6a3f ee95 6a3f
00000300: 704b 6a3f 03c7 6a3f 3bdc 693f ed99 693f
00000310: 4441 693f 38ab 3ac1 c5e5 693f 37bb 6a3f
00000320: ed04 6b3f f829 6a3f 7766 673f 3184 6a3f
00000330: e0c5 693f b749 6d3f c111 38c1 2e90 683f
00000340: 3a6c 6b3f 7295 6a3f c12d 693f 2265 6a3f
00000350: ea09 6a3f 40ad 693f 156a 693f 146a 683f
00000360: ece1 693f 9d67 693f 803a 6b3f ebf4 6a3f
00000370: 974f 693f e490 693f 4676 693f be4f 693f
00000380: 1c3c 6a3f 4bdf 693f f237 693f bf69 6b3f
00000390: 6c6f 683f 941b 6c3f 1bea 6a3f 1eac 6a3f
000003a0: 456e 6c3f 18be 6b3f cc0c 693f c4d8 f5bf
000003b0: 6273 6a3f 9bcc 6b3f ab84 3cc1 5716 96c1
000003c0: 8a83 6b3f 6185 693f d3d8 40c1 07ff 673f
000003d0: 1feb 683f 060c 43c1 108b 693f 115d 4ac1
000003e0: c9af 693f 6cfd 693f bdc7 693f 236b 683f
000003f0: 1ed9 693f b908 6a3f 1541 693f dbc8 6a3f
0.9140979 0.90943325 0.91960573 0.9115731 0.91422254 0.9206777 0.9118985 0.9116757
0.91474843 0.9120136 0.9175125 0.91926813 0.9212164 0.91344994 0.9074364 0.90953237
-23.43166 0.9144881 0.9136618 0.9118718 0.91684157 0.9123423 -11.640802 0.9187906
0.913204 0.9122192 0.908222 0.9134383 0.92344123 0.91255033 0.91288966 0.9155964
-12.782984 0.9108974 0.92129344 0.9074847 0.9167587 0.9125721 0.91042995 0.9118436
0.91504973 0.91030544 0.9133009 0.91059774 0.9133941 0.9165812 0.9144484 0.92547697
0.9154591 0.90919423 0.9120528 0.91202134 -1.9386384 0.91467506 0.9127455 0.91746354
0.9210194 0.9198323 0.9145155 0.90913653 0.91957456 0.91247064 0.9170449 0.9135338
0.9070296 0.91497236 0.9074851 0.9125202 0.9202475 0.9120926 0.92112505 -11.553929
0.9109562 0.91281 0.9225409 0.90732914 0.922247 0.9059354 0.92095447 0.9094158
0.9110512 -12.044378 -11.316917 0.9091801 0.90844697 0.911668 0.9128875 0.91444135
0.91884655 0.9125681 0.91789454 0.9131685 0.9183737 0.919966 0.9209678 0.9115277
0.91425484 0.90985453 -12.301341 0.9170369 0.90868115 0.9255454 0.9123855 0.9044731
0.9108722 0.9224169 0.9105222 0.9195923 0.90603596 0.91445434 0.91509193 0.90865487
0.9127865 0.9131336 0.91209507 0.91724336 0.9195092 0.91526556 0.91373366 0.9142941
0.9114762 0.9061424 0.92067724 0.9119409 0.9108395 0.91876924 0.9217006 -11.650159
0.9127913 0.90851647 0.9135341 0.9151469 0.90885586 -23.907927 0.9166669 0.91279
0.91333765 0.91200614 0.9138803 0.91699356 0.91216224 0.9159764 0.91677165 0.9109583
-1.895469 0.9177936 0.9134884 -39.096836 0.91656214 0.9127305 0.9156262 0.911441
0.9080778 -12.397673 0.9075363 0.91306037 0.91211987 0.91893506 0.9191718 0.9189876
0.9205765 0.9091717 0.9146994 0.910441 0.9167002 -20.985939 0.9117333 -14.973227
0.9144786 0.9178408 0.91190165 0.9188896 0.91497445 0.92167675 0.92030734 0.9210769
0.9148798 0.90822357 0.91614157 -11.193711 0.92057735 0.9086399 0.91472375 0.9108356
0.9202626 0.92077893 -1.9599874 0.9180025 0.9201267 0.91335267 0.9149089 0.91635025
0.9152136 0.9170992 0.9135167 0.912505 0.9111521 -11.666801 0.91366225 0.9169192
0.9180439 0.9147029 0.90390724 0.9160796 0.9131756 0.92690605 -11.504334 0.90845
0.91962016 0.91634285 0.9108544 0.91560566 0.9142138 0.91279984 0.91177493 0.9078686
0.91360354 0.91173726 0.9188614 0.91779965 0.9113707 0.9123671 0.91196096 0.911373
0.9149797 0.91356343 0.9110099 0.9195823 0.90795016 0.9222958 0.91763467 0.9166888
0.9235576 0.92086935 0.9103515 -1.9206777 0.9158231 0.9210908 -11.78239 -18.760908
0.9199759 0.91219145 -12.052936 0.90623516 0.90983766 -12.190435 0.9122782 -12.647721
0.9128385 0.91402316 0.913204 0.9078848 0.9134692 0.9141956 0.9111493 0.9171273
