Soft-Module-main/log/model2/model_vf_100.pth (torch, 280037 bytes, 5 tensors)

base.seq_fcs.0.weight f4 [256, 12]
0	0x3f2357e8	0.6380601
1	0x3d4bbe85	0.04974224
2	0x3ce40f9e	0.027839478
3	0x3d2e0bfd	0.0424919
4	0x3d464855	0.048408825
5	0x3f62f9cf	0.8866243
6	0x3c98881c	0.01861959
7	0xbb498c60	-0.0030753836
8	0xbd41eba8	-0.04734388
9	0xbe5526fb	-0.20815651
10	0x3dd5fd29	0.10448677
11	0x3b213736	0.0024599559
12	0x3c742149	0.014900514
13	0xbd0b362f	-0.03398722
14	0xbd9488fb	-0.072526895
15	0xbd5f4be7	-0.054515745
16	0xbdaf3b4f	-0.08556234
17	0x3d260b81	0.040538315
18	0x3c9f48c8	0.019443884
19	0xbc000378	-0.007813327
20	0x3d51a1b0	0.051179588
21	0xbd221899	-0.03957424
22	0xbd6d9745	-0.05800559
23	0xbd8914de	-0.06693433
24	0x3e6cfcf6	0.23143372
25	0xbf0d1ac3	-0.5511896
26	0xbe8493c7	-0.25893995
27	0x3e3a4b24	0.18192726
28	0xbcce601d	-0.025192315
29	0x3faf8113	1.3711265
30	0x3d71abb2	0.059001632
31	0xbcff29a8	-0.031147793
32	0x3c985ad0	0.01859799
33	0xbe1308ae	-0.1435878
34	0x3d15a7de	0.036537044
35	0x3d219930	0.03945273
36	0x3f238618	0.63876486
37	0xbe54fd54	-0.20799762
38	0xbf8d7b77	-1.1053303
39	0xbed7bb07	-0.42134878
40	0x3c9178a9	0.01775773
41	0x3f9254f0	1.1432171
42	0xbc473c60	-0.012160391
43	0x3bea5640	0.007151395
44	0xbd211410	-0.039325774
45	0xbe23be9d	-0.15990682
46	0xbdb1402a	-0.086548164
47	0x3b51e7e2	0.0032029082
48	0xbf27b05f	-0.65503496
49	0x3e9473ca	0.2899459
50	0x3d998502	0.07496072
51	0xbe399296	-0.18122324
52	0xbe88c3a5	-0.26711765
53	0x3e907bff	0.28219602
54	0xbd43612a	-0.047700085
55	0xb9e57300	-0.00043763965
56	0xbd5b7e1c	-0.053587064
57	0xbebdc2fb	-0.3706282
58	0xbe8e87d3	-0.27838
59	0xbe755c37	-0.23960958
60	0xbbdada96	-0.0066788895
61	0xbce1d0db	-0.02756541
62	0xbd906b92	-0.070517674
63	0xbea7bdfb	-0.3276213
64	0xbd6c6f04	-0.05772306
65	0x3fd58726	1.6681869
66	0xbc0cc5c0	-0.008592069
67	0x3ca7bcec	0.020475827
68	0xbcb88ea4	-0.022528954
69	0xbe565725	-0.2093168
70	0xbdbed480	-0.09317875
71	0xbddf9b74	-0.10918322
72	0xbe7d5c09	-0.2474214
73	0x3cd080f8	0.025452122
74	0x3e69856b	0.22804801
75	0xbeefd165	-0.46839443
76	0xbd9121d1	-0.07086528
77	0x3ff6de29	1.9286548
78	0x3d551670	0.05202335
79	0x3cdd74a0	0.02703315
80	0xbc224018	-0.009902976
81	0xbea3c8a8	-0.31989026
82	0x3d8937be	0.06700085
83	0xbd06183d	-0.03273796
84	0xbcb4219f	-0.021988688
85	0x3cfc513e	0.030800458
86	0xbe7b4578	-0.24538219
87	0xbead5e2c	-0.3386091
88	0xbe0afc1c	-0.13572735
89	0x3f9f14fc	1.2428279
90	0x3a8db3c0	0.0010811016
91	0xbd34ce58	-0.044142097
92	0xbd4f7498	-0.0506483
93	0xbdd1f2c2	-0.102513805
94	0xbd874202	-0.06604387
95	0xbdefcbf4	-0.11708823
96	0x3f1867b8	0.5953326
97	0x3eae3f54	0.3403269
98	0xbd35d982	-0.044396885
99	0xbf190477	-0.5977244
100	0xbe561b68	-0.20908892
101	0x3e57c997	0.21072994
102	0x3d45402a	0.048156895
103	0x3cc40c70	0.023931712
104	0xbcf0d4ac	-0.029398285
105	0xbe38f82b	-0.18063419
106	0xbdef8121	-0.11694551
107	0xbe402517	-0.18764149
108	0xbde455b9	-0.11149163
109	0x3d3cf4d3	0.04613192
110	0xbe861f7b	-0.26195893
111	0xbe5c72e9	-0.2152821
112	0x3c316911	0.010828272
113	0x3f96c72e	1.1779535
114	0x3d6088be	0.054817908
115	0x3d3ac648	0.045599252
116	0xbd759262	-0.059954055
117	0xbe64896b	-0.22318046
118	0xbd93a101	-0.072084434
119	0xbcadc7a6	-0.021213364
120	0x3e58a945	0.21158321
121	0xbd8e1169	-0.069369145
122	0x3eb4f2c6	0.3534147
123	0xbda3ef18	-0.08004588
124	0xbddf4409	-0.109016486
125	0x3fb31bdf	1.399288
126	0xbd6c8a84	-0.057749286
127	0xbcea4718	-0.028598353
128	0x3d5f6a02	0.054544456
129	0xbe507e7f	-0.20360754
130	0xbd834318	-0.064092815
131	0xbdde1a97	-0.10844915
132	0x3f0d2aed	0.55143625
133	0x3b8f9464	0.004381703
134	0xbf234559	-0.6377769
135	0xbf43a57a	-0.7642437
136	0xbe3843b4	-0.17994577
137	0x3f833b55	1.0252482
138	0x3d09edea	0.03367416
139	0x3bac8740	0.0052651465
140	0xbd7cd9da	-0.061731197
141	0xbe81a1c6	-0.25318736
142	0xbe1bf396	-0.1522964
143	0xbdffe021	-0.12493921
144	0x3fa347da	1.2756302
145	0xbc636d51	-0.0138810435
146	0x3e719347	0.23591338
147	0xbe32eda2	-0.17473462
148	0xbe0e503f	-0.13897799
149	0x3f31627a	0.6929089
150	0xbcf26bcc	-0.029592417
151	0x3c8cd4dc	0.017191343
152	0xbcdfc214	-0.027314223
153	0xbebca61e	-0.36845487
154	0xbc148eec	-0.009067278
155	0xbd83efe9	-0.064422436
156	0x3eacc688	0.33745217
157	0x3d4164a1	0.047215108
158	0xbe9d2f62	-0.30700213
159	0xbf8831d8	-1.0640211
160	0xbe46c9ba	-0.1941289
161	0x40076d75	2.1160557
162	0xbcbd3488	-0.023096338
163	0xbc77df00	-0.015128851
164	0x3d056cae	0.03257435
165	0xbe41e242	-0.18933967
166	0xbdffb95b	-0.124865256
167	0xbe05cff9	-0.13067617
168	0x3f51ceaa	0.8195597
169	0x3cd97ca7	0.026548697
170	0xbcfefac4	-0.031125434
171	0xbf1d6fa4	-0.61498475
172	0xbe2c4762	-0.16824105
173	0x3ec656e5	0.3873817
174	0xbd3f6c82	-0.04673434
175	0x3c1d8a28	0.009615459
176	0xbbc57370	-0.006025724
177	0xbdf1585f	-0.117844336
178	0xbe3c218a	-0.18372169
179	0xbe444efc	-0.19170755
180	0xbda62199	-0.08111877
181	0x3ce197ca	0.027538199
182	0xbe1c46bc	-0.15261358
183	0xbf8a19f2	-1.0789168
184	0xbdf6780d	-0.120346166
185	0x40127238	2.2882214
186	0x3c5e71c0	0.013576925
187	0xbca82644	-0.020526059
188	0x3c077460	0.008267492
189	0xbe313a68	-0.17307436
190	0xbd1639ef	-0.036676344
191	0xbd3a9fa6	-0.04556241
192	0x3ea9e925	0.33185688
193	0x3cfa2dbc	0.030539386
194	0x3e86bdea	0.26316768
195	0xbdf13600	-0.11777878
196	0x3d5ecbd3	0.0543936
197	0x3f833690	1.0251026
198	0x3bd475f0	0.006483786
199	0xbc6b2358	-0.014351688
200	0xbd79ae42	-0.0609572
201	0xbe41bc7c	-0.18919557
202	0xbc8da485	-0.017290363
203	0xbd0aff71	-0.033935014
204	0x3eb536f2	0.35393482
205	0xbe8a3d93	-0.27000102
206	0x3f29f3bc	0.66387534
207	0xbe6a8ebc	-0.22906011
208	0xbdc54833	-0.096329115
209	0x40042031	2.0644648
210	0x3d53f6e6	0.051749133
211	0x3d3aa1d6	0.045564495
212	0xbcb552d0	-0.022134215
213	0xbd7aa609	-0.0611935
214	0xbd17f426	-0.037098072
215	0xbd980a63	-0.07423856
216	0xbf07ead3	-0.5309269
217	0x3bde6848	0.0067873336
218	0x3cb1ab63	0.021688169
219	0xbee94d0f	-0.45566604
220	0x3e4f65f7	0.2025374
221	0x3fff86fb	1.9963068
222	0x3d5247e6	0.0513381
223	0x3d1ce8fa	0.03830812
224	0x3d57cf92	0.05268819
225	0xbe6b6698	-0.22988355
226	0x3e781789	0.24227728
227	0x3e0a0072	0.13476732
228	0x3f7412a4	0.95340943
229	0xbd32b812	-0.043632574
230	0x3d6c89f7	0.05774876
231	0xbeffd9c3	-0.49970827
232	0xbde932b1	-0.11386622
233	0x3eaafe1e	0.33397
234	0x3d60008a	0.054688014
235	0x3c964124	0.018341608
236	0xbd49d9a4	-0.049279824
237	0xbe08d91f	-0.13364075
238	0xbd1e4d21	-0.038647775
239	0xbc35bf2c	-0.011092942
240	0x3f3f83d3	0.7481052
241	0x3cc88e43	0.024481898
242	0x3f0b3153	0.5437214
243	0xbe99338f	-0.2992215
244	0xbe011407	-0.12605296
245	0x3eb985dd	0.36234942
246	0xbb66ffc0	-0.0035247654
247	0xbd7559a8	-0.059899956
248	0x3d26d5ae	0.040731125
249	0xbebcefa2	-0.36901575
250	0xbdbc5d8a	-0.09197529
251	0xbe05ad24	-0.13054329
252	0xbe86f325	-0.2635738
253	0xbd0e1ad5	-0.034693558
254	0xbe3d2118	-0.18469656
255	0xbe76cb33	-0.24100952

base.seq_fcs.0.bias f4 [256]
0	0x3e1b93ef	0.15193151
1	0x3da84e2d	0.08218036
2	0x3dc49e5c	0.09600517
3	0x3d70ae94	0.05876024
4	0xbe08845e	-0.13331744
5	0xbb8b39b1	-0.0042488207
6	0x3ddc23c8	0.10749012
7	0x3cce2eb7	0.02516876
8	0xbcd3e66c	-0.02586671
9	0x3da6628f	0.08124267
10	0x3c8de745	0.017322192
11	0xbd2b2e57	-0.04179224
12	0x3cfc5bf6	0.03080557
13	0x3cb3d9c5	0.021954427
14	0xbd8e04df	-0.06934523
15	0x3d2cebb9	0.04221699
16	0x3df0feb5	0.117673315
17	0x3db3ae7a	0.08773513
18	0x3e91d321	0.2848139
19	0x3dd33a2b	0.10313829
20	0x3b113231	0.002215516
21	0x3cb60c5d	0.022222692
22	0xbc93933c	-0.018014543
23	0x3c997b47	0.018735541
24	0x3e7a36f0	0.2443502
25	0x3e36f54d	0.17867012
26	0x3ea1860a	0.31547576
27	0x3e1719c9	0.1475593
28	0x3ced9b76	0.029004794
29	0x3cb6e73e	0.022327062
30	0xbc12b8e5	-0.008955215
31	0xbd6e9c0f	-0.058254298
32	0x3d3db161	0.04631174
33	0x3d837b0a	0.06419952
34	0x3d229f0b	0.039702456
35	0xbdc13979	-0.0943479
36	0x3d71e5e3	0.059057128
37	0xbcdb2b80	-0.02675414
38	0x3e3d60c7	0.18493949
39	0x3d80facc	0.06297836
40	0x3d4fb82a	0.050712742
41	0x3dd4e7df	0.103957884
42	0x3e2eb08b	0.17059533
43	0xbd05b172	-0.03263993
44	0x3e207f83	0.15673642
45	0x3ddc5c7f	0.1075983
46	0x3e21630a	0.15760437
47	0x3d87e68b	0.066357695
48	0x3e51af0b	0.2047693
49	0x3dc99cea	0.09844382
50	0x3dd0e7f3	0.10200491
51	0x3db248d3	0.08705296
52	0x3c674c71	0.014117346
53	0x3dbc225f	0.09186243
54	0x3d8d5f29	0.06902916
55	0xbc4a3e75	-0.0123439925
56	0x3ca9cf5a	0.020728756
57	0xbd3422a2	-0.04397834
58	0xbcf5a226	-0.029984545
59	0x3cb87ea7	0.02252133
60	0x3dcfe2ed	0.101507045
61	0x3dcb060f	0.09913265
62	0x3e6868b5	0.22696193
63	0x3d15351e	0.03642761
64	0x3e9bd49d	0.3043565
65	0x3db12085	0.08648781
66	0xbcd4a4b6	-0.025957447
67	0x3c254a36	0.010088494
68	0x3d5524ec	0.052037165
69	0x3c62240e	0.013802541
70	0x3e1577e1	0.14596511
71	0x3da0b23c	0.078464955
72	0x3d551380	0.05202055
73	0x3d2c811c	0.042115316
74	0x3ed46e38	0.4149034
75	0x3dbe6556	0.09296672
76	0x3cc73c44	0.02432073
77	0x3e30478b	0.17214791
78	0x3d12abab	0.035808247
79	0xbd229851	-0.03969604
80	0xbe022a47	-0.1271144
81	0xbdba8d01	-0.091089256
82	0xbdb3fbaf	-0.08788239
83	0x3cce78e3	0.025204128
84	0x3d048fe4	0.032363787
85	0x3e16b328	0.1471678
86	0x3d960864	0.07325819
87	0x3e5e44df	0.2170596
88	0xbd6eb521	-0.058278207
89	0x3e1f3ad2	0.15549782
90	0x3e820400	0.25393677
91	0x3d051b0c	0.032496497
92	0x3c5bddd2	0.013419585
93	0x3dfabc97	0.12243002
94	0x3e57a60a	0.21059433
95	0x3d822773	0.063551806
96	0xbb43079c	-0.0029759174
97	0x3ddf197c	0.10893533
98	0x3d11edec	0.03562729
99	0x3e85ccf6	0.26132935
100	0x3e242213	0.16028623
101	0x3d880bee	0.066429004
102	0x3eb9dbf5	0.36300626
103	0x3d87fef5	0.06640426
104	0x3dd0412c	0.101686805
105	0x3cd26a92	0.025685582
106	0x3e1c221d	0.15247388
107	0x3db784dd	0.089608885
108	0x3e985534	0.29752505
109	0x3e4fca52	0.20292023
110	0x3e067c9f	0.13133477
111	0x3d8db2a0	0.06918836
112	0x3e7621b8	0.240363
113	0x3d8b8223	0.06811931
114	0x3dbdde2b	0.09270891
115	0x3d82d469	0.0638817
116	0x3bcf0f5a	0.0063189687
117	0x3e2d9a2c	0.16953343
118	0x3cb3ee83	0.021964317
119	0xbd21a337	-0.039462294
120	0x3b1a91ae	0.0023585367
121	0xbcefe80a	-0.02928545
122	0x3c43e6ee	0.011956913
123	0x3e990967	0.29889986
124	0x3d505fd5	0.050872643
125	0xbd26a58f	-0.040685233
126	0x3e428c57	0.18998848
127	0xbc811650	-0.01575771
128	0x3d9b7386	0.07590394
129	0x3ce69a09	0.028149622
130	0x3dc6195a	0.09672804
131	0x3e7a6b78	0.24455059
132	0x3c0af0ad	0.008480233
133	0x3d8d5c43	0.06902363
134	0x3de4d9ac	0.1117433
135	0x3d91f058	0.0712592
136	0x3d67aa5c	0.05655895
137	0x3dfd48fd	0.12367437
138	0x3c45b9d2	0.012068229
139	0x3e16abd8	0.1471399
140	0x3d876547	0.06611114
141	0x3d6ce81c	0.057838544
142	0x3e1e5584	0.15462309
143	0x3d7559d9	0.05990014
144	0x3d08958a	0.033345737
145	0xbcca718c	-0.024712346
146	0xba91a0a3	-0.0011110496
147	0x3e8eb72f	0.27874133
148	0xbb5d7c01	-0.0033795836
149	0x3d987249	0.07443673
150	0x3e0d2fa0	0.13787699
151	0x3d820105	0.06347851
152	0xbd0e68cd	-0.034767915
153	0x3d47a6f1	0.048743192
154	0x3d049907	0.0323725
155	0x3e0f1931	0.13974454
156	0x3e712d65	0.23552473
157	0x3cc5e988	0.024159208
158	0x3e2831a6	0.1642519
159	0xbb469c65	-0.003030562
160	0x3e1d61b8	0.15369308
161	0x3db6480e	0.08900462
162	0xbb357087	-0.002768548
163	0xbc82a0a3	-0.015945738
164	0x3ca85504	0.020548351
165	0x3e2da992	0.16959217
166	0x3c9e3d95	0.019316474
167	0x3e52182a	0.2051703
168	0x3cbe25d4	0.023211397
169	0xbcb93877	-0.022609932
170	0x3ea20593	0.31644878
171	0x3df9b3b5	0.121924795
172	0x3f17461f	0.5909137
173	0x3c2e940f	0.010655417
174	0x3e1589b1	0.14603306
175	0x3e9656dd	0.29363146
176	0xbd482040	-0.04885888
177	0x3d3320f3	0.043732595
178	0x3e131b55	0.14365895
179	0x3d08a597	0.033361044
180	0xbd8138bf	-0.063096516
181	0x3ea9af28	0.33141446
182	0x3d69ff21	0.057128076
183	0x3de43690	0.111432195
184	0xbb31ada8	-0.0027111564
185	0x3e12a92d	0.14322348
186	0x3e2a193a	0.16611186
187	0x3ca088ee	0.019596543
188	0x3cc5d5b8	0.02414976
189	0x3e4f4ec1	0.20244886
190	0x3d0c3aa3	0.034235608
191	0x3db4154a	0.08793123
192	0x3c73300d	0.014842999
193	0x3cc23d5f	0.023710905
194	0x3e114f43	0.14190392
195	0x3dab0b8b	0.08351811
196	0x3cc3a3db	0.023881843
197	0xbda971e0	-0.08273673
198	0x3e4ed897	0.2019981
199	0xbc1adf92	-0.009452717
200	0xbbcb5a38	-0.0062058233
201	0x3dd4f777	0.10398763
202	0x3dfdb317	0.12387674
203	0x3c84ccf9	0.01621102
204	0xbd413c55	-0.047176678
205	0x3da2db27	0.07951956
206	0x3d936637	0.0719723
207	0x3eb15c02	0.3464051
208	0x3dd1298e	0.10213004
209	0x3cdb4bb7	0.026769502
210	0x3e31199b	0.17294924
211	0x3e02a33a	0.12757578
212	0x3d676e89	0.0565019
213	0x3e9b68e7	0.30353472
214	0xbe2585c4	-0.16164309
215	0xbc083037	-0.008312277
216	0x3e3c1d88	0.1837064
217	0x3e8844b0	0.26614904
218	0x3c9f60a5	0.019455263
219	0x3e38de9d	0.1805367
220	0x3e105a8d	0.14097042
221	0x3db1f29e	0.08688854
222	0x3ea9abd5	0.3313891
223	0xbcbedb0f	-0.023297815
224	0x3d68f6b7	0.05687591
225	0xbc6801b9	-0.014160567
226	0x3daf1240	0.08548403
227	0x3df707b9	0.1206202
228	0x3eb1aa9b	0.34700474
229	0xbbed8ca8	-0.0072494335
230	0xbc463d44	-0.012099568
231	0x3c36c293	0.011154789
232	0x3e140114	0.14453536
233	0x3dd072c5	0.101781406
234	0x3d47f210	0.048814833
235	0x3d8beadd	0.06831906
236	0x3e10c50f	0.14137672
237	0x3ad949d9	0.0016577794
238	0x3c640e63	0.013919446
239	0x3c9dc261	0.019257726
240	0x3e02b6bb	0.12765019
241	0x3e4eb32b	0.20185535
242	0x3dbf606c	0.09344563
243	0x3d92d6f8	0.07169908
244	0xbc17568e	-0.009236945
245	0x3e1dc884	0.15408522
246	0x3e056c79	0.1302966
247	0x3d524137	0.051331725
248	0x3de95f92	0.11395182
249	0x3d5ace4a	0.05341939
250	0x3d062283	0.032747757
251	0x3c866ff3	0.016410803
252	0x3e69fcad	0.22850294
253	0x3e1f10ed	0.155338
254	0x3ca8c29f	0.020600615
255	0x3d6c1324	0.05763544

base.seq_fcs.2.weight f4 [256, 256]
0	0x3f1c298e	0.6100091
1	0xbd59e993	-0.05320127
2	0x3ebb7ba9	0.36617783
3	0xbfc1b011	-1.5131856
4	0xbfa70141	-1.3047258
5	0x3d5e68dd	0.054299224
6	0xbd3ff6b2	-0.046866126
7	0xbf2a9fb8	-0.6664996
8	0x3c1e89c1	0.009676398
9	0xbf13442b	-0.5752589
10	0x3e69ef7c	0.22845262
11	0xbea90358	-0.33010364
12	0x3ea26759	0.31719473
13	0xbedf7257	-0.43641922
14	0x3e8ea1f6	0.2785794
15	0xbf198f38	-0.5998416
16	0x3f04e530	0.5191221
17	0xbe0bbbff	-0.13645934
18	0xbbc033a3	-0.0058655306
19	0xbf87b3a2	-1.0601695
20	0xbd5d258b	-0.053990882
21	0xbe4b359e	-0.19844672
22	0xbf5a1dfe	-0.85202014
23	0xbe78470d	-0.24245854
24	0xbdcf61c6	-0.10126071
25	0xbf69724d	-0.91190034
26	0x3fe054dc	1.7525897
27	0xbde256c6	-0.11051707
28	0xbc855a3e	-0.016278382
29	0xbeecdd65	-0.4626266
30	0xbece32ca	-0.40273124
31	0xbf20516f	-0.6262426
32	0xbf80528e	-1.0025194
33	0x3e2200a5	0.15820558
34	0x3e384368	0.17994463
35	0xbd5f43ff	-0.054508206
36	0xbdbd7b56	-0.0925204
37	0xbf11a6cb	-0.5689513
38	0x3f425a8f	0.7591943
39	0x3e66cc6e	0.22538921
40	0xbf04a0c7	-0.51807827
41	0xbfcacbb2	-1.5843413
42	0xbb759e67	-0.0037478448
43	0x3de3bf75	0.11120502
44	0xbefc3846	-0.49261683
45	0x3f3e7508	0.74397326
46	0xbebfc27b	-0.37453064
47	0xbc6e29f0	-0.014536366
48	0x3cf330b5	0.029686311
49	0x3ea6aab7	0.3255212
50	0x3dc06eb5	0.09396116
51	0x3d740dad	0.059583355
52	0xbe841f2f	-0.2580504
53	0xbf288b3a	-0.6583744
54	0x3dd095eb	0.101848446
55	0xbfa360a2	-1.2763865
56	0xbf3cd636	-0.7376436
57	0xbe69628c	-0.22791499
58	0x3d8bc497	0.06824606
59	0x3d2c8750	0.04212123
60	0xbd9b2e09	-0.0757714
61	0x3e3bb57a	0.18330947
62	0x3f2c568a	0.6731955
63	0xbf2948b1	-0.66126543
64	0x3e7ce1eb	0.24695556
65	0x3e24b5c6	0.16084966
66	0x3d16699b	0.036721807
67	0x3dde0aa9	0.10841877
68	0xbf63ba74	-0.8895638
69	0xbd4e9e59	-0.05044398
70	0x3f1f00e8	0.6211076
71	0xbda20665	-0.07911376
72	0xbaf89613	-0.0018965624
73	0x3e709668	0.23494875
74	0xbc118d50	-0.008883789
75	0x3ed898cc	0.42304075
76	0xc094962f	-4.643333
77	0xbf9047e5	-1.127194
78	0xbf4adcac	-0.7924297
79	0xbfc8ed08	-1.5697336
80	0x3fe683f7	1.8009022
81	0xc049f915	-3.1558278
82	0xbffa6c6b	-1.9564337
83	0xc021f007	-2.530275
84	0xbea3eb1b	-0.3201531
85	0x3f2d8245	0.677769
86	0x3f286dcd	0.6579254
87	0x3f7a1a05	0.9769595
88	0xbf129ae2	-0.5726758
89	0x3e2e8a4c	0.17044944
90	0x3b9a290f	0.0047046016
91	0x3e157361	0.14594795
92	0xbd76575b	-0.060141902
93	0xbf84a5fb	-1.0363153
94	0x3edbfece	0.42967838
95	0xbd2fd783	-0.042930137
96	0xbf7af1a5	-0.9802497
97	0xbe27c02c	-0.16381902
98	0xbe9187aa	-0.28423816
99	0x3ec26359	0.3796642
100	0xbe5f418c	-0.21802348
101	0xbf80fb46	-1.0076683
102	0x3e08b676	0.13350853
103	0xbec0ff04	-0.3769456
104	0x3ff514c5	1.9146963
105	0x3eb71ebf	0.35765645
106	0xbf14ac16	-0.5807508
107	0x3c11684e	0.008874966
108	0x3c0cc954	0.008592922
109	0x3ed3a242	0.4133473
110	0x3f1379d4	0.5760777
111	0xbf1dc25b	-0.6162469
112	0x3f2f7002	0.68530285
113	0xbf3086d4	-0.6895573
114	0xbbd3aee5	-0.006460058
115	0x3f212c83	0.62958544
116	0xbddbcb32	-0.10732116
117	0x3ee3f9f8	0.4452665
118	0x3eafe5c4	0.34354985
119	0x3ef09c27	0.46994135
120	0xbf612e2f	-0.87961096
121	0x3d940480	0.07227421
122	0xb97af339	-0.00023932465
123	0x3d2b1f9c	0.041778192
124	0x3e900ac8	0.28133225
125	0xbf734b85	-0.9503711
126	0x3e641165	0.2227226
127	0xbf5de1ea	-0.8667284
128	0xbdf70305	-0.12061123
129	0x3e5dcd9e	0.21660468
130	0xbff32ee1	-1.8998681
131	0xbc52816e	-0.012848241
132	0xbf09cc74	-0.53827596
133	0xbdc1acbe	-0.09456776
134	0xbf035df6	-0.5131525
135	0x3e9cde04	0.30638134
136	0xbfb3364e	-1.4000947
137	0xbf8229c4	-1.0168996
138	0x3d00738e	0.0313602
139	0x3f4c993b	0.7992131
140	0xbd922f7b	-0.071379624
141	0xbf0ce8f9	-0.5504299
142	0x3f48d43b	0.7844884
143	0xbf7b31ab	-0.9812266
144	0xbf687d28	-0.90815973
145	0xbf4e2d7d	-0.8053816
146	0xbe3e98af	-0.18612932
147	0x3ebee55f	0.3728437
148	0x3ecbff4e	0.3984322
149	0xbf434492	-0.76276505
150	0x3f549b39	0.8304935
151	0xbf36ca8d	-0.7140282
152	0xbff74ac7	-1.9319695
153	0xbf2a12dc	-0.6643503
154	0xbfbbc761	-1.4670221
155	0x3f6073c1	0.87676626
156	0x3f026bfd	0.5094603
157	0xbf054232	-0.5205413
158	0x3f39dc22	0.7260152
159	0xbf9b9c0c	-1.2156997
160	0x3f4931e8	0.78591776
161	0x3e78a2f4	0.24280912
162	0x3d3b73a3	0.045764577
163	0x3de6997c	0.112597436
164	0x3da631c2	0.08114959
165	0x3f047080	0.5173416
166	0xbec76cfa	-0.3895033
167	0x3e597396	0.21235499
168	0x3daeebe7	0.085410886
169	0xbe6cca10	-0.23123956
170	0x3e656c87	0.22404681
171	0xbf7d7c5f	-0.990179
172	0x3ed9e3bd	0.42556563
173	0xbf418d6a	-0.75606406
174	0x3f056858	0.5211234
175	0xbd90f9f3	-0.07078924
176	0xbfa9d220	-1.326725
177	0xbfa3cb26	-1.2796371
178	0x3ee98ee2	0.45616823
179	0x3d1d3072	0.03837628
180	0xbe9bafb7	-0.30407497
181	0xbdd5e80d	-0.10444651
182	0x3fa97c68	1.3241091
183	0xbe51064d	-0.2041256
184	0xbfcf3627	-1.6188401
185	0x3f273e2c	0.6532924
186	0x3f5937e0	0.84850883
187	0xbf3aa854	-0.729131
188	0x401d00ad	2.4531662
189	0xbecc1113	-0.39856777
190	0x3d4d4812	0.05011756
191	0x3eb90915	0.36139742
192	0x3d863757	0.06553524
193	0x3e221385	0.15827759
194	0xbe3d13e0	-0.18464613
195	0x3daf7c85	0.08568672
196	0xbed71d0c	-0.42014349
197	0xbe92bbbb	-0.28658852
198	0x3f243148	0.641377
199	0xbe3d4d08	-0.18486416
200	0x3eb554aa	0.35416156
201	0xbf403626	-0.75082624
202	0xbfb737da	-1.431392
203	0xbe53e464	-0.20692593
204	0x3f1907d0	0.59777546
205	0xbf07ba52	-0.5301868
206	0xbe35ce13	-0.17754392
207	0xbceb5b00	-0.028729916
208	0x3f600f99	0.875238
209	0xbe34276d	-0.17593165
210	0xbe31e831	-0.1737373
211	0xbe3797f6	-0.17929062
212	0xbf839f04	-1.0282903
213	0x3fc93a8b	1.5720991
214	0xbfb202a4	-1.3907056
215	0xbe3f2495	-0.18666299
216	0x3f0d6303	0.55229205
217	0x3d4a9deb	0.04946701
218	0xbf8a3dec	-1.0800147
219	0xbf81d655	-1.0143534
220	0x3f0defef	0.55444235
221	0x3f876d3e	1.0580213
222	0x3b40acb5	0.0029399816
223	0x3d547199	0.051866148
224	0x3e395333	0.18098144
225	0xbf270cd3	-0.65253943
226	0xbfe2ac6b	-1.7708868
227	0x3f2c75f7	0.673675
228	0xbee7722d	-0.45204297
229	0xbdc97b2b	-0.098379456
230	0xbf617a91	-0.88077646
231	0x3e3b9362	0.18317941
232	0x3ecb03a7	0.39651224
233	0xbdd69f93	-0.10479655
234	0xbdff3966	-0.1246212
235	0x3d90cd71	0.07070435
236	0xbea2b1cd	-0.31776276
237	0xbe20ed08	-0.1571542
238	0x3e2bff71	0.16796662
239	0xbfafb78d	-1.372789
240	0x3f22eb68	0.6364045
241	0x3d3183cc	0.043338582
242	0x3e56652c	0.20937032
243	0xbe3832c2	-0.17988113
244	0x3fd63453	1.6734718
245	0x3e3a2b82	0.1818066
246	0x3f3829b5	0.7193864
247	0xbf353e11	-0.7079783
248	0x3da249e2	0.07924248
249	0xbf826239	-1.0186225
250	0xbee11f2e	-0.439691
251	0xbf2904ea	-0.66023123
252	0xbd017e4d	-0.03161459
253	0xbf92e4b0	-1.147604
254	0x3c8b6327	0.017015053
255	0xc0a792eb	-5.2366843

base.seq_fcs.2.bias f4 [256]
0	0x3e526c29	0.20549072
1	0x3daa84b9	0.08326096
2	0x3e929cb5	0.28635183
3	0x3d560bc6	0.05225732
4	0x3d5cfb93	0.053950857
5	0x3d4c3544	0.049855486
6	0x3d4ed16d	0.050492693
7	0x3d66688a	0.05625204
8	0x3d0dfb58	0.03466353
9	0x3d6b8276	0.057497464
10	0x3d0eaf1e	0.034834974
11	0xbc031382	-0.0080002565
12	0xbc04d1a6	-0.008106625
13	0x3f0786b4	0.52939916
14	0x3ee2be74	0.4428593
15	0x3d8ee47d	0.069771744
16	0xbb2e4a5b	-0.0026594612
17	0x3d292507	0.041295078
18	0xbc3c16b9	-0.011480027
19	0xbe1bcde4	-0.1521526
20	0x3d20c347	0.03924873
21	0x3d9481ce	0.07251321
22	0x3ea401c7	0.32032606
23	0x3d562896	0.0522848
24	0x3d5cf11d	0.05394088
25	0x3d83065e	0.06397699
26	0x3d347a83	0.04406215
27	0x3d93a13b	0.07208487
28	0x3ed9eae1	0.4256201
29	0x3d34d5ef	0.044149335
30	0x3e98118b	0.29700884
31	0x3d61d524	0.055134907
32	0x3e530aaa	0.20609537
33	0x3d96fd87	0.07372575
34	0x3ee4649a	0.44608003
35	0x3eb70416	0.35745305
36	0x3d90f60a	0.07078178
37	0x3d4dc65e	0.050238006
38	0x3d42d9de	0.047571056
39	0xbd862520	-0.0655005
40	0x3d5ae17b	0.05343769
41	0x3da827c0	0.08210707
42	0x3d840d46	0.06447844
43	0x3d583d03	0.05279256
44	0x3da2b3c4	0.07944444
45	0x3d5f6223	0.05453695
46	0x3d48db78	0.049037427
47	0xbb61d683	-0.0034460134
48	0x3ebc6c99	0.36801603
49	0x3d627d9a	0.055295564
50	0x3e582765	0.21108778
51	0x3d4f22b2	0.050570197
52	0x3d4b71b4	0.049668983
53	0x3d58fd13	0.052975725
54	0x3d8b440c	0.06800088
55	0x3d86a594	0.0657455
56	0x3d5a202a	0.05325333
57	0x3d9dc9b3	0.07704487
58	0x3afd091f	0.0019305086
59	0x3d727e71	0.059202615
60	0x3d59d013	0.05317695
61	0x3d70e816	0.058815084
62	0xbca97724	-0.020686693
63	0x3f122897	0.57093185
64	0x3d4e516d	0.050370622
65	0x3d4e5039	0.050369475
66	0x3dbc26a4	0.091870576
67	0x3d5c263d	0.053747404
68	0x3e947ad5	0.28999963
69	0xbcca3db8	-0.024687633
70	0x3d5b3646	0.053518556
71	0x3d4a0abb	0.04932664
72	0x3d3fb6e9	0.046805296
73	0x3d20fa61	0.03930128
74	0x3d5497ef	0.051902708
75	0x3d4fd0db	0.05073629
76	0x3d8fbd2f	0.07018506
77	0xbe2ccaf5	-0.16874297
78	0x3e7f34a4	0.24922425
79	0x3ed6c78a	0.4194911
80	0x3edb4984	0.42829525
81	0x3d56d7ab	0.05245177
82	0x3d46dd78	0.048551053
83	0x3d424839	0.04743216
84	0x3d5ab13f	0.05339169
85	0x3eaf6d30	0.3426299
86	0x3daf49c5	0.08558992
87	0x3d65139b	0.0559269
88	0x3d8c18e9	0.06840689
89	0x3d576b9e	0.052592866
90	0x3c872da7	0.01650126
91	0x3d6a2e6c	0.057173178
92	0xbdfd16ae	-0.123578414
93	0x3d368500	0.044560432
94	0x3d2e3f2c	0.042540714
95	0x3d835e78	0.06414503
96	0x3d9e3dcb	0.0772663
97	0x3d463b9a	0.048396684
98	0x3d4cc8b3	0.04999609
99	0x3d58d590	0.052938044
100	0x3d5d8d6e	0.054089956
101	0x3d949969	0.07255823
102	0x3d8a9ead	0.06768546
103	0x3d51e967	0.05124798
104	0x3d4fac06	0.050701164
105	0x3edae079	0.42749384
106	0xbd844271	-0.06457985
107	0xbc13a5bd	-0.009011683
108	0x3cf60418	0.030031249
109	0x3da509fa	0.080585435
110	0x3d6bc35c	0.057559356
111	0x3d4a06fb	0.049323063
112	0x3d37c525	0.044865746
113	0x3edd3054	0.43200934
114	0x3d62c8b3	0.055367183
115	0x3cf1809b	0.02948027
116	0xbc20d100	-0.0098154545
117	0x3d44584e	0.047935776
118	0x3d3fe201	0.046846393
119	0xbbfd121c	-0.007723106
120	0x3edd9964	0.4328109
121	0x3d47226f	0.048616823
122	0xbbbd9113	-0.0057851165
123	0x3d45b30e	0.048266463
124	0x3d6111bf	0.054948565
125	0x3d6fce5c	0.05854641
126	0x3eca9e80	0.3957405
127	0x3d53895b	0.051644664
128	0x3d62d3db	0.055377822
129	0x3d628e87	0.055311706
130	0x3db6b1b3	0.08920612
131	0x3d9e2500	0.07721901
132	0x3d5e551f	0.054280397
133	0x3db2ea68	0.08736116
134	0x3d7bc16d	0.061463762
135	0x3d3e4f52	0.046462364
136	0x3daa31f8	0.08310312
137	0x3ce6ca42	0.028172616
138	0x3d5a3ac0	0.053278685
139	0x3d4b9f65	0.049712557
140	0x3e8f3754	0.279719
141	0x3ee312bc	0.4435023
142	0x3e6edd6e	0.23326656
143	0x3ace9813	0.0015761874
144	0x3d9cba52	0.07652725
145	0x3ed01f89	0.4064906
146	0xbbf485d0	-0.0074622408
147	0x3cd96f3f	0.026542304
148	0x3ec32ff1	0.38122514
149	0x3d6f6880	0.05844927
150	0x3ee215db	0.441573
151	0x3d5c2bfa	0.053752877
152	0x3d51751a	0.051137067
153	0x3d7fb02a	0.062423863
154	0x3ef90655	0.48637643
155	0x3d6321ca	0.055452146
156	0x3d5196f2	0.051169343
157	0x3d573a80	0.052546024
158	0x3e835483	0.25650415
159	0xbb8d1677	-0.0043056565
160	0x3d938bc8	0.072043955
161	0x3ed88858	0.42291522
162	0x3d6c7d7c	0.05773686
163	0x3d9be2e2	0.07611634
164	0x3d5fabb4	0.05460711
165	0x3ebe59e0	0.37177944
166	0x3d6346b4	0.05548735
167	0x3d740685	0.05957653
168	0x3d6cbd71	0.057797853
169	0xbc8ddd04	-0.017317303
170	0x3d4eaa45	0.05045535
171	0x3d32f45a	0.043690063
172	0x3d77b9d3	0.06047995
173	0x3d6c8a52	0.0577491
174	0x3d210fbb	0.039321642
175	0x3d1c2e68	0.038130194
176	0x3e5fd633	0.21859054
177	0x3d16bd27	0.036801483
178	0x3d46e509	0.04855827
179	0x3ed91988	0.4240229
180	0x3e6213ee	0.22077915
181	0x3d556d53	0.052106213
182	0x3d369510	0.04457575
183	0x3d2ed7e6	0.042686366
184	0x3d50d117	0.050980654
185	0x3d9dd40d	0.07706461
186	0xbc1d304f	-0.009594037
187	0x3ca529a0	0.02016145
188	0x3d4fe195	0.05075224
189	0xbc1e8dea	-0.00967739
190	0x3d358202	0.04431344
191	0x3ebf6248	0.3737967
192	0xbccfef0c	-0.025382541
193	0x3d3c8c70	0.04603237
194	0x3d57c65a	0.052679397
195	0x3d5ea3e3	0.054355513
196	0x3d5946f9	0.0530462
197	0x3e78f489	0.24312033
198	0x3d49605d	0.049164165
199	0x3d9ff953	0.07811227
200	0x3db70775	0.08936969
201	0x3d5392d6	0.051653706
202	0x3eac4438	0.33645797
203	0x3db5826f	0.08862769
204	0x3dbe0dd0	0.09279978
205	0x3d537b86	0.051631473
206	0x3d62d4de	0.055378787
207	0x3cffd71b	0.0312305
208	0x3d55509a	0.05207882
209	0x3db59451	0.0886618
210	0x3d54ea5f	0.051981326
211	0x3d4768f9	0.048684094
212	0x3d7023c4	0.05862786
213	0x3ed91de7	0.42405626
214	0x3d5ede86	0.054411434
215	0x3d35d7c5	0.044395227
216	0x3ecaf162	0.39637285
217	0x3d5e0c8d	0.054211188
218	0x3d4d8689	0.05017713
219	0x3d476240	0.048677683
220	0x3d553b3d	0.052058447
221	0x3d5c1649	0.05373219
222	0x3d5cc088	0.05389455
223	0x3d859b5d	0.06523774
224	0x3c5762dd	0.013146129
225	0x3d67b446	0.056568407
226	0x3e77374a	0.24142185
227	0x3d2f8240	0.042848825
228	0x3db2c229	0.08728439
229	0x3f0ad64d	0.5423325
230	0x3dac3165	0.08407859
231	0x3e84b9cc	0.25923002
232	0x3d831e88	0.06402308
233	0x3d508be1	0.05091465
234	0x3d6330c0	0.055466413
235	0x3d4d6ed4	0.050154522
236	0x3d7a3d69	0.06109372
237	0x3d57c2aa	0.05267588
238	0x3d4a2b59	0.049357746
239	0x3d11cd3e	0.035596125
240	0x3daf5153	0.08560433
241	0x3d709aca	0.05874137
242	0x3d43d4a9	0.04781023
243	0x3f113c7f	0.56732935
244	0x3db61193	0.08890071
245	0xbc89a8f4	-0.016804196
246	0x3d5b514c	0.053544328
247	0x3d56cef1	0.05244345
248	0xbe19a0ae	-0.150027
249	0x3ecdc210	0.4018712
250	0x3ed9666a	0.42460948
251	0x3d913885	0.07090858
252	0x3d2edbaa	0.042689957
253	0x3d14e860	0.036354423
254	0x3d8fdba9	0.07024319
255	0x3d84671e	0.064649805

last.weight f4 [1, 256]
0	0xc02e323b	-2.7218158
1	0x3ec3ed34	0.3826691
2	0xc02005af	-2.500347
3	0x3ed84cd7	0.42246124
4	0x3ec8d1fb	0.39222702
5	0x3ed85662	0.42253405
6	0x3ed9123e	0.4239673
7	0x3ec8f930	0.39252615
8	0xc034a237	-2.8224008
9	0x3bdcc8c9	0.0067378026
10	0x3ee3e3cd	0.44509736
11	0x3f3419bd	0.70351774
12	0x3f544db8	0.8293109
13	0xbfd76b99	-1.6829711
14	0xbf966647	-1.1749963
15	0x3ec84e62	0.391223
16	0x3f1a9981	0.6039048
17	0x3ee9377a	0.45550138
18	0x3f290b2f	0.6603269
19	0x3fc942ea	1.5723546
20	0x3eebd947	0.46064207
21	0x3ebf2e5d	0.3734006
22	0xbfd481c6	-1.6602104
23	0x3ed4454d	0.41459122
24	0x3ecaa8db	0.39581951
25	0x3ec3ed93	0.38267192
26	0x3ee995e6	0.45622176
27	0x3ec9b34c	0.39394605
28	0xbf833d14	-1.0253015
29	0x3ed86563	0.42264852
30	0xc00f4754	-2.2387285
31	0x3ec8b4b1	0.39200357
32	0xc0197e71	-2.3983424
33	0x3ed70d02	0.42002112
34	0xc0020c49	-2.0319998
35	0xbf8e6fb5	-1.112784
36	0x3ec5ee44	0.38658345
37	0x3ed94103	0.42432413
38	0x3ec8d97b	0.39228424
39	0xc01568f4	-2.3345308
40	0x3ed92f7b	0.42419037
41	0x3ec9a62b	0.3938459
42	0x3c0a4fac	0.008441847
43	0x3ee037bd	0.43792525
44	0x3ecd2336	0.40065926
45	0x3ec9fba6	0.39449805
46	0x3ed8b741	0.42327312
47	0x3f817881	1.01149
48	0xbf95b181	-1.1694795
49	0x3ecd64fd	0.4011611
50	0xc03c54ad	-2.9426682
51	0x3ed36984	0.4129144
52	0x3ed177f2	0.40911824
53	0x3edcc1b3	0.4311653
54	0x3ec88371	0.39162782
55	0x3ec2724f	0.37977836
56	0x3ed6b856	0.41937512
57	0x3ec93ca4	0.39304078
58	0x3f3a961f	0.72885317
59	0x3ec99ca4	0.3937732
60	0x3ec209ba	0.37898046
61	0x3ec8dd85	0.39231506
62	0x3f4cf8c6	0.800671
63	0xc025daaa	-2.5914712
64	0x3ec78bd9	0.38973883
65	0x3ed452f0	0.41469526
66	0x3ecd6002	0.4011231
67	0x3ecd7f76	0.40136307
68	0xbf9f6672	-1.2453139
69	0x3f3fe751	0.74962336
70	0x3ec96664	0.3933593
71	0x3edbbe7f	0.42918774
72	0x3ee3f551	0.445231
73	0x3ef535ae	0.47892517
74	0x3ed062d6	0.40700406
75	0x3ed5283a	0.41632253
76	0x3ecdcd57	0.40195724
77	0x3fafc8f2	1.3733199
78	0xbf813f1f	-1.0097388
79	0xbfe0fb95	-1.7576777
80	0xbf950966	-1.1643493
81	0x3eca4fdd	0.39514056
82	0x3edac1e1	0.42726043
83	0x3ed9e717	0.4255912
84	0x3ed177d0	0.40911722
85	0xbf873602	-1.0563357
86	0x3ecea4e7	0.40360186
87	0x3ec2e11b	0.38062367
88	0x3b50ec52	0.003187914
89	0x3ed8c3ee	0.42336982
90	0x3f0c9256	0.5491079
91	0x3ecdb3b4	0.40176165
92	0x3fae9bfd	1.3641354
93	0x3ecfa7d7	0.4055774
94	0x3ee0e14f	0.43921897
95	0x3ec43226	0.3831951
96	0x3ec25923	0.3795863
97	0x3eee3489	0.46524456
98	0x3ece2639	0.40263537
99	0x3ed20393	0.41018352
100	0x3ecbf2c3	0.3983365
101	0x3ec76c98	0.38950038
102	0x3ecf0a77	0.40437672
103	0x3eccb5a0	0.3998232
104	0x3ecfddb7	0.40598843
105	0xbf9a05ba	-1.2032998
106	0x3fa3e7e3	1.2805141
107	0x3f450432	0.76959527
108	0x3f03ab0c	0.5143287
109	0x3ecb267a	0.39677793
110	0x3ec3e61a	0.3826149
111	0x3ed1e76e	0.4099688
112	0x3eee3020	0.4652109
113	0xbf82d6fb	-1.0221857
114	0x3edec02f	0.43506
115	0x3f00700a	0.5017096
116	0x3f2383d8	0.6387305
117	0x3ee376bd	0.44426528
118	0x3ee9c0e6	0.45654982
119	0x3f0b046c	0.5430362
120	0xbf8fc9c7	-1.1233453
121	0x3ec814b1	0.39078286
122	0x3f1d0b8f	0.6134576
123	0x3ecfb2be	0.40566057
124	0x3ecd05e6	0.40043563
125	0x3ec6cc46	0.38827723
126	0xbfaee800	-1.3664551
127	0x3edf0228	0.43556333
128	0x3ecaec39	0.3963335
129	0x3ec5dd63	0.38645467
130	0x3ec8d7c0	0.39227104
131	0x3ecccf28	0.40001798
132	0x3ecb6445	0.39724937
133	0x3ec9b79f	0.39397904
134	0x3ec804a6	0.39066046
135	0x3ed3b335	0.41347662
136	0x3eca594d	0.39521256
137	0x3f07d5a3	0.5306036
138	0x3ed91a24	0.42402756
139	0x3ec2b3e1	0.38027862
140	0xc037d7ac	-2.8725386
141	0xbfbe7f58	-1.4882612
142	0xc0362b57	-2.8463953
143	0x3f1ccfca	0.6125456
144	0x3ed0e700	0.4080124
145	0xbf833cad	-1.0252892
146	0x3f2cd500	0.6751251
147	0x3f019530	0.5061827
148	0xc012312f	-2.284252
149	0x3b9340ab	0.004493793
150	0xc01f7205	-2.4913342
151	0x3ed039a8	0.40668988
152	0x3ecba2bf	0.39772603
153	0x3ecade91	0.3962293
154	0xbfbf8b17	-1.4964322
155	0x3ed27a0a	0.41108733
156	0x3ed8c856	0.42340344
157	0x3ee4f200	0.4471588
158	0xbf8a69f2	-1.0813582
159	0x3f31cd54	0.6945393
160	0x3ec1a87b	0.37823853
161	0xbfae6b4b	-1.3626493
162	0x39dd4715	0.00042205365
163	0x3ecb3d06	0.39694995
164	0x3ed3b882	0.41351706
165	0xbf88c2a5	-1.0684401
166	0x3ecc4a73	0.3990055
167	0x3ecfdf62	0.40600115
168	0x3b5c7d26	0.003364393
169	0x3f31996b	0.6937472
170	0x3ecf3807	0.40472433
171	0x3ef134ca	0.47110587
172	0x3eceb3eb	0.40371642
173	0x3ecdf581	0.40226367
174	0x3ef33a7d	0.4750556
175	0x3ef58187	0.47950384
176	0xbfa848f9	-1.314727
177	0x3ef95b02	0.48702246
178	0x3ed1f2d4	0.41005576
179	0xc00bf347	-2.1867235
180	0xbf5c0612	-0.8594676
181	0x3ec9f3db	0.3944386
182	0x3edc4455	0.43020883
183	0x3ef6fb02	0.4823838
184	0x3edb997d	0.4289054
185	0x3eca10de	0.39465994
186	0x3f2a5f6a	0.6655184
187	0x3f07d095	0.53052646
188	0x3ed54955	0.4165751
189	0x3f86c76a	1.0529606
190	0x3eec211c	0.4611901
191	0xbfaa9e39	-1.3329536
192	0x3f629157	0.8850302
193	0x3eec8161	0.46192458
194	0x3ec9ee6a	0.39439708
195	0x3b335c5d	0.0027368285
196	0x3ed97c9c	0.42477882
197	0xc02219ee	-2.5328326
198	0x3ed4fbf2	0.4159847
199	0x3ece413f	0.40284154
200	0x3ecb03ab	0.39651236
201	0x3ed893df	0.42300317
202	0xc01e869d	-2.4769661
203	0x3ecb82c2	0.39748198
204	0x3ecad4f1	0.39615586
205	0x3ede9654	0.43474066
206	0x3ed7c200	0.42140198
207	0x3efbe008	0.4919436
208	0x3ed6adf5	0.41929594
209	0x3ecee228	0.4040692
210	0x3ec9cff2	0.39416462
211	0x3ec4db10	0.3844838
212	0x3ec243d1	0.37942365
213	0xc00c9917	-2.1968439
214	0x3ece7e9f	0.4033098
215	0x3ed4b0e2	0.415412
216	0xbf9a7df2	-1.2069685
217	0x3ecc57b9	0.39910677
218	0x3edb024d	0.42775193
219	0x3edc4611	0.43022206
220	0x3eca9f7f	0.3957481
221	0x3edab96b	0.42719588
222	0x3ec4b956	0.3842265
223	0x3ecc0a77	0.39851734
224	0x3f098f04	0.5373385
225	0x3ecd593b	0.4010714
226	0xbfa026d1	-1.2511846
227	0x3ef9c072	0.48779637
228	0x3ec6da63	0.3883849
229	0xbfb73881	-1.4314119
230	0x3eca7b07	0.39546987
231	0xc023e6c9	-2.560961
232	0x3beeb9c1	0.007285327
233	0x3ed8d3d7	0.4234912
234	0x3ecbaaa7	0.39778635
235	0x3eed911c	0.46399772
236	0x3ec4c7f6	0.38433808
237	0x3edbf6dc	0.42961776
238	0x3ed31692	0.41228157
239	0x3efa4063	0.48877248
240	0x3ecb6bd4	0.39730704
241	0x3ed36f49	0.4129584
242	0x3edf4967	0.4361069
243	0xc02e642f	-2.7248647
244	0x3ec3b4de	0.38223928
245	0x3f378ba6	0.7169746
246	0x3ecd8689	0.40141705
247	0x3ecb1f64	0.39672387
248	0x3f8631ab	1.0483907
249	0xbf8154ef	-1.0104045
250	0xbf8256f4	-1.0182786
251	0x3c7508ee	0.014955742
252	0x3ee3c6b0	0.44487524
253	0x3ef551ad	0.47913876
254	0x3ecff055	0.40613046
255	0x3ec84766	0.39116973
