Soft-Module-main/log/model50_new_5/model_qf_best.pth (torch, 284133 bytes, 5 tensors)

base.seq_fcs.0.weight f4 [256, 16]
00000000: 8641 8cbd fe3c 003d 5f4c 42bd bf43 253c
00000010: 1a54 003d 9ee3 483c f0c3 a6bb 4009 47bd
00000020: de8b 013d 5392 adbd 6e24 fb3c 60ec a13d
00000030: 2416 913d c471 e1bb df0e 5fbd 4d53 013d
00000040: 23e7 1f3c 37bd 223d 2396 36bc 08e3 5a3c
00000050: 70dd 8e3d b248 8d3d de1c 27bd ae4f 09bd
00000060: e6de 283d d9e9 4ebd 8922 973d 96c5 7abc
00000070: fa19 74bd 07ed 013d d85e 9fba 6006 48bd
00000080: 5492 d23b 73ff 71bc ee91 0dbd 1999 cabc
00000090: 1424 5bbb e9ce 623d 60de 2b3c b069 dcbc
000000a0: 9ec3 38bd 1e54 5ebd f38a c63c 9bd1 19bc
000000b0: 8767 84bc 678e 2c3b 6127 97bc 8403 a33c
000000c0: 3124 f8bb 87c6 3f3d 0381 703d bbef 973c
000000d0: 0d1d 993c 8021 a83c d0be 4bbc a012 86bc
000000e0: c676 28bd 539a b0bd 287f 73bc 310c 783c
000000f0: a769 bc3b 9834 25bb 7f59 273d e0ed e23c
00000100: fe50 363d 9e38 1c3a c3d8 7cbb 30a7 bdbb
00000110: 3f71 ac3c 6b04 da3d a032 e0bc 28bf 5c3c
00000120: 86e9 06bd da21 92bc 5344 0b3d d560 783d
00000130: 7f04 28bd 3839 55bd 748c 283d c033 44bd
00000140: 3236 36bd 6bae 943d 3732 7f3c 7503 8dbd
00000150: 712d b53d e3c8 713d a47e 7f3d 1865 843c
00000160: 3680 283d ea10 c5bd 325f bb3d 8b6b b13d
00000170: fa62 70bd a092 1c3d 79ef c7bc 7b66 4bbd
00000180: 9fe9 1a3c d90a d43c 10a0 1d3d 1c82 58bd
00000190: e3d6 f63c 6163 1d3d 60a5 1d3b 286f f93c
000001a0: 0c74 63bd 66b7 d83c f841 1e3d 56d7 bb3d
000001b0: cd77 2c3c a855 f23b bf03 75bc a9e2 69bd
000001c0: d73a 14bd d4a2 573d 7db4 d8bb 58e8 babd
000001d0: d633 a23d 53a3 36bb e86d 603c e09b 7cbb
000001e0: ccfc e63c e3bb 1ebb 4a69 b93b 7f8b 2b3d
000001f0: 0858 263c 52d2 32bd 072f 6c3d ed08 913c
00000200: 9f57 8dbb fe9e 47bc 80a5 a4bd 1c7a 44bd
00000210: a99e 2b3b e3ab 8d3d 1c89 45bd 74b9 753d
00000220: 68c3 cf3c 7e02 c3bd 42c0 0c3d 6041 913c
00000230: b655 9abc 9bbb 0abc 2cf2 af3c 5dec 903c
00000240: 1aae 083d 6075 7d3c 48a2 7f3d 366a 52bb
00000250: 9765 633c 540f c6bc 808b 47bd 60ad 0fbc
00000260: a8fb 2c3d 2f6f 8e3c 7d24 673d 326e 59bc
00000270: afd5 2a3d 49fa 4c3d c10d 2a3d fcc6 85bd
00000280: 8d7b a8bc 3f3b aebc d942 cc3c 593b 953c
00000290: 84f0 a13d 255e 0b3d 9e69 3cbd 72ce 46bd
000002a0: c006 b8bc 8668 5ebd be50 9e3b ae7e 343d
000002b0: 1fda 013d 4549 fabc 98f2 66bd cb69 44bd
000002c0: c6c0 38bd b97d fabc 23e0 0c3d 6850 40bd
000002d0: a1ff 013d fc35 b53b 8a31 11bd 7cb1 183d
000002e0: a4a5 afbc 46f6 12bd cc9e 6b3d 7842 c3bb
000002f0: 2f9f 26bd 3d0b 36bd 9b03 f3bc 1465 07bd
00000300: ff33 40bd 7ae6 f5bc 3963 51bd 6086 a0bd
00000310: 5df4 063d 7f8d 253d f89c 0c3c e07f f03c
00000320: b684 14bd 6a84 cbbd bdeb b43d 4c91 303c
00000330: 8154 8e3b 2d58 bcbc 6d58 56bd 995d 47bd
00000340: 3eaa d23c a0e4 893c ab91 34bc b627 c23c
00000350: dc77 a73d ff61 85bb 48ad bd3c f036 b4bb
00000360: 7606 2f3d 4b6f b1bd 9da5 163d 2c1e c0bc
00000370: 87d7 ff3b cd2a 4bbd 5c1c 0b3d 181e 25bd
00000380: 3c35 323c 398e 1a3d 77cd 613c e2fe 08ba
00000390: 5e6d c13d cffd 053d f2ab 64bd d08c 933c
000003a0: 807a 463a 813e 79bc b344 83bc 5d70 2b3d
000003b0: a518 81bd c2c7 e0bc 55b0 bfbc 533b a1bc
000003c0: fb2d 4ebd e178 48bd b7df 283d 353a 773d
000003d0: 03b7 53bd 399d e7bc 22d6 193d e086 51bb
000003e0: a0b7 13bd 77f7 913c 817b 38bd 5460 55bd
000003f0: 8f31 76bd bee1 c33c dadf 053d 2e0b b6ba
-0.06848435 0.031308167 -0.047436114 0.010086953 0.031330206 0.012261299 -0.0050892755 -0.048592806
0.03162753 -0.08475175 0.03065702 0.07906413 0.07084301 -0.006880017 -0.05445754 0.031573582
0.009759697 0.03973123 -0.011144194 0.0133597925 0.069758296 0.06898631 -0.040799014 -0.033523254
0.041228198 -0.050515983 0.07379634 -0.015305897 -0.059595086 0.031720188 -0.0012159003 -0.048834205
0.006426135 -0.0147703765 -0.034562998 -0.024731206 -0.0033438252 0.055373106 0.01049003 -0.026905864
-0.04510843 -0.05427944 0.024236178 -0.009388353 -0.016162647 0.0026329996 -0.018451395 0.019899137
-0.0075726737 0.04682019 0.058716785 0.01854693 0.01869061 0.020523787 -0.01243563 -0.016366303
-0.041128896 -0.08623185 -0.014861859 0.015139625 0.0057498994 -0.002520835 0.040856835 0.027701318
0.044510834 0.00059593644 -0.0038581348 -0.0057877526 0.021050094 0.10645374 -0.02736789 0.01347331
-0.03293755 -0.017838407 0.034000706 0.06063922 -0.041019913 -0.05205652 0.04114957 -0.047900915
-0.04448528 0.0725983 0.015575937 -0.06885425 0.08846558 0.05902947 0.062376633 0.016161487
0.041137896 -0.09622367 0.091490164 0.0866309 -0.05868814 0.03822577 -0.024406182 -0.04965828
0.009455114 0.025884079 0.038482726 -0.052858457 0.030131763 0.038424853 0.002405487 0.030448511
-0.055530593 0.026454639 0.03863713 0.091719314 0.01052661 0.007395465 -0.014954506 -0.057100926
-0.036188927 0.05264552 -0.0066133128 -0.09126347 0.07920043 -0.0027868345 0.013698079 -0.0038545057
0.028196715 -0.0024220876 0.0056583034 0.04188108 0.010152824 -0.04365761 0.057662036 0.017704451
-0.0043134238 -0.012183903 -0.08039379 -0.047968015 0.0026187098 0.069175504 -0.04822646 0.059991315
0.025361732 -0.0952196 0.03436304 0.017731369 -0.018839698 -0.00846758 0.021477781 0.017690832
0.03336916 0.015469879 0.062410623 -0.0032106764 0.013879201 -0.02417723 -0.048717022 -0.008769363
0.042232186 0.017387 0.056431282 -0.0132709015 0.04170769 0.050043378 0.041517023 -0.06532094
-0.020566726 -0.021268485 0.02493422 0.018216776 0.07907203 0.03402533 -0.045999162 -0.048536725
-0.022464156 -0.0542989 0.0048314026 0.044066124 0.031702157 -0.030552516 -0.0563837 -0.047952455
-0.045105718 -0.030577527 0.03439344 -0.04695168 0.031737927 0.005530117 -0.035447635 0.037278637
-0.021441288 -0.035879396 0.057524487 -0.0059588514 -0.040679153 -0.04444431 -0.029664805 -0.03305538
-0.046924587 -0.030017126 -0.051120017 -0.0783813 0.032947887 0.040418144 0.008582346 0.02935785
-0.036259376 -0.09937365 0.08834026 0.010776829 0.0043435697 -0.022991264 -0.052330423 -0.048673246
0.025715943 0.01683265 -0.011021058 0.023700576 0.08177158 -0.00407052 0.023153916 -0.005499713
0.04273077 -0.086638056 0.036779035 -0.023451887 0.0078076753 -0.049601365 0.033962592 -0.040311903
0.01087695 0.03773329 0.013781897 -0.0005225969 0.09444688 0.032712754 -0.055828042 0.01801148
0.00075713545 -0.015212656 -0.01602397 0.041855205 -0.06303529 -0.027439002 -0.023399511 -0.019681608
-0.05033682 -0.048943404 0.041228976 0.060358245 -0.051688205 -0.028273212 0.03755773 -0.003197126
-0.03606379 0.017818196 -0.045039658 -0.05209382 -0.060105857 0.023911353 0.032684185 -0.001388883

base.seq_fcs.0.bias f4 [256]
00000000: 74af 043e 2c89 113e 7004 163e 0be8 0f3e
00000010: 712b 1c3e 9877 0c3e 9502 0a3e fa43 123e
00000020: fb2d 1e3e a0d5 033e a7a4 123e 13b1 fa3d
00000030: 69f1 143e a255 0b3e 77f8 093e 02ea bd3d
00000040: eaae eb3d c1a2 0d3e ecfa 0d3e 47e5 093e
00000050: e8c9 163e 76c4 123e 5597 f43d ab47 063e
00000060: c521 1a3e 0810 093e 192f 153e cf0b 083e
00000070: 3ff9 0a3e 1fe6 123e 2c4a 0d3e 2d2c 123e
00000080: 585e 123e 6886 0f3e 436c 143e 79f4 f13d
00000090: 5936 1a3e d2f2 023e a089 103e 55da ea3d
000000a0: 2a2c 153e 2465 1d3e c7da 113e bbbe 113e
000000b0: 6393 0f3e 372b 143e 6575 183e f031 213e
000000c0: 7522 133e d3aa 0c3e e2ba 003e 6b40 0b3e
000000d0: 4601 153e f9e0 1e3e 4b33 153e 263b d13d
000000e0: 01d6 043e 0931 173e 587d 113e 497d 093e
000000f0: 5899 113e e440 f53d 322c 0a3e 83a9 1c3e
00000100: 306f 0f3e d050 073e 6477 0a3e 0f26 d13d
00000110: 3a1a 103e 702e 0f3e 7b0f 163e f26b 053e
00000120: 288d 153e f45b 133e 9a4d fb3d 7c23 103e
00000130: 4a92 fd3d 6481 0c3e ba8e 013e 3fb3 083e
00000140: 9204 123e cd32 113e bf94 063e db3b 073e
00000150: 04eb 9a3d 8040 1d3e 92ed 0f3e 907e 0b3e
00000160: ae3e 093e deb7 0b3e 7347 133e ba54 103e
00000170: a166 113e 37ba 0b3e 8bc2 073e dfb3 153e
00000180: cbb5 de3d c576 323e 7841 073e ed00 083e
00000190: 1531 0a3e 9ce2 053e 170e 163e d6f6 193e
000001a0: f060 103e 8932 153e cfc3 0a3e 2ca4 0e3e
000001b0: 21ca 203e 5869 113e 8016 163e 5740 073e
000001c0: 33f6 1b3e 8fb4 003e ccf0 093e d86c 0a3e
000001d0: 8a1d 1c3e 41e8 123e 0d7c 0f3e 3887 0a3e
000001e0: 0d8e 123e a75c 133e 9c6f 113e df0b 0a3e
000001f0: 9cdf 063e f56f 123e 64f3 0c3e a7d5 173e
00000200: 751d 113e 7fc3 103e a863 203e 37a8 0a3e
00000210: e8c7 143e 4187 063e aa2c 113e 3c09 113e
00000220: 5058 183e a254 1e3e b7bd 0a3e 38a8 143e
00000230: 753b 123e 1f7f 093e 2fd6 0b3e b80f 1f3e
00000240: 2148 103e 5bbe 153e b7a7 1a3e 92d0 143e
00000250: 324a 163e bf2f 073e 54c0 103e 88a5 123e
00000260: 0a12 0f3e 7109 153e 76b9 163e d3a8 0f3e
00000270: 2786 ed3d 7c52 053e acd0 123e c73d ca3d
00000280: 22ff 093e 6156 0f3e dbaa 123e 33bc 023e
00000290: 50c2 0f3e 358d 143e 2434 153e f89e 053e
000002a0: fadb 1a3e e286 123e 6f16 0e3e 88c1 003e
000002b0: cc31 0d3e 64d8 0c3e 8f87 1b3e 41e7 163e
000002c0: d303 f13d 14e7 dd3d 4deb 0b3e 0684 103e
000002d0: a255 ea3d 1799 0c3e 20ef 0e3e 8ba1 0e3e
000002e0: 873d 093e 9b95 0d3e e14e 0f3e a25e f43d
000002f0: ffc4 0d3e 0443 023e 28d5 1a3e 05dd 013e
00000300: 3ac2 0b3e 2fbd 153e e9a4 103e 5330 0c3e
00000310: e270 0a3e 69ea 103e 733d 0f3e c5ff 223e
00000320: 775b 133e 5480 123e 7ea9 8c3d f52b 123e
00000330: 1a21 053e e73a 1d3e b175 0d3e 5d04 103e
00000340: 554d f33d 3e23 293e 1355 0c3e ac28 153e
00000350: ec6c 083e 9f83 143e 4e66 123e 9075 043e
00000360: 5e74 f93d cac9 103e 3f81 083e 0cb3 1c3e
00000370: 8223 0d3e c77c 0e3e 0bfe 073e f6cc 1a3e
00000380: 8f93 ae3d 6547 123e c75b 103e 067c 143e
00000390: 7255 183e f569 0c3e 066b 103e f7b3 093e
000003a0: 4740 1f3e f1b1 003e f011 123e 81a7 0b3e
000003b0: e123 ff3d bdc5 153e c270 183e 0d4a 153e
000003c0: 2a19 303e 36ba 0a3e 65d6 073e e24b 1a3e
000003d0: fda8 cf3d 0f3c 0d3e 1b12 1a3e da74 183e
000003e0: 530e 093e b2d2 1d3e 68ff 033e f41b 023e
000003f0: 58cf 1b3e 2f47 0e3e 8956 123e 3f2f 0c3e
0.12957555 0.14212483 0.1465013 0.14053361 0.15250947 0.13717496 0.13477547 0.14283744
0.15447228 0.1287446 0.14320622 0.122408055 0.14545216 0.13606885 0.13473688 0.09273149
0.115079716 0.13831617 0.1386525 0.13466369 0.14725459 0.14332756 0.11942927 0.13113277
0.15051945 0.13385022 0.14568748 0.13285755 0.13571642 0.14345597 0.13797826 0.14274664
0.14293802 0.14016116 0.14494424 0.118142076 0.15059794 0.12787941 0.14115 0.11467425
0.14567629 0.15370613 0.14243613 0.14232914 0.14021067 0.1446961 0.14888532 0.15741706
0.14368613 0.1373704 0.1257129 0.13598792 0.14551267 0.15515508 0.14570348 0.1021636
0.12972261 0.14764799 0.14207971 0.13426699 0.14218652 0.119752675 0.13493422 0.15299039
0.14007258 0.13214421 0.13522106 0.10212337 0.14072505 0.13982558 0.14654343 0.13029459
0.14604628 0.14390546 0.12270661 0.14076036 0.12381418 0.13721234 0.12652102 0.13349627
0.14259556 0.14179535 0.1314268 0.13206427 0.07564357 0.15356636 0.1405547 0.13622499
0.13402817 0.13644359 0.14382724 0.1409482 0.14199306 0.13645254 0.13257806 0.14619397
0.10874518 0.1742812 0.13208568 0.13281603 0.13495286 0.13074726 0.14653812 0.15035567
0.14099479 0.14570059 0.13551258 0.13929814 0.15702106 0.14200342 0.1465702 0.13208137
0.15230636 0.12568878 0.13470763 0.13518083 0.15245643 0.1434641 0.14012165 0.13528144
0.14312 0.14390813 0.14202732 0.13481091 0.13171238 0.1430052 0.13764721 0.14827596
0.14171393 0.14137076 0.15663016 0.13540731 0.14529383 0.13137533 0.14177194 0.14163679
0.14877439 0.15461972 0.13548933 0.14517295 0.14280494 0.13427399 0.13655923 0.1553334
0.14090015 0.14623396 0.1510304 0.14532688 0.14676741 0.13201807 0.14135867 0.14320958
0.13971725 0.14554383 0.14719185 0.14029245 0.11597853 0.13019747 0.14337415 0.09875064
0.13476232 0.13997795 0.14322989 0.12767105 0.14038968 0.14506991 0.14570671 0.13048923
0.15122977 0.14309266 0.13875745 0.12573826 0.13788527 0.13754421 0.1518843 0.14736654
0.117683075 0.1083509 0.13663979 0.14112863 0.114421144 0.13730274 0.13958406 0.13928811
0.13402377 0.13826601 0.13994934 0.11932112 0.1384468 0.12720877 0.15120375 0.12681969
0.1364831 0.14622949 0.14125408 0.13690309 0.13519624 0.1415192 0.13988285 0.15917881
0.1439036 0.14306766 0.068682656 0.14274581 0.13000908 0.153545 0.13814427 0.14064164
0.11879984 0.1651735 0.13704328 0.14566296 0.133228 0.14503334 0.14296839 0.12935472
0.121803984 0.14139476 0.13330553 0.15302676 0.13783076 0.13914786 0.13280503 0.15117249
0.08524238 0.14285047 0.1409751 0.14500436 0.14876345 0.13712294 0.14103326 0.13447557
0.15551864 0.1256788 0.14264655 0.13638116 0.12458015 0.14626212 0.14886764 0.1457903
0.171971 0.13547596 0.13265379 0.1506801 0.10139654 0.13792442 0.15045969 0.14888325
0.1338437 0.15412405 0.12890399 0.12705976 0.15215814 0.13894342 0.14290823 0.13689898

base.seq_fcs.2.weight f4 [256, 256]
00000000: f653 a43d 1a1d 863d cf43 e73c fb95 b8bb
00000010: 182a 6d3d 8017 873d 34c8 493d 5434 cfbc
00000020: 88ca 1f3c 5ffd baba da3b b03d 8bd2 133d
00000030: 2e9e 5f3d f234 71bc be50 6e3d 91d9 14bd
00000040: 4508 b6bb 257c 3e3d b456 20bb b586 9e3c
00000050: c101 1dbb 8227 7e3a 3ace 86bc 22d5 09bd
00000060: a3fd 94bb df6d f43c 0009 f53b bae8 5b3d
00000070: 33f3 1f3d bd51 953d 8dcf 9a3d f117 a13d
00000080: 9701 093d 00cb c0bc bb44 6a3d 30ef 0c3d
00000090: 6eb4 9b3d 9ff6 e2bc da71 213d 0c5f 55bc
000000a0: 9aa0 c3bc 6cc0 a23d c566 c93c 9d34 113c
000000b0: 0ba0 f8bc 1883 80bc 6451 603d 0175 a83d
000000c0: 71fb 153d ae6c 4b3d f59f 00bd cb55 b93d
000000d0: 3e5a bb3d 2e22 573d 9acb d03c a876 19bd
000000e0: 99fe 643d 7377 3cbb 1cef 9c3d 45aa c9ba
000000f0: e2e5 443d c7de 863d d1b5 213d 02e4 943d
00000100: 79a5 9d3d a5df b93d db2b 7cbb 84a2 94bb
00000110: d73a 0b3d 8657 953d 062e 15bc 2be7 08bd
00000120: bdcc a3bc e401 513d 24bc 5c3d 831a f1bc
00000130: b69a e43c dcab 3d3c 27b6 873d 3381 4f3d
00000140: 0fc0 0bbd 5062 873b 8eaf e3ba b48d 513c
00000150: 0f92 debb baa8 b8bb f73b b1bb fc99 1d3c
00000160: 00cf 6a3b 47e0 be3c 5aa3 a93d eef1 993d
00000170: b9e3 333d e663 973d 357a c13c 0e11 e1bc
00000180: 4370 02bd 78eb 343d 0649 983d 2bfc 923b
00000190: b3fd f33c b95c 893d 49c1 64b9 2665 743d
000001a0: c100 4e3d b5be 5dbb e42a cc3c 720c c5ba
000001b0: 7e63 5b3d 6b42 f1bc ae6f 1f3d c8fd 803d
000001c0: d51e 2e3b b5c2 b53c 3bf1 9d3d e0a7 893c
000001d0: 03ea 233c 9058 993d addd 0bbd 0a45 903d
000001e0: 1576 7d3d 1fc3 213d 978c 953d 2e2d 753d
000001f0: d6f4 5c3d 7210 033d 340e a7bb 453c 113d
00000200: 25da 07bd 0b94 9a3d 3eb9 ca3c 0084 e73a
00000210: f7a7 213d 0e96 703c 671e 4f3d 596c 5d3d
00000220: fd5e f73b 0c79 743c 1e4e ac3d 256f 853d
00000230: 0be5 f539 5a5d ae3d b79e 2e3d b8b3 1e3d
00000240: db8e 4bbc 3abd 1abc a1ba a13d 20ac 0ebb
00000250: 31ac 3c3d 4b35 ad3d 67e4 e9bc ff80 02bd
00000260: bacb e93c 0023 223d e4f4 b1bc fdb0 07bd
00000270: eeec 17bc 51aa 6c3d de92 763c 1c81 b73b
00000280: 006c f23c 87c8 8b3d de63 1cbb 6b77 ac3d
00000290: a14c dd3c ce01 883d 665c 40bc 2a1b a53c
000002a0: ed25 993c af86 94bb 7519 8a3d b0c5 823c
000002b0: 05dc f23c 2b64 5d3d 9f0c 2c3d e309 a43d
000002c0: 14b1 bd3c 3068 71bc 03f2 6a3c d70d 383d
000002d0: d4e5 13bd 6c4a edbc af67 de3b d7b9 a53d
000002e0: 5734 0a3c a77b 803d 6c70 253d 4204 de3b
000002f0: c01a 503c b273 c0bc 8372 c53d 655d 93bc
00000300: c93a a0bc 43cd a43c 92cf a5bb e5dc f4bc
00000310: a57a 8dbc 2962 3fbc 1e37 833c 0516 8a3d
00000320: 68e4 933c 7760 8a3c c0c3 023d 1c4c 833c
00000330: 933e 5bbc c8f8 6d3d 1a46 b13d b393 133d
00000340: f03e 8b3b e50e ce3d a5ea 053d 0622 0a3d
00000350: f0fa 163d f3d4 e13c f6cb 95bc 56c1 4c3d
00000360: b0dd 6d3d 59db 943c e57d ac3d d182 713d
00000370: 1d72 90bc 1249 1ebb e54b 00bd 9e5f 893d
00000380: 9359 20bb 723c 973d 399d 2a3d 4bbc 75bc
00000390: f22a 043c 1b9b df3c 385a c3bc 7c48 903d
000003a0: c378 453d 7e5a a53b bfc0 01bd 8f97 953d
000003b0: 1c83 99bc 284b 333d a35b af3d efaf b13c
000003c0: e860 3e3d cc90 2d3d 6ead 723d 4581 a63c
000003d0: 5cf1 553d 70fc 35bc f5ba 843c 95c2 5e3c
000003e0: 46f2 e03c 1ef5 623d a5b5 353d 903d 5d3d
000003f0: 4eae e7bb acc6 62bc d788 0a3d 72e4 b03d
0.08023827 0.065485194 0.028230576 -0.0056331134 0.05790147 0.06596279 0.049263194 -0.025293507
0.009752877 -0.0014266184 0.08605166 0.03608946 0.05459421 -0.014722096 0.05818247 -0.0363403
-0.005555185 0.046505112 -0.0024465742 0.019351343 -0.0023957344 0.0009695218 -0.016455758 -0.033650525
-0.0045468374 0.029837547 0.0074778795 0.053688742 0.039050292 0.07290981 0.075591184 0.078658946
0.03344878 -0.023534298 0.057194453 0.034407794 0.076027736 -0.027705489 0.039415218 -0.013023149
-0.023880292 0.07946858 0.024585137 0.008862642 -0.030349752 -0.01568751 0.05476512 0.08225442
0.036616746 0.049664192 -0.031402547 0.09049567 0.09148072 0.05252283 0.02548771 -0.037466675
0.055906866 -0.002875772 0.07662794 -0.0015385827 0.048070796 0.0658546 0.039480034 0.072700515
0.07697577 0.0907586 -0.0038478288 -0.004535975 0.03399166 0.072920844 -0.009105211 -0.033423584
-0.019995088 0.051027194 0.053890362 -0.029431587 0.027905803 0.011576619 0.0662654 0.050660323
-0.03411871 0.004131593 -0.0017371045 0.012790132 -0.006792314 -0.005635348 -0.0054087597 0.009619232
0.0035828948 0.023300303 0.0828311 0.075168476 0.043918345 0.07392101 0.023617843 -0.027473953
-0.031845342 0.044169873 0.07435803 0.004485627 0.02978406 0.067071386 -0.00021815779 0.059666775
0.050293688 -0.0033835594 0.024922796 -0.0015033616 0.05356168 -0.029450616 0.038924865 0.06298405
0.002656867 0.02218757 0.07712027 0.016803682 0.010004523 0.07487595 -0.034146953 0.07044418
0.06188019 0.039492723 0.07302206 0.05985754 0.05394443 0.031998105 -0.0050981287 0.035457868
-0.033167023 0.07547768 0.024746533 0.001766324 0.039466824 0.014684213 0.050566103 0.054058407
0.0075491653 0.014921438 0.08413337 0.0651534 0.00046900692 0.08513899 0.04263183 0.038745612
-0.012424196 -0.009444529 0.07896925 -0.0021770075 0.046062652 0.084574305 -0.028551294 -0.0318613
0.028539527 0.03958416 -0.021723218 -0.033127774 -0.009272797 0.057779614 0.015049664 0.005600108
0.029592514 0.06825357 -0.0023863236 0.08421215 0.027014079 0.06640969 -0.0117407795 0.020154554
0.018694842 -0.004532657 0.06743137 0.015963405 0.02964593 0.054050606 0.042004224 0.08009698
0.023155726 -0.014734313 0.014339927 0.044935074 -0.036107853 -0.028966151 0.0067872624 0.08092087
0.00843533 0.06273585 0.040390417 0.00677541 0.01270169 -0.023492668 0.09640982 -0.01798887
-0.019559281 0.020117408 -0.0050601447 -0.029890487 -0.017270396 -0.011681118 0.016017493 0.06742481
0.018053249 0.016891701 0.031924963 0.016027503 -0.013381618 0.058098584 0.08655949 0.03602953
0.004249446 0.10061435 0.032694478 0.033723854 0.036860406 0.027567362 -0.018285733 0.049989067
0.058072746 0.018171 0.0842245 0.058962647 -0.017632538 -0.002415244 -0.03132238 0.06707691
-0.0024467453 0.07384576 0.041653845 -0.014998506 0.00806688 0.02729564 -0.02384673 0.07045075
0.04821087 0.005046188 -0.031677958 0.07304298 -0.018739276 0.043772846 0.085624 0.021690337
0.046479136 0.042374417 0.059247427 0.020325312 0.05223213 -0.011107549 0.01620243 0.013596197
0.027459275 0.055409543 0.044362683 0.05401379 -0.0070703393 -0.013841312 0.033821907 0.086373225

base.seq_fcs.2.bias f4 [256]
00000000: fc2a fe3d 6f81 be3d 357f c03d 8146 c33d
00000010: c818 c63d 96fb f63d dfeb c33d 0906 083e
00000020: eb42 c33d c93f 0b3e de2c 093e 56a4 ee3d
00000030: 18f0 bf3d 0b5e 013e b304 e33d 9e72 f63d
00000040: 16cb c23d b888 043e 6efd c43d 88ec bd3d
00000050: 431e 0c3e 79e3 f53d a4b0 c63d 9515 063e
00000060: cbd2 023e db6c bd3d f16b ed3d f931 c63d
00000070: e42a 073e 75ec 003e fe0c 023e 0344 b83d
00000080: e1e1 053e 72d0 bf3d e125 f13d 59f9 073e
00000090: 82dc f23d b602 ba3d 8eba ed3d c663 fd3d
000000a0: a2c8 bc3d 0031 063e 13fa c83d 5ba9 bc3d
000000b0: c925 023e de63 c03d 8ea2 013e bb61 073e
000000c0: cdcc cc3d 5f75 0a3e 76ce f93d 7d83 b73d
000000d0: f052 be3d 58e0 0d3e 92fd c33d 3511 023e
000000e0: 40a2 c63d cbfb bf3d d1e1 093e a494 e63d
000000f0: 45a9 083e 4787 bd3d f185 d53d 1d32 bc3d
00000100: ffc9 0b3e 6b78 f63d 8177 083e de6f bc3d
00000110: 7e6f c53d dfca bd3d 97ba 083e 98b6 ed3d
00000120: 49a2 c03d 2139 c03d ff8b e83d c974 003e
00000130: 902f bf3d 7a76 bb3d 9119 013e fe76 bc3d
00000140: 1664 f83d 3c4d 073e d29a 063e b707 c43d
00000150: 240e bf3d 25d2 c13d e684 fd3d 5e0b 063e
00000160: 0a74 bc3d 7379 bf3d 0a3a c23d 01ed 023e
00000170: 3507 e73d d60e c13d 283a fb3d eaaf c33d
00000180: 7a14 c23d 633d f23d 3ad9 003e a736 093e
00000190: 087b 0e3e 7df6 bc3d f986 013e db2b 0e3e
000001a0: f56f 053e 882f c53d e1f1 c03d 8e86 c73d
000001b0: d1b2 c33d cfc8 bd3d 1aca ff3d 6404 003e
000001c0: c3fa c23d 5116 c03d 01d2 023e 1940 083e
000001d0: f8a5 c93d 0fd8 f83d 5239 c93d 0d21 c93d
000001e0: ee5d c03d f811 073e 0ef0 c03d b510 0d3e
000001f0: 3476 053e 2def c33d 5410 c83d af7e ec3d
00000200: e197 bf3d 50e0 c43d fba0 063e 1515 113e
00000210: fa7c 053e 18c7 c53d cc2a f93d de7c c23d
00000220: e448 c03d 8d64 ee3d 7c45 fe3d fd98 c53d
00000230: 2621 c73d 429c 113e 2f92 fc3d 8650 c13d
00000240: 8e89 c73d f3fc be3d a484 be3d 7dcf bb3d
00000250: d3c2 c43d de01 f83d 861c c43d d5cd bd3d
00000260: 8409 c13d 6d40 bf3d 463d c43d d902 bb3d
00000270: 4940 063e 596d b83d 9742 be3d 08c2 063e
00000280: a687 c63d b2da f43d b441 be3d 1e68 f43d
00000290: f71e 0f3e 4053 0e3e be5f 0d3e 3237 bb3d
000002a0: 39b3 113e 9ee1 003e be46 043e 0f88 c13d
000002b0: 17e7 c03d 3381 0e3e 0d96 fc3d 27f8 c03d
000002c0: 39d5 053e 5562 033e 617a f13d 144c c03d
000002d0: a844 083e a2b2 bb3d 1ecb cc3d 7bea be3d
000002e0: 5f54 073e 8594 c53d 4ba6 023e ec16 c33d
000002f0: 8a20 c83d dd8c c73d 016a 013e 73c5 073e
00000300: cc24 013e 1a1a 033e 74c8 003e 08f7 003e
00000310: 5efd c23d 2096 c03d 0420 033e 2c05 003e
00000320: 4701 fd3d 378e c53d f753 f73d bee3 0b3e
00000330: a19b c23d 5e95 f53d f432 f13d 04f2 f93d
00000340: cdcc cc3d 66ec fe3d 935e 003e d4e5 be3d
00000350: d056 bd3d f231 003e 0946 fa3d 0578 053e
00000360: e637 ba3d bf6d 063e 9d60 0c3e 980e b63d
00000370: bf1c c03d 5315 f93d 5e1f f43d 2711 0a3e
00000380: 58ef c43d 90f0 f23d 04bf f93d 33ec 093e
00000390: eae7 d83d e2d7 bc3d a8d5 f13d e60c c03d
000003a0: fea7 c53d e08b 003e 3c4c c53d fabe c73d
000003b0: e6c1 c73d 813f 053e ecbd bb3d ade5 bd3d
000003c0: 0fdc c33d 0235 be3d 54e3 fd3d 415c cd3d
000003d0: 5429 c43d 7775 013e 8e7c 053e 1b69 f33d
000003e0: 0c07 ff3d 4058 0b3e de25 bf3d 0c4e ef3d
000003f0: fdd8 f33d defe f63d 8bc0 053e 3aa1 c63d
0.12410542 0.09302031 0.09399263 0.09534932 0.096726954 0.12059705 0.09566473 0.13283552
0.09534248 0.13598551 0.13396022 0.11652438 0.09371966 0.12633531 0.11084881 0.1203358
0.09511392 0.12942779 0.096186504 0.092736304 0.13683419 0.120062776 0.0970166 0.1309417
0.12775724 0.09249278 0.11592854 0.096775 0.13199955 0.12590201 0.12700269 0.08997347
0.13074447 0.0936593 0.11774803 0.13278712 0.11858465 0.09082548 0.11607848 0.12372546
0.09217955 0.1310463 0.09813323 0.092119895 0.12709726 0.09394048 0.12659666 0.13220875
0.1 0.13521336 0.121975824 0.08960626 0.09293163 0.13855112 0.09569849 0.12701876
0.096989155 0.093741976 0.13465048 0.1125882 0.13345821 0.09254318 0.10425938 0.09189246
0.13651274 0.12034687 0.13326837 0.092010245 0.09640406 0.0926721 0.13352428 0.116070926
0.094059534 0.093858965 0.11354827 0.1254455 0.09335244 0.09153457 0.12607409 0.092023835
0.12128465 0.13213056 0.13144997 0.09571784 0.09328869 0.0946391 0.12378864 0.13090274
0.0920182 0.093493365 0.09483726 0.12785722 0.112806715 0.09426658 0.12266952 0.09555037
0.09476562 0.11828115 0.12582865 0.13399754 0.1391412 0.092267014 0.12649144 0.13883917
0.1303099 0.096282065 0.09421135 0.09742461 0.09555591 0.09266817 0.1248972 0.12501675
0.09520485 0.093792565 0.12775423 0.13305701 0.09846109 0.12150585 0.09825386 0.09820757
0.09392916 0.13190448 0.09420787 0.13775904 0.13033372 0.095671035 0.09768739 0.115476005
0.093551405 0.09613097 0.13147347 0.14168198 0.13035956 0.09657115 0.12166366 0.09496473
0.09388903 0.11640272 0.12415597 0.09648321 0.097231194 0.14219764 0.1233257 0.09439187
0.09743033 0.0932559 0.09302643 0.091704346 0.09607472 0.12109731 0.09575753 0.09267775
0.09425643 0.0933846 0.095819995 0.091314025 0.1311046 0.090052314 0.09290045 0.13159955
0.09693842 0.11955775 0.092898756 0.11933921 0.13976656 0.13898945 0.13806054 0.09141387
0.14228524 0.12586066 0.12917611 0.09449779 0.09419077 0.13916473 0.123333074 0.09422331
0.13069619 0.1283048 0.1179092 0.09389511 0.1330744 0.09164931 0.09999679 0.09322067
0.13215779 0.096474685 0.12758748 0.095258564 0.09771831 0.097436644 0.12638094 0.13258915
0.12611693 0.12802926 0.12576467 0.12594235 0.09520982 0.09403634 0.12805182 0.12501973
0.12353759 0.09646266 0.12076562 0.13661095 0.0950234 0.1199138 0.11777297 0.12204364
0.1 0.12447433 0.12536077 0.0932118 0.09245074 0.12519053 0.122203894 0.13034065
0.09092693 0.13127802 0.1370873 0.08889502 0.09380483 0.121622704 0.11920045 0.13483106
0.09615964 0.1186229 0.121946365 0.13469009 0.10591109 0.09220864 0.1180833 0.0937746
0.096511826 0.12553358 0.09633681 0.09753223 0.0975378 0.13012506 0.09167084 0.09272323
0.09563457 0.09287454 0.12396875 0.10027362 0.09578195 0.12642466 0.13035795 0.11885282
0.12452516 0.13607883 0.093333945 0.11684808 0.119066216 0.12060331 0.1306173 0.0969872

last.weight f4 [1, 256]
00000000: 3f16 d83c 2476 f8ba 9262 2dbb cda5 9aba
00000010: ccb0 f6ba 1ea6 c63c e7ef 48bb 7779 083d
00000020: 559e f2ba b733 243d e7a0 1d3d f4fa a93c
00000030: 87b8 38bb fee4 e03c 89b2 803c 9072 ca3c
00000040: ce83 d4ba 68f8 103d e1a2 26bb 5a8a 1bbb
00000050: 1668 233d 867b c33c 32ea e038 0d1b 063d
00000060: 3bcf e03c 5f20 1bbb 3e88 a93c 1093 1cbb
00000070: 2241 f93c a589 083d 0f07 133d cb94 6aba
00000080: a4c8 123d ac01 39bb b627 b13c 93ff 033d
00000090: bd1d bc3c 2f94 13bb 92d6 a33c e621 d43c
000000a0: 4e3e 133a a73f 213d 8233 1d3b 1085 e7ba
000000b0: aa35 e43c cdcc 0abb 4703 e63c 3ece 033d
000000c0: e3d5 7c3a 0981 2a3d 9424 c53c e308 b7ba
000000d0: 4d23 1ebb 4184 333d ba2d 0ebb f0a7 e43c
000000e0: 4cc8 42ba e303 2dbb 1b4e 153d 1d97 9d3c
000000f0: f876 0d3d b643 0fbb a013 003c 1b3f ebba
00000100: 9340 353d 02ce bd3c 23b5 063d e88f 29bb
00000110: 84f5 1bbb 0b12 b9ba 2a73 1b3d 94a5 a33c
00000120: a3d7 1cbb f1e3 26bb 1793 9e3c 3d8b e03c
00000130: 7b93 2abb 93fc 25bb e4a3 e43c 8ff8 20bb
00000140: fa1b c63c 816a 0c3d 3951 2a3d 6436 12bb
00000150: 43ef 35bb e322 a9b9 c7ab ee3c aeaf 083d
00000160: 5a13 95ba b327 34bb 0a6f 15ba 2a7b e43c
00000170: 8729 963c e3aa 27bb 7cb7 d33c 6f8f 2ebb
00000180: ef42 63b8 0752 9c3c 59c3 103d cb63 0d3d
00000190: 8633 403d f953 23bb 9a48 033d 0bec 433d
000001a0: 7136 023d f6b4 38bb 04f0 23ba f580 c7ba
000001b0: 57cc fdba 8059 1fbb 2f74 ec3c 863a 033d
000001c0: 159f 2ebb 6500 0d3a b946 ef3c 1401 0a3d
000001d0: c03e 4fbb 8bf3 f23c d628 863a 59d7 e2b9
000001e0: ec82 8ab7 6385 fb3c eeff 33bb c59a 3a3d
000001f0: 9981 053d 3aa0 aa3a b560 0aba ae5d ad3c
00000200: 676d f3ba 9510 0fbb a2b6 043d a662 543d
00000210: 50e4 043d d4d5 b1ba 5711 cc3c 997f 3abb
00000220: 682c 16bb fcb0 b83c b0cc 043d db05 6bba
00000230: 798d 20bb 2aef 473d a08e 003d 32ee 29bb
00000240: 04cd adb9 a393 1ebb 660c 32bb 848c d9ba
00000250: 47a3 22bb 94ea cd3c 1bf5 96ba d448 19bb
00000260: 8990 11ba 9097 ffba 505a b3ba 7032 08bb
00000270: d6ea 083d 3a51 1cbb c870 30bb 78eb 053d
00000280: 6884 2ebb b341 cb3c 261b 97ba 1d25 c83c
00000290: 3ff8 383d fce0 2c3d 705d 333d 9d1b 1cbb
000002a0: 2169 4c3d 5b73 043d 4065 033d 77e8 bfba
000002b0: 9f45 45bb 76e6 3e3d e91a d93c ae1a 1dbb
000002c0: 497b 1a3d 99c2 f63c 1e97 c43c d3e3 0fbb
000002d0: 4141 0b3d 0abf 22bb 8f62 b53a e156 2bbb
000002e0: 1bd1 fb3c c717 3aba 7c66 f73c 27ba 4bbb
000002f0: cdd3 88bb 83cc 80ba 126f 053d 3b75 063d
00000300: 0548 d93c 7e91 ff3c 0aa4 da3c d19a fd3c
00000310: 8e5b 15bb 9ca5 3bbb 58f5 f83c 656d f13c
00000320: 4229 e23c ba48 26bb d81a e53c e309 4a3d
00000330: 4446 d0ba 2e5d c73c 1c17 cf3c acc4 db3c
00000340: c0a7 2c3b 48d5 e33c 582f d33c 688b 22bb
00000350: 44fe c8ba dc50 e33c ba80 023d 1361 ff3c
00000360: 5d88 9eba d247 0d3d 79fe 273d 1caa a0ba
00000370: 1f2c e5ba be22 b63c 2ab2 cd3c 3e16 303d
00000380: 26e4 dcba c3a6 bc3c bf23 c83c 2495 0c3d
00000390: 38ed 313c 4dcb d9ba 8144 be3c b15c 05bb
000003a0: 941b 1cbb b430 dd3c 9b0f 11ba c5d2 e53a
000003b0: efc6 a9ba 3603 023d 202f 20bb 1505 acba
000003c0: edc1 e639 3f6d 2ebb bb9c d93c 3e1d 413a
000003d0: bc87 1abb 19e9 f63c 734b 0b3d 07c4 b63c
000003e0: e0d2 eb3c 5a11 333d 7ff5 31bb 92bd ab3c
000003f0: e5bf c53c f131 c03c c53a f93c 6b23 0b39
0.026377795 -0.0018956107 -0.0026456458 -0.001179868 -0.0018821 0.024249133 -0.003066057 0.033318963
-0.0018510321 0.04008838 0.038483527 0.020749547 -0.0028186159 0.027452942 0.015710132 0.02471283
-0.0016213597 0.03539315 -0.0025426673 -0.0023733587 0.039894186 0.023862612 0.000107247746 0.03274064
0.027442565 -0.0023670418 0.020694848 -0.0023891367 0.030426566 0.033334393 0.035895403 -0.00089485635
0.035835877 -0.0028229756 0.021625381 0.032226156 0.022963399 -0.0022518744 0.019999776 0.02589507
0.0005616889 0.039367344 0.0023987 -0.0017663557 0.02785762 -0.00211792 0.028077735 0.03217911
0.0009644909 0.041626964 0.024065293 -0.001396444 -0.0024129928 0.0438273 -0.0021694736 0.02791211
-0.0007430359 -0.0026400022 0.03645144 0.019237095 0.034537286 -0.0021860427 0.007817179 -0.0017947884
0.044251036 0.023169521 0.03288759 -0.0025873128 -0.0023797462 -0.0014119757 0.037951626 0.019976415
-0.002393224 -0.0025465454 0.019357247 0.027410144 -0.0026027847 -0.0025327548 0.02791018 -0.0024562215
0.024183262 0.034281258 0.041581366 -0.0022310251 -0.002776102 -0.00032260185 0.029134644 0.033370666
-0.0011373565 -0.0027489483 -0.0005700445 0.02789076 0.018330349 -0.0025584034 0.025844328 -0.0026635786
-5.4183354e-05 0.019082082 0.035342548 0.034518998 0.046924137 -0.0024921878 0.03205166 0.04783253
0.0317902 -0.0028184033 -0.00062537217 -0.0015220927 -0.0019363266 -0.002431482 0.028863994 0.032038234
-0.0026645113 0.0005378782 0.029208528 0.033692434 -0.0031623095 0.029657146 0.0010235559 -0.00043266526
-1.6511847e-05 0.030703252 -0.0027465778 0.045557756 0.032594297 0.0013017722 -0.00052786927 0.021162834
-0.0018572033 -0.0021829952 0.032400735 0.05185189 0.0324443 -0.0013567754 0.024910612 -0.0028457402
-0.0022914652 0.02254533 0.032421768 -0.0008965411 -0.0024498387 0.04881207 0.031386018 -0.002592933
-0.0003314988 -0.0024196885 -0.0027168035 -0.0016597663 -0.002481656 0.02513627 -0.0011517139 -0.0023389356
-0.00055528485 -0.0019500125 -0.0013683531 -0.0020782016 0.033427082 -0.0023852126 -0.0026922692 0.032695264
-0.0026629213 0.024811601 -0.0011528477 0.02443176 0.04515862 0.04220675 0.04379028 -0.002382017
0.049904946 0.032336574 0.03207898 -0.0014641423 -0.0030101312 0.046606503 0.02650209 -0.00239722
0.03771523 0.030122088 0.02399784 -0.0021955862 0.033997778 -0.0024833106 0.0013838577 -0.0026144313
0.030739358 -0.000709888 0.030200236 -0.0031086297 -0.0041756392 -0.0009826574 0.032576628 0.032826643
0.0265236 0.031197306 0.026689548 0.030957611 -0.0022790167 -0.0028632646 0.030390427 0.029471109
0.027607564 -0.0025372938 0.027966902 0.049325835 -0.0015890081 0.024336424 0.025279574 0.026827179
0.0026345104 0.027811661 0.025779411 -0.002480233 -0.0015334566 0.027748518 0.031861044 0.031174218
-0.0012095083 0.03449232 0.04101417 -0.0012257728 -0.0017484463 0.022233363 0.02510937 0.04298996
-0.0016852662 0.023028737 0.024431108 0.03432192 0.01085978 -0.0016616374 0.023226025 -0.0020349438
-0.0023820149 0.027000763 -0.00055336364 0.0017534128 -0.0012952964 0.031741343 -0.0024442151 -0.0013124073
0.00044013505 -0.0026615409 0.026563993 0.0007366723 -0.002357944 0.030140446 0.0340075 0.02231027
0.028787076 0.04371772 -0.0027154384 0.020964418 0.024139354 0.023461314 0.030423531 0.00013269267
