Soft-Module-main/log/model50_new_30/model_pf_best.pth (torch, 287205 bytes, 6 tensors)

base.seq_fcs.0.weight f4 [256, 12]
00000000: 470a 45bd b222 e03c b9a4 babc 40b0 2abd
00000010: 1101 50bc c103 ff3c 5817 b3bc 5c1a 59bd
00000020: 103a 93bc 9240 21bd 7fca 663c 1eab c8bc
00000030: 1978 45bd 09c3 4bbd 7aef 72bd 28c3 9ebc
00000040: b7cc f23b 1d2b 6f3c 5c19 003d f4d6 ecbc
00000050: b03c dfbc 60b1 f0bc 8737 1abd 3547 a9bc
00000060: 18bd 91bd 0dd5 88bd 737a 383d 6a53 323d
00000070: 65d1 433d 6e9d 9cbc 18c7 333c b843 a7bc
00000080: e86c ba3c 135a 82bd 7e56 2bbd 3af8 d53c
00000090: e048 dabd 31ed 4f3c 17d8 cabd 7988 0c3d
000000a0: 916d 1d3d db41 d23c 8281 543d d024 6d3d
000000b0: 781d 533d 677d 67bc 47db 22bd 557f 81bd
000000c0: 83bf b03d 4588 62bd ddb5 64bd 4df7 4a3c
000000d0: 095f 0bbd 9764 053c c024 00bc 2ae1 043d
000000e0: 70e3 8c3b 96cd 523c 5cc3 14bb 748c 333d
000000f0: bab6 7fbd 3094 c13c 546a 79bd 2d74 e8bc
00000100: ed9c 6fbd cb04 15bd ecd0 ae3c c080 183c
00000110: 126d 54bd 26f9 4d3b 1ebf 73bd 8a8a 5b3c
00000120: f03a dcbd 4b4f 383c 6935 c0bd abf3 6a3d
00000130: 1aae 493c b1fd 62bd be28 0ebd 4cce 38bd
00000140: acb4 1ebd 99bc 4cbd 8b6f 60bd b23b 29bd
00000150: 9314 25bd ca91 39bb 50d9 623c df5b f9bc
00000160: 675c 61bd 663b e63b b043 f6bc 82ac 62bd
00000170: c027 673d 7ee4 49bd 2796 003d b18f 66bd
00000180: 2fba ad3b b1f1 aebc 32c5 fc3c cf44 93bd
00000190: 542a ccbc a2bb 33bd 7096 7ebd c87d c83c
000001a0: 98ce b73c 59f6 5fbd c95c fe3c e2cf 553c
000001b0: 3b01 b0bc a2c1 cf3b 43d0 54bd 7c1e 533c
000001c0: 184b fcbb 9492 5d3d 4061 42bb 6656 493d
000001d0: 6c27 a63c f639 5c3d 5fc6 d9bc bdd9 7c3c
000001e0: dac9 5a3b eb87 a2bc 29be 2e3c 251c 98b9
000001f0: b109 5a3c 871c 513c 30df d93b 7e53 1d3d
00000200: 3644 5a3d a984 35bd 36b7 96bc 6a1b f4bc
00000210: ca4e 03bd de71 21bd 0204 063c 0d73 95bd
00000220: 494c aa3c d675 6fbd 8082 2c3c 1a0b 0e3d
00000230: e493 85bc c6f5 5e3c 0147 b7bc b208 113d
00000240: 0918 793d 8e8e 103c eb28 8a39 6e53 8d3c
00000250: 51dd 8fbd 196d 93bd 3896 63bd 12f9 293d
00000260: c89d 663d cae2 b93c f5fa 123d 94c5 6ebc
00000270: 702b fc3c 9952 873c 842f 64bd 390f b5bd
00000280: 8867 733c 53fb 34bd b8e2 6cbd 3888 3dbc
00000290: c2aa 7a3d 8c5b 2dbd 20ef 83bc 9c78 0fbd
000002a0: 1ce6 66bd 464f 41bd a67a 93bd 2e38 d5bc
000002b0: 2883 093d 4c9d 1bbc 0026 da3a 48d8 c13c
000002c0: 1686 13bd 8f92 96bd 41a1 85bd 820b 363d
000002d0: 975a 60bd 5002 5b3d 309e cbbd f03f 033d
000002e0: 4c2a 44bd d188 fb3c 8874 12bc 1075 153c
000002f0: 44bf d83c e997 8fbc 112f 78bd 1737 a43c
00000300: 3be0 eebb cce9 94bd f808 863c 4a6d a63c
00000310: 21ed 2abd 4fc5 56bc fc4e 803c 70d1 173c
00000320: 1a31 2fbd 6438 2fbc 4e7a 82bb 1c54 053d
00000330: f8ee 99b9 7f30 193d 52e0 d13b eb4d 743c
00000340: 193b 90bd 0843 8bbc e049 6b3b 78ed 2f3d
00000350: b2f1 5abd 7bfe 943c 5b9b 8d3c 89ac 593c
00000360: 3f68 973d 77b1 91bd 7c51 213c 42ff 1bbd
00000370: 3503 cabc cddd ea3b 62e1 48bd 16c9 0f3d
00000380: ea83 75bd 0a90 3abc fce1 48bd 5af2 de3c
00000390: dbcd 90bc 546d 193d 497f 83bc 45b7 f2bb
000003a0: 404e 63bd faf2 26bd b0c4 aa3b 2ef4 2fbd
000003b0: 5c9b 9bbc f195 2fbd 751b 8dbd 6ebb 72bd
000003c0: afa9 93bd 3354 cb3c 0a7f 243c 17a5 f2bc
000003d0: 8a06 4abc 6f31 4ebd 1cf0 cfbc 546d 88bc
000003e0: 7674 023d aa98 313d e939 42b9 510f 6abd
000003f0: a565 80bd 1cad 23bd 4a45 403d a03e b23c
-0.048105504 0.027360294 -0.022783624 -0.04167199 -0.012695567 0.03112972 -0.021861717 -0.053003654
-0.017972022 -0.03936822 0.014086365 -0.024495658 -0.048210237 -0.049746547 -0.059310414 -0.019380167
0.007409658 0.014597681 0.031274185 -0.028911091 -0.027250618 -0.029381454 -0.03765061 -0.020663837
-0.07116145 -0.06681261 0.04503865 0.04353658 0.047807116 -0.019118037 0.010972761 -0.020418033
0.022757009 -0.063648365 -0.041830532 0.02611934 -0.10658431 0.012690828 -0.09904497 0.034309838
0.03843457 0.025666168 0.05188132 0.057896435 0.051541775 -0.014129019 -0.0397599 -0.06323115
0.08630278 -0.055305738 -0.0558375 0.012388063 -0.03402618 0.008141658 -0.007821262 0.032441296
0.0042995736 0.012866398 -0.002269945 0.04383512 -0.06243012 0.023630232 -0.060892418 -0.02837571
-0.058499265 -0.036381524 0.021339856 0.00930804 -0.05186183 0.0031429022 -0.059508435 0.0133997295
-0.10753429 0.011249374 -0.09385187 0.057361286 0.012309575 -0.05541772 -0.034706824 -0.045118615
-0.03874652 -0.04998455 -0.054793876 -0.041316696 -0.040302824 -0.0028315657 0.013845757 -0.030439315
-0.055019762 0.007026124 -0.030061573 -0.055340298 0.056434393 -0.049290173 0.031393196 -0.05628938
0.005301736 -0.021355482 0.030855749 -0.071908586 -0.024922527 -0.043880112 -0.062155187 0.02447404
0.022437379 -0.054678295 0.031050103 0.013050051 -0.021484962 0.0063402215 -0.051956426 0.012885686
-0.0076993816 0.054094866 -0.0029660016 0.04915466 0.02028247 0.053766213 -0.026583849 0.015432772
0.0033384473 -0.019840201 0.010665455 -0.00029012669 0.013307975 0.012763149 0.0066489205 0.038409702
0.053287707 -0.044315968 -0.018397909 -0.029798228 -0.03205756 -0.039415233 0.0081796665 -0.07297335
0.020788329 -0.058461986 0.0105291605 0.034678556 -0.016305871 0.013608402 -0.022372724 0.035408683
0.060813937 0.00882305 0.00026351897 0.017251696 -0.07024635 -0.07198543 -0.05556318 0.041497298
0.056302816 0.02269115 0.035883863 -0.0145734735 0.030782431 0.016518878 -0.055709377 -0.08840794
0.014856227 -0.044184994 -0.057833403 -0.011568122 0.061198004 -0.042323634 -0.016105235 -0.03502713
-0.056371793 -0.04719474 -0.07201128 -0.026027765 0.033572346 -0.009497952 0.0016643405 0.023662701
-0.036016546 -0.073521726 -0.06524897 0.04444457 -0.054773893 0.053469002 -0.09942281 0.032043397
-0.0478919 0.030704888 -0.008938916 0.009122148 0.02645839 -0.017528491 -0.06059176 0.0200458
-0.007289914 -0.07271156 0.016361699 0.020315785 -0.04173005 -0.0131085655 0.015662663 0.009266242
-0.042771436 -0.010694597 -0.003981865 0.032550916 -0.0002936048 0.037399765 0.006404915 0.014911155
-0.07042522 -0.016999736 0.0035902187 0.042951077 -0.053453155 0.018187752 0.017285993 0.0132857645
0.0739293 -0.07113927 0.009846088 -0.03808523 -0.024659732 0.007167554 -0.049043067 0.03510388
-0.059940256 -0.011386881 -0.04904364 0.027215172 -0.017676285 0.03745778 -0.016051905 -0.0074071013
-0.055494547 -0.040759064 0.0052114353 -0.042957477 -0.01899498 -0.042867605 -0.06890003 -0.059260778
-0.07210099 0.024820423 0.010040054 -0.029619737 -0.012330661 -0.050340112 -0.025383048 -0.016653694
0.031849347 0.043358482 -0.00018522855 -0.057143513 -0.06269387 -0.03996001 0.04694108 0.021758378

base.seq_fcs.0.bias f4 [256]
00000000: d25d a03d 1a17 b33d 02e8 bb3d 73cc a33d
00000010: c0f4 b23d 9d52 c43d 51b2 b83d 3187 a83d
00000020: 49c0 ad3d 751e bd3d 54bf b33d 5213 a93d
00000030: 2bb5 b03d 63c3 813d 1440 b23d f301 bd3d
00000040: 5f75 9b3d 0dc0 ba3d 8a06 c13d 576b af3d
00000050: 77c6 c33d 0d10 b83d 96be b63d 70fe b13d
00000060: c4bf a53d 485b a63d 7494 983d e73a 983d
00000070: e398 a53d e0d4 b03d c53d 9a3d 9cd5 bc3d
00000080: 247d 953d 5bba b03d 1369 bd3d 869d ab3d
00000090: 8024 be3d 7a4a cd3d 1ac6 b43d 5691 a23d
000000a0: 2fe6 9d3d 799e 9d3d 3611 bb3d c1ed 9c3d
000000b0: a7ea b23d 48e9 b73d e1ba 9c3d a3f7 b63d
000000c0: 0ba8 ab3d f4fe ac3d 1833 b93d dee5 ab3d
000000d0: 646b ac3d bb65 b83d 8c4d ab3d e4cb b73d
000000e0: 3c7c 9d3d 8ed6 bf3d b705 9d3d 3637 843d
000000f0: 57e8 b23d c2f0 c23d cf54 ba3d 31e8 b43d
00000100: 71ff 8e3d 05a8 b23d 42e2 b33d 91ab b93d
00000110: 5e70 9d3d 7588 a13d 8e58 843d 21be dc3d
00000120: b5f6 af3d a6d1 a13d 8c2b ae3d fc75 b03d
00000130: b3b7 ba3d 8a21 aa3d 22be 973d 43f5 a33d
00000140: 5275 a63d 1680 963d 1d97 bb3d 13f9 b33d
00000150: 6d90 ac3d 75d6 b93d ee81 b23d 5481 b23d
00000160: 397a b23d 6868 b23d 866e bf3d df73 c03d
00000170: 1e7a be3d 1f66 bd3d adc7 be3d 058f a13d
00000180: d97c 993d ce49 bb3d 2672 c13d 2d25 bb3d
00000190: efad b13d 612a b23d c68b 9e3d 11ef a83d
000001a0: 85b3 a33d a75b a93d a7be 9d3d 1512 ba3d
000001b0: d931 b63d 4a28 bf3d fd9f ac3d ad2e ae3d
000001c0: f688 a03d 2dc3 b33d 31ea b83d faf6 c43d
000001d0: dd07 973d f769 9a3d 5580 ad3d b767 ba3d
000001e0: 6201 aa3d b53b aa3d d2d9 b53d 9000 c23d
000001f0: d37e 993d 6b67 953d 050e ab3d 0a8c b93d
00000200: c720 a03d bd81 b23d 0f7d a13d da03 b53d
00000210: 2bf8 9f3d 2878 b63d eb14 c33d 3e73 c13d
00000220: acfd a83d 07cb b83d 1955 a43d e5a2 cf3d
00000230: 59d6 a43d 5d54 a13d 354d b53d 8d0b bb3d
00000240: 0509 bd3d ff1c a43d dabc a83d aba3 a93d
00000250: bdaa b93d 528d b83d c8e6 ac3d 56a6 b13d
00000260: 0ee9 a83d 6e76 9f3d c917 a63d 72d5 b73d
00000270: 9da6 b03d acde b33d ccb7 9d3d 978e b43d
00000280: 4527 a43d 8308 b23d bd6b ad3d cd1b ac3d
00000290: 908f c43d 7e02 c13d 5fc7 a43d 511f b13d
000002a0: f1ee ae3d 8973 b53d 2bba a83d 54ae b73d
000002b0: 55fc aa3d bbe2 a83d b82f b63d 015a bb3d
000002c0: 3dee 973d f60e b73d c4e3 b93d e01e b33d
000002d0: a09d 9d3d 49d0 9e3d ab7c bb3d 393f b13d
000002e0: 98f2 a83d 8f34 9e3d f266 a03d d842 c03d
000002f0: 817d bd3d 8f09 ac3d a6a7 bc3d cfce b73d
00000300: 9e2b 8f3d 467f aa3d 3c87 913d 8b79 be3d
00000310: 609e bb3d 512c bb3d 2a05 a23d 7ab0 bc3d
00000320: 7d3d bd3d e8b3 a83d b792 a93d eec4 983d
00000330: fda7 c13d 7ffe ac3d 0bc7 9d3d c04b b73d
00000340: bfdb 9a3d 3a63 b13d fb4f ba3d 0026 b13d
00000350: 55dc a93d 57e1 b13d e9a3 c33d 46af b83d
00000360: 1c55 be3d 5764 b13d dee0 ad3d b65b a03d
00000370: ba60 963d 1200 9c3d 1a94 b33d 90c0 b83d
00000380: 9ea0 9d3d 2e2d a73d 0717 a33d eb91 b03d
00000390: c9a9 9c3d 939d 933d 6836 bb3d 2a14 ab3d
000003a0: e155 b13d c49a ad3d 4149 bd3d aa56 a73d
000003b0: 4813 ac3d 1365 b13d 6b2a ac3d f36e 963d
000003c0: 69a8 853d 36ff ba3d 1c87 b83d 662d a33d
000003d0: 2cd9 b53d 78cb b53d 1bf3 c23d 12e2 983d
000003e0: 01d1 b53d 8d2b bb3d 9bfa ad3d aa70 c13d
000003f0: 4216 a23d 8bb7 b43d 8755 833d 6500 be3d
0.07830395 0.08744641 0.09175111 0.0799798 0.087380886 0.0958607 0.09018386 0.08228911
0.08483941 0.09234325 0.08776727 0.08255638 0.08628305 0.06336095 0.08703628 0.092288874
0.07590746 0.09118662 0.09425075 0.08565395 0.095593385 0.089874364 0.0892307 0.08691108
0.08093217 0.08122879 0.0745019 0.0743311 0.080858015 0.08634353 0.07531313 0.0922043
0.07299259 0.086292945 0.09248557 0.083796546 0.092843056 0.10023971 0.088268474 0.07937877
0.0770992 0.07696242 0.09134142 0.076625355 0.08736163 0.08980042 0.07652832 0.08933952
0.08381661 0.08447066 0.090429485 0.08393453 0.08418921 0.090037785 0.083644 0.08974436
0.076897115 0.09367095 0.07667106 0.06455843 0.087357216 0.09518577 0.09098207 0.088333495
0.06982315 0.087234534 0.0878339 0.09065927 0.07687448 0.07887355 0.06462203 0.10778452
0.085919775 0.079013154 0.085044 0.08616254 0.09117069 0.08307178 0.07409312 0.08005764
0.08127846 0.07348649 0.09159682 0.087877415 0.084259845 0.090741076 0.08716188 0.08716074
0.08714718 0.0871132 0.093472525 0.09397101 0.09300636 0.09247994 0.09315429 0.07888607
0.07494516 0.091449365 0.094456 0.0913795 0.08675753 0.086994894 0.077415034 0.08248723
0.07993225 0.082694344 0.0770238 0.0908548 0.088962264 0.093338564 0.08428953 0.085049964
0.07838623 0.08777461 0.090290435 0.096174195 0.07374547 0.075397424 0.08471743 0.09101813
0.08301045 0.083121695 0.088794366 0.094727635 0.07494893 0.07295116 0.083522834 0.090599135
0.07818752 0.08716152 0.07885181 0.08838625 0.07811006 0.08909637 0.09525474 0.09445809
0.08251509 0.090230994 0.080240436 0.101384915 0.08048696 0.07877419 0.08852617 0.091330625
0.09230236 0.08013343 0.082391456 0.0828317 0.09065769 0.0901133 0.084424555 0.08674304
0.08247577 0.077862605 0.081100054 0.08976258 0.08625529 0.08782706 0.07701072 0.08816259
0.080153026 0.0869303 0.08467815 0.0840374 0.09597695 0.094243035 0.080458395 0.08648551
0.08541668 0.08859927 0.08238634 0.08968797 0.0834891 0.082463704 0.088958204 0.09148026
0.07418487 0.089384004 0.09076646 0.08746123 0.0769608 0.07754571 0.09154638 0.08654637
0.08249396 0.077248685 0.07832135 0.093877494 0.092524536 0.08400261 0.09211664 0.089749925
0.06990741 0.08325057 0.07105872 0.09300526 0.09161067 0.09139312 0.07911141 0.09213348
0.092402436 0.082374394 0.08279937 0.07459436 0.09455869 0.08446979 0.0770398 0.08949995
0.075614445 0.08661504 0.09097286 0.08649826 0.08293978 0.08685558 0.09552748 0.09017806
0.09293577 0.086617164 0.08490156 0.078299925 0.07342668 0.07617201 0.087684825 0.090211034
0.07696651 0.08162914 0.079633765 0.08621582 0.076495714 0.07207789 0.091412365 0.08353455
0.08658958 0.08476785 0.09242488 0.08170827 0.08402115 0.086618565 0.08406528 0.07345381
0.06526262 0.09130709 0.09010145 0.079676434 0.08879313 0.08876699 0.09519025 0.074649945
0.08877755 0.09139166 0.08495065 0.09445317 0.079144016 0.088240705 0.064127974 0.09277419

base.seq_fcs.2.weight f4 [256, 256]
00000000: 5a59 6ebd 1cfd 71bd f40a 6e3d a895 bfbc
00000010: a918 89bd 2b65 823c 3fd3 9ebc 0592 5ebd
00000020: 97f3 243d 94ba b0bb a2af 1c39 8d92 263d
00000030: 420b 7bbd eb6c 623d 7dcd 173d 27ac 61bd
00000040: f807 4dbd 88e8 4abd 1a68 eb3c c98a a53c
00000050: d782 d83b 92b1 32bc a212 dabc d5d5 1b3d
00000060: c47d ac3c 50e4 dc3b ac72 5f3b 02ce 5b3c
00000070: 6a29 e2bc 2b64 b33c f336 873c 77c4 02bd
00000080: bdd6 733c c3d6 80bd 6cd3 8a3b c254 d73b
00000090: 2a0b 433d 7498 113d 9db7 143c ccad 87bd
000000a0: 66ca 0a3d 0260 d3bc 7986 dcbc a0fd 9c3c
000000b0: 90be 37bb f0b4 d83c 0aa8 4bbd 2fb2 323c
000000c0: 0854 89bd d932 303d 39a4 fd3c a120 cc3c
000000d0: d7b8 77bd 91a6 20bd 31a4 f4bc f7bf 173c
000000e0: b630 273d 0830 8cbd 946d 423c 312a 593d
000000f0: 0065 d63a 9575 173d 8515 0bbd e3b5 80bd
00000100: 54f0 ef3c 0199 40bd e06a e43c 22b5 8ebc
00000110: b0bd 27bd 7633 87bc 8185 0a3c 2216 1bbd
00000120: 9ae9 7ebd b29e 68bd 91da 543d e9fa 90bc
00000130: 432f 83bd d8f4 7cbc 9fff 2f3c 4827 3f3d
00000140: 5bbe 8cbc 7d47 143d 7a68 3d3c 0fa7 6dbd
00000150: dd22 663d 1479 4e3d 538f 83bd d999 ae3c
00000160: 70d8 3cbd 50e4 86bd 7906 f6bc 8a8a 9cbc
00000170: af2f 42bd d149 493d e729 09bd 1f1d a2bb
00000180: de74 123c b5b1 2f3a 4c07 0f3d 314b f93c
00000190: 91de 2cbd bfdf 6e3d bc2e 9d3b 05d0 90bc
000001a0: 67b2 0dbd 1aac 0cbd b8f8 85bd d1f0 dc3c
000001b0: 32c8 ebbc e70a 0bbd cac1 cc3c 6275 313b
000001c0: bf38 2dbd 1d34 7cbc bbd9 20bd 4287 1cbd
000001d0: 00bf 37bd af48 3dbd c989 9f3b d8b3 b6bc
000001e0: 2364 06bc fcb6 74bd 36b8 6abd e5d6 163b
000001f0: b925 ac3c d5a9 7cbd b52b 8cbd 1ffe 64bd
00000200: cccc 95bc a356 e7bc 5674 f03c efee 63bd
00000210: 9c1c 4cbd b577 403d c331 bb3c 84ae 06bd
00000220: 3e08 d93c aabd a8bc 6e24 d3bc 7ad0 9a3c
00000230: 1086 283d 529d 333d c8fd 4dbd fa7d 3fbd
00000240: 0294 f5bc c46a 38bd a74a 803b 10ab 12bd
00000250: 9aea 45bd 9b30 923c bdb3 5ebd e274 1f3d
00000260: f2e5 07bd fe71 b2bc 3bbe 05bd 499b 8cb9
00000270: a3e7 523d 5384 b0bc c5ad 693b ff2b 533d
00000280: a858 4cbd 3c69 383d d43a 61bd 89de debc
00000290: b1ab 04bc c3f4 ac3c 3a52 a4bc 8025 c5bc
000002a0: ab57 60bd 5e7f 56bd fcae 8ebc 3429 e13c
000002b0: b24f 87ba 77f9 023d 49a4 9bbc fc87 80bd
000002c0: 14b1 243d cdb9 f2bc 7ecd 14bb 4dc4 04bd
000002d0: cbb3 32bd fd71 293d 877f 81bd ee4b 10bc
000002e0: 6031 d23c 5ce2 6d3d 29d4 b23c 5efa 70bd
000002f0: 5fa8 b2bc 7e6d 8abd 7576 a03c a3d2 7cbd
00000300: b313 6ebd bbaa 403d f00d 89bc 2cab 4c3d
00000310: a2f1 7bbd 6311 013d be6b 2bbd 5473 6e3c
00000320: d634 623d fdd8 d73b 8fb3 71bd dec8 11bc
00000330: 895f 86bd 0765 903c 22d2 703c 78a7 093d
00000340: 7a52 443d 9e09 b13b 2238 d4bc e98d 423d
00000350: 4956 38bc b378 243d 032b 88bd 2326 b2bb
00000360: aa7c 333b 7c17 6a3d 51a1 c13c d265 bf3c
00000370: 8aed 67bd fb85 44bd 7acf 31bc e8b2 c5bc
00000380: 67c6 973b ca4c 2cbd 5315 5dbd c6cd 7b3b
00000390: f572 83bd 2f30 0b3b 4dd9 1e3d fb5d c4bc
000003a0: e585 46ba e6dc 67bc 2ad7 20bd b1bd 183d
000003b0: 99df 5a3d f239 3fbd 866c 11bb 40d2 a03c
000003c0: 59bb 3f3d 9a27 1b3d dc15 41bc 59ac 0c3d
000003d0: 9c3c 703d e4a1 133d e804 c83c 9422 4d3d
000003e0: 9e44 8bbc f922 08bd 1556 2d3d 0354 54bd
000003f0: 90fc 9c3c f378 21bd 349e 083d 616f 0cbd
-0.05819068 -0.059079275 0.058115914 -0.023386791 -0.06694157 0.015917381 -0.01938784 -0.054338474
0.040271368 -0.0053933356 0.00014942748 0.040667105 -0.061290033 0.055279654 0.037061203 -0.055095818
-0.050056428 -0.049538165 0.028736163 0.02020778 0.006607394 -0.010906594 -0.026620213 0.038045723
0.021056063 0.006741084 0.003409545 0.013415815 -0.027607638 0.02189835 0.016505694 -0.031925645
0.014882741 -0.062909625 0.004236629 0.006571383 0.04761807 0.03554578 0.00907698 -0.06624946
0.03388443 -0.025802616 -0.02691959 0.019163907 -0.0028037168 0.026453465 -0.0497208 0.01090674
-0.06705481 0.043017242 0.030962097 0.024917902 -0.06047901 -0.03922135 -0.029863449 0.009262077
0.04081794 -0.06845099 0.011866946 0.053018752 0.0016357005 0.03697737 -0.03395607 -0.06284692
0.029289402 -0.047020916 0.027882993 -0.017420355 -0.040952384 -0.01650403 0.008454681 -0.037862904
-0.0622345 -0.05679197 0.051966254 -0.017697768 -0.06405499 -0.015439235 0.010742097 0.04666832
-0.017180612 0.03620099 0.011560554 -0.058020648 0.056185592 0.050408438 -0.06423821 0.021313595
-0.04610485 -0.06586516 -0.030032383 -0.01910903 -0.047408756 0.049142662 -0.033487227 -0.004947319
0.008938996 0.00067022006 0.03491907 0.030431362 -0.042204443 0.05831885 0.004796831 -0.017677316
-0.034593966 -0.034343816 -0.0654158 0.026970299 -0.028781984 -0.033945944 0.02499475 0.0027078022
-0.042290445 -0.015393284 -0.039270144 -0.03821493 -0.044859886 -0.046211895 0.00486872 -0.022302553
-0.008202585 -0.05974482 -0.057304583 0.002301627 0.021014081 -0.061685402 -0.06844274 -0.05590641
-0.018286131 -0.028239554 0.029352348 -0.055647787 -0.04983197 0.04698916 0.022850877 -0.032881275
0.026493188 -0.020598251 -0.025774207 0.018898237 0.041143477 0.043851204 -0.050290853 -0.046751
-0.029977802 -0.045023695 0.0039151493 -0.03580767 -0.048319437 0.017845443 -0.05437063 0.038929828
-0.033178277 -0.021782871 -0.03265212 -0.00026818577 0.051490437 -0.021547472 0.0035656553 0.05155563
-0.049889237 0.045022234 -0.054987743 -0.027205722 -0.008097575 0.021112805 -0.02005874 -0.024065733
-0.054771107 -0.05236756 -0.017417423 0.027485467 -0.0010323434 0.03197619 -0.018999236 -0.06275937
0.040207937 -0.029629612 -0.002270549 -0.03241377 -0.043628495 0.041368473 -0.06323152 -0.008807166
0.02565831 0.0580772 0.021829681 -0.05883252 -0.021808801 -0.06759165 0.019587735 -0.061724316
-0.058124255 0.04703782 -0.016730279 0.04996793 -0.061509736 0.031510722 -0.041850798 0.014553864
0.05522617 0.0065871463 -0.05900913 -0.008897988 -0.06561191 0.017626299 0.014698537 0.033606976
0.04793022 0.005402758 -0.025905672 0.047498617 -0.011251041 0.04015417 -0.06648829 -0.005436675
0.0027387538 0.057151303 0.023636492 0.023363981 -0.05662302 -0.047979336 -0.010852689 -0.02413316
0.0046318057 -0.04206542 -0.053975414 0.003842221 -0.06418411 0.0021238436 0.038781453 -0.023970595
-0.00075730524 -0.014151787 -0.039267696 0.03729028 0.053435896 -0.04668612 -0.002218993 0.019631505
0.046809528 0.037879564 -0.011784997 0.03434405 0.05865155 0.036043063 0.024416402 0.050081804
-0.017000493 -0.033236478 0.042318422 -0.051837932 0.0191634 -0.039421987 0.033354 -0.034285907

base.seq_fcs.2.bias f4 [256]
00000000: 90a5 c23d 6997 b83d de80 d03d cd41 c23d
00000010: 0ec6 be3d 0063 bf3d 2fc6 c63d a784 c03d
00000020: 6d62 b33d 2999 b53d f49a cb3d 3482 c93d
00000030: 672b b73d ee98 c53d 86fc c13d 02cf b43d
00000040: 386d cb3d 7869 bd3d 60b0 bd3d 507d cb3d
00000050: b307 cd3d bd49 b93d 7190 ca3d dd69 c13d
00000060: de69 cf3d d952 c53d 9bf2 c33d 034f c83d
00000070: f73f c03d 111e c63d 707c cd3d bc63 c83d
00000080: 3795 c83d 2207 c93d eedb c73d 6873 c53d
00000090: df8e c53d 4b82 c43d 4e2d c93d 0af3 cd3d
000000a0: 54b1 c83d db06 c33d 3b59 c43d 5712 d43d
000000b0: 9d2c bf3d 358f c33d ed28 c43d 4cc7 bd3d
000000c0: e18f cb3d 6a62 bf3d 433a b83d aa4e c13d
000000d0: e917 cd3d 0a09 c03d 4d02 bb3d d771 be3d
000000e0: 3a9a c63d 61c6 c83d 7427 bb3d bc51 c03d
000000f0: 9fa4 bc3d ae19 d03d 3767 bd3d 7bae b33d
00000100: 11a9 c23d 285d bb3d 4cc3 c83d 4b61 cf3d
00000110: 919d bc3d 055b b93d 7123 bf3d e335 ca3d
00000120: c14f b93d 5b30 c23d 7570 bb3d 3871 cc3d
00000130: 48db ce3d 4493 c93d 75b6 b43d c8aa ca3d
00000140: bc69 cf3d 65c7 c83d 08cf b83d 7acb c53d
00000150: 0b2c c73d 4c2a b73d 3913 b83d 202f bc3d
00000160: 599d bf3d 0046 bb3d efd5 ce3d d1aa c03d
00000170: 8cdb c93d 0050 bf3d 1456 d13d 77d5 cc3d
00000180: 9058 cf3d c43c cf3d 069d c63d 4fa5 ce3d
00000190: ee9c ca3d 79cf ce3d 66d6 bc3d b9d0 c23d
000001a0: 125b b33d d7a4 c13d 93d0 c53d 09c1 c13d
000001b0: 31e6 c63d 44c2 bf3d b3b9 c03d c127 c63d
000001c0: a7e5 c73d 4240 c13d 9768 cf3d f5aa ca3d
000001d0: a5ca b93d 05a5 ba3d 136d c33d 33d5 c13d
000001e0: 0649 b73d 6880 bc3d a1e8 b93d 7e04 c23d
000001f0: 1966 c13d 6f7c cd3d 5dc5 cb3d 4495 b83d
00000200: 6c43 be3d 6097 b93d c91f c43d f510 bb3d
00000210: d1ea c93d b8b0 c83d d71f ce3d 1a45 ce3d
00000220: 3e93 d33d 5244 d33d 3175 c33d f0d6 ba3d
00000230: 9024 c73d 6a69 c93d 72ba d03d a586 ca3d
00000240: ffb4 c93d c721 b83d 3bda bd3d 02bc c63d
00000250: f29b c93d ab34 d33d 9a93 ce3d 09cd cc3d
00000260: c244 d03d 8c17 b33d 0c3c c43d e099 b93d
00000270: 4ed1 c73d e75b c13d 1340 be3d da9f c83d
00000280: f82a ce3d b429 ce3d 6ff3 be3d f786 bf3d
00000290: 528e c13d ca4b ba3d f1f8 b63d 0f5a c03d
000002a0: 112b cc3d 8b98 ba3d d399 bb3d a8aa ca3d
000002b0: 239a c23d dd9a c03d 17ba bf3d 2cd7 bb3d
000002c0: 0e89 b43d 7bd4 bc3d af8b be3d 64ab bb3d
000002d0: 6b38 be3d c729 bb3d acb1 bd3d 532a c13d
000002e0: 374f bd3d de0a d03d d1de b93d 4544 c63d
000002f0: 785a cd3d 2b57 c33d 5af7 bd3d 387f bc3d
00000300: 2ec3 ca3d cdcc cc3d ae7d b73d 9270 c63d
00000310: 956d cc3d e1f5 d03d 07e6 c13d 4af2 ba3d
00000320: 551a c93d 635f bd3d 1108 bc3d 879d cc3d
00000330: 7333 cb3d 7bb8 c93d 1a32 c43d e7a0 cd3d
00000340: b65c c13d 2986 b63d ab0b cd3d 23c3 b83d
00000350: fd23 b73d 6eca ba3d d2c0 c73d cf6b c33d
00000360: 03a2 cb3d 6731 d13d d730 bb3d 9ac6 d23d
00000370: 46bb ba3d 65de c13d a0c5 c53d b3d3 b83d
00000380: 9f4b cb3d 4933 c93d 0fec c73d 3a6d ca3d
00000390: d803 cd3d aef6 c73d 4cb3 c13d c0b9 cd3d
000003a0: f621 bf3d 24e6 bb3d 03e6 cb3d 2d01 c23d
000003b0: 25cb b73d 239f c33d 64aa ce3d ad60 c03d
000003c0: b32e bb3d 02f9 cc3d d4f0 ba3d a9da c73d
000003d0: d3e9 c23d 98f8 ca3d a070 c63d 5b71 d23d
000003e0: ef3f ca3d 6d02 bb3d 6359 c93d 96cd bb3d
000003f0: f9bd cc3d 367f ca3d 2d74 bd3d f1d2 c73d
0.09504235 0.09013254 0.101808295 0.09485207 0.0931512 0.093450546 0.09705769 0.094003014
0.087590076 0.088671036 0.09941664 0.098392874 0.08943825 0.0964831 0.09471993 0.08828546
0.09932941 0.09248632 0.092621565 0.09936011 0.10011234 0.090472676 0.09890831 0.0944402
0.101276144 0.096349426 0.09567758 0.09780695 0.093872 0.096737035 0.100335 0.09784648
0.097940855 0.098158136 0.09758745 0.096411526 0.09646391 0.09595164 0.09823094 0.10056122
0.09799448 0.09522792 0.09587332 0.103550605 0.09334681 0.09548799 0.095781185 0.092665285
0.09939552 0.09344943 0.089954875 0.09438832 0.10014326 0.09376724 0.09131298 0.09299057
0.09697385 0.09803463 0.091383845 0.093905896 0.092110865 0.10161148 0.09248202 0.08773514
0.09504903 0.091486275 0.09802875 0.10125979 0.09209741 0.09050564 0.09332932 0.09873559
0.09048415 0.09481879 0.09152309 0.09982532 0.10100418 0.09842542 0.088238634 0.09895855
0.10127589 0.098036565 0.09023863 0.09657951 0.097251974 0.08943614 0.089880414 0.09188676
0.093561836 0.09144211 0.10099398 0.09407581 0.09856328 0.09341431 0.10221496 0.10001653
0.10124314 0.10119012 0.096979186 0.10090124 0.09893213 0.10098166 0.09220581 0.09512467
0.08757605 0.09455269 0.09658923 0.09460647 0.09711874 0.09363225 0.09410419 0.09675551
0.097605996 0.09436084 0.10127371 0.09895889 0.090718545 0.09113506 0.09542289 0.09464493
0.08949475 0.09204179 0.090775736 0.09473513 0.09443302 0.100334994 0.099497534 0.09012845
0.092902035 0.090620756 0.09576375 0.09134094 0.09859241 0.097993314 0.10064667 0.10071774
0.103308186 0.103157654 0.09543837 0.09123027 0.097237706 0.09834559 0.101918116 0.09888963
0.098489754 0.089908175 0.0927014 0.097038284 0.09844197 0.1031278 0.100867465 0.10000045
0.101693645 0.087447256 0.095817655 0.090625525 0.097567186 0.09441357 0.09289565 0.09796114
0.100667894 0.10066548 0.09323775 0.093519144 0.094509736 0.09096487 0.089342006 0.09392177
0.09969152 0.091111265 0.09160199 0.09895831 0.095020555 0.09404538 0.09361666 0.091719
0.088152036 0.09220215 0.09303986 0.091635495 0.092881046 0.09138828 0.09262404 0.09431901
0.09243625 0.10158323 0.09075702 0.0968099 0.10027021 0.0953811 0.09275694 0.092039526
0.09900509 0.1 0.089595184 0.0968944 0.099818386 0.10203148 0.09467702 0.09128244
0.098194756 0.09246709 0.09181226 0.099909835 0.099219225 0.0984964 0.095798686 0.10040455
0.09441511 0.08912308 0.10011991 0.090215944 0.08942411 0.09120642 0.097535744 0.09542047
0.09943011 0.10214501 0.09140175 0.102917865 0.09117751 0.094662465 0.096568346 0.090247534
0.09926533 0.09824235 0.097618215 0.098841146 0.10010499 0.09763847 0.09458026 0.100451946
0.093326494 0.09174755 0.09955981 0.094728805 0.089742936 0.09551837 0.10091093 0.093934394
0.091397665 0.10008432 0.091279656 0.09758503 0.09517255 0.09910697 0.0968945 0.10275527
0.098754756 0.09131322 0.09831502 0.09170072 0.09997172 0.09887545 0.092506744 0.09757031

last.weight f4 [8, 256]
00000000: 1b4e 923c deaa a43a 3aa2 38ba 33fb ec38
00000010: be57 dc3a 7199 13bb b972 16ba 44f2 75ba
00000020: fca1 9d3b 0249 f83a 2aaf baba a1ff 8e3a
00000030: c6d5 b23b aeb2 9db7 55b3 9ab9 bdcb ccb9
00000040: 0b94 853a dfc9 b6ba 0071 15ba 84ac 9eb9
00000050: 6e4f ec39 6bf7 96b9 0633 8839 5f70 693b
00000060: bc5d 60ba f624 2f3c 4411 b139 004d 18ba
00000070: cf2d 313a a77f 393a 43d7 c0ba 8a2e 1e3a
00000080: faad 94b9 3fa0 413a 7ab7 7139 a9f2 0f3a
00000090: 8a94 c039 905a 8439 4c55 b039 e480 d6b9
000000a0: 2d39 9eb9 0f3a 893a 399e 06ba 4791 1bba
000000b0: 36d7 43ba 4f62 533a e053 3bba c8ad ae3a
000000c0: a883 f739 e9a2 35bb b227 dcba 3cbd be39
000000d0: 67a7 c13a 2fb8 cc39 90ae 07bb 3566 edb8
000000e0: 81f9 00b9 c64a 51ba 52e6 3abb 5a6a 8c3b
000000f0: 0c73 6dba e842 b93a 680b 91bb 6340 023a
00000100: 2bc4 d939 f4d2 7b3b fe3d 493a e3e3 0e3b
00000110: 3448 beb8 b352 00bb 95ef fbb8 5384 b439
00000120: 95ab 863a 4a7e e63a d906 efb8 f6c5 94ba
00000130: c218 3eba e4cc 61ba 3cb5 2d3a c62d 0fba
00000140: 7095 e1ba 4c02 3bba 7f0d 7e3a c6b3 33ba
00000150: 439b eeb9 8943 8739 3bb3 f53b 8346 de39
00000160: 9fc0 503a f2af 36ba d68a d43a cc73 83b8
00000170: 5d3e 093a e04a 8738 813c 4bb9 0319 8e3a
00000180: 2263 e8b9 52c8 9dba 8fc5 42b9 ba73 84ba
00000190: 9a77 0a3b f5b6 8ab9 cec8 30ba 9146 c839
000001a0: b0d3 f53b e1a2 ab39 9618 a4b9 39e4 b1b9
000001b0: 1a76 80b9 9809 5d39 bd44 5439 53b8 cc3a
000001c0: c3ac a739 6e0e d3b9 0fde 503a 82d0 233a
000001d0: 55eb ea3b 6c51 253a e21e c1bb c93b a13a
000001e0: 5a95 8e3a 34fd debb ad7b b5b8 3f16 283a
000001f0: 110f 9a38 ba69 9139 4036 9d3a aabc 283a
00000200: 2762 40bb a466 163c 82f0 5c3a 8446 213b
00000210: 8531 bfb9 f029 c5b8 c5d8 663a 91fa 793a
00000220: 3c74 fd38 5897 daba d293 a2ba e9a9 293a
00000230: c8e8 b639 7615 383a 2ca2 8dba 137d 063b
00000240: ecca 5d39 7535 053b d364 9fb7 00bf 1cba
00000250: 887c 893a d84d 67ba b57c 95ba 5cdc 28ba
00000260: 525d eaba f6e4 a13b 75fa 49b9 7b2a 1938
00000270: a159 3cba b3f4 233a 56ac b83b 47e8 eeb9
00000280: fd43 29ba 683f 0aba 6783 d439 445f bab8
00000290: 0ca0 033a 4678 7e3a 6bc1 143b 058e 02ba
000002a0: eff5 82b9 b921 b339 1a4a 8839 ca48 54ba
000002b0: 3a43 3339 033f 9e3a f5bb 8b3a f032 7e3b
000002c0: dfe8 163b b96b 863a 5187 56ba ba80 aeb9
000002d0: 87b7 98b9 d202 b939 9a26 2b3a 1ece 6c3c
000002e0: 3c84 85b8 5c83 1eba 8974 a4ba d4be 953a
000002f0: 3fd2 b23a cee2 5d38 2884 f739 6a6e cfb9
00000300: a3a4 19ba 8235 0abb 366b 76ba 4a3a 9a39
00000310: 2db1 fc39 cff7 3dba 4bd7 1bba 4098 a23a
00000320: 256d 0d3b 251f 813b 46da 3b3a 1e16 d8b7
00000330: 9ee6 56ba ad0a a5ba 38d7 5239 c1ed 89b9
00000340: fa27 2c3a c501 073b 70c7 adba 07f3 cb3b
00000350: 9c1c 173b 388a 683b 14de 983a 58a6 5aba
00000360: 5979 f53a a868 c5ba 899b 7d3b ce15 273b
00000370: 8852 82ba 4060 f339 fc7a 8a3a 9a09 103a
00000380: b1ba c43a 1ce2 5dba 1331 3cba 112b 0aba
00000390: fb6a 93ba cf82 843a d987 8a3a f3f3 b03a
000003a0: 548d 163b 0efb 8f3a 63ac cd3a 412f 83bb
000003b0: e8a2 353b 4f61 ad3a f765 b2ba cba6 443a
000003c0: 07a7 aab7 f2f0 4b39 12a2 a0ba 87bd 0eba
000003d0: d198 9c39 96c5 9eba 72f7 293a 408e 0eba
000003e0: 8f24 5d3a 16bf 12ba b92a e037 e00f a5ba
000003f0: cc50 ca3a 5837 bdba 864b a9b9 f820 e3ba
0.01785951 0.001256313 -0.00070432166 0.000113001464 0.0016810817 -0.0022521878 -0.0005739141 -0.00093821087
0.00481057 0.0018942656 -0.0014242877 0.0010909924 0.0054576127 -1.8799063e-05 -0.00029506782 -0.0003906171
0.0010191215 -0.001394566 -0.0005700737 -0.00030264643 0.00045072607 -0.0002879457 0.00025977957 0.0035619957
-0.00085588894 0.0106899645 0.00033772935 -0.0005809814 0.000675884 0.00070762116 -0.001471259 0.00060341565
-0.00028358382 0.0007386244 0.00023051901 0.0005491176 0.00036731764 0.00025244476 0.00033632887 -0.00040913292
-0.00030178708 0.0010469573 -0.00051352713 -0.0005934429 -0.00074707286 0.00080636604 -0.0007145982 0.0013326937
0.00047209603 -0.002771551 -0.0016796498 0.00036380615 0.0014774621 0.0003904714 -0.0020703413 -0.00011320078
-0.00012299979 -0.00079838594 -0.002851863 0.004285139 -0.0009057976 0.001413432 -0.0044264086 0.0004968701
0.00041535622 0.0038425298 0.0007676779 0.0021803312 -9.073355e-05 -0.0019580543 -0.00012013238 0.00034430865
0.0010274524 0.0017585244 -0.000113976836 -0.0011350501 -0.0007251614 -0.00086136 0.00066264323 -0.0005461838
-0.0017210674 -0.0007133826 0.0009691342 -0.00068550964 -0.00045510576 0.00025799524 0.0074981726 0.00042395675
0.0007963273 -0.0006968967 0.0016215693 -6.2681356e-05 0.0005235428 6.451248e-05 -0.00019382128 0.0010841194
-0.00044324348 -0.001203785 -0.00018574878 -0.001010529 0.0021128417 -0.00026457725 -0.00067437894 0.0003819955
0.0075020418 0.00032737016 -0.00031298836 -0.0003393011 -0.00024502055 0.00021079776 0.00020243503 0.0015618898
0.0003198144 -0.00040255807 0.00079676596 0.00062490266 0.007169167 0.00063063833 -0.005893574 0.0012301143
0.001087825 -0.0068050865 -8.653789e-05 0.00064120063 7.3460986e-05 0.00027735328 0.0011994317 0.00064368045
-0.0029355378 0.009179745 0.00084281724 0.002460868 -0.00036467254 -9.4015035e-05 0.0008806105 0.00095359335
0.000120856304 -0.0016677184 -0.0012403673 0.0006472157 0.0003488718 0.0007022241 -0.0010805777 0.0020521327
0.00021151797 0.0020326052 -1.9001227e-05 -0.0005979389 0.0010489384 -0.00088235503 -0.0011404963 -0.00064415275
-0.0017880595 0.0049406243 -0.00019262156 3.6517606e-05 -0.00071849866 0.00062544196 0.0056357784 -0.00045567958
-0.00064569694 -0.00052737305 0.00040533693 -8.886916e-05 0.0005021102 0.0009707253 0.0022698294 -0.0004980269
-0.00024978767 0.00034166666 0.0002599515 -0.00080980046 0.00017095814 0.0012073222 0.0010660874 0.0038787685
0.0023026986 0.0010255493 -0.0008183616 -0.00033283775 -0.00029128438 0.0003528805 0.00065288844 0.014453439
-6.366565e-05 -0.0006046796 -0.0012546937 0.0011424669 0.001364298 5.2901734e-05 0.00047209975 -0.00039564382
-0.00058610196 -0.0021089022 -0.0009400131 0.00029416598 0.00048197192 -0.0007246704 -0.0005944862 0.0012404993
0.0021579948 0.0039404803 0.0007166009 -2.5759506e-05 -0.0008197817 -0.0012591683 0.00020107336 -0.00026307817
0.0006567236 0.002060042 -0.001325829 0.0062240395 0.0023057824 0.0035482775 0.0011662864 -0.0008340827
0.0018728181 -0.0015061097 0.0038697443 0.0025495174 -0.0009942809 0.00046420284 0.0010565217 0.0005494595
0.0015009252 -0.0008464174 -0.00071789435 -0.00052706996 -0.0011247093 0.0010109785 0.001056905 0.0013500437
0.0022972422 0.0010984854 0.0015691634 -0.004003436 0.0027715508 0.0013227853 -0.001361071 0.0007501661
-2.0343357e-05 0.00019449348 -0.0012255332 -0.0005445112 0.00029868496 -0.0012113329 0.00064837106 -0.0005438067
0.00084359286 -0.0005597932 2.6722775e-05 -0.0012593232 0.0015435456 -0.0014436049 -0.0003229046 -0.0017328551

last.bias f4 [8]
00000000: 1e5e 303a 5a85 bf39 4573 9dbb 7b58 07bb
00000010: addd 83bc 3dcd 47bc b244 65bc e184 26bc
0.0006727892 0.00036529714 -0.004805001 -0.0020652104 -0.016096914 -0.012194929 -0.013993429 -0.010163517
