Soft-Module-main/log/model50_39/model_pf_best.pth (torch, 287205 bytes, 6 tensors)

base.seq_fcs.0.weight f4 [256, 12]
00000000: b8c2 9abe 4db6 9ebd 16c1 0bbe e623 13bd
00000010: 0526 093c 6a99 80bd 6eaa 0fbd 4080 a33c
00000020: da86 10bd de2e 793d 5228 103c d76b ae3b
00000030: e75b 673d fe0e 72bd f6d7 adbc 009a 653d
00000040: ffff a3bb e10b e9bc fe65 72bd c0bd c7ba
00000050: 986d 0b3c a0a4 7f3d 12bf b1bd f3c0 c23c
00000060: 5ca7 2dbd e92b a9bd a96a 40bd 3812 a33c
00000070: a00c 07bc d4c2 823c 3825 a4bc c007 603c
00000080: 2059 f9bb 2afc 2dbc 9dd7 49bd 12a5 723c
00000090: 8c98 c23c 3548 193c fc59 8fbd 9013 6bbc
000000a0: 82f5 bdbd 0118 c83a 6c37 8ebc 7830 4b3c
000000b0: 30f4 893b 2480 bcbc aba0 423c 128c 923c
000000c0: 9883 493c 8042 8cbd 0790 8c3c 1c4a c1bc
000000d0: 96d3 703c 43a8 7f3d 52cc 7d3d 5edd 21bd
000000e0: 5059 163d ca9f 333d 1093 6ebd 121f a3bd
000000f0: e361 163d 2a9e 9ebd ee52 99bc 70b4 77bd
00000100: e20b 263b 0759 e03c 70b0 12bd 785a 59bc
00000110: 4a21 1abd 2d2a 9f3d f3ae e8bc fdb6 54bd
00000120: 33bc 783b e474 97bd e0a0 cdbd c44f b9bc
00000130: 2643 0cbb ac60 9f3d e2c1 37bd d296 783d
00000140: 2e2d 1d3d 8ee8 5c3d 364f aebc 5676 37bc
00000150: 5216 2d3d a219 d43c 8e76 89bd d0cf 9e3b
00000160: a641 82bd b1b2 853d 666a 533d 703d 6d3d
00000170: 5466 79bd a8d2 90bb f567 1dbd d15c 05bd
00000180: 0cf7 49bd a670 84bd 1e71 62ba 4cb4 0d3d
00000190: 4341 6e3c c6e1 84bc a8d5 69bc ac0f 5f3d
000001a0: f8bc e1bc 0328 c73c eb2c 97bd 5926 72bd
000001b0: c40e 25be df42 c0bd 044e 5cbe c828 fb3c
000001c0: e49c 37bc 91ed 8d3d 4272 16bd ec1a 663d
000001d0: 44bb 3ebd 409c 323d cab3 2c3b 7d0f 4c3d
000001e0: ff2f 22ba 3cad c6bc 9042 adbd 6086 693d
000001f0: e6cc 103c 2dde bf3d 0089 6bbd 8c2c 13bd
00000200: dec3 79bd 7653 8abc 9350 83bd b72a 9ebd
00000210: 2419 da3d 82e9 d3bd a0fa 71be 6036 38bd
00000220: 02a5 073d a2d8 da3c 2251 533d 26ed 6dbd
00000230: 465f 30bd 13a9 0a3d 1616 133a 416b 54bd
00000240: a1f3 24bd c8fb b7bc b9f8 14bd 5a7a 68bd
00000250: 8558 1fbd 6513 963d e8a3 0a3c 6891 163c
00000260: cc5c 17bd 09b9 20bc 4461 a73b 66e0 bdbd
00000270: b386 a03c c031 9fbd c42d e43b a422 8a3c
00000280: 0ef7 1d3b 9d3e 273d 18fd 4ebd a063 84bb
00000290: bab1 5b3d 8374 acba 013b 26bd fac2 24bc
000002a0: 4c88 3bbc 8cfc 8dbd 15d4 5dbd 6813 333d
000002b0: 6571 94bd e458 853c 8094 7ebb 088a 3bbc
000002c0: f651 6ebd c8b2 35bd 5b2d 433c a371 f1bc
000002d0: c861 c53c 61ab ffbc 64ea 84bc c0f0 bf3b
000002e0: af4d fbbc d1b5 71bc c067 c5bb ec0c 6e3d
000002f0: 8cf1 613d 233f 0f3b e492 83bd de90 47bd
00000300: ef09 093d 5206 44bd faba dcbc 26cc 32bd
00000310: fd3c 9bbd a156 8e3c 20b2 593b 0032 423b
00000320: 8023 0ebc 547c 14bd 69d1 aa3c 8d5c 92bd
00000330: a3b7 6fbd d692 87bd ac97 2f3c f0d1 663c
00000340: 6252 5cbd 6959 143c b6eb 47bd 2031 453b
00000350: 681c 3b3c afec df3c 9a5a f9ba 8340 223c
00000360: 8e3a 853b 8317 79bd a662 2c3b 02b8 7e3d
00000370: 4369 84bd 3085 fa3c 1cbd 03bd 20d4 93bb
00000380: 2008 ab3c dc74 643d 82d9 babb fedf 9abd
00000390: 6d53 74bd 9fdf 83bd 18d5 adbd 748c 213d
000003a0: fdd5 513b 55f9 26bd a8ec 353d 10fb 8a3c
000003b0: 92da 643d c776 86bc d70b 8abd c4b7 a0bd
000003c0: 29ef 8e3c 01c3 1cbd 86e3 94bd a850 493d
000003d0: e1d2 9ebb b288 933d 2a37 69bd 72d7 053d
000003e0: 00c8 333a 9d79 643a c93b 34bd c32c b1bd
000003f0: 4782 58bd 96d7 faba 5030 25bd 2084 f0bb
-0.30226684 -0.07749615 -0.13647875 -0.035922907 0.008370881 -0.062792614 -0.035074644 0.019958615
-0.035284854 0.06083571 0.008798676 0.005322914 0.05648413 -0.05909633 -0.021221142 0.05605507
-0.0050048823 -0.028448047 -0.0591793 -0.0015239045 0.008510016 0.062412858 -0.08679022 0.023773646
-0.042395934 -0.08260328 -0.04697672 0.019906148 -0.008242756 0.015962042 -0.020037279 0.013673723
-0.0076095015 -0.010619203 -0.04927789 0.014809864 0.02375438 0.009355594 -0.06999585 -0.014347926
-0.092753425 0.0015265943 -0.017360412 0.012401693 0.0042100176 -0.023010321 0.011879127 0.017889056
0.012299441 -0.06848621 0.017158521 -0.023594908 0.0146988835 0.062416326 0.061962433 -0.039517753
0.03670627 0.04385356 -0.05824572 -0.079649106 0.036714446 -0.07745011 -0.018716302 -0.060474813
0.0025336673 0.027386202 -0.035812795 -0.013266198 -0.037629403 0.07771716 -0.028403735 -0.051932324
0.0037953972 -0.07395342 -0.1004045 -0.022621043 -0.0021402328 0.077821106 -0.044862635 0.06069071
0.038373165 0.05393272 -0.021278005 -0.011197647 0.042257614 0.025891129 -0.06712066 0.0048465505
-0.06360178 0.06528223 0.05161514 0.05791992 -0.060888603 -0.0044196434 -0.03842922 -0.03255922
-0.049307868 -0.064667985 -0.00086380716 0.034595773 0.014541927 -0.016220938 -0.014272131 0.054458305
-0.027555928 0.024311071 -0.07381614 -0.059118602 -0.16118914 -0.09387755 -0.21514136 0.030659094
-0.011206839 0.06930078 -0.03673006 0.05617802 -0.04656531 0.043606043 0.002635228 0.04981946
-0.00061869615 -0.024252526 -0.084599614 0.057012916 0.008837914 0.093685485 -0.0575037 -0.035931155
-0.06097781 -0.0168855 -0.06411853 -0.07722991 0.106493264 -0.103472725 -0.23630762 -0.04497373
0.033116348 0.026714627 0.051591046 -0.05808749 -0.04305961 0.033852648 0.0005610896 -0.051860098
-0.040271405 -0.022458926 -0.036370013 -0.05675731 -0.03890278 0.07327918 0.00846193 0.009189941
-0.036953732 -0.009809741 0.0051080305 -0.09271316 0.01959548 -0.07773161 0.0069634635 0.016862221
0.0024103555 0.040831197 -0.050534338 -0.0040401965 0.05363629 -0.0013157282 -0.040583614 -0.010056252
-0.01144607 -0.06932935 -0.054157335 0.04371968 -0.07248191 0.016277738 -0.0038845837 -0.011446483
-0.058183633 -0.044359952 0.011912669 -0.029473132 0.024094477 -0.03120965 -0.016225047 0.005857557
-0.03067669 -0.014752821 -0.006024331 0.058117792 0.055161998 0.00218577 -0.064245015 -0.04872214
0.03345674 -0.04785759 -0.026944626 -0.043651722 -0.07579992 0.017375292 0.0033217743 0.0029631853
-0.008675456 -0.03625138 0.020851808 -0.07146559 -0.05852474 -0.066198036 0.010717314 0.014088139
-0.053789504 0.00905452 -0.048808776 0.0030089095 0.011420347 0.02733454 -0.0019024194 0.009903076
0.004065818 -0.06081344 0.0026303916 0.062187202 -0.064653896 0.030581087 -0.03216277 -0.0045113713
0.020877898 0.05577551 -0.0057021985 -0.07562254 -0.059649874 -0.06439137 -0.0848791 0.039440587
0.0032018416 -0.040765125 0.044415146 0.016965419 0.055872507 -0.01641406 -0.067405395 -0.078475505
0.017448025 -0.038271908 -0.07269959 0.049149185 -0.004846916 0.07203807 -0.056937374 0.032676168
0.00068581104 0.00087156316 -0.044002328 -0.08651116 -0.052858617 -0.0019137736 -0.040329278 -0.0073399693

base.seq_fcs.0.bias f4 [256]
00000000: 7236 cd3d 2900 973d c910 9b3d dce2 7c3d
00000010: 18b7 803d 62f5 7e3d cb25 743d 654e 973d
00000020: 76b6 903d d843 b43d 375a 8a3d 24f6 c83d
00000030: 3acd 593d 37f6 773d a700 b83d 5ad7 a63d
00000040: f92c ad3d 4805 8d3d db1f 893d d65b aa3d
00000050: 1727 933d af3e 313d 7955 993d 2745 a53d
00000060: 5202 8f3d 2bbd 893d d6ed a03d 2609 5a3d
00000070: a22a 583d 012a aa3d 43e2 be3d 9a38 693d
00000080: b730 9e3d bfe1 ab3d 12db 7f3d 918f 5e3d
00000090: ec85 8f3d c274 9e3d 05e7 803d 2aea b03d
000000a0: b07a 953d f19f a33d 8ce5 923d 9781 9c3d
000000b0: 5cb9 953d 9371 953d 340e 843d 1fe1 483d
000000c0: 7d9d 8d3d 28cd bc3d 58af 433d 3fff ad3d
000000d0: 83c0 6f3d dcf1 5a3d 3a41 5e3d 742b 973d
000000e0: 8e71 943d e709 843d ee06 5b3d 2429 863d
000000f0: 34f7 703d 0265 503d ab38 a63d e600 5a3d
00000100: 245e 8f3d e52a 893d 8b90 5d3d 8e12 da3d
00000110: e4db 843d c7c6 473d 6464 7e3d 9ed9 803d
00000120: 8f19 613d 4cb3 833d cfdc 813d b3a3 773d
00000130: 530d 543d d2d2 993d 6418 943d 47f9 a23d
00000140: 5509 763d 6722 783d 2060 823d 8840 8c3d
00000150: 4252 9b3d e699 4d3d 14bc bf3d 4472 913d
00000160: d76d 773d b341 6f3d a2fc 713d 8928 823d
00000170: 964e 983d 30a8 5d3d 2db0 a83d 8696 3c3d
00000180: af7c a53d 972d 623d a81f 873d 8c06 6c3d
00000190: caab 9c3d 3fec 843d 8a90 3a3d 7073 853d
000001a0: a5e0 6c3d daa5 603d e9eb 883d 7dcd 8a3d
000001b0: 3f38 813d 82e4 6c3d 810e 5b3d 2c1e 563d
000001c0: 2839 ac3d 3ac8 873d 8a3a 813d f53c 823d
000001d0: d67e 713d 5f3a 7f3d ff92 8d3d 1a8a 6b3d
000001e0: eb45 7c3d 69c3 8b3d ddf0 de3d 136a d23d
000001f0: dcfc 5f3d e24c 883d 1c76 4d3d 0d7a 833d
00000200: d25b ba3d e25a a13d 46ce 8a3d a6ca 8f3d
00000210: 9bb0 603d 426c a23d 7f07 b23d aa08 783d
00000220: fc62 793d a788 7d3d 2141 853d 123d 913d
00000230: fabe 663d 1755 893d 3622 903d 125d 8c3d
00000240: 4843 a73d 0262 923d 5cfe 9c3d 62d5 873d
00000250: 6715 783d 001c 7e3d 3931 943d 9fae 793d
00000260: a1d4 8a3d c66d 903d d631 753d 6f51 843d
00000270: bbea 8b3d 6b1d 5c3d 11b2 903d 2d4f 323d
00000280: ddfd 9a3d d10f 4a3d 1ede a63d a1ca ad3d
00000290: 234f 6d3d 596e 803d 6bfd 8c3d bd09 ad3d
000002a0: 65bf 913d 2b7d a23d 42c2 a83d 95f1 803d
000002b0: a7e4 613d 39e5 a93d f029 af3d de90 513d
000002c0: f17c a63d 6b0c 9a3d 3d19 f33d 164d 573d
000002d0: b9a0 973d d111 533d 3dbd 6d3d c95d a73d
000002e0: f7e6 883d 6949 6e3d d7d8 5a3d 31ce 7c3d
000002f0: 972b 7b3d 9ae0 843d 5811 813d fc6e a53d
00000300: f659 d43d 3e01 623d 13b7 ae3d f7a7 8a3d
00000310: af4d 003d 3e4d 873d e1d6 ad3d 5310 753d
00000320: 4a54 733d cae1 4a3d 6981 3d3d 97e9 873d
00000330: 1621 953d 499d a83d 4321 5a3d ceee 843d
00000340: 1cc0 553d f340 543d 2b84 493d f28c 883d
00000350: 76de 8b3d 9a6d 8b3d 195d 703d 0188 783d
00000360: 265c 5b3d 95b5 803d 6c59 8a3d 1d32 973d
00000370: 61f2 603d 1523 8f3d 42f6 4d3d a21c 7e3d
00000380: cce5 883d 77c8 8c3d df1c 593d 5769 853d
00000390: b2b5 893d 2388 c33d f717 813d cc4c 863d
000003a0: 69c2 9b3d 97f6 983d cd5b ad3d 1933 4d3d
000003b0: f665 9f3d 1f67 6b3d 3b23 2b3d 95d0 bb3d
000003c0: 77fe 953d 645e 8c3d aace 823d e4a8 553d
000003d0: a53c 833d a31c 883d c9a1 853d c3d7 843d
000003e0: 1130 bc3d 83e8 5d3d 7547 473d ad5e 633d
000003f0: 2426 933d 15b4 663d 6061 573d 715b 2d3d
0.1002015 0.073730774 0.07571561 0.061739787 0.06284922 0.062245734 0.059606355 0.073879994
0.07066052 0.08802003 0.06755488 0.098125726 0.053174235 0.060537543 0.089844994 0.08146544
0.084558435 0.06885773 0.06695529 0.083182976 0.0718519 0.04327267 0.07487006 0.080698304
0.069828644 0.06725534 0.078578636 0.05323138 0.052775033 0.08308793 0.093205 0.056938745
0.07724135 0.08392667 0.06246478 0.054336134 0.070079654 0.077371135 0.062940635 0.08638413
0.072987914 0.07989491 0.07172689 0.07641905 0.07310745 0.07297053 0.064480215 0.049042817
0.06914804 0.09218818 0.047774643 0.0849595 0.058533203 0.05345331 0.054261424 0.07381335
0.07248221 0.06447201 0.053473406 0.06550816 0.0588295 0.05087758 0.08116277 0.053223513
0.07000378 0.066976346 0.054092925 0.1064807 0.06487253 0.048773553 0.06210746 0.06291507
0.054956015 0.064306825 0.06340944 0.06045885 0.05177052 0.07510914 0.07231215 0.07957702
0.060067493 0.060579684 0.06365991 0.06848246 0.07584049 0.050195597 0.09362045 0.071018726
0.060407486 0.058412265 0.05907882 0.06355388 0.07436864 0.054115474 0.08236728 0.046041988
0.08080422 0.05521926 0.06597835 0.05762343 0.07649954 0.06490373 0.045548 0.065161586
0.057831425 0.05484567 0.06685621 0.06777475 0.06309556 0.05783511 0.05348063 0.052274868
0.08409339 0.06629987 0.063099936 0.06359283 0.05895885 0.062311526 0.06912803 0.05750475
0.061590116 0.06824381 0.10885785 0.10274138 0.054684505 0.06655289 0.050161466 0.06419764
0.090995446 0.07878663 0.06777625 0.07021074 0.054855924 0.07930805 0.08692836 0.060555138
0.060885414 0.0618979 0.06506563 0.07091726 0.056334473 0.06705683 0.07037775 0.06853689
0.0816713 0.071476 0.07665703 0.066324964 0.060567286 0.06203842 0.07235951 0.060957547
0.06778837 0.070521876 0.05986198 0.06460845 0.06831881 0.053738993 0.070652135 0.04353254
0.07567952 0.04933149 0.08147834 0.08485914 0.0579368 0.06271047 0.06884273 0.08449123
0.07116584 0.0793403 0.08240177 0.06296078 0.0551497 0.08295674 0.08552921 0.051163547
0.081292994 0.075219 0.11870048 0.05256375 0.07403702 0.051530663 0.0580418 0.08172185
0.06684678 0.058175478 0.05342945 0.061720077 0.061320867 0.06488152 0.06302136 0.08077809
0.10368721 0.055176966 0.085310124 0.06770318 0.031324085 0.0660653 0.084882505 0.05983002
0.059406556 0.049531735 0.046265993 0.066363506 0.07281701 0.08233125 0.053254377 0.06490861
0.052185163 0.051819753 0.04919831 0.06667508 0.068295404 0.06808014 0.058682535 0.06067658
0.053554676 0.06284634 0.06755337 0.07382605 0.05491865 0.06989113 0.050283678 0.062039025
0.06684455 0.06874173 0.05300605 0.065142326 0.06724109 0.095474504 0.06303399 0.065576166
0.0760544 0.07468908 0.08464775 0.05009756 0.077831194 0.05747139 0.041781645 0.09170643
0.07323926 0.06853941 0.06387074 0.05216302 0.064080514 0.06646087 0.06524999 0.06486466
0.091888554 0.05417682 0.04865213 0.05551021 0.07185009 0.056324083 0.0525831 0.042323533

base.seq_fcs.2.weight f4 [256, 256]
00000000: a3c6 3ebe 2d03 af3c f337 7bbd 29bb dd3c
00000010: 3771 07bb 14d8 55bc 1f22 373d a91c 5cbd
00000020: abdb 0dbd ac11 e0bd 26e7 65bd 9bc7 04be
00000030: 3bdd 063c f67b 07bd 2f22 1cbd 3509 47bd
00000040: fd59 983c e953 58bd 707e 0b3d cea8 21bd
00000050: 2f52 f93b 31b8 173d 3850 2bbd 3854 a9bc
00000060: 59ea 07bd d3a5 61bd d7d8 8b3b 293d cdbc
00000070: 50c6 593d 57a9 8f3b 2aa6 623d cd31 a0bc
00000080: aa14 d23c cdab e83c cffc cebc 3103 013d
00000090: b409 a3bc 67ce 43bd b983 073c de8c ce3c
000000a0: b1e3 313d 12c8 083d a5e6 5b3d 585a a53c
000000b0: 24a2 f6bb a92c b1bc 6dcd fd3b f158 2a3d
000000c0: c4b9 49bd 0e48 55bd f848 27bd 40f1 04bd
000000d0: 9395 0a3d ae1d 19bc 7bc0 37ba 099b c53c
000000e0: 9142 4a3d 9286 2fbc 0810 fd37 2ad5 88bd
000000f0: 92d4 67bd 8966 14bd da8c 0abb d87b 193c
00000100: 2b87 8abd 9f81 ffbb 4faf 84bd da37 123c
00000110: 83a5 e93c 3ba4 de3c 25b8 72bd c56a 6abd
00000120: 8336 293c e7b5 a9bc 29fd 063d 4794 00bc
00000130: 0e55 a3bd 8ff2 97bc 3722 5a3d 0e34 153c
00000140: 882f 11bc 94d6 4e3d 6009 2cbd ac03 a9bc
00000150: e80d 58bc cd83 d03c 4d3b 75be 36ff 9f3c
00000160: 7398 2f3d d9f0 5ebd bb2b e03c e789 d43c
00000170: 9d56 3bbc a6f2 73bd d773 123c 9fb9 f63c
00000180: 5174 653a 11f3 84bd 319e 023d 42b5 31bc
00000190: 4db3 7cbd a7cd 8f3c a43d 8abd 4cfe 8f3c
000001a0: 2de2 7ebc fce5 29bd 97ba 333d 5094 673b
000001b0: e0fb 87bd 8294 40bc ff70 66bd 4807 2ebd
000001c0: 20d3 d7bb 3a1d 52bd 26d6 63bd a6da d83b
000001d0: 6802 18bd 5cd2 bd3c 61d1 bf3c 0d3f 64bd
000001e0: 4edd 99bb 02a8 4f3d 6cc5 80be 86d5 52be
000001f0: a406 023c a282 12bd deb1 943c dd0f bebc
00000200: 36b0 97bc 7be0 133d 730a f33c de18 e33c
00000210: 9b2b 35bd 925d 60bd 534f 51bd 54c7 873c
00000220: cfcd b33c 09a4 b23b 2b1e a4bc f80a 5b3d
00000230: d9a0 f6bc e2e7 7dbc 5ee5 6ebc a44b 243d
00000240: b01b 0b3d 75a1 50bd 021b 3dbd 1a7a a3bc
00000250: 2e80 a6bc 2df2 cc3c 8513 53bd 1e5c d43b
00000260: e658 bebc 8a64 35bd 1087 65bd c5b5 d93c
00000270: 217b dabc d353 6dbc c48b debb a505 efbc
00000280: 392f 5dbc 9956 69bc 95a4 d7bc d10a 3e3d
00000290: 232a 52bd 42d8 23ba 6da3 7bbd be9e e53c
000002a0: 2f51 82bc c72c 2c3d 7943 5a3d 3f76 84bb
000002b0: 7918 54bd 6765 81bb e563 863c b6cd 283d
000002c0: 656b 93bb 21ec b43b f6b0 a4bc dc92 ba3c
000002d0: 5696 0bbd b28b 943c 0211 babc 6302 68bd
000002e0: 2696 4a3c a54b 643a 74c1 ff3b c7ac 52bc
000002f0: 5195 82bd 70ce cdbb b227 19bd 245d 1abd
00000300: 5b6d 51be d60b 01bd beb8 61bc 7d10 173c
00000310: 1dd7 e23d 0830 943c 72a4 0dbd e13b e9bc
00000320: a3cc c63b c24b afbc b122 00bd 3592 b6bb
00000330: 2f9f 073c 36ba f0bc 5fca 23bd fdb2 963a
00000340: 14dc e33c c755 79bd 07f6 95bd 714d 2a3b
00000350: 7033 9cbd 9b2b 43bd 51eb 2cbd b71b f93c
00000360: 4943 9a3c e04f 0bbb 701b 373d cc6e 61bd
00000370: ed97 983a 99c6 283d 8ad1 083d f79a 09bd
00000380: 0d0a 84bd c9b9 73bd 5f86 67bd 5f2d 5abc
00000390: ad2c 8ebc 034c f4bc 2047 55bd ccbb 413c
000003a0: d2d7 6bbd c887 2fbd be52 bcbb d05f c1bb
000003b0: 13a3 933a 0c8d 52bd 0ea3 45bd 313f bdbb
000003c0: d914 96bb 396b 343d 86f4 86bd 8069 72bd
000003d0: 8088 23bd 46e7 45bb be4d 023a bb76 1a3d
000003e0: 86de d9bb d139 8bbc 1d27 10bd 0a05 44bd
000003f0: 4ef2 a1bc 9911 603d daa3 20bd 67b2 82bc
-0.18630461 0.021363819 -0.061332654 0.027066784 -0.0020666847 -0.013052005 0.044710275 -0.05373827
-0.03463332 -0.10940871 -0.056128643 -0.12966768 0.008231456 -0.033077203 -0.038118538 -0.048592765
0.018597597 -0.052814398 0.034056127 -0.039467625 0.007608674 0.037040893 -0.04182455 -0.020670041
-0.033182476 -0.055089783 0.0042677927 -0.025053577 0.05316764 0.0043842006 0.055334248 -0.019554997
0.025644619 0.028402233 -0.025267033 0.031497184 -0.019902088 -0.047804262 0.008271151 0.025213655
0.043430034 0.033393927 0.053686757 0.02018468 -0.007526653 -0.021627741 0.007745436 0.041588727
-0.049249426 -0.05207067 -0.040841073 -0.032456636 0.03383405 -0.009345455 -0.0007009578 0.024121778
0.04937989 -0.010713236 3.0167415e-05 -0.06681283 -0.056599207 -0.036230598 -0.0021141083 0.009367906
-0.067640625 -0.0077974345 -0.0647875 0.008924449 0.028521305 0.02717792 -0.059257645 -0.05723073
0.010327938 -0.02071662 0.032956276 -0.007847852 -0.07975207 -0.018548278 0.053255286 0.009106649
-0.00886143 0.050497606 -0.04200113 -0.020631634 -0.013186909 0.025453473 -0.23948403 0.019530874
0.042869996 -0.05442891 0.027364602 0.025944663 -0.011434224 -0.05955758 0.008938751 0.030117808
0.0008752989 -0.06491674 0.031889144 -0.010846438 -0.061694432 0.017554117 -0.06750038 0.017577313
-0.015556854 -0.041479096 0.043879118 0.0035336204 -0.06639838 -0.011754157 -0.056260105 -0.042487413
-0.0065864474 -0.051297404 -0.05562415 0.006617862 -0.03711167 0.023171596 0.02341527 -0.055724192
-0.004695571 0.050697334 -0.2515062 -0.20589265 0.007936154 -0.035769112 0.01815122 -0.023200924
-0.018516641 0.036102753 0.029668069 0.027721819 -0.04423104 -0.054776736 -0.05110104 0.01657454
0.021948723 0.0054516834 -0.020033916 0.053477257 -0.030105995 -0.01549718 -0.014581053 0.0401112
0.03396195 -0.050935227 -0.046168335 -0.019955683 -0.020324793 0.025017822 -0.051532287 0.006480708
-0.02323575 -0.044285335 -0.05603701 0.026575932 -0.02667004 -0.014485317 -0.0067915637 -0.029177496
-0.013500028 -0.014241838 -0.026323596 0.046397034 -0.051309716 -0.00062501815 -0.06143515 0.028029796
-0.015907852 0.04203489 0.053287003 -0.0040424163 -0.05178115 -0.0039488557 0.016405055 0.041211806
-0.0044988864 0.005521313 -0.020103913 0.022775106 -0.03407892 0.018133018 -0.022713188 -0.0566429
0.0123649 0.00087087817 0.007805044 -0.012858576 -0.06376136 -0.006280713 -0.037391372 -0.037686482
-0.20451872 -0.03150543 -0.013776956 0.00922024 0.11076186 0.01808931 -0.034580655 -0.028470935
0.006066875 -0.021398429 -0.031283084 -0.0055716285 0.008277698 -0.029385667 -0.039987918 0.0011497434
0.027814902 -0.06087282 -0.073223166 0.00259861 -0.076269984 -0.047649007 -0.042216603 0.030408723
0.018830912 -0.0021257326 0.0447039 -0.055037305 0.0011641957 0.041205022 0.033402957 -0.03359505
-0.064472295 -0.05950335 -0.05652463 -0.013316481 -0.017355287 -0.029821401 -0.052069783 0.011824559
-0.05757887 -0.0428541 -0.0057471683 -0.0059013143 0.001126381 -0.051404044 -0.048251204 -0.0057753553
-0.004580122 0.044047568 -0.06589608 -0.059182644 -0.0399251 -0.0030197664 0.0004970691 0.037710886
-0.0066488413 -0.016995342 -0.03519355 -0.047856368 -0.01976886 0.054704282 -0.03921876 -0.01595421

base.seq_fcs.2.bias f4 [256]
00000000: 7951 383a f805 823d 282c ff3a 938a d33d
00000010: 12af 173e 8cfd bcbb 1b4b 103e 8643 243d
00000020: 32e6 493d 1864 0b3e c74c f6ba 0d0c ff3d
00000030: 360b 26ba a76d e7ba a9a1 d03c 9909 763d
00000040: 3112 173e 97ee 143d f9c0 a63c 4f2c 3a3d
00000050: b880 bb3d 750f 293d 1e76 8b3d a9bc 0e3e
00000060: 67d8 48b9 875b ab3c 1002 c23d d5d5 bbbb
00000070: 6d17 4fbb 2e1a c43d 8ed2 c03d 5bb8 a03d
00000080: 3dfc c63d 9d2d 0e3e b768 6a3d 9749 0b3e
00000090: 0b99 853c 00da b73d 7f7b ff3c e039 823d
000000a0: e77d 373d 1380 143e 615b b13d 9a55 133e
000000b0: 1ce3 063d 980b fe3d 6cdb 463d ee60 85bb
000000c0: 7e18 b63d ee19 9a3d 0cfc 683d da61 ac3d
000000d0: 6b42 f73c b540 153d 8e29 313d a753 bcb9
000000e0: b6ca 053d 86c3 d73c 7955 163d b9c8 943d
000000f0: 83f7 9eb8 7cdd 3eb8 8164 a93d 3870 0d3e
00000100: 1eb1 0a3e e7d7 95ba c9b2 053d 7497 113e
00000110: 0228 f13c 4f13 11bb a99a bb3d 7597 393e
00000120: 5c42 cc3d c588 e93d 32b8 813d a116 083e
00000130: f3b8 c73d d79c 103e 379a e23c 4acc 113e
00000140: d226 a33c 5444 353d 45bb a13c 71d0 183d
00000150: d6b7 873d 0555 823a b2e9 8db9 cc02 0d3e
00000160: 0f58 5c3d 8311 9b3d 5299 b2bb 1879 513c
00000170: 7f66 2a3d 51e5 5a3d 8bd6 a73d 055f cd3d
00000180: 7620 f83c fb00 f73c 5a23 153e f87f 003e
00000190: 51e0 903d 1fc3 dc3d 05bb 723d 4abd 893d
000001a0: 8075 153e 9ecb 113e 32f4 aa3d da5e ae3d
000001b0: cf31 eeb9 c3a8 ac3d 6db3 da3d 2844 8a3d
000001c0: 7920 be3c 9e08 223e f9aa 503d 3418 4d3d
000001d0: f204 0d3e d437 923d d32d 8c3d b88c 1a3e
000001e0: e4b9 0e3d 4c03 113e 99a8 aa3c 9573 cd3d
000001f0: 4eb2 643d 259b f73c 3067 bb3d 3ab8 c23d
00000200: c793 b43d a004 1c3e 54d2 a53d 3713 053e
00000210: 1d34 913d 5ef1 b5bb 4ccc 0f3e 1512 b33d
00000220: fbca b93d 3885 b03d b259 053e da93 0c3e
00000230: 225d 913d 8453 f03c c039 113e 1fd7 413d
00000240: 8dd1 8f3d 9069 073e 1d50 343e f036 893d
00000250: 21bb c73c e30c 5b3d 277a c33d 2719 e53d
00000260: 56d3 583d a91f 0f3e 7bf2 a03d a43e 1b3d
00000270: 2e95 ab3d 2319 483d 6d08 ba3d 9637 8e3d
00000280: a35c 8f3d 9568 1f3e c728 0f3d 7eed 983d
00000290: 84c3 123e 18b6 2dbb 4f62 8b3d e786 ca3d
000002a0: e88c 0f3e 9509 053d 5a11 113e e177 993d
000002b0: 0640 d43c e938 133e d007 ef3d d8b6 2b3d
000002c0: f14d c83d f8ef c23d 0db3 853d 7ce5 d73a
000002d0: e06b 833d 7ce0 123e f45f aa3d 8258 bd3d
000002e0: e1a2 be3c 84a1 163e d38a 7f3d eb92 a23d
000002f0: db53 123e a391 183e b1ec 0c3e 29f5 813d
00000300: 36f9 bd3d 364c cb3d 65d9 613d 4feb c83d
00000310: bef4 f43d 6b75 73bb 5603 b73d bbd6 923c
00000320: 29a0 0c3e c10a 963a 26f1 b33d 9087 e73c
00000330: 80bc 093d f90b 193e 50c0 1e3d 2d6d 203e
00000340: 7c86 a73c b2a7 dc3a 7c78 ff3c 890e cf3d
00000350: 83ea 023e 6ce9 0e3e 5b83 8f3c 1e68 9fbb
00000360: e182 163e 2ede eb3c 71eb 3f3e 8b52 d3ba
00000370: 4f6a 0c3e 6591 a83d aaac 173e c862 a93d
00000380: 82ef c33d 3471 043e 2791 113e 5769 0c3e
00000390: ab2a a63d 3195 c83d 02ae b2ba d9b0 e3b9
000003a0: 3427 fb3c 2633 13ba 5c76 c73d a4b2 f73c
000003b0: 0d12 d6bb d082 bf3c ef76 0f3e 06ba f53c
000003c0: 2591 a73d 0b89 dbbb 2148 3c3d dc05 193e
000003d0: 5e10 103d 927a b13d bc00 093e 54ee 1d3e
000003e0: 2f5d de3c 8d52 213e 758c d43d 31fd 123e
000003f0: 30ca 113d 65a8 21b9 9a8a bb3d 0863 a0b8
0.00070311833 0.06348795 0.0019468116 0.10329165 0.14812878 -0.00576753 0.1409115 0.040103458
0.049291797 0.13612401 -0.0018791192 0.124534704 -0.0006334068 -0.001765658 0.02546771 0.060067747
0.14753033 0.03636035 0.020355688 0.045452412 0.091554105 0.041274507 0.068096384 0.13939156
-0.00019154102 0.020917667 0.0947305 -0.005732278 -0.0031599656 0.09575306 0.0941516 0.07847663
0.097160794 0.13884588 0.05722877 0.13602291 0.016308328 0.08977127 0.031186817 0.06358695
0.044797804 0.14501981 0.08660007 0.14388123 0.032931432 0.12404555 0.0485491 -0.004070393
0.0889139 0.07524477 0.056880996 0.08417101 0.030183038 0.036438663 0.04325252 -0.0003592048
0.032664023 0.02633835 0.036702607 0.07264847 -7.58013e-05 -4.5505803e-05 0.08271123 0.1381234
0.13544127 -0.0011432142 0.032641206 0.14217931 0.029438023 -0.0022136753 0.091603585 0.18124183
0.099735945 0.1140304 0.063339606 0.13289882 0.09752073 0.1412233 0.027661426 0.14238086
0.019915972 0.044254616 0.019742617 0.03730816 0.06626861 0.0009943551 -0.00027067732 0.13770598
0.053794917 0.075716995 -0.005450406 0.012785219 0.041601654 0.05344135 0.08195218 0.10027889
0.030288916 0.030151835 0.14564267 0.12548816 0.07074035 0.10779404 0.059260387 0.06725557
0.14595604 0.1423783 0.08347358 0.08514185 -0.00045432008 0.08430626 0.10678754 0.06751281
0.023208844 0.158236 0.050944302 0.05007191 0.13771418 0.071395546 0.06844678 0.15092742
0.034845248 0.14161414 0.020832347 0.10031811 0.055834107 0.030225346 0.09150541 0.09507795
0.08817249 0.1523614 0.080967575 0.12995611 0.07090018 -0.005552455 0.14042777 0.08743683
0.090719186 0.086191595 0.13022497 0.13728276 0.07097842 0.029336698 0.14182186 0.047324296
0.070223905 0.13223863 0.17608686 0.066999316 0.024381222 0.053479087 0.09544783 0.11186438
0.05293592 0.13976921 0.078587495 0.037901536 0.08378063 0.048852097 0.09083638 0.06944196
0.07000091 0.15567239 0.034950998 0.07467173 0.14332396 -0.0026506241 0.0680586 0.09889012
0.14018595 0.03247984 0.14166775 0.07493568 0.025909435 0.14377178 0.11671412 0.04192242
0.09780491 0.09518427 0.06528292 0.001647159 0.0641706 0.14343446 0.08319083 0.09245397
0.023271026 0.14710051 0.062388252 0.07938179 0.14289801 0.14899306 0.13762166 0.06345589
0.09276049 0.099266455 0.055138964 0.098105066 0.11960743 -0.0037148844 0.08936183 0.017924657
0.13732971 0.0011447297 0.0878623 0.028262883 0.033627033 0.14945973 0.038757622 0.15666647
0.02044987 0.0016834645 0.031185381 0.10110194 0.12784772 0.13956231 0.01751869 -0.0048647067
0.14698364 0.028792467 0.18742158 -0.0016122622 0.13712429 0.08230857 0.1481196 0.08270794
0.09567167 0.12933809 0.14215527 0.13712059 0.08113607 0.09794081 -0.0013632181 -0.00043428576
0.030658342 -0.00056152267 0.09739372 0.03023655 -0.0065329135 0.023377806 0.14010213 0.02999593
0.08181981 -0.0066996864 0.045967225 0.14943641 0.03517186 0.086659566 0.13379186 0.15422946
0.027144043 0.15754147 0.103783526 0.14354397 0.03559321 -0.00015416888 0.091572955 -7.6478405e-05

last.weight f4 [8, 256]
00000000: 7e23 22bd 4f80 363b dc9e dc3c 5e73 81bc
00000010: 07ec 19bc 73d7 9ebd 4188 53bc 6f16 db3d
00000020: 3e6d 093e 5ab9 7dbb e091 0cba 1e3c a83b
00000030: 86f6 4cbc 56cf 1abc a6de 693d 3040 f4bd
00000040: 9641 f9ba ab27 b03d 2e24 76bd 4376 d43d
00000050: 4e41 23bd 1540 0b3e 3741 1dbe c8be 9bbb
00000060: ead2 e9bd 133f cabc a305 72bd a60a 293c
00000070: ce59 01bc 00b0 80bd da9c 8bbd c429 19bd
00000080: 617a a7bc 58d6 6e3b 822a 2b3e 0f67 c4bc
00000090: b32e 9fbc aea5 0dbd fa7e 3e3d c80d 333e
000000a0: 5370 0c3e fb69 aa3b 0271 2ebd 32c6 0abd
000000b0: 7979 6f3d a48c ed3c 861f f73d 7d82 7b3c
000000c0: 080f 69bd fdf1 043b 074a 353e b896 323c
000000d0: 8192 653d b728 b93d 3e19 053e 626f a43b
000000e0: 5e65 ab3d 1fac 033d 7535 af3d e576 61b9
000000f0: e333 41bb a063 d7bd 717e 90bd a14b 90bc
00000100: ce0e dcbb 2e7a acbc dfff 8b3d 85d7 b73b
00000110: 1cd5 2b3d c0c2 71bd 197d 9ebc 1c67 c33c
00000120: ffa9 8abd f59c 1b3b 77c2 58bc 3718 55bd
00000130: 5200 e5bd 55fc 37bc 6959 e53c cd02 57bc
00000140: 3fae dd3c 1010 183e 7230 a23c 8718 023e
00000150: a72c 9fbd 0882 76bd 79f3 c4bd d4e8 edbb
00000160: ee4a 0a3e af4f a1bd e75b 6739 6d39 283d
00000170: 2cd9 d13d d89f 383e 20c7 61bd 0f32 163c
00000180: a2da c13d 1618 9c3c 7159 2abb 56c0 1bbb
00000190: 34e8 8ebd b3e5 d73b 6d23 3d3e f8f0 273d
000001a0: ca6c 58bb 2588 43bc 9962 f1bb fe8f 5b3e
000001b0: f1c1 cabd a2c8 5d3e e9ca 843c c1b0 aabd
000001c0: 1d2d beba 32cf 74bc 87a3 113e cd17 153e
000001d0: fb3f b5bc 864f f0bd 0c6c b0bd 0bbe 37bd
000001e0: 3b72 953d ba26 46ba 7ac3 9a3c b642 e03c
000001f0: 1c49 2a3e ba78 943d 17de babc 9705 f8bc
00000200: 1cdf 663e 72e0 04bd 9d89 b2bd 4e28 82bb
00000210: 3b8b 363e 1284 2cbc f57c 47bb 830a 08bd
00000220: 639a 59bd 3e6c 08bd 121b 4ebd f2f7 a1bb
00000230: 70e0 f5bd cda2 d53c a4a6 95bb c658 f73d
00000240: e222 74bd 648d 443d 0092 c43c a8b5 503e
00000250: a277 233c a99e 093e 0c69 19be 4f5d 94bd
00000260: 6238 0d3e f562 a6bc 554b 4a3c e944 d33d
00000270: a502 92bd 9df2 193e 05ff f6bc 6650 23bc
00000280: aa5d e7bc 28e9 03bd 03e2 c13d 594a 4bbd
00000290: 18bf 8b3c 3a51 d4bb 851d a8bd 83d7 dbbd
000002a0: af6f 80bc 615f 7f3d 6a0a 163b 2db2 41bd
000002b0: 9afe 0e3d 95c2 33bd 6d92 953c f919 0b3e
000002c0: c351 af3b 244d 27bd b7d9 b93d bddf 583c
000002d0: acc1 c9bd 617e ceba 0c69 4dbc b557 5abd
000002e0: b961 10bd 2a5f 31bb ee30 363d 4aeb a6bd
000002f0: b27f 74bb 6289 7dbc f2e7 783c 265f eebd
00000300: 541b 02bd cd23 49bd ca44 153e 27b8 c4b8
00000310: f8c5 a73c 796c 323c 10b1 bcbc d564 fb3b
00000320: 7e32 f3bc e096 79bc 01ef cabc 3a8c 953c
00000330: 546c e93c 6534 c7bb 2cb4 e13d f710 ca3c
00000340: f0ad fdbc 270b c33c 1871 45bb 030e 55bd
00000350: ec4d d83c f4ef 10bc 736b d1bb 65c5 43bd
00000360: ff03 1dbc 64d5 fb3c b96b a73c 2c8b 5c3b
00000370: cf28 d93c f44f 1cbc 70c6 63bc 249f 16bd
00000380: c55f 26bd 2126 a4bb 99a9 3fba c133 533c
00000390: c7a4 1abd 99ff 98bd 3cc2 af3b 6c80 8abd
000003a0: 2259 0c3b a52a cabd a755 8cbd 50bb 763d
000003b0: cd17 46bd cf0b 28bd b8e6 7bbb ced9 883d
000003c0: ac34 3f3d 69c8 033c 9b9a 1a3e c9e8 afbb
000003d0: e151 ca3d 1faf 37bd b836 883c dc5e fcbc
000003e0: 2558 4d3d 4c65 ac3c 8c0a 1ebd 3275 edbb
000003f0: d6ba ba3d e911 bfbd 8a0c a6bd 022b abbb
-0.03958463 0.0027847474 0.026931219 -0.015802082 -0.009394652 -0.077559374 -0.012910903 0.10697638
0.13420579 -0.0038715214 -0.0005362313 0.0051341197 -0.012509948 -0.009448847 0.0570971 -0.11926305
-0.0019016739 0.08601316 -0.060093097 0.10374119 -0.0398572 0.13598664 -0.15356909 -0.0047529675
-0.11417182 -0.02468828 -0.059087407 0.01031748 -0.007894946 -0.06283569 -0.068170264 -0.037393346
-0.020444097 0.0036443677 0.16715434 -0.023974923 -0.019431448 -0.034581833 0.046507813 0.17485726
0.13714723 0.005200622 -0.04258824 -0.03388042 0.058465455 0.028997727 0.120665595 0.015350935
-0.0568991 0.0020285838 0.1770402 0.010900192 0.05604792 0.09040969 0.1299791 0.0050181607
0.08368944 0.03214657 0.08555118 -0.00021501964 -0.002948039 -0.10517049 -0.07055367 -0.017614188
-0.006715632 -0.021054354 0.06835913 0.0056104087 0.041951284 -0.05902362 -0.01934676 0.023852877
-0.067707054 0.0023744677 -0.013229958 -0.052025046 -0.11181702 -0.011229594 0.027996736 -0.013123226
0.027060626 0.14849877 0.019798491 0.12704669 -0.07772189 -0.0601826 -0.09616751 -0.0072604213
0.13505146 -0.078765266 0.00022064113 0.04107039 0.102465004 0.18029726 -0.05512154 0.009167208
0.09465529 0.019054454 -0.0025993253 -0.0023765764 -0.06977883 0.0065886616 0.18470545 0.04100129
-0.0033023828 -0.011934315 -0.00736649 0.21441647 -0.09900273 0.21658567 0.016210036 -0.083344944
-0.0014509294 -0.014941977 0.14222537 0.1455986 -0.022125235 -0.11733918 -0.08614358 -0.044858973
0.07297178 -0.00075588713 0.018892039 0.02737556 0.16629452 0.07249589 -0.022810979 -0.030276103
0.22546047 -0.03244061 -0.08717654 -0.00397209 0.1782655 -0.010529535 -0.003043947 -0.03321315
-0.05312575 -0.033306353 -0.050318785 -0.0049428875 -0.12005699 0.026078606 -0.0045669843 0.12077479
-0.05960358 0.047986403 0.0239954 0.20381796 0.009977253 0.1343943 -0.14981478 -0.0724436
0.1379104 -0.020310858 0.012347062 0.10315878 -0.07129411 0.15033956 -0.0301509 -0.009967899
-0.028242905 -0.032204777 0.094669364 -0.04963145 0.017058894 -0.0064794095 -0.082087554 -0.10734465
-0.015678255 0.06234682 0.002289439 -0.047289062 0.034910776 -0.04388674 0.018258298 0.13584127
0.005350323 -0.04084505 0.09074729 0.013236937 -0.09851393 -0.0015754217 -0.012537252 -0.0533063
-0.035249446 -0.002706478 0.044480257 -0.081503466 -0.0037307558 -0.015474649 0.015192019 -0.11639242
-0.031764343 -0.049106408 0.14577022 -9.380309e-05 0.020480141 0.01089012 -0.023033649 0.007671932
-0.029687162 -0.015233725 -0.024772169 0.018255342 0.028494038 -0.006079244 0.11020693 0.024666293
-0.030966729 0.023809029 -0.0030127224 -0.052015316 0.026404344 -0.008846272 -0.006390983 -0.047795672
-0.009583472 0.030741401 0.020437108 0.003365229 0.026508717 -0.009540547 -0.013902292 -0.036772862
-0.040618677 -0.005009428 -0.0007311344 0.012890757 -0.0377548 -0.074706264 0.0053637307 -0.06762776
0.0021415432 -0.09871415 -0.068522744 0.06023723 -0.048362542 -0.041026887 -0.003843708 0.06682168
0.04668109 0.008043387 0.1509804 -0.0053683263 0.098788984 -0.044844743 0.016627654 -0.030806951
0.05013289 0.021044396 -0.038584277 -0.007246637 0.091176674 -0.09329588 -0.081078604 -0.005223633

last.bias f4 [8]
00000000: 35bc 653c ee23 073e 505c 193e 14eb 2fbd
00000010: f0d9 0fbc 6728 39bd d61f 84bd f4db f23c
0.014021923 0.131973 0.1497662 -0.042948797 -0.008779988 -0.045204546 -0.06451385 0.029645897
