Soft-Module-main/log/model50_new_11/model_qf_best.pth (torch, 284133 bytes, 5 tensors)

base.seq_fcs.0.weight f4 [256, 16]
0	0xbec6bfe1	-0.38818267
1	0x3e3ea247	0.18616591
2	0x3e1b98b7	0.15194975
3	0xbc3051f6	-0.0107617285
4	0x3d29859d	0.04138719
5	0x3d9a768b	0.075421415
6	0xbc952f30	-0.018210977
7	0xbd2ca7de	-0.042152278
8	0x3d7e01f8	0.062013596
9	0x3d9f815c	0.07788345
10	0x3dac7ec3	0.084226154
11	0x3d97eead	0.07418571
12	0xbcc4cb46	-0.02402271
13	0xbd14e38e	-0.036349826
14	0xbc95e950	-0.018299729
15	0xbcbfd88e	-0.023418691
16	0xbef09884	-0.4699136
17	0x3e74721d	0.23871656
18	0x3e6eb9c1	0.23313047
19	0x3da64a2f	0.08119618
20	0xbb85a64a	-0.004078661
21	0x3d87a4dc	0.06623241
22	0xb80fd000	-3.4287572e-05
23	0x3c452d30	0.012034699
24	0xbd65c470	-0.05609554
25	0x3dccf11d	0.10006926
26	0x3d1f3260	0.0388664
27	0x3bb597f4	0.005541796
28	0x3d6ac7fb	0.057319622
29	0x3d7defef	0.061996397
30	0x3cd44a74	0.025914408
31	0xbd9291dd	-0.071567275
32	0xbea82b06	-0.32845324
33	0x3e1ecec0	0.15508556
34	0x3e7b8d1c	0.24565548
35	0x3ce69882	0.028148893
36	0x3cbf8c0f	0.023382215
37	0x3cfb5a31	0.030682655
38	0x3d0f799a	0.035028078
39	0xba808700	-0.0009805858
40	0xbd7832dc	-0.06059538
41	0x3d9d43f7	0.07678979
42	0x3dabc881	0.083878525
43	0x3db38073	0.08764734
44	0x3d45251c	0.048131093
45	0xbd336294	-0.043795183
46	0x3d66411b	0.056214433
47	0xbd37492c	-0.044747517
48	0xbedb446b	-0.42825636
49	0x3e3c1107	0.1836587
50	0x3e87ea7d	0.26546088
51	0x3ced8c58	0.028997585
52	0x3d954129	0.07287819
53	0x3d384fce	0.044997983
54	0xbd206f00	-0.039168358
55	0xbcaf4030	-0.021392912
56	0x3ce550c4	0.027992614
57	0x3cc84eb5	0.024451593
58	0xbc2d9c1e	-0.010596303
59	0x3c98d653	0.018656885
60	0x3d6dab72	0.05802483
61	0xbd804cc6	-0.06264643
62	0x3d860271	0.065434344
63	0xbcf7c320	-0.03024441
64	0xbeb09890	-0.34491396
65	0x3e973e12	0.29539543
66	0x3e91375f	0.28362557
67	0x3dd1c535	0.102426924
68	0x3da90dda	0.08254595
69	0x3c80e799	0.015735434
70	0xbd6c9c84	-0.057766452
71	0x3d6aa468	0.057285696
72	0x3d21b86e	0.039482526
73	0x3da7391f	0.08165192
74	0x3b20923a	0.002450122
75	0x3db5cc4e	0.08876859
76	0xbd569f73	-0.052398156
77	0x3c7c38d3	0.015394407
78	0x3d7697a0	0.060203195
79	0xbcac7de5	-0.021056125
80	0xbedd90a4	-0.43274415
81	0x3e4b32e7	0.19843636
82	0x3e51cf78	0.204893
83	0x3c653359	0.013989293
84	0x3da6787e	0.08128451
85	0xbc483fbd	-0.012222228
86	0x3cc2d1dc	0.02378171
87	0xbc6d8980	-0.014498115
88	0x3c47e428	0.012200393
89	0x3c6ec5cd	0.014573527
90	0x3dafaeca	0.0857826
91	0x3c1bed72	0.009517061
92	0x3d7c6d24	0.061627522
93	0xbd8d4bf0	-0.068992496
94	0xbc9dc4b3	-0.019258833
95	0x3d5e712c	0.054307148
96	0xbeca4b40	-0.39510536
97	0x3e8d423b	0.27589592
98	0x3e82bd0f	0.25534865
99	0xbcc4c1f0	-0.024018258
100	0x3d15b077	0.036545243
101	0xbc15efe9	-0.009151437
102	0x3c40bea8	0.011764206
103	0xbd6ecc86	-0.058300517
104	0x3d4b7588	0.049672633
105	0xbc153f53	-0.009109336
106	0x3b97ea32	0.0046360726
107	0xbc8158ec	-0.015789472
108	0xbd44aacc	-0.048014447
109	0x3b97bf3e	0.004630952
110	0xbd3de734	-0.04636307
111	0xbd8ab0cf	-0.06772005
112	0xbedecad3	-0.43514118
113	0x3e49ab88	0.1969434
114	0x3e769c4e	0.24083063
115	0xbad2e13b	-0.0016088852
116	0x3d9294f7	0.07157319
117	0x3d4b69a5	0.049661297
118	0x3c87500c	0.016517662
119	0x3d7a120a	0.06105236
120	0x3ca8b1e8	0.020592645
121	0x3dab46e5	0.083631314
122	0x3dc46bfb	0.09590908
123	0x3d941593	0.072306775
124	0xbd32c745	-0.04364707
125	0x3d2ec078	0.04266402
126	0xbd2ee677	-0.042700257
127	0xbc24b975	-0.010053982
128	0xbed64092	-0.41846138
129	0x3e31746b	0.17329566
130	0x3e1bcc5d	0.15214677
131	0x3d81e33c	0.0634217
132	0x3d7a265d	0.061071742
133	0x3db71e86	0.08941369
134	0x3c0e01d0	0.008667424
135	0xbd4e04bc	-0.050297484
136	0x3a77c800	0.00094521046
137	0x3c940ec7	0.018073453
138	0x3d5bd0e8	0.053666025
139	0x3bf658cf	0.007517911
140	0xbd59a386	-0.053134464
141	0xbcebba6b	-0.028775414
142	0x3d953e19	0.07287235
143	0x3bcadca9	0.0061908555
144	0xbeb33249	-0.34999302
145	0x3e4c78b7	0.19967924
146	0x3e4e9362	0.2017341
147	0x3b76e7c5	0.0037674766
148	0x3d837bd4	0.06420103
149	0xbcca17fd	-0.024669642
150	0xbd788a92	-0.060679026
151	0x3c8bcd5c	0.017065696
152	0xbcc3331c	-0.023828082
153	0x3d6ebae3	0.058283698
154	0x3d3097de	0.04311358
155	0x3d13137a	0.035907246
156	0xbd851923	-0.06498935
157	0xbd425ba4	-0.047450677
158	0xba592187	-0.0008282889
159	0x3d3353dd	0.04378115
160	0xbebfbc65	-0.3744842
161	0x3e787d53	0.24266557
162	0x3e6ec50e	0.23317358
163	0x3d5404dd	0.05176245
164	0x3d87208e	0.06598006
165	0x3d93e390	0.072211385
166	0xbc49f958	-0.012327515
167	0xbcfb23d8	-0.03065674
168	0xbbde1f30	-0.00677862
169	0x3d5f3242	0.05449129
170	0x3dcec533	0.100962065
171	0x3de0e312	0.1098081
172	0xbc21658b	-0.00985087
173	0x3cf0ad86	0.029379617
174	0xbaa8ae81	-0.0012869389
175	0xbcaa6af5	-0.020802954
176	0xbeb236cd	-0.34807435
177	0x3e40d5dc	0.18831581
178	0x3e3bbaa2	0.18332914
179	0xbc345957	-0.011007628
180	0xbc005e47	-0.0078349775
181	0x3d8e98b9	0.06962723
182	0x3ae979c0	0.0017812774
183	0x3d1bfa6a	0.03808061
184	0x3d1ca70c	0.038245246
185	0x3ddb9dc9	0.107234545
186	0x3ddc8ce3	0.107690595
187	0x3dadd4d0	0.084878564
188	0x3adcc022	0.0016841928
189	0xbd8d193a	-0.06889577
190	0xbd0cf477	-0.034412827
191	0xbcf9bead	-0.03048643
192	0xbeb1ea20	-0.34748936
193	0x3e74d992	0.23911121
194	0x3e603432	0.21894911
195	0x3d447a88	0.047968417
196	0x3d47a0de	0.0487374
197	0x3dbf120f	0.09329616
198	0x3c7cfd40	0.015441239
199	0x3d132240	0.035921335
200	0x3b826510	0.0039793327
201	0x3dad2c55	0.08455721
202	0x3d1b6f2f	0.03794783
203	0x3daafea5	0.08349351
204	0xbccb53ab	-0.02482017
205	0x3cce3d05	0.02517558
206	0x3b8ca4d0	0.004292108
207	0x3d146532	0.03622932
208	0xbeade403	-0.33963022
209	0x3e73e03c	0.23816007
210	0x3e3944aa	0.180926
211	0xbbe960bc	-0.0071221273
212	0x3dc29e85	0.095028915
213	0x3b4191c0	0.0029536337
214	0xbc95bb24	-0.018277712
215	0x3d2bdf1c	0.04196082
216	0xbca42be8	-0.020040467
217	0xbc224bae	-0.009905739
218	0x3ad0b3d7	0.0015922737
219	0x3d940821	0.07228113
220	0x3d16d8f9	0.036828015
221	0xbbcab9b8	-0.00618669
222	0x3ccaca5e	0.0247547
223	0x3d000550	0.031255066
224	0xbee0a136	-0.43872994
225	0x3e839fb0	0.2570777
226	0x3e8e3aab	0.27779135
227	0x3da2c7f8	0.07948297
228	0x3bd2a895	0.006428788
229	0x3c900271	0.01757929
230	0x3c219d80	0.009864211
231	0x3d2b73e4	0.04185857
232	0xbc3fceb0	-0.011706993
233	0x3dd54ea7	0.10415392
234	0x3d3943ac	0.045230553
235	0xbb9469b6	-0.0045292033
236	0x3c9d3ece	0.019194987
237	0x3c8aca5c	0.016942196
238	0xbd35fc4c	-0.044430062
239	0xbd85a0ac	-0.06524786
240	0xbeba4d43	-0.3638707
241	0x3e5090bc	0.20367712
242	0x3e3ba076	0.1832293
243	0xbc39eb31	-0.011347578
244	0x3db4cdce	0.08828317
245	0x3dc28c45	0.094994105
246	0x3c6f2850	0.014597014
247	0x3d51e01c	0.051239118
248	0xbd76e134	-0.060273364
249	0x3c96f438	0.018427
250	0x3db19e36	0.086727545
251	0x3ddf7bd2	0.10912289
252	0x3d33adc8	0.043866903
253	0x3b0080f4	0.0019608112
254	0xbd3e7f59	-0.046508167
255	0xbd5fcc0d	-0.054637957

base.seq_fcs.0.bias f4 [256]
0	0x3e0e977b	0.13924973
1	0x3e161979	0.14658155
2	0x3e0f04f2	0.1396673
3	0x3e15b26e	0.14618847
4	0x3e15e77e	0.14639089
5	0x3e1719f6	0.14755997
6	0x3e0d0bdc	0.13774055
7	0x3e174305	0.1477166
8	0x3e175af9	0.14780797
9	0x3e0c83a0	0.13722086
10	0x3e17930a	0.14802185
11	0x3e14b2c1	0.14521314
12	0x3e16fe2b	0.14745395
13	0x3e16e8f9	0.1473731
14	0x3e12d3b1	0.14338566
15	0x3e17dbc8	0.14829934
16	0x3e12cbb4	0.14335519
17	0x3e170b2a	0.14750353
18	0x3e14f734	0.14547426
19	0x3e17030c	0.14747256
20	0x3e16b02c	0.14715642
21	0x3e1421ee	0.14466068
22	0x3e14ffb1	0.14550664
23	0x3e0d0c29	0.1377417
24	0x3e0d4e1a	0.13799325
25	0x3e126040	0.14294529
26	0x3e16c284	0.1472264
27	0x3e168074	0.14697438
28	0x3e16c821	0.1472478
29	0x3e0ae5d5	0.13564236
30	0x3e0ebaea	0.1393849
31	0x3e0295e7	0.12752496
32	0x3e136b17	0.1439632
33	0x3e16edcf	0.14739154
34	0x3e142e6b	0.14470832
35	0x3e1570ad	0.14593764
36	0x3e14e1d5	0.14539273
37	0x3e16cdf6	0.14727005
38	0x3e121f4e	0.14269754
39	0x3e15f1cb	0.14643018
40	0x3e16f38e	0.14741346
41	0x3e10336e	0.14082119
42	0x3e14cd31	0.145314
43	0x3e11d954	0.1424306
44	0x3e0ec30d	0.13941593
45	0x3e0bc03b	0.13647549
46	0x3e167b57	0.14695488
47	0x3e0ad814	0.1355899
48	0x3e1258a7	0.1429163
49	0x3e17aaff	0.14811324
50	0x3e16f752	0.14742783
51	0x3e0fa42a	0.14027467
52	0x3e10984a	0.14120594
53	0x3e12cbeb	0.14335601
54	0x3e08a49c	0.13344043
55	0x3e15d2ad	0.14631148
56	0x3e16524e	0.14679834
57	0x3e1477fa	0.14498892
58	0x3e139dd5	0.14415677
59	0x3e0c0a5b	0.13675825
60	0x3e1540e4	0.14575535
61	0x3e184115	0.14868577
62	0x3e1752f5	0.1477774
63	0x3e17f884	0.14840895
64	0x3e14faf8	0.14548862
65	0x3e15a1f9	0.14612569
66	0x3e168ca3	0.14702086
67	0x3e16df26	0.14733562
68	0x3e0cc2e2	0.13746217
69	0x3e1248b2	0.14285544
70	0x3e16f558	0.14742029
71	0x3e156a2d	0.14591284
72	0x3e158092	0.14599827
73	0x3e166183	0.14685635
74	0x3e0bea2a	0.13663545
75	0x3e16bfc3	0.14721589
76	0x3e14b569	0.14522327
77	0x3e12417c	0.14282793
78	0x3e05c73a	0.1306428
79	0x3e0cb384	0.13740355
80	0x3e0b7c29	0.13621582
81	0x3e0e1c51	0.1387799
82	0x3e1487b6	0.14504895
83	0x3e176654	0.14785129
84	0x3e164e64	0.14678341
85	0x3e0bb07e	0.13641545
86	0x3e105810	0.14096093
87	0x3e164246	0.14673719
88	0x3e1636cc	0.14669341
89	0x3e112620	0.141747
90	0x3e0c90f2	0.13727167
91	0x3e16d5c0	0.14729977
92	0x3e168972	0.14700869
93	0x3e17088d	0.14749356
94	0x3e167d13	0.1469615
95	0x3e0fe609	0.14052595
96	0x3e10f6d8	0.14156663
97	0x3e11719b	0.14203493
98	0x3e15fc8a	0.14647117
99	0x3e162510	0.14662576
100	0x3e1695b6	0.14705548
101	0x3e11c54a	0.14235416
102	0x3e170cb9	0.14750947
103	0x3e1605a4	0.14650589
104	0x3e166328	0.14686263
105	0x3e1591e5	0.14606436
106	0x3e161cc1	0.14659406
107	0x3e0e57ce	0.13900682
108	0x3e0dfd00	0.13866043
109	0x3e1136d4	0.14181072
110	0x3e155c7e	0.14586064
111	0x3e0d2d94	0.13786918
112	0x3e1112a1	0.14167263
113	0x3e0b89f6	0.13626847
114	0x3e02dfdf	0.12780713
115	0x3e15fed1	0.14647986
116	0x3e15229b	0.14563982
117	0x3e164db5	0.1467808
118	0x3e174c75	0.1477526
119	0x3e162277	0.14661585
120	0x3e159c5f	0.14610432
121	0x3e1648a8	0.14676154
122	0x3e115444	0.14192301
123	0x3e16edd2	0.14739159
124	0x3e17c524	0.14821297
125	0x3e165679	0.14681424
126	0x3e0c6534	0.13710481
127	0x3e143635	0.14473803
128	0x3e06335d	0.13105531
129	0x3e14dce4	0.14537388
130	0x3e115778	0.14193523
131	0x3e162b1c	0.14664882
132	0x3e13db89	0.14439215
133	0x3e1709b6	0.14749798
134	0x3e1509e6	0.14554557
135	0x3e15dc8d	0.14634915
136	0x3e163dee	0.14672062
137	0x3e0d072a	0.13772264
138	0x3e1834f8	0.14863956
139	0x3e17643d	0.14784332
140	0x3e167f2e	0.14696953
141	0x3e17f646	0.1484004
142	0x3e16b5f5	0.14717849
143	0x3e16dd16	0.14732775
144	0x3e176b5a	0.14787045
145	0x3e15e75d	0.1463904
146	0x3e13bcc7	0.14427482
147	0x3e16b11e	0.14716002
148	0x3e168576	0.14699349
149	0x3e0f0f75	0.1397074
150	0x3e134e78	0.14385402
151	0x3e170c77	0.14750849
152	0x3e177457	0.14790474
153	0x3e100960	0.14066076
154	0x3e165415	0.14680512
155	0x3e0aad1f	0.13542603
156	0x3e16e5e9	0.14736141
157	0x3e162909	0.14664091
158	0x3e10cdd5	0.14141019
159	0x3e18aac9	0.149089
160	0x3e12fa8f	0.14353393
161	0x3e1640f6	0.14673218
162	0x3e16a73e	0.14712235
163	0x3e0d3523	0.13789801
164	0x3e0d9b69	0.13828816
165	0x3e08c011	0.13354518
166	0x3e11c9fb	0.14237206
167	0x3e06eb03	0.13175587
168	0x3e164d5b	0.14677946
169	0x3e154a9c	0.14579242
170	0x3e0b72c1	0.13617994
171	0x3e172648	0.14760697
172	0x3e166612	0.14687374
173	0x3e0d5419	0.13801612
174	0x3e124c1b	0.14286844
175	0x3e163e29	0.1467215
176	0x3e0c57b4	0.13705331
177	0x3e1280eb	0.14306991
178	0x3e12cf94	0.14336997
179	0x3e17895e	0.14798495
180	0x3e088263	0.13330989
181	0x3e1205eb	0.1426007
182	0x3e17d403	0.1482697
183	0x3e0703ec	0.1318509
184	0x3e12155b	0.14265959
185	0x3e0f4e69	0.13994755
186	0x3e171c10	0.14756799
187	0x3e17ad2e	0.14812157
188	0x3e0ffb09	0.14060606
189	0x3e15eaa5	0.14640291
190	0x3e13ba05	0.1442643
191	0x3e11ad4a	0.14226261
192	0x3e167c5b	0.14695875
193	0x3e1229e8	0.14273798
194	0x3e17189c	0.14755481
195	0x3e0e6b4e	0.13908121
196	0x3e0c6ff4	0.13714582
197	0x3e166613	0.14687376
198	0x3e0f5972	0.13998964
199	0x3e10929d	0.14118429
200	0x3e15ea80	0.14640236
201	0x3e16c0c0	0.14721966
202	0x3e136d86	0.14397249
203	0x3e16d4e2	0.14729646
204	0x3e127809	0.14303602
205	0x3e11c673	0.14235859
206	0x3e1607de	0.14651439
207	0x3e109f25	0.14123209
208	0x3e130753	0.14358263
209	0x3e17af8b	0.14813058
210	0x3e0a4b49	0.13505282
211	0x3e0bfe49	0.13671221
212	0x3e1024ba	0.1407651
213	0x3e09102f	0.1338508
214	0x3e183761	0.14864875
215	0x3e1472e8	0.14496958
216	0x3e151060	0.14557028
217	0x3e15fd5b	0.14647429
218	0x3e13e785	0.14443786
219	0x3e074e56	0.13213477
220	0x3e166d50	0.14690137
221	0x3e15112b	0.1455733
222	0x3e16c417	0.1472324
223	0x3e17967f	0.14803503
224	0x3e09a47e	0.13441655
225	0x3e163fb9	0.14672746
226	0x3e187506	0.14888391
227	0x3e1677ec	0.14694184
228	0x3e13b1e5	0.1442333
229	0x3e11761b	0.1420521
230	0x3e0dfc6d	0.13865824
231	0x3e14d0f1	0.1453283
232	0x3e0e5b92	0.13902119
233	0x3e115da9	0.14195885
234	0x3e161f78	0.14660442
235	0x3e150d84	0.14555937
236	0x3e0fdfa2	0.14050153
237	0x3e0bf0cb	0.13666074
238	0x3e130a98	0.1435951
239	0x3e0b5cc9	0.13609613
240	0x3e14617d	0.14490314
241	0x3e173995	0.1476806
242	0x3e160b65	0.14652784
243	0x3e17375c	0.14767212
244	0x3e110bc3	0.14164643
245	0x3e153b88	0.1457349
246	0x3e0966f6	0.13418183
247	0x3e15facd	0.14646454
248	0x3e0c3bfb	0.13694756
249	0x3e0dd3a9	0.13850273
250	0x3e139fc6	0.14416417
251	0x3e01eca2	0.12687925
252	0x3e154ca2	0.14580014
253	0x3e17ab81	0.14811517
254	0x3e16bfac	0.14721555
255	0x3e15340f	0.1457064

base.seq_fcs.2.weight f4 [256, 256]
0	0x3d5ef3b5	0.054431636
1	0x3e326988	0.1742307
2	0x3e0b5e1a	0.13610116
3	0x3de8bba0	0.11363912
4	0x3de19dbb	0.11016413
5	0x3dd3750f	0.103250615
6	0x3e0d638a	0.13807502
7	0x3e08f7c8	0.13375771
8	0x3e1bf964	0.15231854
9	0x3e19e061	0.15027
10	0x3d695afe	0.056971543
11	0x3d860bea	0.06545241
12	0x3d6c7937	0.057732787
13	0x3e2d771c	0.16939968
14	0x3e3ad13d	0.1824388
15	0x3e13509f	0.14386223
16	0x3d573fd2	0.0525511
17	0x3d49753f	0.04918408
18	0x3da9bacc	0.08287582
19	0x3dfa1734	0.12211457
20	0x3dd64f71	0.10464371
21	0x3d47daa7	0.048792507
22	0x3dd8564c	0.10563335
23	0x3e1acd03	0.15117268
24	0x3d78a0d1	0.06070024
25	0x3dc71096	0.097199604
26	0x3dd0f35c	0.10202667
27	0x3de4486c	0.11146626
28	0x3d91e00f	0.07122814
29	0x3e024b43	0.12724023
30	0x3d8f1330	0.069860816
31	0x3e1b9694	0.1519416
32	0x3e2b4e6a	0.16729131
33	0x3e222220	0.1583333
34	0x3e20b48e	0.15693876
35	0x3e3131f6	0.17304215
36	0x3dc82371	0.09772385
37	0x3db4cc5f	0.08828043
38	0x3e28d228	0.16486418
39	0x3e2de113	0.1698039
40	0x3defc73d	0.117079236
41	0x3da51ced	0.08062158
42	0x3de14c33	0.11000862
43	0x3de2c2bc	0.11072299
44	0x3e112b53	0.14176683
45	0x3e0cdcc4	0.1375609
46	0x3e00873d	0.1255159
47	0x3e0d2f82	0.13787654
48	0x3e17da9f	0.14829491
49	0x3dc3847f	0.09546756
50	0x3dd1ac38	0.10237926
51	0x3dbcbc65	0.09215621
52	0x3dc29f13	0.09502997
53	0x3db73f50	0.08947623
54	0x3e0d3326	0.13789043
55	0x3d7b4f37	0.061354842
56	0x3d8d7d4d	0.06908665
57	0x3de8025a	0.113285735
58	0x3dd31536	0.1030678
59	0x3deeb18f	0.1165496
60	0x3d9c7e9d	0.07641337
61	0x3e0a63b2	0.13514593
62	0x3d492961	0.049111728
63	0x3d6d27ba	0.057899214
64	0x3dec69f7	0.11543649
65	0x3e162c51	0.14665343
66	0x3dae8a01	0.08522416
67	0x3de9702a	0.11398347
68	0x3d917332	0.0710205
69	0x3e2bf44e	0.16792414
70	0x3dc15527	0.0944007
71	0x3dc4cf59	0.09609861
72	0x3d957bd6	0.072990105
73	0x3dedd551	0.116129525
74	0x3e1c8408	0.15284741
75	0x3e1ad6bf	0.15120982
76	0x3d55f092	0.05223138
77	0x3d8fd876	0.070237085
78	0x3dd01753	0.10160699
79	0x3e20b31a	0.15693322
80	0x3dd0c3c9	0.10193593
81	0x3e42d4d3	0.19026498
82	0x3dbeffe8	0.09326154
83	0x3e289cef	0.16466115
84	0x3e3158c9	0.17319025
85	0x3e2a3a27	0.16623746
86	0x3df0e87f	0.11763095
87	0x3e215495	0.15754922
88	0x3d8b3faa	0.06799252
89	0x3e28e881	0.16494943
90	0x3da65bd3	0.08122983
91	0x3d50f672	0.05101628
92	0x3e124c41	0.14286901
93	0x3ddc9501	0.10770608
94	0x3d7c832b	0.06164853
95	0x3d9a1590	0.07523644
96	0x3d96f648	0.07371193
97	0x3e147369	0.1449715
98	0x3e370dbb	0.17876332
99	0x3ddddec6	0.10833506
100	0x3d94cb27	0.07265311
101	0x3d7659bb	0.060144167
102	0x3d316350	0.043307602
103	0x3df36458	0.118843734
104	0x3e2be3c7	0.16786109
105	0x3dc2ab68	0.095053494
106	0x3e1a612b	0.15076129
107	0x3dc832ea	0.09775336
108	0x3da4efda	0.080535606
109	0x3dc4d268	0.09610444
110	0x3db1846a	0.08667834
111	0x3e1d5976	0.15366158
112	0x3d837857	0.064194374
113	0x3df92efb	0.12167164
114	0x3e1e0609	0.1543199
115	0x3e040cac	0.12895459
116	0x3d8a3d1a	0.067499354
117	0x3e075470	0.13215804
118	0x3e127006	0.14300546
119	0x3e00d294	0.12580329
120	0x3db59fe7	0.088683896
121	0x3d7f925c	0.06239544
122	0x3da2dd4f	0.079523675
123	0x3db81286	0.08987908
124	0x3da84789	0.08216769
125	0x3dd3d6e2	0.1034372
126	0x3dfabe1b	0.12243291
127	0x3e20dcba	0.157092
128	0x3dc0ae8b	0.094082914
129	0x3e3473d7	0.17622314
130	0x3dc7a379	0.09747977
131	0x3d8ddd95	0.06927029
132	0x3e3168ad	0.17325087
133	0x3dec139c	0.11527178
134	0x3df8af84	0.12142852
135	0x3d3f7ccd	0.04674988
136	0x3df0e1c0	0.117618084
137	0x3e0fe763	0.14053111
138	0x3d2d5b6a	0.042323507
139	0x3d7ccc20	0.061718106
140	0x3e27333f	0.16328143
141	0x3de42e52	0.111416474
142	0x3df67caa	0.120354965
143	0x3e10d0a9	0.14142098
144	0x3dae06a7	0.084973626
145	0x3e02bef4	0.12768155
146	0x3d9f6972	0.07783784
147	0x3e03555f	0.12825535
148	0x3e115cd9	0.14195575
149	0x3de514de	0.11185621
150	0x3e09f573	0.13472538
151	0x3e27bddc	0.1638102
152	0x3dc9ad73	0.09847536
153	0x3d8508e5	0.06495837
154	0x3e26a6b8	0.16274536
155	0x3e045086	0.12921342
156	0x3e1aa0f1	0.15100457
157	0x3db3712d	0.08761821
158	0x3dd738a9	0.10508854
159	0x3dafb3c6	0.08579211
160	0x3d9a63e5	0.075385846
161	0x3e0ac030	0.13549876
162	0x3d255dcf	0.040372666
163	0x3e217f95	0.15771325
164	0x3de9c54f	0.11414587
165	0x3d8b7b7b	0.068106614
166	0x3d821788	0.063521445
167	0x3dd33f40	0.10314798
168	0x3da6989a	0.08134575
169	0x3dff2a0c	0.12459192
170	0x3e26ae00	0.16277313
171	0x3daa2194	0.08307186
172	0x3db4621c	0.088077754
173	0x3e34f7cf	0.17672656
174	0x3d646cd5	0.055767853
175	0x3da43137	0.080171995
176	0x3dd08bef	0.1018294
177	0x3d57e315	0.052706797
178	0x3e1f5019	0.15557899
179	0x3db18e4e	0.086697206
180	0x3e0a65d2	0.13515404
181	0x3db43b52	0.08800377
182	0x3e12f63a	0.1435174
183	0x3d99b3fe	0.07505034
184	0x3d6592ba	0.056048132
185	0x3e242a68	0.16031802
186	0x3dc5e4a1	0.09662748
187	0x3dedf391	0.11618722
188	0x3d9a6f2e	0.07540737
189	0x3e1bd2c5	0.15217121
190	0x3e10cf7a	0.14141646
191	0x3e1e5539	0.15462197
192	0x3df8b567	0.12143975
193	0x3e063bf8	0.13108814
194	0x3e13e05a	0.14441052
195	0x3de12135	0.10992662
196	0x3df2c653	0.118542336
197	0x3da8363b	0.08213469
198	0x3e034154	0.1281789
199	0x3dee8cfb	0.11647984
200	0x3e041c45	0.12901409
201	0x3dd9c769	0.106337376
202	0x3e0920da	0.13391438
203	0x3d79c4df	0.060978767
204	0x3e3389ab	0.17532985
205	0x3e14d2a7	0.14533482
206	0x3e2e20a2	0.17004636
207	0x3d660076	0.056152783
208	0x3d797fc7	0.060912874
209	0x3e1a354b	0.15059392
210	0x3dba0f70	0.09084976
211	0x3dbcd89c	0.092210025
212	0x3df2831e	0.11841415
213	0x3e11e2fc	0.14246744
214	0x3dd4b052	0.10385193
215	0x3d9105ce	0.07081185
216	0x3e25f23e	0.1620569
217	0x3da95830	0.082687736
218	0x3e2654b3	0.16243248
219	0x3d5c29ae	0.053750686
220	0x3dcab406	0.09897618
221	0x3e2c328b	0.16816156
222	0x3ddd596f	0.10808074
223	0x3da8400d	0.08215342
224	0x3dd59921	0.10429598
225	0x3e286603	0.16445164
226	0x3d147616	0.036245428
227	0x3e106aa6	0.14103183
228	0x3de56cf5	0.112024225
229	0x3e154473	0.14576893
230	0x3e0d3432	0.13789442
231	0x3df1e544	0.11811307
232	0x3dd0625c	0.101750106
233	0x3d7c9321	0.06166375
234	0x3de6a7ef	0.112624995
235	0x3e22c9a1	0.15897228
236	0x3daf26e1	0.085523374
237	0x3dcd8468	0.1003502
238	0x3dd389c6	0.103290126
239	0x3daf7061	0.085663565
240	0x3dee88f8	0.116472185
241	0x3dd5bd4d	0.10436497
242	0x3e35653c	0.17714399
243	0x3e03e6ee	0.12881061
244	0x3db65b2b	0.08904108
245	0x3e00438a	0.12525764
246	0x3e1fa0eb	0.15588729
247	0x3dc27d4c	0.09496555
248	0x3e0989b6	0.13431439
249	0x3e2bc026	0.16772518
250	0x3d75a532	0.059971996
251	0x3e095945	0.1341296
252	0x3dda1aca	0.10649641
253	0x3e0d1b76	0.13780007
254	0x3e0ef942	0.13962272
255	0x3db5ef21	0.08883501

base.seq_fcs.2.bias f4 [256]
0	0x3e1540df	0.14575528
1	0x3e135e3d	0.14391418
2	0x3e11b1e8	0.14228022
3	0x3e0f855d	0.14015718
4	0x3e14366f	0.1447389
5	0x3e148638	0.14504325
6	0x3e0f2a5d	0.13981004
7	0x3e14c1f6	0.14527115
8	0x3e0f2a20	0.13980913
9	0x3dc33cff	0.095331185
10	0x3e146de5	0.14495046
11	0x3e0dbcc9	0.13841547
12	0x3e147314	0.14497024
13	0x3e0da3d6	0.1383203
14	0x3e12b190	0.14325547
15	0x3e14af70	0.14520049
16	0x3e12723e	0.14301392
17	0x3e153355	0.14570363
18	0x3e140a71	0.14457108
19	0x3e13fb0e	0.14451239
20	0x3e14cace	0.14530489
21	0x3e14df8e	0.14538404
22	0x3e1104f7	0.1416205
23	0x3e14164a	0.14461628
24	0x3e1459f2	0.14487436
25	0x3e13117f	0.14362143
26	0x3e14ed02	0.14543536
27	0x3e13e945	0.14444454
28	0x3e1438c7	0.14474784
29	0x3e11b32c	0.14228505
30	0x3e153a93	0.14573126
31	0x3e14f433	0.1454628
32	0x3e14223a	0.14466181
33	0x3e110a35	0.1416405
34	0x3e0fc098	0.14038312
35	0x3e148e6a	0.14507452
36	0x3e14dfa5	0.14538439
37	0x3e0dd8e3	0.13852267
38	0x3e152eea	0.14568678
39	0x3e0aa6a6	0.13540134
40	0x3e14cf6e	0.14532253
41	0x3e145b1b	0.14487879
42	0x3e1526d5	0.14565594
43	0x3e14231e	0.14466521
44	0x3e12c612	0.1433337
45	0x3e142b9f	0.14469765
46	0x3e13f4fc	0.14448923
47	0x3e1031f2	0.14081553
48	0x3e141157	0.1445974
49	0x3e14a633	0.14516525
50	0x3dc50a26	0.09621076
51	0x3dc4cf4a	0.0960985
52	0x3e113a43	0.14182381
53	0x3e14bb1e	0.14524505
54	0x3e14aeaa	0.14519754
55	0x3e13e696	0.1444343
56	0x3e143a60	0.14475393
57	0x3e1262b5	0.14295466
58	0x3e148c4b	0.14506643
59	0x3dc495c7	0.0959888
60	0x3e146502	0.14491656
61	0x3e14941d	0.14509626
62	0x3e1368dc	0.1439547
63	0x3e141ee0	0.14464903
64	0x3e121c23	0.14268546
65	0x3e08ebf2	0.13371256
66	0x3e123510	0.14278054
67	0x3dc5d911	0.09660543
68	0x3dc4de06	0.0961266
69	0x3e1509a1	0.14554454
70	0x3e1421db	0.1446604
71	0x3e153ae4	0.14573246
72	0x3e114d4a	0.1418964
73	0x3e1407e5	0.14456137
74	0x3e154bfe	0.1457977
75	0x3e14ac21	0.14518787
76	0x3e153cbd	0.14573951
77	0x3e0fbb73	0.1403635
78	0x3dc45e59	0.09588308
79	0x3e108756	0.14114127
80	0x3e14a796	0.14517054
81	0x3e13f5e8	0.14449275
82	0x3e0fbef6	0.1403769
83	0x3e15410f	0.14575599
84	0x3e147891	0.14499117
85	0x3dc50b05	0.096212424
86	0x3e124b40	0.14286518
87	0x3e1465f5	0.14492019
88	0x3e151c5c	0.145616
89	0x3e107c40	0.14109898
90	0x3dc6070a	0.09669311
91	0x3e0f6f96	0.1400741
92	0x3e14e842	0.14541724
93	0x3e1541c2	0.14575866
94	0x3e0f9790	0.1402266
95	0x3dcccccd	0.1
96	0x3e149754	0.14510852
97	0x3dc91c3b	0.09819838
98	0x3e0e064d	0.13869591
99	0x3e140e5b	0.14458601
100	0x3e11ceab	0.14238994
101	0x3e153824	0.14572197
102	0x3e141f22	0.14465001
103	0x3e0eb703	0.13937001
104	0x3e15430d	0.14576359
105	0x3e10ef7f	0.1415386
106	0x3e0e4a78	0.13895595
107	0x3dc609a1	0.09669805
108	0x3dc5ab4a	0.096518114
109	0x3e102c95	0.14079507
110	0x3e0f2f8e	0.13982984
111	0x3e1033b4	0.14082223
112	0x3e1494de	0.14509913
113	0x3e141b91	0.14463641
114	0x3e13e5a9	0.14443077
115	0x3e10a4dc	0.14125389
116	0x3e0ee7c3	0.13955598
117	0x3e0f4c4c	0.13993949
118	0x3e0d98b5	0.13827784
119	0x3e12fab3	0.14353447
120	0x3e15152b	0.14558856
121	0x3e144dc9	0.14482798
122	0x3e12cc66	0.14335784
123	0x3e145b3a	0.14487925
124	0x3e1483bd	0.14503379
125	0x3e14f51d	0.14546628
126	0x3e13ef32	0.14446715
127	0x3e1539aa	0.14572778
128	0x3e14de8b	0.14538018
129	0x3dc4804d	0.09594784
130	0x3e12a07a	0.1431903
131	0x3e151578	0.14558971
132	0x3dcccccd	0.1
133	0x3e150514	0.14552718
134	0x3e104121	0.14087345
135	0x3e0de071	0.13855149
136	0x3e11a665	0.1422363
137	0x3e128acd	0.14310761
138	0x3e1453d1	0.14485098
139	0x3e0ceb63	0.13761668
140	0x3e14ae11	0.14519526
141	0x3e13f780	0.14449883
142	0x3e144467	0.14479218
143	0x3dc8376b	0.09776195
144	0x3e133e33	0.14379196
145	0x3e1543ae	0.14576599
146	0x3e13c6f8	0.1443137
147	0x3e0f15af	0.13973115
148	0x3e150f13	0.14556532
149	0x3e104e3c	0.14092344
150	0x3e150929	0.14554276
151	0x3e11c929	0.14236893
152	0x3e14675e	0.14492556
153	0x3e144e02	0.14482883
154	0x3e0eb43d	0.13935943
155	0x3e14b62a	0.14522615
156	0x3e147f61	0.14501716
157	0x3e148f33	0.14507751
158	0x3e114ea1	0.14190151
159	0x3dc7cc2a	0.09755738
160	0x3e0aa000	0.13537598
161	0x3e14848e	0.1450369
162	0x3e0c2587	0.1368619
163	0x3dc91429	0.09818298
164	0x3e103c08	0.140854
165	0x3e14c367	0.14527665
166	0x3e14649c	0.14491504
167	0x3e1523d6	0.14564452
168	0x3e14d446	0.14534101
169	0x3e146438	0.14491355
170	0x3e13fc25	0.14451654
171	0x3e144cb0	0.14482379
172	0x3e10d79b	0.14144747
173	0x3e1456ba	0.14486209
174	0x3e14d3fc	0.1453399
175	0x3e102968	0.14078295
176	0x3dc3a85f	0.095535986
177	0x3e15023c	0.14551634
178	0x3e14283e	0.14468476
179	0x3e153c93	0.14573888
180	0x3e153539	0.14571084
181	0x3e0f4aef	0.13993429
182	0x3dc60f2a	0.09670861
183	0x3e154f13	0.14580946
184	0x3e14d138	0.14532936
185	0x3e0aff33	0.13573913
186	0x3dc356ba	0.09538026
187	0x3e149ec4	0.1451369
188	0x3e141194	0.1445983
189	0x3dc6a967	0.0970028
190	0x3e10f91e	0.1415753
191	0x3e13b7ba	0.14425555
192	0x3dc91c43	0.098198436
193	0x3e15243c	0.14564604
194	0x3e146723	0.14492469
195	0x3e0e395d	0.1388907
196	0x3e141904	0.14462668
197	0x3e13fd8e	0.14452192
198	0x3e1076a1	0.14107753
199	0x3e1509e0	0.14554548
200	0x3e1532ac	0.14570111
201	0x3e1479dc	0.1449961
202	0x3e0c9f70	0.13732696
203	0x3e0a482a	0.13504091
204	0x3e10f4d2	0.14155892
205	0x3e1484bb	0.14503758
206	0x3e1467bd	0.14492698
207	0x3e154cd0	0.14580083
208	0x3e132e84	0.14373213
209	0x3e1286b1	0.14309193
210	0x3e141134	0.14459687
211	0x3e14f045	0.1454478
212	0x3e137a1f	0.14402054
213	0x3dcccccd	0.1
214	0x3e15457a	0.14577284
215	0x3e14312a	0.1447188
216	0x3e108bf4	0.14115888
217	0x3e0c57b8	0.13705337
218	0x3e152619	0.14565314
219	0x3e14350b	0.1447336
220	0x3e149613	0.14510374
221	0x3e0fa865	0.14029081
222	0x3e14b8a3	0.14523558
223	0x3e142aea	0.14469495
224	0x3e14c027	0.14526425
225	0x3dc56c49	0.096397944
226	0x3e0e23a5	0.13880785
227	0x3e146820	0.14492846
228	0x3e112558	0.14174402
229	0x3e14dd25	0.14537485
230	0x3e132170	0.14368224
231	0x3e139da5	0.14415605
232	0x3e14775a	0.14498654
233	0x3e134d14	0.14384872
234	0x3e0a98b7	0.13534819
235	0x3e14a867	0.14517365
236	0x3e145bfd	0.14488216
237	0x3e10a80c	0.14126605
238	0x3e129708	0.14315426
239	0x3e148027	0.14502011
240	0x3e141658	0.14461648
241	0x3e102b36	0.14078984
242	0x3e0cd7ab	0.13754146
243	0x3e1505ff	0.14553069
244	0x3e1483e7	0.14503442
245	0x3e0f6439	0.14003076
246	0x3e127b19	0.1430477
247	0x3e154b06	0.145794
248	0x3e105dbf	0.14098261
249	0x3dc3c3ac	0.09558806
250	0x3e145ec8	0.14489281
251	0x3e143a90	0.14475465
252	0x3e0bfc38	0.13670433
253	0x3e11b800	0.14230347
254	0x3e0f953b	0.1402177
255	0x3e144b6a	0.14481893

last.weight f4 [1, 256]
0	0x3dd8d06e	0.1058663
1	0x3ddb5ed0	0.107114434
2	0x3ddf36fe	0.10899161
3	0x3de0beaa	0.10973866
4	0x3deae4aa	0.114693955
5	0x3dd852d9	0.10562677
6	0x3de24a9b	0.11049386
7	0x3dde1b38	0.10845035
8	0x3de14123	0.10998752
9	0x3b0d0aa1	0.0021521228
10	0x3ddb6fed	0.107147075
11	0x3dde980a	0.10868843
12	0x3dd79ec3	0.10528328
13	0x3de49799	0.111617275
14	0x3de30d9b	0.110865794
15	0x3ddaedd7	0.106898956
16	0x3dd72030	0.10504186
17	0x3dd73ad5	0.10509268
18	0x3de05d18	0.10955256
19	0x3ddca442	0.10773517
20	0x3dddf088	0.10836893
21	0x3de16526	0.11005621
22	0x3dde6641	0.10859347
23	0x3ddac71f	0.106825106
24	0x3dd534be	0.104104504
25	0x3ddc12f9	0.10745806
26	0x3ddb3b2e	0.10704647
27	0x3ddb1ec4	0.106992275
28	0x3de2b63d	0.110699154
29	0x3de0e716	0.10981576
30	0x3dd5a4a1	0.10431791
31	0x3dd248bf	0.102677815
32	0x3de936fd	0.11387441
33	0x3de21ef0	0.11041057
34	0x3dea1cce	0.11431275
35	0x3de0d81b	0.10978719
36	0x3dd8e6fa	0.1059093
37	0x3de1afab	0.11019834
38	0x3dd33723	0.10313251
39	0x3dea7fb3	0.11450138
40	0x3ddeec68	0.10884935
41	0x3dd65fa3	0.1046746
42	0x3dd677fb	0.10472103
43	0x3ddf1baa	0.108939484
44	0x3de74334	0.11292115
45	0x3dd984f4	0.10621062
46	0x3de009b1	0.109393485
47	0x3de5c355	0.11218897
48	0x3ddd42b6	0.1080374
49	0x3ddbd2a0	0.10733533
50	0x3b1d2718	0.00239796
51	0x3b19ecb8	0.0023487043
52	0x3de1c451	0.110237725
53	0x3de43e16	0.111446545
54	0x3ddb0458	0.10694188
55	0x3de553c7	0.1119762
56	0x3de8f495	0.11374775
57	0x3de5dc28	0.11223632
58	0x3dd94d0d	0.106103994
59	0x3af2fdbd	0.0018538755
60	0x3ddaacd9	0.10677499
61	0x3de800e4	0.11328295
62	0x3dd3e7ab	0.103469215
63	0x3dda6e23	0.10665538
64	0x3ddcf594	0.10789028
65	0x3df22a9e	0.11824535
66	0x3de6f5c2	0.11277343
67	0x3a16f7b8	0.0005758959
68	0x3b047bbb	0.002021535
69	0x3ddced6c	0.10787472
70	0x3dd99a8f	0.10625183
71	0x3dd7123f	0.10501527
72	0x3ddceff2	0.107879534
73	0x3de02407	0.10944372
74	0x3dd95d17	0.106134586
75	0x3de5ad23	0.11214664
76	0x3dd48e09	0.103786536
77	0x3dea78a3	0.11448791
78	0x3a8445df	0.0010091624
79	0x3de0321d	0.10947058
80	0x3de5cf50	0.11221182
81	0x3dd9db0c	0.10637483
82	0x3dd7780e	0.105209455
83	0x3dd94bad	0.10610137
84	0x3dd704ab	0.10498937
85	0x3b18856f	0.0023272892
86	0x3de57ceb	0.11205467
87	0x3de44a51	0.11146987
88	0x3de4c77f	0.11170863
89	0x3de795b4	0.113078505
90	0x3a1db860	0.0006016549
91	0x3ddf244b	0.10895594
92	0x3dde7d5c	0.10863754
93	0x3dd74fc9	0.10513265
94	0x3de2a82d	0.11067233
95	0x3b169cc3	0.002298162
96	0x3dd35bf2	0.103202716
97	0x3a205b25	0.0006117097
98	0x3de9732b	0.1139892
99	0x3ddf855a	0.10914107
100	0x3de07383	0.10959532
101	0x3dd897dc	0.1057584
102	0x3ddf7d3c	0.109125584
103	0x3ddf98fa	0.1091785
104	0x3de43cdb	0.1114442
105	0x3de628b0	0.11238229
106	0x3dda0bf2	0.1064681
107	0x3ad7ebbb	0.0016473451
108	0x3a518554	0.0007992585
109	0x3de934e4	0.11387041
110	0x3de561f3	0.11200323
111	0x3de25a40	0.1105237
112	0x3de17f1e	0.11010574
113	0x3de59be9	0.11211378
114	0x3ddedf67	0.10882454
115	0x3de0b384	0.1097174
116	0x3de6151e	0.112344965
117	0x3de5aa92	0.11214174
118	0x3de64098	0.11242789
119	0x3ddf0954	0.10890451
120	0x3dd83d50	0.105585694
121	0x3de41da6	0.111384675
122	0x3de1acc3	0.1101928
123	0x3dde79a7	0.10863047
124	0x3dd957aa	0.10612424
125	0x3dd86abf	0.10567235
126	0x3de29294	0.11063114
127	0x3ddb4895	0.10707203
128	0x3dd71f5a	0.10504027
129	0x3a5d73e4	0.000844775
130	0x3ddaadf5	0.10677711
131	0x3dd87823	0.10569789
132	0xbaf4d70c	-0.0018679812
133	0x3de08653	0.1096312
134	0x3de5f2f3	0.112279795
135	0x3de4e0e0	0.11175704
136	0x3ddc8ee5	0.107694425
137	0x3ddb0ce3	0.10695817
138	0x3ddc45f2	0.107555285
139	0x3de2180b	0.11039742
140	0x3dd44183	0.10364058
141	0x3ddfe0b4	0.109315306
142	0x3de00d5b	0.10940047
143	0x3a4b4866	0.00077546237
144	0x3dddfd1a	0.10839291
145	0x3ddbe91c	0.107378215
146	0x3ddb614e	0.10711919
147	0x3de7b80b	0.113144
148	0x3ddadef8	0.10687059
149	0x3de87687	0.11350732
150	0x3dd1924f	0.10232984
151	0x3de9d3f6	0.114173815
152	0x3de09e5b	0.10967704
153	0x3ddca33e	0.107733235
154	0x3de32e2d	0.11092792
155	0x3ddb294c	0.10701236
156	0x3ddab911	0.1067983
157	0x3de255b3	0.11051502
158	0x3de4160e	0.11137019
159	0x3b061984	0.0020461986
160	0x3deaa44e	0.1145712
161	0x3ddaef6b	0.106901966
162	0x3dea6c14	0.114463955
163	0xba2513ea	-0.0006297218
164	0x3de386b5	0.11109678
165	0x3ddfe4e9	0.10932333
166	0x3dda14ee	0.10648523
167	0x3ddac46d	0.106819965
168	0x3de2c8c7	0.110734515
169	0x3ddca107	0.10772901
170	0x3de545a6	0.11194925
171	0x3ddbbdfd	0.10729597
172	0x3de5d3d0	0.11222041
173	0x3ddb5322	0.10709216
174	0x3dd6c449	0.10486657
175	0x3de160ab	0.11004766
176	0x3b11d526	0.002225229
177	0x3ddc5e5a	0.10760184
178	0x3ddb4e77	0.10708325
179	0x3ddb2c54	0.10701814
180	0x3ddeaa57	0.108723335
181	0x3de3c197	0.11120909
182	0x3a9e5c01	0.0012081863
183	0x3ddcb203	0.107761405
184	0x3ddd0e25	0.107937135
185	0x3df29d39	0.11846394
186	0x3b26c53f	0.0025447158
187	0x3dd3aa6a	0.10335238
188	0x3dde12ee	0.10843454
189	0x3a38aa9c	0.0007044466
190	0x3de6ec7f	0.11275577
191	0x3dde2757	0.10847347
192	0xba4d310e	-0.0007827439
193	0x3ddf73bf	0.10910749
194	0x3dd9ad0a	0.10628708
195	0x3de35d79	0.11101813
196	0x3dda7923	0.10667636
197	0x3ddff007	0.109344535
198	0x3de0e2b2	0.10980739
199	0x3dda04dd	0.10645459
200	0x3dd4c986	0.1039
201	0x3de3bd62	0.11120106
202	0x3de51bd0	0.111869454
203	0x3de946b3	0.11390438
204	0x3de1816c	0.110110134
205	0x3dd50f9f	0.1040337
206	0x3dd98443	0.1062093
207	0x3dd00350	0.10156882
208	0x3de0a6ea	0.10969336
209	0x3ddb0d49	0.10695893
210	0x3ddc65c4	0.10761598
211	0x3ddbdcc2	0.107354656
212	0x3ddca033	0.10772743
213	0xba8d47f4	-0.001077889
214	0x3ddde40c	0.10834512
215	0x3de26bf3	0.11055746
216	0x3de912ba	0.11380525
217	0x3de39150	0.111117005
218	0x3de0e780	0.10981655
219	0x3de0585e	0.10954355
220	0x3dda9414	0.10672775
221	0x3de3a218	0.11114901
222	0x3de2554e	0.11051427
223	0x3de2a5c8	0.110667765
224	0x3ddace41	0.10683871
225	0x3b0bb9a3	0.0021320365
226	0x3de67b7d	0.11254022
227	0x3dd79ebd	0.10528324
228	0x3de517ae	0.11186157
229	0x3de47d19	0.11156673
230	0x3dd7ab93	0.10530772
231	0x3dd9c348	0.1063295
232	0x3de54684	0.111950904
233	0x3de8309b	0.11337396
234	0x3deb9943	0.11503842
235	0x3de2f038	0.11080974
236	0x3de3b493	0.11118426
237	0x3ddc5132	0.10757674
238	0x3dde53aa	0.108558014
239	0x3dd95b2f	0.10613095
240	0x3de50b74	0.11183825
241	0x3dde1b8d	0.10845099
242	0x3de1dcf6	0.11028473
243	0x3dd5c637	0.10438197
244	0x3de0cd8e	0.109767064
245	0x3ddf908c	0.10916242
246	0x3dd813ba	0.105506375
247	0x3ddb261d	0.10700629
248	0x3de56c9d	0.11202357
249	0x3acb7026	0.0015521094
250	0x3de82a2a	0.11336167
251	0x3dddd300	0.10831261
252	0x3de8f54d	0.113749124
253	0x3de20881	0.11036778
254	0x3de7047b	0.112801515
255	0x3de15454	0.110024124
