Soft-Module-main/log/model50_new_11/model_vf_best.pth (torch, 280037 bytes, 5 tensors)

base.seq_fcs.0.weight f4 [256, 12]
000000 c7 15 de be 8f 7a ed 3d 83 86 17 3e b4 a8 4b 3d
       -0.4337599 0.11595642 0.14797406 0.049721435
000010 ea 9b e6 3d 3d 44 f2 3d ea 0c 1a bd d4 6e c7 3c
       0.11260207 0.11829422 -0.037609972 0.02434484
000020 dc 8a 77 3d e3 98 3d 3d d6 e5 6e 3d 01 fe 5c 3d
       0.06043516 0.046288382 0.058324657 0.053953175
000030 96 b5 01 bf 34 45 0c 3e f8 7f 5e 3e 2a ba 0b 3e
       -0.50667703 0.13698274 0.21728504 0.13645235
000040 6d 94 49 3d c2 fe ca 3c 0c 3d 39 3d b4 71 ff bc
       0.049213815 0.024779681 0.045224234 -0.031182148
000050 10 ed 77 bd f9 07 ef 3d 33 22 e3 3d 38 40 fd 3c
       -0.060528815 0.116714425 0.11090507 0.030914411
000060 40 0f c7 bc 20 91 50 bd 0a d9 05 bd b0 f4 6a 3c
       -0.024299264 -0.050919652 -0.032677688 0.014340565
000070 cc f3 b9 bc 30 70 57 3d a0 17 03 bd d0 ff 9b bb
       -0.02269926 0.052597225 -0.032004952 -0.00476072
000080 20 4a 5d bd e8 69 2d bc 96 a3 7d bd 4e fc 08 bd
       -0.05402577 -0.010584332 -0.061923586 -0.03344374
000090 ee 03 df be 99 1b 02 3e 25 eb 48 3e 83 b7 e2 3d
       -0.43557686 0.1270584 0.1962095 0.11070158
0000a0 0a f6 ff 3d 37 a6 a4 3d 88 9b 8a 3c 90 9a 03 bd
       0.124981 0.080395155 0.016919866 -0.032129824
0000b0 a8 f3 11 3d f1 53 b1 3d f7 eb 96 3d fa 7e 9a 3d
       0.03563276 0.08658589 0.073692255 0.0754375
0000c0 2f b2 d5 be a1 54 12 3e f3 8d 1d 3e 0f 17 a6 3d
       -0.41737506 0.14290096 0.1538618 0.08109867
0000d0 60 cc d2 3c 28 50 bb 3d 00 a6 4a 3c 3c 37 40 3d
       0.02573222 0.09146148 0.012368679 0.046927676
0000e0 f6 27 68 3d 9f c2 0c 3e 94 51 cf 3d 9d 41 dc 3d
       0.056678735 0.13746117 0.10122982 0.10754702
0000f0 bc c6 db be 16 45 40 3e 48 f5 68 3e ea cf ff 3d
       -0.4292506 0.18776354 0.22749817 0.12490828
000100 cb 50 9b 3d e6 92 07 3e 24 75 0a bd 18 b5 6c 3c
       0.075837694 0.13239631 -0.03380312 0.014447473
000110 20 6d 5a bb dd 00 06 3e 65 94 37 3d 06 89 c1 3c
       -0.0033329204 0.13086267 0.044819254 0.023624908
000120 c9 2f d2 be f7 f8 eb 3d 91 1b 35 3e b4 34 ec 3d
       -0.41052082 0.11522096 0.17686297 0.1153349
000130 36 46 c5 3d ce d4 13 3e 48 16 40 3c a4 4f 01 bd
       0.09632532 0.14436647 0.011724062 -0.03157009
000140 48 55 48 bd 49 25 bc 3d 5e 7c cb 3d 48 8f 0e 3e
       -0.048909456 0.09186799 0.099358305 0.13921845
000150 44 a0 e1 be 67 23 c4 3d 51 76 42 3e 66 52 02 3d
       -0.44067585 0.09577065 0.18990447 0.031816863
000160 26 a7 a6 3d 40 2a e7 3d a2 b8 26 bd 4c d8 89 bc
       0.0813735 0.112873554 -0.040703423 -0.016826771
000170 c2 c4 09 3d 3b c7 9f 3d f4 9d 0c 3e f5 67 d3 3d
       0.03363491 0.07801672 0.1373213 0.103225626
000180 c2 0e 08 bf e4 8c 39 3e 00 d0 69 3e 7a 90 c1 3d
       -0.5314752 0.18120152 0.22833252 0.09451385
000190 7f 9c 60 3d 72 4f 11 3d b6 5b 04 bd 94 6e 1a 3d
       0.054836746 0.035476156 -0.032314025 0.03770311
0001a0 e0 74 a1 3b c1 5d 03 3e 3f 51 0e 3d dc 65 dc 3d
       0.0049272627 0.12828733 0.03474545 0.10761616
0001b0 2d c2 d5 be dc 8e c9 3d 3a 62 55 3e de 62 00 3e
       -0.41749707 0.098417014 0.20838252 0.12537715
0001c0 2f 79 c1 3d 1e 5c 80 3d 36 2d 18 3d c4 2a a3 3c
       0.09446942 0.0626757 0.03715249 0.019917853
0001d0 f4 3d 4c 3d 0a 6f 07 3e 8c 4e 0b 3e c2 bc 69 3d
       0.04986377 0.13225952 0.13604182 0.05706478
0001e0 eb 35 dd be a5 2b 4d 3e 54 63 85 3e 7d 79 58 3d
       -0.432052 0.2003618 0.26052344 0.052850235
0001f0 ec 2e fc 3c 3a c0 dd 3d 40 d9 30 3b 30 54 80 3c
       0.030784093 0.1082768 0.002698496 0.015665144
000200 40 fc 7a 3d 73 27 95 3d 10 28 2b 3d 46 9a 8f 3d
       0.06127572 0.07282915 0.041786253 0.07011847
000210 88 34 d1 be 21 73 43 3e 14 7b 67 3e 76 62 0a 3e
       -0.4086039 0.19086887 0.22605544 0.13514122
000220 6b fd de 3d 38 16 b0 3d 48 43 0f 3c f4 aa ec 3c
       0.108881794 0.08597988 0.008744068 0.02889011
000230 30 9c c4 bc a0 7e f6 3c dd c4 88 3d 15 5f 36 3d
       -0.024000257 0.030089676 0.06678174 0.04452427
000240 27 82 f6 be 39 e1 24 3e 8c d0 3a 3e 21 59 da 3d
       -0.48146173 0.1610154 0.18243617 0.10661531
000250 73 ae 37 3d 77 d1 82 3d 98 26 e8 bc 88 6f e2 3c
       0.044844102 0.063876085 -0.028338715 0.027641073
000260 ba a3 63 3d c9 64 60 3d e8 a4 f4 3d 9c 05 c7 3d
       0.055576064 0.054783616 0.11945516 0.09717867
000270 fd 79 f3 be e0 d1 30 3e 8e b6 34 3e a2 fa a1 3d
       -0.47554007 0.17267561 0.17647764 0.079091325
000280 7d 79 01 3e d9 a2 70 3d 88 7e a3 bc bc ec 4e bd
       0.12644 0.058749054 -0.019957796 -0.050518736
000290 70 40 6b 3d 2b 82 aa 3d e7 53 ea 3c 25 45 be 3d
       0.0574345 0.08325609 0.02860446 0.09290532
0002a0 a1 df d2 be 38 0d 45 3e d0 06 3d 3e 8a ca 94 3d
       -0.4118624 0.19243324 0.1845963 0.07265194
0002b0 60 85 2f 3d 39 09 99 3d 88 27 5d bc a4 83 b9 3c
       0.042851806 0.07472462 -0.0134981945 0.022645779
0002c0 c8 74 56 3d 72 93 a7 3d 1f 43 89 3d 44 e7 c7 3c
       0.052357465 0.0818242 0.067022555 0.024402268
0002d0 e7 3b ce be bd 12 15 3e 66 a6 15 3e 67 a9 07 3e
       -0.40280077 0.1455793 0.14614257 0.13248216
0002e0 3b 32 5a 3d 94 f9 f3 3d f4 f1 1a 3d b8 7c 34 3c
       0.05327056 0.119128376 0.0378284 0.011016063
0002f0 b0 c2 f7 bb af 8e 60 3d c0 51 e7 3d e5 ca 8f 3d
       -0.0075610504 0.054823574 0.112948895 0.07021121
000300 ab 0d d9 be 09 f2 f3 3d eb 12 44 3e 34 d9 ed 3d
       -0.4239324 0.11911399 0.19147842 0.11613694
000310 16 80 6b 3d 72 fc f9 3d f8 dc 9f bc 2c b7 ad bc
       0.0574952 0.12206353 -0.019514546 -0.021205507
000320 fc 34 c7 3c 54 a0 0a 3e 61 32 35 3d ec 6d c0 3d
       0.024317257 0.13537723 0.0442375 0.09395966
000330 4c 2f 01 bf 16 be 50 3e 6f 76 33 3e e9 07 ce 3d
       -0.50462794 0.20385012 0.17525648 0.100601025
000340 63 99 c7 3c 89 8a e6 3d fc 21 d7 3c a8 78 11 3c
       0.024365133 0.11256892 0.026261322 0.008878864
000350 08 4b 11 bc 5d 47 e5 3d a0 c3 54 3d c1 d2 ce 3d
       -0.0088679865 0.11195252 0.051944375 0.10098792
000360 c2 3b d1 be f1 07 37 3e f5 76 32 3e 0d 2a f2 3d
       -0.40865904 0.17874123 0.17428191 0.11824427
000370 16 31 d4 3c 8b dc a7 3d fc d4 88 bc 88 9f 49 3c
       0.025902312 0.08196362 -0.016703121 0.012306102
000380 50 a6 b9 bb e3 86 52 3d d0 49 fc 3d a8 91 cf 3d
       -0.005665578 0.05139817 0.12318766 0.101352036
000390 b3 bc e7 be 3d 1b 2c 3e bb e9 24 3e d6 48 01 3d
       -0.45261154 0.16807266 0.16104786 0.031563602
0003a0 9f 80 ba 3d 29 e7 8d 3d fc ec 94 bc de 88 16 3d
       0.09106564 0.06928856 -0.01817941 0.03675162
0003b0 92 91 65 3d 89 c1 ea 3d ef 10 58 3d 35 c3 59 3d
       0.05604703 0.11462695 0.052750524 0.05316468
0003c0 4c 65 fd be 0a 8f d1 3d 52 38 76 3e 0b f0 b7 3d
       -0.49491346 0.10232361 0.24044922 0.089813314
0003d0 70 56 2f 3d e1 76 1f 3d d4 34 71 3d f8 ac 10 3d
       0.042807043 0.03893173 0.05888827 0.035321206
0003e0 44 ec 44 bd 5a db 91 3d 3f ed 16 3e dd 1f 76 3d
       -0.048076883 0.07121916 0.1473894 0.06008898
0003f0 91 0a f0 be eb 06 f9 3d a1 14 26 3e a6 6b 0a 3e
       -0.46883062 0.121595226 0.16218807 0.13517627

base.seq_fcs.0.bias f4 [256]
000000 60 8b 3e 3e 2f 02 39 3e cd cc cc 3d 01 66 39 3e
       0.18607855 0.18067239 0.1 0.18105318
000010 d9 4c 3f 3e 02 a8 31 3e e7 b2 3d 3e be d9 38 3e
       0.18681659 0.17349246 0.18525277 0.18051812
000020 e1 7f 40 3e 75 4c 3f 3e bb e3 37 3e 8a d0 3e 3e
       0.18798782 0.1868151 0.17957966 0.18634239
000030 8c 1b 40 3e 58 27 34 3e af 74 38 3e 01 8a 40 3e
       0.18760508 0.17593133 0.18013261 0.18802644
000040 1d b1 36 3e 02 82 32 3e 2d d0 3e 3e ab 4c 40 3e
       0.17841001 0.17432407 0.186341 0.18779247
000050 57 4c 3f 3e 76 46 40 3e f6 b5 3a 3e 84 1c 3c 3e
       0.18681465 0.18776879 0.18233475 0.18370253
000060 a9 45 3a 3e 15 c1 3e 3e a5 68 3f 3e d0 11 40 3e
       0.18190636 0.18628342 0.18692262 0.18756795
000070 85 d8 37 3e ac f8 32 3e f9 c2 3f 3e 26 6e 33 3e
       0.1795369 0.17477673 0.1872672 0.17522487
000080 5d 3f 38 3e 85 c2 3f 3e fb 66 3f 3e b0 e3 3f 3e
       0.17992921 0.18726547 0.18691628 0.187392
000090 6d d6 36 3e c8 50 34 3e 67 56 3c 3e 57 3c 3f 3e
       0.17855234 0.1760894 0.18392335 0.18675362
0000a0 6e 3d 3f 3e 46 54 37 3e 1d 36 39 3e 92 5c 37 3e
       0.18675777 0.17903242 0.18087049 0.17906407
0000b0 59 51 40 3e 59 fb 3e 3e 4b 19 40 3e 36 69 39 3e
       0.18781032 0.18650569 0.18759649 0.18106541
0000c0 9f 55 40 3e e0 a5 36 3e cc 38 3e 3e ab e2 39 3e
       0.18782662 0.17836714 0.18576354 0.18152873
0000d0 55 1e 34 3e 56 28 40 3e 76 55 3d 3e fe c3 3f 3e
       0.17589696 0.18765387 0.18489632 0.18727109
0000e0 02 b5 3c 3e 92 85 3c 3e 61 88 33 3e 6e 49 34 3e
       0.18428424 0.18410328 0.17532493 0.17606136
0000f0 53 94 34 3e ad 8e 3f 3e b5 78 40 3e 30 20 40 3e
       0.17634706 0.1870677 0.18796046 0.18762279
000100 68 ab 3f 3e a1 a0 33 3e 61 34 3f 3e be 4a 3b 3e
       0.1871773 0.17541744 0.18672325 0.1829023
000110 0a 15 38 3e 1e b8 37 3e 52 8d 38 3e 94 92 3f 3e
       0.17976776 0.17941329 0.1802266 0.18708259
000120 57 52 36 3e be d3 3b 3e 0b 31 40 3e 5f a1 3f 3e
       0.17804848 0.18342492 0.18768708 0.18713902
000130 c7 51 39 3e e7 a6 3f 3e 49 53 3e 3e 49 9d 3d 3e
       0.18097602 0.18716012 0.18586458 0.18517031
000140 61 ec 3e 3e 29 5b 3f 3e 8f c4 3f 3e a5 31 3f 3e
       0.18644859 0.18687119 0.18727325 0.18671282
000150 3f 5a 40 3e 93 a4 3e 3e 64 0c 3c 3e 3f 9e 40 3e
       0.18784426 0.18617468 0.18364102 0.18810366
000160 28 3c 33 3e 12 8f 3e 3e 99 97 40 3e 55 86 3e 3e
       0.17503417 0.18609264 0.1880783 0.18605931
000170 31 1a 40 3e 74 f8 3e 3e ec 1b 38 3e 6b e1 3e 3e
       0.18759991 0.18649465 0.17979401 0.18640678
000180 6c 2a 36 3e 41 b2 3b 3e 37 fc 3f 3e ae 4d 37 3e
       0.1778962 0.18329717 0.18748556 0.17900726
000190 51 3a 3f 3e 64 1a 3f 3e 7a 68 3f 3e fb 18 38 3e
       0.1867459 0.18662411 0.18692198 0.1797828
0001a0 38 28 40 3e 3e e5 39 3e 61 0b 3a 3e 67 9a 32 3e
       0.18765342 0.18153855 0.18168403 0.17441712
0001b0 b6 40 40 3e a8 fa 3d 3e 0e 33 34 3e 95 3d 3d 3e
       0.18774685 0.18552649 0.17597601 0.18480523
0001c0 3d d4 34 3e 64 0c 3f 3e 0f 29 3f 3e 3c 08 3c 3e
       0.17659087 0.1865707 0.18668006 0.18362516
0001d0 86 93 3e 3e 53 e3 3d 3e 7d 68 38 3e 66 5d 40 3e
       0.18610963 0.18543749 0.18008609 0.18785629
0001e0 e0 10 3f 3e 04 9c 3f 3e 6d b4 39 3e 48 ce 3f 3e
       0.18658781 0.18711859 0.18135233 0.18731034
0001f0 02 67 3f 3e d5 45 33 3e 09 1b 30 3e 51 64 3c 3e
       0.18691638 0.17507108 0.17197813 0.18397643
000200 be a3 3a 3e a4 7a 3d 3e bd 0f 3b 3e 23 09 3b 3e
       0.18226525 0.18503815 0.18267722 0.18265204
000210 1d a6 36 3e d4 04 40 3e 8d 03 3f 3e ed 53 39 3e
       0.17836805 0.18751842 0.18653698 0.18098421
000220 76 e1 3f 3e b5 45 3a 3e 69 60 3d 3e 05 32 40 3e
       0.1873835 0.18190654 0.18493809 0.18769081
000230 ef 37 3b 3e 70 2c 3a 3e 0f 5b 31 3e fd b6 3f 3e
       0.18283056 0.18181014 0.17319892 0.18722148
000240 c2 d7 3b 3e e7 6e 3a 3e b6 67 3a 3e 7d 20 39 3e
       0.18344024 0.18206368 0.18203625 0.180788
000250 32 9d 40 3e 28 ea 3e 3e 60 97 35 3e ee 02 37 3e
       0.18809965 0.18644011 0.17733526 0.17872211
000260 a7 e1 3a 3e 08 7f 37 3e 9b 2f 40 3e 2e 20 c2 3d
       0.18250142 0.17919552 0.1876816 0.09478794
000270 cb 2c 3f 3e 7a 60 3f 3e 2f 2a 3c 3e 58 23 3f 3e
       0.18669431 0.18689147 0.18375467 0.18665826
000280 ed c4 40 3e 27 7a 3f 3e ad 88 3f 3e cb d1 38 3e
       0.18825121 0.18698941 0.18704481 0.1804878
000290 de b1 3f 3e bd 5b 3f 3e 3c ca 3f 3e 3a a7 3f 3e
       0.18720195 0.18687339 0.1872949 0.18716136
0002a0 41 ca 3e 3e d3 1f 3e 3e 4a 1f 3f 3e 95 f4 35 3e
       0.18631841 0.18566827 0.1866428 0.17769082
0002b0 e2 75 40 3e 43 16 3a 3e 32 e0 3f 3e b6 ed 3e 3e
       0.18794969 0.18172555 0.18737867 0.18645367
0002c0 3b eb 37 3e 21 fc 3f 3e b0 40 3e 3e 12 67 3b 3e
       0.17960827 0.18748523 0.18579364 0.18301037
0002d0 02 41 40 3e a4 db 3e 3e 2a 2d 3d 3e 48 ad 36 3e
       0.18774799 0.18638474 0.1847426 0.17839539
0002e0 86 03 3f 3e bd 4f 3b 3e fc 5d 40 3e 57 2c 3e 3e
       0.18653688 0.18292136 0.18785852 0.18571602
0002f0 41 be 3c 3e 8a 80 35 3e 64 57 3a 3e 08 96 33 3e
       0.18431951 0.17724815 0.181974 0.17537701
000300 e2 93 3f 3e a0 d6 3d 3e d8 52 38 3e 4a 06 3f 3e
       0.18708757 0.18538904 0.18000352 0.18654743
000310 a1 4a 3e 3e 39 ab 40 3e b5 9b 33 3e 7c ed 3c 3e
       0.18583156 0.18815316 0.17539866 0.18449968
000320 c9 3d 3f 3e e2 34 40 3e 2e 6a 2f 3e d1 63 3d 3e
       0.18675913 0.18770173 0.17130348 0.18495108
000330 9e 5a 3f 3e 32 2f 3b 3e 25 a9 3f 3e ed be 3f 3e
       0.18686911 0.18279722 0.18716867 0.18725176
000340 59 86 40 3e 9b 6c 3f 3e 76 ae 3f 3e 31 d8 3f 3e
       0.1880125 0.18693773 0.18718895 0.18734814
000350 39 88 36 3e ea 7f 40 3e a1 9b 3f 3e 11 d9 3f 3e
       0.17825402 0.18798795 0.18711711 0.18735148
000360 09 bb 40 3e a5 af 3f 3e f6 3a 34 3e 98 b8 40 3e
       0.18821348 0.18719347 0.17600617 0.18820417
000370 d0 08 40 3e 50 f7 3e 3e ab b3 40 3e 5f f8 37 3e
       0.18753362 0.1864903 0.18818538 0.1796584
000380 7a be 3e 3e 00 d2 3d 3e 47 a5 3d 3e 74 12 3f 3e
       0.18627349 0.1853714 0.1852008 0.18659383
000390 e1 c6 3e 3e f3 05 3f 3e 2d 95 38 3e 3c 6b 3a 3e
       0.18630554 0.18654613 0.18025656 0.18204969
0003a0 f2 31 3f 3e 60 37 3d 3e 90 b1 3e 3e bc 6c 40 3e
       0.18671396 0.18478155 0.18622422 0.18791479
0003b0 e2 df 3e 3e c2 4f 40 3e 15 05 3f 3e 8e 3b 3d 3e
       0.18640092 0.18780425 0.18654282 0.1847975
0003c0 e3 8b 3e 3e c0 9d 3b 3e 7f cd 2f 3e ca cd 3b 3e
       0.1860805 0.18321896 0.17168234 0.18340221
0003d0 dd 55 3c 3e b6 5b 3f 3e 6d 18 40 3e 8f b2 3e 3e
       0.18392129 0.18687329 0.18759318 0.18622802
0003e0 14 5c 3a 3e 16 92 40 3e c3 07 3e 3e 62 7f 38 3e
       0.18199188 0.18805727 0.18557648 0.18017343
0003f0 d6 bc 3a 3e 8e 56 3c 3e 36 2c 3e 3e 31 6b 3f 3e
       0.18236098 0.18392393 0.18571553 0.18693234

base.seq_fcs.2.weight f4 [256, 256]
000000 0a a4 dc 3d cf ad 2c 3e b6 85 5d 3d 17 19 a4 3d
       0.107734755 0.16863178 0.054082595 0.08012598
000010 a7 f2 4b 3d 75 a8 81 3d 3a 86 89 3d 26 0b 3e 3d
       0.04979196 0.06330959 0.06715055 0.04639735
000020 0b 85 20 3e 56 8a bf 3d 9d 4d be 3d 13 33 2b 3e
       0.15675752 0.09352557 0.09292147 0.16718702
000030 c6 08 a1 3d 98 bf 40 3d 84 b2 17 3e f3 f7 6a 3d
       0.078630015 0.047057718 0.14814192 0.05736537
000040 2e f4 94 3d 56 14 f8 3d 06 5f f6 3d 04 d1 5b 3d
       0.07273136 0.12113254 0.12029843 0.05366613
000050 7d e5 a6 3d ec 68 16 3e a8 c4 ca 3d d2 24 48 3d
       0.0814924 0.14688462 0.099007905 0.04886324
000060 3b 69 c9 3d 76 ea 4a 3d 04 92 1f 3e 25 c7 05 3e
       0.09834524 0.049540006 0.15583044 0.13064249
000070 50 d3 1e 3e 5e 56 d7 3d b8 92 98 3d 1a 90 af 3d
       0.15510297 0.1051452 0.074498594 0.08572407
000080 57 70 0d 3e 2f 73 ac 3d f5 b1 4f 3d df 34 ef 3d
       0.13812385 0.08420407 0.050706822 0.11680006
000090 92 61 57 3d d6 03 5a 3d 19 b8 c9 3d 96 70 d9 3d
       0.052583285 0.053226314 0.09849567 0.10617177
0000a0 56 0b 6c 3d 4c 9b db 3d 08 80 7b 3d 72 c3 00 3e
       0.057628 0.1072298 0.061401397 0.12574556
0000b0 ff bb ab 3d 93 f8 55 3d a3 6a 00 3e aa 9a 24 3e
       0.08385467 0.052239012 0.12540679 0.16074625
0000c0 38 29 8a 3d 9a de 5a 3d a7 2b f1 3d b3 63 6c 3d
       0.06746143 0.053434946 0.11775904 0.057712268
0000d0 60 7d a7 3d 5d 88 dc 3d d2 f5 01 3e 94 96 ed 3d
       0.0817821 0.10768197 0.1269143 0.11600986
0000e0 b2 65 86 3d 16 55 eb 3d 23 7e 9b 3d d1 03 c6 3d
       0.065623656 0.11490838 0.07592418 0.09668697
0000f0 c6 95 24 3e 1e fc 31 3e 09 7e e4 3d 71 1b 20 3d
       0.16072759 0.17381331 0.11156852 0.03908867
000100 cb 96 af 3d 7e 4b 14 3e de fb ae 3d 80 33 5f 3d
       0.08573683 0.14481923 0.085441336 0.054492474
000110 9f 52 09 3e f5 fa 9d 3d 11 50 87 3d de f0 10 3e
       0.13410424 0.07713882 0.06607068 0.14154384
000120 f5 0b 66 3d d4 68 25 3e d2 05 19 3e b6 9f 8e 3d
       0.056163747 0.1615327 0.14943627 0.06964056
000130 b3 70 1f 3e 00 5a 57 3d b7 ca 21 3e 93 9d fb 3d
       0.15570335 0.052576065 0.15799986 0.12285914
000140 2a 73 09 3e 4e 30 0f 3e 38 27 18 3e 8b 3a e2 3d
       0.13422838 0.1398327 0.14858711 0.110463224
000150 2c 56 3a 3d d3 94 20 3e af 89 cb 3d a1 15 53 3d
       0.045492336 0.15681772 0.099383704 0.0515343
000160 d5 6f 12 3e d7 5c 27 3d f3 04 04 3e 64 62 f3 3d
       0.14300473 0.040860023 0.12892513 0.11884001
000170 2c 09 e0 3d d3 0c 0d 3e 74 37 15 3e 40 13 12 3e
       0.109392494 0.13774423 0.14571935 0.14265156
000180 86 3e 01 3e bb 86 ba 3d 0c eb 11 3e 96 d6 dc 3d
       0.12621507 0.09107729 0.1424982 0.107831165
000190 bb ef 87 3d ab ad ba 3d 52 4b 1c 3e b2 80 0f 3e
       0.06637522 0.09115156 0.15263107 0.14013937
0001a0 22 b1 61 3d c6 11 c9 3d 96 9f 4e 3d 0f b3 f7 3d
       0.055100568 0.09817843 0.05044516 0.120946996
0001b0 8b b4 b6 3d d2 36 14 3e 8f 93 6f 3d f5 21 19 3e
       0.089211546 0.14474037 0.058490332 0.1495436
0001c0 c5 43 05 3e 7b 53 e1 3d 55 8b 00 3e 31 5e a4 3d
       0.13014133 0.11002251 0.12553151 0.08025778
0001d0 61 02 01 3e 35 07 fe 3d 63 8e 09 3e 37 7d 1a 3e
       0.12598564 0.124037184 0.13433222 0.15086828
0001e0 c6 41 d6 3d 98 a1 bc 3d 3a 32 bd 3d d9 18 e3 3d
       0.10461764 0.09210509 0.092380956 0.11088724
0001f0 0a 90 94 3d df 1b db 3d da 23 77 3d 79 2f f9 3d
       0.07254036 0.10698675 0.060336925 0.12167258
000200 7d 5a 12 3e ff f2 a1 3d e3 e4 02 3e 6a ec f0 3d
       0.14292331 0.07907676 0.12782626 0.117638424
000210 70 0d 0f 3e f3 7f b0 3d 8a 5c f3 3d c9 fd c0 3d
       0.1396997 0.086181544 0.11882885 0.09423406
000220 e2 8a 52 3d 5c a4 b0 3d cc e7 1e 3d c5 db a5 3d
       0.05140198 0.08625099 0.038795277 0.08098558
000230 06 5b 83 3d d9 fb 34 3d 4f e2 07 3e 39 7e ef 3d
       0.06413846 0.044185493 0.13269924 0.11693997
000240 1b 82 58 3d 5e 1f b8 3d 78 cf 8c 3d 31 75 93 3d
       0.052858453 0.08990358 0.06875509 0.07200087
000250 ad 50 e4 3d b9 02 d5 3d b7 aa b3 3d 44 6d c1 3d
       0.111482 0.1040091 0.08772796 0.09444669
000260 3c ec 82 3d f7 04 b8 3d 7d cf 2d 3e 06 73 42 bd
       0.063927144 0.08985322 0.16973682 -0.047472976
000270 26 87 c2 3d 28 1d ce 3d 64 00 14 3e 18 7e 40 3d
       0.09498434 0.10064155 0.14453274 0.046995252
000280 b8 5f f5 3d 82 18 22 3e f9 fe 65 3d b0 d0 27 3e
       0.119811475 0.15829661 0.056151364 0.16388202
000290 0e df 12 3e e9 fe 31 3d 49 7f 20 3e b6 47 18 3e
       0.14342901 0.043455992 0.15673555 0.14871106
0002a0 51 98 15 3e ed 57 31 3e 82 64 e5 3d a1 1b 29 3d
       0.14608885 0.17318697 0.11200811 0.041286115
0002b0 b4 f1 10 3e 9c d0 d8 3d a0 96 af 3d 57 aa 08 3e
       0.14154702 0.10586664 0.08573651 0.1334623
0002c0 02 5b 07 3e 22 a1 59 3d 49 ad 10 3e 93 2a d4 3d
       0.1321831 0.053132184 0.14128603 0.10359683
0002d0 64 70 24 3e 8b d5 5a 3d 9c d9 fa 3d 45 fd 12 3e
       0.16058499 0.053426307 0.12248537 0.14354427
0002e0 a6 6c fd 3d c0 a3 bc 3d 21 bc 8f 3d aa ea 8f 3d
       0.12374239 0.0921092 0.070183046 0.070271805
0002f0 22 f7 e2 3d 30 f2 0c 3e 9e 64 09 3e 49 35 bc 3d
       0.11082293 0.13764262 0.13417289 0.09189851
000300 0f 58 b1 3d bd d1 a1 3d 9b f4 e4 3d bf 07 8f 3d
       0.08659374 0.079013325 0.11179467 0.06983899
000310 20 8a f9 3d 3f b6 7c 3d 42 4f bc 3d 88 2c fc 3d
       0.121845484 0.06169724 0.09194805 0.12313181
000320 f2 3b 8f 3d b0 46 b1 3d bc 75 d6 3d c5 36 89 3d
       0.069938555 0.08656061 0.10471675 0.066998996
000330 39 6b 11 3e 65 32 00 3e 61 bc 90 3d e2 dd 5b 3d
       0.14201058 0.12519224 0.070671804 0.0536784
000340 90 7d 02 3e ff 88 cc 3d f2 94 9a 3d fd c5 08 3e
       0.12743211 0.099870674 0.0754794 0.13356777
000350 5e 6b 0a 3e f5 98 11 3e b3 03 e9 3d a4 d1 75 3d
       0.1351752 0.14218505 0.11377659 0.060014382
000360 56 3c e6 3d 01 a8 bb 3d 22 e9 5b 3d 10 29 0b 3e
       0.11241977 0.091629036 0.05368913 0.13589883
000370 16 35 b4 3d 80 ca 05 3e 5a dd bd 3d 49 07 8a 3d
       0.08799188 0.13065529 0.09270735 0.06739671
000380 fa 2b 18 3e 27 c9 bd 3d 75 90 0f 3e 6e f6 0d 3e
       0.14860526 0.092668824 0.1401995 0.13863537
000390 ad 9b 95 3d 95 e8 80 3d 04 55 e3 3d 42 5c 0b 3e
       0.073050834 0.062943615 0.111002 0.13609412
0003a0 ae 2b 41 3d d2 0a 7b 3d e1 5d 14 3e 9d bf 00 3e
       0.047160797 0.061289616 0.14488937 0.12573095
0003b0 b8 c3 0f 3e 88 06 c8 3d 0d 9d 02 3e 8e 06 ee 3d
       0.14039505 0.09766871 0.12755223 0.11622344
0003c0 c8 44 ed 3d c6 6e c9 3d bd d7 22 3e e2 5f a0 3d
       0.115853846 0.098355815 0.1590261 0.07830788
0003d0 68 4b 11 3e c5 b7 c6 3d 8b 70 14 3e 60 14 ea 3d
       0.14188921 0.0970302 0.14496057 0.114296675
0003e0 d7 21 ab 3d ed 79 0e 3e 71 2d 0e 3e c8 47 f7 3d
       0.08356064 0.13913698 0.13884522 0.12074238
0003f0 a6 81 1e 3e 32 57 0c 3e ab cd 09 3e 7c cd 92 3d
       0.15479144 0.13705137 0.13457362 0.07168099

base.seq_fcs.2.bias f4 [256]
000000 bd a1 2d 3e 90 04 2e 3e 42 f9 27 3e a5 d3 2a 3e
       0.1695623 0.16993928 0.16403678 0.16682298
000010 67 db 2e 3e ac 33 c5 3d a8 fa 28 3e ad 19 2f 3e
       0.17075883 0.09628996 0.16501868 0.17099638
000020 f5 5e c8 3d 46 b6 c2 3d 13 cf 29 3e 34 9e 2e 3e
       0.097837366 0.09507422 0.16582899 0.17052537
000030 4b 20 c4 3d d7 8a 2e 3e 44 50 2a 3e e1 3b 2e 3e
       0.09576472 0.1704515 0.16632181 0.1701503
000040 3c 14 2e 3e 18 dd 2d 3e 4c 32 2f 3e cd cc cc 3d
       0.16999906 0.16978872 0.1710903 0.1
000050 df c2 2e 3e 2a 68 2e 3e 7a c7 2d 3e 8f d0 c5 3d
       0.17066525 0.17031923 0.16970626 0.0965892
000060 94 e8 29 3e b6 c8 2e 3e 5b 77 2d 3e ba 9c 2d 3e
       0.16592628 0.17068753 0.16940062 0.16954318
000070 d7 cd 2d 3e df 64 2e 3e 31 ef 2e 3e a0 1b 2f 3e
       0.16973053 0.17030667 0.17083432 0.17100382
000080 83 0c 2e 3e 47 15 c3 3d 7d 68 2e 3e 89 84 2e 3e
       0.1699696 0.09525543 0.17032047 0.17042746
000090 cd bc 2d 3e 1d ff 2a 3e a2 1e c6 3d 6c 32 c3 3d
       0.16966553 0.1669888 0.096738115 0.095311016
0000a0 bc 10 c5 3d 54 e4 c5 3d 41 05 2a 3e 4a 93 2b 3e
       0.096223325 0.09662691 0.16603567 0.16755405
0000b0 74 b4 c5 3d 01 a7 c7 3d 05 de 2b 3e 8f 88 2d 3e
       0.09653559 0.0974865 0.16783912 0.16946624
0000c0 ff 03 2f 3e 2e 11 2b 3e f5 16 2b 3e cf 07 2b 3e
       0.17091368 0.16705772 0.16707976 0.16702197
0000d0 33 42 29 3e c4 32 2e 3e e7 00 c6 3d 64 13 2f 3e
       0.16529159 0.17011553 0.09668141 0.1709724
0000e0 64 80 2e 3e 1c 34 2a 3e d4 65 2e 3e 9e 35 2a 3e
       0.17041165 0.1662144 0.17031032 0.16622016
0000f0 eb c0 2d 3e 6b 3d 29 3e 06 2b 2f 3e df 33 2f 3e
       0.16968124 0.16527335 0.17106256 0.17109631
000100 61 9b 2a 3e e3 b2 2e 3e 9d 6e 2d 3e 12 9e 29 3e
       0.16660835 0.17060427 0.16936727 0.16564205
000110 92 23 c8 3d d1 4f 2e 3e 04 9b 2d 3e ec b8 28 3e
       0.097724095 0.17022635 0.16953665 0.16476792
000120 f1 39 2e 3e 28 ac 2d 3e ca 54 2c 3e 84 8b 28 3e
       0.1701429 0.16960204 0.1682922 0.16459471
000130 4f c8 2e 3e 27 58 2d 3e 8e f9 2d 3e f5 35 2b 3e
       0.17068599 0.16928159 0.16989729 0.16719802
000140 28 6f 2e 3e 1d 23 2c 3e 30 77 2b 3e 6f 43 2e 3e
       0.1703459 0.1681027 0.16744685 0.17017911
000150 85 7a 2e 3e ac a3 2d 3e 0f c9 2e 3e 05 50 2c 3e
       0.17038925 0.16956967 0.17068885 0.168274
000160 3e a9 2c 3e b0 e2 2c 3e bc f5 29 3e 85 0a 28 3e
       0.16861436 0.1688335 0.16597646 0.16410263
000170 ee d3 2e 3e 77 7b 2d 3e 21 0c 2e 3e 07 04 2d 3e
       0.17073032 0.1694163 0.16996814 0.16896068
000180 eb 08 c4 3d 8f 3e 2e 3e d3 dd 2e 3e ba 54 2e 3e
       0.095720135 0.17016052 0.17076807 0.17024508
000190 3b 1c c9 3d 68 14 2e 3e 1f 90 2b 3e f6 45 2d 3e
       0.09819838 0.16999972 0.16754197 0.16921219
0001a0 7e 55 2d 3e 11 34 2a 3e 69 30 2c 3e cd cc cc 3d
       0.16927144 0.16621424 0.16815342 0.1
0001b0 bd 5b 2e 3e c3 70 2d 3e cd cc cc 3d 41 70 2d 3e
       0.17027183 0.16937546 0.1 0.16937353
0001c0 92 32 2f 3e 94 84 2b 3e 45 71 c4 3d 77 7c 2e 3e
       0.17109135 0.16749793 0.09591917 0.17039667
0001d0 1e fc 2d 3e 88 6d 2d 3e 8a 0f 2f 3e ba 73 2e 3e
       0.16990706 0.16936314 0.17095771 0.17036334
0001e0 dd 31 2e 3e c8 8f 2c 3e 5e 90 2e 3e 8c 0d 2f 3e
       0.17011209 0.16851723 0.17047259 0.17095011
0001f0 31 67 2e 3e bd 15 2d 3e 57 af 2d 3e b3 7e 2e 3e
       0.17031552 0.16902824 0.16961418 0.1704052
000200 71 81 2d 3e 23 00 2f 3e 7b e1 2e 3e 43 2e 2f 3e
       0.16943909 0.17089896 0.17078201 0.17107491
000210 c5 ae 2e 3e 15 17 2e 3e 2c 45 2d 3e 01 15 2e 3e
       0.17058857 0.17000993 0.16920918 0.170002
000220 43 6a 29 3e cc a0 2b 3e 59 54 c8 3d 33 43 2a 3e
       0.16544442 0.16760558 0.09781713 0.16627197
000230 4b 06 2c 3e fe 10 28 3e 44 2a 2f 3e 51 17 2f 3e
       0.16799276 0.16412732 0.17105967 0.17098738
000240 51 15 2b 3e 89 74 c7 3d 16 f6 2e 3e 0f 11 2b 3e
       0.1670735 0.09739024 0.17086062 0.16705726
000250 cd cc cc 3d 0a f7 2d 3e 70 c5 2e 3e 9c c1 2d 3e
       0.1 0.16988769 0.17067504 0.16968387
000260 0a e4 c2 3d 98 19 c3 3d 3d 92 c6 3d da bd 2e 3e
       0.09516151 0.09526366 0.096958615 0.1706461
000270 53 33 2e 3e df f2 2c 3e 07 b7 2d 3e d9 65 c3 3d
       0.17011766 0.16889523 0.1696435 0.0954091
000280 83 6c 2d 3e af e6 c6 3d 56 1c c9 3d 35 01 2f 3e
       0.16935925 0.09711968 0.09819858 0.17090304
000290 e2 4a 2a 3e ca 4e 2c 3e 71 2a 2d 3e 3c da 2e 3e
       0.16630128 0.1682693 0.16910721 0.17075437
0002a0 ca 4b 2e 3e 8e b8 2d 3e d6 1e 2c 3e ff 0f 2e 3e
       0.17021099 0.16964933 0.16808638 0.1699829
0002b0 c5 eb 2d 3e 51 89 2d 3e ad f4 c7 3d 16 4e 29 3e
       0.1698447 0.16946913 0.09763465 0.16533694
0002c0 31 d8 2e 3e 5c 67 2e 3e 38 b7 29 3e 28 e6 2b 3e
       0.17074658 0.17031616 0.16573799 0.16787016
0002d0 a6 f3 2b 3e 0b da 2d 3e 58 64 2e 3e 06 79 29 3e
       0.16792163 0.16977708 0.17030466 0.16550073
0002e0 5b 18 c5 3d 81 88 2e 3e c0 4c 2e 3e 01 72 2d 3e
       0.09623786 0.1704426 0.17021465 0.1693802
0002f0 1e f0 c3 3d 52 c1 2d 3e 95 82 28 3e 29 01 2b 3e
       0.09567283 0.16968277 0.16456063 0.16699661
000300 17 f0 2d 3e c2 23 2e 3e aa 9c 2e 3e 86 23 2f 3e
       0.16986118 0.17005828 0.1705195 0.17103395
000310 0e 80 2d 3e da 16 2e 3e fe 9c 2d 3e 32 be 2e 3e
       0.1694338 0.17000905 0.16954419 0.17064741
000320 c3 f2 2d 3e 8e 35 2e 3e b8 38 2f 3e 14 ef 2b 3e
       0.16987137 0.17012617 0.1711148 0.1679042
000330 82 51 2a 3e bb ac 2e 3e 40 52 29 3e cd cc cc 3d
       0.16632655 0.17058079 0.16535282 0.1
000340 27 95 29 3e 6c 44 2e 3e 0c b9 2e 3e 07 52 2d 3e
       0.16560803 0.17018288 0.17062777 0.16925822
000350 cd cc cc 3d a7 21 2b 3e 31 0c 2e 3e 8c b1 2e 3e
       0.1 0.16712056 0.16996838 0.17059916
000360 a8 48 2e 3e 8b e9 2d 3e 45 e6 2b 3e a5 11 2d 3e
       0.17019904 0.16983621 0.1678706 0.16901262
000370 31 33 2f 3e cc b6 c3 3d b8 90 2d 3e 3d 46 2e 3e
       0.17109372 0.0955635 0.16949737 0.17018981
000380 5d c9 2d 3e d7 84 2e 3e c6 30 2f 3e 8a b1 2e 3e
       0.16971345 0.17042862 0.1710845 0.17059913
000390 70 0c 29 3e 76 d5 2c 3e 12 6c 2c 3e 64 d3 2d 3e
       0.16508651 0.16878304 0.168381 0.1697517
0003a0 cd cc cc 3d 41 db 2d 3e 84 5d 2d 3e 3a 94 c5 3d
       0.1 0.1697817 0.16930205 0.096474126
0003b0 f6 f5 2e 3e dd c6 2e 3e bb ed c4 3d 38 1e 2c 3e
       0.17086014 0.17068048 0.09615656 0.16808403
0003c0 63 a5 29 3e 17 85 2c 3e 53 76 2e 3e f0 03 2e 3e
       0.16566996 0.16847645 0.17037325 0.1699369
0003d0 59 86 2d 3e c2 43 2e 3e e3 0e 2e 3e cc 30 2f 3e
       0.16945781 0.17018035 0.16997866 0.17108458
0003e0 31 7a 2e 3e cd cc cc 3d 04 69 2e 3e de 1c 2f 3e
       0.170388 0.1 0.17032248 0.17100856
0003f0 fa f4 28 3e cc c7 2d 3e 82 1d 2e 3e 61 cb c5 3d
       0.16499701 0.16970748 0.17003444 0.09657932

last.weight f4 [1, 256]
000000 3f d6 db 3d 48 65 db 3d 74 b5 d6 3d 92 44 d3 3d
       0.107342236 0.10712677 0.10483828 0.10315813
000010 d9 52 d2 3d ae 40 a9 3a 39 e1 d7 3d 23 f7 d1 3d
       0.10269708 0.0012912953 0.10541005 0.10252216
000020 16 aa 57 ba f4 ab 04 3b fa e8 d7 3d 2c 78 dc 3d
       -0.0008226944 0.0020244094 0.10542484 0.107651085
000030 87 5d 57 3a 4c dd d6 3d 2d cb d9 3d 5a b4 db 3d
       0.0008215536 0.10491428 0.10634456 0.10727759
000040 05 59 d9 3d 83 de d6 3d 98 93 d0 3d cd f1 3d bb
       0.10612682 0.104916595 0.10184401 -0.0028983236
000050 16 18 d5 3d 5d 3f d9 3d 33 cb d9 3d e9 14 de 39
       0.10404985 0.10607789 0.1063446 0.0004235872
000060 5d ca d7 3d 85 8e d6 3d 79 1b db 3d 64 16 dd 3d
       0.105366446 0.10476402 0.10698599 0.10795286
000070 5d 5d d8 3d ba 7b da 3d 1b cf d7 3d 87 23 d6 3d
       0.10564683 0.1066813 0.10537549 0.10455995
000080 ee 9b d8 3d 48 a8 e8 3a 4d a7 d4 3d 54 5d d3 3d
       0.10576616 0.0017750347 0.103834726 0.10320535
000090 98 01 da 3d 30 56 d7 3d 28 61 37 3b 26 7f e9 3a
       0.10644835 0.10514486 0.0027981494 0.0017814382
0000a0 f1 55 b7 3a 8e 03 1f 3b 8c 04 d6 3d 98 bc d9 3d
       0.0013987405 0.0024263593 0.10450086 0.106316745
0000b0 1d b6 3d 3b 0d 2f 7f 3a 76 fd da 3d a5 64 da 3d
       0.002894766 0.0009734489 0.10692875 0.10663728
0000c0 43 3d d6 3d f1 4d d5 3d f7 d0 d9 3d 13 c8 d9 3d
       0.104609035 0.10415257 0.1063556 0.10633864
0000d0 aa d7 d7 3d 98 4c d9 3d b8 8a 1c 3b f2 43 d7 3d
       0.105391815 0.10610312 0.0023886394 0.105110064
0000e0 6b 1b d5 3d 41 a6 d7 3d 22 da dc 3d 4a ab d9 3d
       0.1040562 0.10529757 0.10783793 0.10628374
0000f0 c3 15 d7 3d 62 a4 d4 3d c7 1b db 3d 9b c2 da 3d
       0.105021976 0.10382916 0.106986575 0.10681649
000100 0c cd d6 3d f9 77 d8 3d 10 b1 db 3d 75 20 d8 3d
       0.10488328 0.10569758 0.10727131 0.10553066
000110 ce 29 9a 3a 8e 48 d6 3d 2b 98 d5 3d 37 49 d6 3d
       0.0011761726 0.104630575 0.10429414 0.104631834
000120 6c 89 da 3d 18 e2 dc 3d fa 67 d4 3d a5 ba d6 3d
       0.106707424 0.107853115 0.103713945 0.10484818
000130 fc 14 d4 3d 2f a8 d2 3d 63 8a d8 3d a2 d6 da 3d
       0.10355565 0.10285985 0.1057327 0.10685469
000140 50 5e da 3d 70 1a d8 3d 3f df d8 3d 39 12 dd 3d
       0.1066252 0.105519176 0.10589456 0.10794491
000150 69 76 db 3d f7 5e d9 3d ab 73 d4 3d 55 e8 d2 3d
       0.10715944 0.10613816 0.103736244 0.1029822
000160 21 e8 d9 3d 43 21 dc 3d d4 e4 d3 3d 35 2e d8 3d
       0.10639978 0.10748532 0.1034638 0.10555688
000170 99 5c d5 3d a1 dd d8 3d 68 0f da 3d 41 57 db 3d
       0.10418052 0.10589147 0.1064747 0.10710002
000180 18 2c 11 3b fb 7e d8 3d 40 aa da 3d 3e 11 db 3d
       0.0022151526 0.105710946 0.10677004 0.10696648
000190 ab b5 53 3a 73 48 d6 3d 26 d2 d7 3d f9 3c da 3d
       0.0008076082 0.10463037 0.105381295 0.10656161
0001a0 4a 1d d6 3d 2a 3c d9 3d 7d 61 db 3d b5 69 33 bb
       0.10454805 0.106071785 0.10711954 -0.0027376239
0001b0 1c 81 d6 3d 88 69 d6 3d 6a d2 27 bb 4b 59 d8 3d
       0.104738444 0.10469347 -0.0025607594 0.10563906
0001c0 d9 1f d8 3d b7 a1 d9 3d 5b ca 17 3b 8a 45 d5 3d
       0.105529495 0.10626548 0.0023161385 0.10413654
0001d0 d5 c8 db 3d 50 bf db 3d b2 80 d3 3d 77 1d d6 3d
       0.10731665 0.10729849 0.10327281 0.10454839
0001e0 86 bf d9 3d 3f fa d4 3d f4 6c d9 3d 01 63 db 3d
       0.10632233 0.10399293 0.10616484 0.10712243
0001f0 1b 7b da 3d d0 a2 db 3d da a5 d7 3d 20 bc d7 3d
       0.10668012 0.107244134 0.105296806 0.10533929
000200 ca cd dc 3d 3e ef d6 3d d2 dc d8 3d c7 50 d5 3d
       0.10781439 0.104948506 0.10588993 0.10415798
000210 bc e3 d2 3d 40 15 d4 3d 92 59 db 3d 9d ed d7 3d
       0.10297343 0.103556156 0.107104436 0.10543368
000220 80 09 d5 3d f8 b4 da 3d f4 81 bd 39 da 50 d6 3d
       0.104022026 0.10679048 0.00036145712 0.1046464
000230 d6 16 d9 3d 86 ae d5 3d a4 6d d9 3d bf 44 da 3d
       0.10600059 0.10433678 0.106166154 0.106576435
000240 ac dc d7 3d 23 c6 35 3b c1 07 d1 3d 29 06 d5 3d
       0.10540137 0.0027736507 0.10206557 0.104015656
000250 69 09 76 39 35 e6 d3 3d e2 d7 d4 3d eb ef db 3d
       0.00023463894 0.10346643 0.10392739 0.1073912
000260 f5 37 1e 3b 6b e5 b0 3a b4 98 0c 3b 25 c1 d1 3d
       0.002414224 0.0013496106 0.0021453323 0.102419175
000270 73 8c d9 3d 16 af db 3d 55 51 d8 3d 34 9f 2e 3b
       0.10622492 0.10726754 0.10562388 0.0026645185
000280 8b d8 db 3d 52 c6 dc 3a 91 64 a1 3a 22 9f d1 3d
       0.10734662 0.0016843772 0.0012313296 0.1023543
000290 0b 62 d9 3d 17 c8 d8 3d cd a2 d7 3d 2c dd cf 3d
       0.10614403 0.10585039 0.10529099 0.10149607
0002a0 1a 3b d7 3d 90 fd dc 3d f8 2f d7 3d 62 be d8 3d
       0.105093196 0.10790551 0.10507196 0.10583188
0002b0 1b d5 d4 3d 67 74 db 3d e4 d4 da 3a bc 3c d8 3d
       0.10392209 0.10715561 0.0016695526 0.10558459
0002c0 c8 be db 3d da 43 d8 3d e6 75 d6 3d ae 04 db 3d
       0.10729748 0.10559817 0.10471706 0.10694252
0002d0 59 54 db 3d 5b 8a d4 3d e6 99 dc 3d e2 b7 d8 3d
       0.107094474 0.10377952 0.10771541 0.10581948
0002e0 f2 cc d1 3a e2 d2 d6 3d 2b 80 d9 3d f5 72 d9 3d
       0.0016006513 0.104894415 0.10620149 0.106176294
0002f0 6f cc f3 3a f9 66 d8 3d 38 bd d4 3d 51 cc d9 3d
       0.0018600355 0.105665155 0.10387653 0.106346734
000300 2a 4b da 3d de 23 d5 3d 2d 14 d5 3d 52 be d7 3d
       0.10658868 0.10407232 0.10404239 0.105343476
000310 8d f0 d7 3d 72 13 db 3d 4b 83 d8 3d 98 81 d0 3d
       0.10543928 0.10697068 0.10571917 0.10180968
000320 30 94 dc 3d 62 04 d9 3d 43 9c d4 3d 53 9d da 3d
       0.10770452 0.10596539 0.10381367 0.106745385
000330 81 0b d8 3d 8c 48 d9 3d 49 76 d7 3d 98 3a 41 b9
       0.10549069 0.1060954 0.10520608 -0.00018427742
000340 3b f4 d8 3d 7c c8 d6 3d bf 23 dc 3d 99 14 d7 3d
       0.10593458 0.10487458 0.107490055 0.105019756
000350 f4 b9 ff 39 29 22 da 3d e6 81 da 3d 44 7b d7 3d
       0.00048775936 0.10651047 0.106693074 0.10521558
000360 3a 39 da 3d 68 1a d8 3d 13 69 da 3d 66 de d7 3d
       0.10655446 0.105519116 0.106645726 0.10540466
000370 83 5e d1 3d 5a 02 16 3b 7f a8 da 3d 75 0f d5 3d
       0.10223105 0.0022889585 0.10676669 0.10403339
000380 2a 4e d4 3d 6b c7 d2 3d 48 7a db 3d 0e 70 db 3d
       0.10366471 0.10291942 0.10716683 0.10714732
000390 a0 5c d5 3d 12 d2 d4 3d 65 72 dc 3d 9a 09 d2 3d
       0.104180574 0.1039163 0.107640065 0.102557376
0003a0 0b 90 af ba c0 51 dd 3d 2e 83 d9 3d 15 5d 91 39
       -0.0013394369 0.10806608 0.10620724 0.00027725907
0003b0 eb 9d d5 3d b1 67 d3 3d de a5 06 3b bf dd da 3d
       0.10430511 0.10322512 0.0020545642 0.10686826
0003c0 57 c3 d8 3d 6d dc d1 3d 4b be d4 3d cc d2 d4 3d
       0.10584133 0.10247121 0.10387858 0.10391769
0003d0 d0 38 da 3d 34 e6 dc 3d 72 5f d7 3d 4d 30 d3 3d
       0.106553674 0.10786095 0.105162516 0.10311947
0003e0 f7 15 d3 3d fe 07 70 3a f9 59 dd 3d 2d 46 d6 3d
       0.10306924 0.00091564644 0.108081765 0.10462604
0003f0 b6 9e d4 3d 55 0f da 3d 38 3d da 3d 18 57 14 3a
       0.10381834 0.106474556 0.10656208 0.000565873
