Soft-Module-main/log/model50_42/model_pf_best.pth (torch, 287205 bytes, 6 tensors)

base.seq_fcs.0.weight f4 [256, 12]
0	0x3d85509b	0.06509515
1	0xbd8ede7e	-0.06976031
2	0xbb16ddaf	-0.0023020317
3	0x3d54a790	0.051917613
4	0xbd01a272	-0.03164906
5	0xbb66d123	-0.003521987
6	0x3d47d562	0.048787482
7	0x3d3ec148	0.046571046
8	0xbc9235a8	-0.01784785
9	0x3caf1173	0.021370625
10	0xbd563e9f	-0.052305814
11	0xbd9ae55a	-0.075632766
12	0xbba34f34	-0.004983807
13	0xbd9d0b38	-0.076681554
14	0xbc71268d	-0.014718664
15	0x3d176746	0.036963724
16	0xbc839f7d	-0.01606726
17	0xbd5f2fb8	-0.054488868
18	0xbd725336	-0.059161387
19	0xbd66f8a2	-0.05638946
20	0xbc7e7a48	-0.015532084
21	0xbcb0f368	-0.02160044
22	0xbd852401	-0.06501008
23	0xbd3518d4	-0.04421313
24	0x3cdb6bb0	0.026784748
25	0xbdafe405	-0.08588413
26	0x3b02407d	0.0019874864
27	0x3c8b051e	0.016970214
28	0xbd533483	-0.05156375
29	0x3c351eaf	0.011054679
30	0xbd481a0c	-0.048852965
31	0xbd30bd6c	-0.043149397
32	0x3c648818	0.013948463
33	0xbd4a9336	-0.049456798
34	0xbc9cb51c	-0.019129328
35	0xbd1a4b3a	-0.037669398
36	0xbc305150	-0.010761574
37	0x3b9f36ec	0.004858842
38	0xbcf74ca2	-0.030187909
39	0xbbf78fbf	-0.0075549777
40	0xbd8bbbd8	-0.06822938
41	0x3ce0ee15	0.027457276
42	0xbcabf018	-0.020988509
43	0xbd225c14	-0.039638594
44	0xbd089d4c	-0.033353135
45	0xbc919683	-0.017771965
46	0xbd5ef078	-0.054428548
47	0x3cc8580b	0.024456045
48	0xbd4e0ff1	-0.05030817
49	0xbd40dd83	-0.04708625
50	0xbd6f6b1d	-0.05845176
51	0xbc988af9	-0.018620955
52	0xbd5cf45b	-0.053943973
53	0x3d102408	0.035190612
54	0xbd1528e6	-0.036415957
55	0x3c1d8500	0.009614229
56	0x3d105666	0.035238646
57	0x3d31fa7a	0.043451764
58	0xbcfa1b30	-0.030530542
59	0x3c58e54a	0.0132382605
60	0x3d664c36	0.056225024
61	0xbd16de6f	-0.036833223
62	0xbdbc1753	-0.09184136
63	0xbcc01b57	-0.023450537
64	0xbd212c7b	-0.03934906
65	0xbd80a28b	-0.062810026
66	0xbd78e610	-0.06076628
67	0xbd3eb0a4	-0.046555176
68	0xbd428f72	-0.04750008
69	0xbda7c497	-0.081917934
70	0xbc5d2fb2	-0.013500141
71	0xbd1b92b4	-0.037981704
72	0xbc3f6d80	-0.011683822
73	0xbd786b07	-0.060648944
74	0xba4b96b6	-0.0007766293
75	0x3d1b2ed2	0.03788645
76	0xbca9f1f7	-0.02074526
77	0xbdaaca67	-0.083393864
78	0x3d7a0304	0.061038032
79	0xbca08140	-0.019592881
80	0xbd262196	-0.040559374
81	0xbdbd7443	-0.09250691
82	0xbd5e7b2c	-0.054316685
83	0x3cc413de	0.023935255
84	0xbc4c54fb	-0.012471433
85	0xbd3fbf88	-0.046813518
86	0xbd8dd94b	-0.06926211
87	0xbc4fc96d	-0.012682301
88	0xbc6aa947	-0.014322585
89	0xbd031dfa	-0.03201101
90	0xbc821898	-0.015880868
91	0x3cd4caf4	0.025975682
92	0xbd286bb2	-0.04111833
93	0xbc896eda	-0.016776491
94	0xbdb62d80	-0.08895397
95	0x3bc62a50	0.0060475245
96	0x3ca77db1	0.020445677
97	0xbc3730a1	-0.011181028
98	0xbd57c71f	-0.05268013
99	0xbd0beec6	-0.03416326
100	0xbc90c099	-0.017669963
101	0xbd69a205	-0.05703928
102	0x3cc32af8	0.0238242
103	0xbd3a3c28	-0.045467526
104	0xba074600	-0.0005160272
105	0xbd6a54a8	-0.05720964
106	0xbd9931dc	-0.07480213
107	0xbb391a7f	-0.0028244553
108	0x3bb1affe	0.005422591
109	0x3bf62c87	0.0075126323
110	0xbcb21fa0	-0.021743596
111	0xbcf553c0	-0.029947162
112	0xbcb5983e	-0.022167321
113	0xba5775fd	-0.0008219181
114	0x3d21d0e6	0.03950586
115	0x3d0c4f2a	0.034255184
116	0xbd5d0dba	-0.05396817
117	0xbce39ebe	-0.027785655
118	0xbdb1dac4	-0.08684304
119	0xbd85f2b8	-0.065404356
120	0x3dface68	0.122464
121	0xbdabdc73	-0.08391657
122	0xbd47525c	-0.04866253
123	0x3d63308d	0.055466224
124	0xbd9b63f7	-0.07587426
125	0xbd969dc1	-0.07354308
126	0x3d551b84	0.052028194
127	0x3c86b1d4	0.016442217
128	0xbd694498	-0.05695018
129	0x3a5dff50	0.00084685255
130	0x3d0ca86d	0.03434031
131	0xbd740314	-0.059573248
132	0xbc96cb4d	-0.018407488
133	0xbd94cec3	-0.07265999
134	0xbd014cd8	-0.031567425
135	0xbc648e11	-0.013949887
136	0xbcad7a2a	-0.021176416
137	0x3cec5052	0.028846893
138	0xbd71ce2e	-0.05903452
139	0xbd63c898	-0.055611223
140	0x3d0ae5b0	0.033910453
141	0xbd92c464	-0.07166365
142	0xbd455b83	-0.048182976
143	0x3c9df5a2	0.019282166
144	0x3c13232a	0.008980552
145	0xbc2556f4	-0.010091532
146	0xbd82f9a6	-0.06395273
147	0x3d18ce92	0.037306376
148	0xbd57461c	-0.052557096
149	0xbdd45a99	-0.10368843
150	0xbd6f0a38	-0.058359355
151	0xbd7c5728	-0.061606556
152	0xbd6a5306	-0.057208084
153	0xbd2e7049	-0.042587552
154	0xbca25d7c	-0.019819967
155	0xbde9ea59	-0.114216514
156	0x3c788749	0.015168973
157	0x3a9a76c9	0.0011784668
158	0xbdcb8ee0	-0.099393606
159	0x3d40f8ee	0.047112398
160	0xbcffbfd3	-0.031219399
161	0xbce2f2ca	-0.027703661
162	0xbd44b138	-0.04802057
163	0xbd491922	-0.049096234
164	0x3cf3fdf0	0.029784173
165	0xbd8e4c3d	-0.06948135
166	0xbd5163da	-0.051120616
167	0xbcced12d	-0.025246227
168	0xbcdc58b6	-0.02689777
169	0xbd6d8cf9	-0.05799577
170	0x3a6c59a6	0.0009016044
171	0x3ca7c0fa	0.02047776
172	0xbd710825	-0.058845658
173	0xbda9b3d3	-0.08286252
174	0x3d2bb1fa	0.04191778
175	0xbd06fe98	-0.032957643
176	0x3d135c78	0.035976857
177	0x3cbf8c5a	0.023382355
178	0xbced3100	-0.02895403
179	0xbd365073	-0.044510316
180	0x3b4b0dc1	0.003098354
181	0xbb20d9b3	-0.0024543821
182	0xbc9b836b	-0.018983563
183	0x3babc03b	0.0052414215
184	0xbda20a88	-0.07912165
185	0x3c8ab1d0	0.01693049
186	0xbd5fa842	-0.054603823
187	0x3d77831a	0.060427763
188	0x3d480ec8	0.04884222
189	0xbd9a2a17	-0.07527559
190	0xbc548034	-0.012970019
191	0xbcb4c45a	-0.022066284
192	0x3cddd32a	0.02707823
193	0xbc954f98	-0.01822643
194	0xbb53f881	-0.0032344165
195	0x3acec138	0.0015774136
196	0xbd94263f	-0.07233857
197	0xbc843e3e	-0.01614296
198	0x3d0e2eaa	0.03471247
199	0xbc79b550	-0.015240982
200	0x3c9b7538	0.018976793
201	0x3d018cbe	0.031628363
202	0xbd5c9fce	-0.05386334
203	0x3c87104a	0.01648726
204	0x3dc27559	0.094950385
205	0x3c9e2a2a	0.019307215
206	0xbc8fde80	-0.017562151
207	0xbafbf8ae	-0.0019223893
208	0xbda3b7e6	-0.0799406
209	0xbc9630ad	-0.018333757
210	0x3ba87910	0.005141385
211	0xbd08ffc4	-0.033447042
212	0xbd08dc42	-0.03341318
213	0xbb1a976a	-0.0023588785
214	0xbd2a2927	-0.041543152
215	0xbd553e7d	-0.052061547
216	0x3ccaa8f5	0.024738768
217	0xbd3947a0	-0.045234323
218	0xbcd8d826	-0.026470255
219	0x3d8cddc1	0.06878234
220	0xbbeab608	-0.007162813
221	0xbd33ff79	-0.04394481
222	0xbc241f90	-0.010017291
223	0xbd1763da	-0.03696046
224	0x3cd32adc	0.025777273
225	0xbcef2407	-0.029191984
226	0xbd206568	-0.03915921
227	0xbdf01a9b	-0.117238246
228	0xbcd1d503	-0.025614267
229	0xbdb3e292	-0.08783449
230	0xbc26f470	-0.010190114
231	0x3d6175da	0.055044033
232	0xbbccc359	-0.006248873
233	0xbb3b0a21	-0.0028539973
234	0x3b9bc810	0.004754074
235	0xbd6f02d2	-0.0583523
236	0x3d43168c	0.047628924
237	0x3c9abaf7	0.01888798
238	0xbd887654	-0.06663194
239	0xbc807e27	-0.015685154
240	0x3e4762d4	0.19471294
241	0xbc49af1e	-0.012309818
242	0x3bca1d30	0.00616803
243	0x3c1ee011	0.009696976
244	0x3c96b736	0.018397909
245	0x3d1cbc71	0.03826565
246	0xbd631370	-0.05543846
247	0x3d0231de	0.03178584
248	0xbbaea760	-0.0053300112
249	0xbd245034	-0.04011555
250	0x3d7d1276	0.061785184
251	0x3cb774e7	0.02239461
252	0x3d0c3b7b	0.034236412
253	0x39800c20	0.00024423096
254	0xbb6dce58	-0.003628632
255	0x3c708cff	0.014682054

base.seq_fcs.0.bias f4 [256]
0	0x3d97dba6	0.074149415
1	0x3d806e01	0.062709816
2	0x3d95101d	0.07278464
3	0x3d75658d	0.0599113
4	0x3db27cea	0.08715232
5	0x3d1de028	0.03854385
6	0x3d8db077	0.069184236
7	0x3d9628ca	0.07331999
8	0x3d6b13cd	0.05739193
9	0x3d8631cd	0.065524675
10	0x3d969d2f	0.07354199
11	0x3d90d9ce	0.07072793
12	0x3d156c8a	0.036480464
13	0x3d41b8de	0.047295444
14	0x3d83b08f	0.0643016
15	0x3d91d36a	0.07120402
16	0x3d99ecdb	0.0751588
17	0x3d6767ba	0.056495406
18	0x3d010fd6	0.031509243
19	0x3d8e8b29	0.069601364
20	0x3dceb1a7	0.10092478
21	0x3d2bc58b	0.04193644
22	0x3d56ddf8	0.05245778
23	0x3d63d4c0	0.055622816
24	0x3d9a5a22	0.07536723
25	0x3d4eaa1f	0.05045521
26	0x3daf308c	0.085541815
27	0x3d1e8db1	0.038709346
28	0x3d9c4216	0.076297924
29	0x3d5b4f48	0.053542405
30	0x3d7fc077	0.06243941
31	0x3d94f047	0.07272392
32	0x3d589fe8	0.052886873
33	0x3d4ece93	0.050489973
34	0x3d918b8e	0.07106696
35	0x3d8e3143	0.0694299
36	0x3d983ad9	0.07433099
37	0x3d6f2701	0.058386806
38	0x3d343558	0.043996185
39	0x3dacf72e	0.08445583
40	0x3d8df756	0.06931941
41	0x3d53e107	0.051728275
42	0x3d86cbea	0.06581862
43	0x3d686658	0.056738228
44	0x3d920096	0.07129018
45	0x3d417cb4	0.047238067
46	0x3da49c9e	0.08037685
47	0x3d6f2009	0.05838016
48	0x3d87d5d0	0.066325784
49	0x3d58d6e4	0.05293931
50	0x3d9e6f86	0.07736115
51	0x3dbc9126	0.09207372
52	0x3d8e0b4e	0.0693575
53	0x3d9a2b83	0.075278305
54	0x3d29910f	0.041398104
55	0x3d60a1ad	0.054841686
56	0x3d8ddf74	0.06927386
57	0x3d264ae4	0.040598765
58	0x3d938956	0.07203929
59	0x3d8ca3d0	0.06867182
60	0x3d225f96	0.03964194
61	0x3d45d32a	0.048297085
62	0x3dafbac3	0.08580544
63	0x3d8ea132	0.06964339
64	0x3d59439e	0.053043
65	0x3d84fc74	0.06493464
66	0x3d757226	0.059923314
67	0x3d6bf6a3	0.057608258
68	0x3d8ae9c8	0.067828715
69	0x3d66a853	0.05631287
70	0x3d8eee72	0.069790736
71	0x3d8368e1	0.064164884
72	0x3d3f3f97	0.046691503
73	0x3d915c24	0.070976526
74	0x3d57765f	0.05260312
75	0x3d70a00a	0.058746375
76	0x3da810dc	0.08206341
77	0x3d8796d3	0.06620564
78	0x3d27cc95	0.04096659
79	0x3d948095	0.072510876
80	0x3d7861aa	0.060640015
81	0x3d7106a4	0.058844224
82	0x3d4a03f5	0.04932018
83	0x3d1861fd	0.037202824
84	0x3d84eb52	0.06490196
85	0x3d5893e1	0.052875403
86	0x3d693257	0.056932773
87	0x3d5051f0	0.05085939
88	0x3d6d5e25	0.05795111
89	0x3d7aeca1	0.061260823
90	0x3d892a90	0.06697571
91	0x3d795c9e	0.060879342
92	0x3d9088db	0.07057353
93	0x3d4ce8c5	0.050026674
94	0x3d9a4175	0.07532016
95	0x3d763fd3	0.06011946
96	0x3d044cdf	0.032299872
97	0x3d9ca549	0.07648713
98	0x3d860721	0.065443285
99	0x3d56991a	0.052392103
100	0x3d4dc73a	0.050238825
101	0x3db60179	0.08887
102	0x3d984c93	0.074364804
103	0x3d6b9581	0.057515625
104	0x3d35b245	0.044359464
105	0x3d7426a2	0.059607156
106	0x3dd4d0fd	0.10391424
107	0x3d44fb04	0.04809095
108	0x3d9449b1	0.07240618
109	0x3d791db9	0.06081936
110	0x3d396757	0.04526457
111	0x3d76ab2a	0.06022183
112	0x3cdd5ec4	0.027022727
113	0x3d5e1b1a	0.054225065
114	0x3d991f75	0.07476703
115	0x3d740f18	0.059584707
116	0x3d9d0019	0.07666034
117	0x3d85653b	0.06513449
118	0x3d72c55c	0.059270248
119	0x3d04da9f	0.032435056
120	0x3d9c1408	0.07621008
121	0x3dbca83f	0.09211778
122	0x3db2d660	0.08732295
123	0x3d4259b0	0.047448814
124	0x3d6af179	0.057359193
125	0x3d97bc3c	0.0740895
126	0x3d4a8b36	0.04944917
127	0x3d96e71b	0.073682986
128	0x3d81288e	0.06306563
129	0x3d63b608	0.05559352
130	0x3da822af	0.0820974
131	0x3d8309f3	0.06398382
132	0x3d8b9509	0.068155356
133	0x3d852e7e	0.06503008
134	0x3d8b05d7	0.06788223
135	0x3da63f95	0.08117596
136	0x3d9d1a6b	0.076710545
137	0x3daeb257	0.085301094
138	0x3da21de1	0.07915855
139	0x3d980cd1	0.074243195
140	0x3d8fe27b	0.070256196
141	0x3d415741	0.047202352
142	0x3d9b21b5	0.075747885
143	0x3d689dad	0.056790996
144	0x3d69e535	0.057103354
145	0x3d9df668	0.07713014
146	0x3d9316f4	0.07182112
147	0x3d2c60cd	0.042084504
148	0x3d7fa1c8	0.062410146
149	0x3d2ca9c6	0.042154096
150	0x3d99fb91	0.075186856
151	0x3d2bc22e	0.04193323
152	0x3d940cf5	0.07229034
153	0x3d75e41a	0.060031988
154	0x3d5aa240	0.05337739
155	0x3d4597f4	0.048240617
156	0x3d502fe0	0.050826907
157	0x3d86dba0	0.06584859
158	0x3db23019	0.0870058
159	0x3d57a388	0.05264619
160	0x3d78c3ce	0.06073361
161	0x3d8a7040	0.06759691
162	0x3d5e2b47	0.05424049
163	0x3d6715a3	0.05641712
164	0x3d7cda67	0.061731722
165	0x3d5cab7b	0.053874474
166	0x3da6cad2	0.08144154
167	0x3d7e4b49	0.062083516
168	0x3d89c02e	0.067261085
169	0x3d783b08	0.06060317
170	0x3db46acb	0.08809432
171	0x3d257696	0.040396295
172	0x3d88b83f	0.06675767
173	0x3da98ea9	0.082791634
174	0x3d5931a8	0.05302587
175	0x3d880ba8	0.06642848
176	0x3d6c9d02	0.05776692
177	0x3d4997fa	0.0492172
178	0x3d3e6a89	0.04648832
179	0x3d051110	0.032486975
180	0x3da27607	0.07932668
181	0x3d83da08	0.064380705
182	0x3d623602	0.055227287
183	0x3da35163	0.07974508
184	0x3dacea29	0.084431
185	0x3d4e186d	0.050316263
186	0x3dac30b2	0.084077254
187	0x3d82365e	0.06358026
188	0x3d6d8227	0.05798545
189	0x3d65f982	0.056146152
190	0x3daa7313	0.0832273
191	0x3d838c9c	0.064233035
192	0x3d9833fb	0.074317895
193	0x3da848e8	0.08217031
194	0x3d2bd3b7	0.041949954
195	0x3d4a1d3a	0.04934428
196	0x3d895d2f	0.067072265
197	0x3d8e132b	0.0693725
198	0x3daba40a	0.08380897
199	0x3d81c19d	0.06335757
200	0x3d635223	0.055498254
201	0x3d889853	0.066696785
202	0x3d78e010	0.060760558
203	0x3d090ca1	0.03345931
204	0x3d7c4ae0	0.061594844
205	0x3d89a467	0.067208104
206	0x3d5e5da4	0.05428852
207	0x3da892fa	0.082311586
208	0x3d3df5ff	0.04637718
209	0x3d42c921	0.047555093
210	0x3d51f9fb	0.05126379
211	0x3dd02050	0.10162413
212	0x3db0a55a	0.08625288
213	0x3d155eab	0.036467236
214	0x3d36349d	0.04448377
215	0x3d95f566	0.07322197
216	0x3d5eee8e	0.054426722
217	0x3de4539b	0.11148759
218	0x3d536c8c	0.05161719
219	0x3da11b99	0.07866592
220	0x3d821918	0.063524425
221	0x3d898383	0.06714537
222	0x3d497a2d	0.04918878
223	0x3d8b5d57	0.068049125
224	0x3df5a747	0.11994796
225	0x3d81354b	0.06308993
226	0x3d5f9f5f	0.054595347
227	0x3d6bc554	0.057561234
228	0x3d5e8074	0.05432172
229	0x3d8542f5	0.06506912
230	0x3d631bdd	0.055446494
231	0x3db1c7de	0.086807
232	0x3d92b019	0.07162494
233	0x3d83e27f	0.06439685
234	0x3d9cc17a	0.0765409
235	0x3d0555b6	0.032552443
236	0x3d745acb	0.0596569
237	0x3d63c459	0.055607174
238	0x3da9eb45	0.08296827
239	0x3d9445b5	0.07239858
240	0x3d7debaf	0.061992344
241	0x3da36ac1	0.07979346
242	0x3d97e915	0.07417504
243	0x3d8203ef	0.063484065
244	0x3d87ec8d	0.06636915
245	0x3d4a88d7	0.049446907
246	0x3d9bc164	0.07605246
247	0x3d5e78d9	0.054314468
248	0x3d599613	0.053121638
249	0x3d7ad8e2	0.06124199
250	0x3da1196f	0.07866179
251	0x3d84d4cf	0.064859025
252	0x3d929b90	0.071585774
253	0x3d937f94	0.07202068
254	0x3d733bb5	0.059383113
255	0x3d83d262	0.06436612

base.seq_fcs.2.weight f4 [256, 256]
0	0x3d7fd889	0.062462363
1	0xbcdba93b	-0.026814094
2	0xbcfdf343	-0.030999785
3	0x3c43209f	0.011909633
4	0x3c5a38ce	0.013319207
5	0x3d78e173	0.06076188
6	0xbd46b91f	-0.04851639
7	0xbcb333d3	-0.021875298
8	0xbc924733	-0.017856216
9	0xbc6d4bc7	-0.014483399
10	0xbc34d49c	-0.011037018
11	0xbc5a8de9	-0.013339498
12	0x3ac9cd61	0.0015396291
13	0x3d181ff9	0.037139867
14	0x3d17d1dd	0.037065376
15	0x3d2e5bdd	0.042568076
16	0xbbbbc6a9	-0.0057304692
17	0xbcb47a7a	-0.022031058
18	0x3c28ce3b	0.010303075
19	0xbd30172d	-0.042990852
20	0xbdc036b4	-0.09385434
21	0x3caf00e9	0.021362739
22	0xbc2fe8a4	-0.010736618
23	0xbc7397af	-0.014867707
24	0xbd3b309d	-0.045700658
25	0x3c07dc48	0.008292265
26	0x3cc9e709	0.024646299
27	0xbd09a9f0	-0.03360933
28	0x3d5c4e47	0.05378559
29	0x3b335f19	0.0027369915
30	0xbd229e8b	-0.03970198
31	0x3d317b28	0.04333034
32	0xbd89d513	-0.06730094
33	0xbd96a092	-0.07354845
34	0x3b86ef6d	0.0041178972
35	0x3942e053	0.00018584849
36	0x3cf08ecf	0.029364971
37	0xbd2b3aed	-0.041804243
38	0xbd60bafa	-0.054865815
39	0xbd5ea05d	-0.054352153
40	0xbd4d0f36	-0.050063334
41	0xbd17bbc8	-0.037044317
42	0xbe0733c0	-0.13203335
43	0x3c8f05a1	0.017458739
44	0xbd41b9f9	-0.047296498
45	0xbcd1c64b	-0.025607249
46	0xbb2e8189	-0.0026627502
47	0x3d1dfa7a	0.03856895
48	0x3cac8e67	0.021063996
49	0xbd10b519	-0.03532896
50	0xbcb7a029	-0.022415238
51	0xbd99d749	-0.075117655
52	0x3b9b5934	0.0047408585
53	0x3a92259b	0.0011150123
54	0xbcc389b3	-0.023869371
55	0xbcba45e6	-0.022738408
56	0x3cafd12a	0.021462042
57	0xbc7a42c2	-0.015274705
58	0xbc53f2c3	-0.012936297
59	0x3c85e6b8	0.016345367
60	0x3d21bdb5	0.03948756
61	0x3d413ec5	0.047179002
62	0xbc8d6759	-0.017261194
63	0xbcd20793	-0.025638377
64	0x3cf9e196	0.030503076
65	0x3d4478a8	0.04796663
66	0xbd862328	-0.06549674
67	0xbd1158c0	-0.03548503
68	0x3a47faf4	0.00076286425
69	0xbb1af2ba	-0.0023643211
70	0xbd997326	-0.07492666
71	0x3d178e0b	0.037000697
72	0xbca7f9df	-0.02050489
73	0x3c8a1271	0.016854497
74	0xbcf6e03c	-0.03013622
75	0xbc796975	-0.015222897
76	0x3929f666	0.00016208887
77	0x3d06a200	0.03286934
78	0xbcc2e603	-0.023791319
79	0xbd48efc9	-0.049056802
80	0x3c3a567c	0.011373159
81	0x3c8eeb7e	0.017446276
82	0xb99bb3e7	-0.00029697941
83	0xbd4cfaef	-0.050043996
84	0xbd6b191d	-0.057396997
85	0x3cfa5872	0.030559752
86	0x3cc16bc1	0.023610951
87	0xbcceafb5	-0.025230268
88	0x3d50b138	0.05095026
89	0xbd89e3e9	-0.067329235
90	0x3d0ab245	0.033861417
91	0xbe03384f	-0.12814449
92	0x3d4359fc	0.047693238
93	0x3d5677bf	0.052360293
94	0xbc78e57b	-0.015191431
95	0x3d49300d	0.04911809
96	0xbd796526	-0.06088748
97	0xbb8ddcce	-0.0043293005
98	0x3cdbbdf7	0.02682398
99	0x3d6398cc	0.05556564
100	0x3b015c17	0.0019738728
101	0xbd2be8a1	-0.0419699
102	0xbcf3321d	-0.029686982
103	0x3d1da158	0.038483948
104	0xbcd2ba28	-0.025723532
105	0xbd1f0c7e	-0.038830273
106	0x3ad4cceb	0.0016235387
107	0x3d2c172e	0.042014293
108	0xbd66c546	-0.05634048
109	0xbcaf8299	-0.021424579
110	0xbd8c22a2	-0.06842543
111	0x3c914927	0.017735077
112	0xbc10d0d2	-0.008838849
113	0xbd499875	-0.04921766
114	0x3d7261cf	0.05917531
115	0xbdc58f3a	-0.09646459
116	0x3d1c08f9	0.038094494
117	0xbd7b6a19	-0.06138048
118	0x3d33d0cc	0.043900296
119	0x3a8be499	0.0010672986
120	0xbd5719aa	-0.05251471
121	0xbd06d19c	-0.032914743
122	0x3d6f9809	0.0584946
123	0xbd75c3d4	-0.06000121
124	0xbd5e9dfc	-0.054349884
125	0xbd70afb8	-0.05876133
126	0x3ab150ff	0.0013528167
127	0xbd4b5625	-0.0496427
128	0x3d6095fd	0.05483054
129	0xbc435a1b	-0.011923338
130	0x3c4d2c42	0.012522759
131	0xbd7a7854	-0.06114991
132	0x3d2dacae	0.04240101
133	0xbd073c13	-0.033016276
134	0x3ce0701a	0.027397204
135	0xbcdeb363	-0.027185148
136	0x3d2ba3c3	0.041904222
137	0x3c53ed97	0.012935064
138	0xbd0d1d59	-0.034451816
139	0xbca2d7a7	-0.019878222
140	0xbbb2b9bf	-0.0054542716
141	0xbd1aec44	-0.037822977
142	0x3cc4eb00	0.024037838
143	0xbc4c5e86	-0.012473708
144	0xbd2ad124	-0.04170336
145	0x3c5f6910	0.013635889
146	0x3c7db1ac	0.015484255
147	0x3cf55dec	0.029952012
148	0x3c00a2c1	0.007851304
149	0xbd4520ac	-0.04812686
150	0x3d485de3	0.048917662
151	0xbd35ff77	-0.044433083
152	0x3d24a50e	0.04019647
153	0xbd83a92b	-0.064287506
154	0x3cd9aece	0.026572611
155	0xbd94d5d7	-0.07267349
156	0xbb8db5f4	-0.004324669
157	0xbd5d671d	-0.054053415
158	0xbc6a51d7	-0.014301739
159	0xbd728084	-0.059204593
160	0x3c66dadd	0.014090267
161	0x3c6879fa	0.014189238
162	0xbd255c31	-0.040371124
163	0x3ccb40d2	0.024811182
164	0xbd40d688	-0.047079593
165	0x3c72574a	0.014791319
166	0x3d7a7a06	0.061151527
167	0xbd480584	-0.048833385
168	0xbba3d78d	-0.005000061
169	0x3cf1e214	0.029526748
170	0xbc8b5a61	-0.01701087
171	0xbccbac67	-0.024862481
172	0xbd2e904d	-0.042618085
173	0xbd41119f	-0.047135945
174	0x3d63bb17	0.055598345
175	0xbcc1314c	-0.023583077
176	0xbd1a0f9f	-0.037612554
177	0x3d0147e4	0.0315627
178	0xbd77e58e	-0.060521655
179	0xbdbfb260	-0.09360194
180	0xbd7aa53b	-0.061192732
181	0xbbfa04fe	-0.0076299896
182	0xbcd46518	-0.025927112
183	0x3c89bb94	0.016813077
184	0xbd09a5b2	-0.033605285
185	0xbd4c817c	-0.049928173
186	0xbc5c4a22	-0.013445409
187	0xbc62dd6e	-0.013846738
188	0x3cb0a304	0.021562107
189	0xbbf2cb23	-0.0074094697
190	0xbcf7479f	-0.030185519
191	0xbcbda610	-0.023150474
192	0xbd34df07	-0.044158008
193	0xbbcb9973	-0.006213361
194	0x3d575999	0.05257568
195	0xbcec2205	-0.028824816
196	0x3d54b5f6	0.051931344
197	0xbd75589b	-0.059898954
198	0x3c2d1444	0.010563914
199	0xbd4e4f71	-0.05036873
200	0xbd242532	-0.040074535
201	0x3d08c67b	0.03339241
202	0x3c72a692	0.014810221
203	0x3b72086c	0.003693129
204	0x3d431458	0.047626823
205	0xbc49071d	-0.012269762
206	0xbd53a623	-0.051672112
207	0x3d5e3a56	0.054254852
208	0xbc16ec75	-0.009211649
209	0xbd3f1637	-0.046652045
210	0xbc384749	-0.011247464
211	0xbd20c03e	-0.039245836
212	0x3d29e96b	0.04148237
213	0xbde17076	-0.11007778
214	0xbd4358c2	-0.047692068
215	0x3d71f033	0.059066962
216	0x3d79a3e5	0.060947318
217	0xbdb82022	-0.08990504
218	0xbd3ec9da	-0.04657922
219	0x3d7c833d	0.061648596
220	0x3ccb2efb	0.024802675
221	0xbd686599	-0.056737516
222	0x3cc2e134	0.023789026
223	0xbbce4509	-0.0062948507
224	0xbcd116af	-0.025523512
225	0x3caec06c	0.021331988
226	0x3c876bae	0.016530838
227	0xbac6270f	-0.0015117842
228	0x3d538403	0.051639568
229	0xbd6a7a47	-0.05724552
230	0xbd4fe2e1	-0.050753478
231	0x3d6ce16f	0.057832178
232	0x3c32a7e6	0.010904288
233	0xbbea2f75	-0.0071467706
234	0xbbe2f8f7	-0.0069266516
235	0xbd540ea0	-0.05177176
236	0x3c9e3769	0.019313531
237	0x3d1aecf7	0.037823644
238	0x3be0dde9	0.0068623913
239	0xbe302002	-0.1719971
240	0xbcb532f8	-0.02211903
241	0xbd798ca7	-0.060925152
242	0x3c213c42	0.009841027
243	0xbc671ef4	-0.014106501
244	0x3d215036	0.039383136
245	0x3d7cf288	0.061754733
246	0x3d013786	0.031547092
247	0xbd58bb28	-0.05291286
248	0xbd28822c	-0.041139767
249	0xbd83c8ff	-0.06434821
250	0x3c4a6e46	0.012355393
251	0xbc9e47c8	-0.019321337
252	0x3d76539d	0.060138334
253	0x3aaaefe1	0.001304146
254	0x3d363bb9	0.04449055
255	0x3d6c1a39	0.057642195

base.seq_fcs.2.bias f4 [256]
0	0x3d5cfd09	0.05395225
1	0x3d46073d	0.048346747
2	0x3d54b073	0.051926088
3	0x3d0fa49c	0.035069093
4	0x3d1767c9	0.03696421
5	0x3cc56429	0.024095612
6	0x3d61df83	0.055144798
7	0x3d20574c	0.039145753
8	0x3d2e4215	0.04254349
9	0x3cb7f14f	0.022453932
10	0x3cef1513	0.029184854
11	0x3d81a355	0.06329981
12	0x3d4ce174	0.050019696
13	0x3c8ad3c8	0.016946688
14	0x3cfa9416	0.030588191
15	0x3cf9bb61	0.030484857
16	0x3d2ab66b	0.041677874
17	0x3d4f6067	0.050629046
18	0x3d025f0c	0.031828925
19	0x3d164558	0.036687225
20	0x3d3071f5	0.043077428
21	0x3d101c90	0.03518349
22	0x3cfbfdb2	0.03076062
23	0x3d67c6c8	0.056586057
24	0x3d3049d7	0.04303917
25	0x3d3dbf40	0.04632497
26	0x3d0b8146	0.03405883
27	0x3cf5e1ed	0.030014956
28	0x3d462b7c	0.048381314
29	0x3d1f89bb	0.03894971
30	0x3d527778	0.051383466
31	0x3d1727c2	0.03690315
32	0x3d1db660	0.038504004
33	0x3d104084	0.035217777
34	0x3d1e36b2	0.03862638
35	0x3d37789c	0.044792756
36	0x3d3bd2d9	0.045855377
37	0x3d8f4418	0.0699541
38	0x3d396cbe	0.04526972
39	0x3d3eb66b	0.046560686
40	0x3d2ce881	0.04221392
41	0x3d12e88e	0.035866313
42	0x3d467f0e	0.048461013
43	0x3d91a847	0.071121745
44	0x3d02e500	0.031956673
45	0x3d14ed59	0.036359165
46	0x3d4d8ac0	0.05018115
47	0x3d11722b	0.03550927
48	0x3cf015b7	0.02930723
49	0x3d352bf0	0.044231355
50	0x3d1f96bd	0.038962115
51	0x3d2ab218	0.04167375
52	0x3d33881e	0.043830983
53	0x3d18dab3	0.037317943
54	0x3d0eebb8	0.034892768
55	0x3d518fcb	0.051162522
56	0x3da75171	0.081698306
57	0x3d5f023e	0.054445498
58	0x3d1b8391	0.03796727
59	0x3d11ee3e	0.035627596
60	0x3cf71c63	0.030164903
61	0x3d873132	0.0660118
62	0x3cd6b486	0.026209127
63	0x3d474dac	0.048658058
64	0x3d41ec8c	0.04734473
65	0x3d0fcbd1	0.035106484
66	0x3d4aa3a7	0.049472477
67	0x3d313131	0.043259803
68	0x3d2d44e2	0.04230202
69	0x3d28b022	0.0411836
70	0x3d382eab	0.04496638
71	0x3d211628	0.03932777
72	0x3cf819c9	0.030285733
73	0x3d514c67	0.051098254
74	0x3d40f00f	0.047103938
75	0x3d0ff687	0.035147216
76	0x3d802f90	0.06259072
77	0x3d74396b	0.05962507
78	0x3d64d0b3	0.055863094
79	0x3d2f3a42	0.04278017
80	0x3d15b6d7	0.036551323
81	0x3d361342	0.04445196
82	0x3d150f68	0.036391646
83	0x3d0a09f6	0.033700906
84	0x3cfaff8a	0.030639429
85	0x3d2457fc	0.04012297
86	0x3cffb104	0.031212337
87	0x3d39c6c6	0.04535558
88	0x3d339622	0.04384435
89	0x3d0d1985	0.034448165
90	0x3d12d692	0.03584916
91	0x3d143c2e	0.036190204
92	0x3d225167	0.039628413
93	0x3d5aa044	0.053375497
94	0x3d0d2b2c	0.034465
95	0x3cab1234	0.020882703
96	0x3d3ac7fd	0.04560088
97	0x3cfc0ea2	0.030768696
98	0x3d39089e	0.045174234
99	0x3d07ded2	0.033171482
100	0x3d0c1cb3	0.034207057
101	0x3cfb0ff7	0.030647261
102	0x3d2f99cf	0.042871293
103	0x3d7cd198	0.06172332
104	0x3da8b473	0.08237543
105	0x3d19f5fc	0.037588105
106	0x3d183255	0.037157375
107	0x3d32faa6	0.04369607
108	0x3cb4e397	0.02208118
109	0x3d2e4cfa	0.04255388
110	0x3d4c1bf6	0.049831353
111	0x3d5fb670	0.054617345
112	0x3d1389c7	0.036020067
113	0x3d2f1f28	0.042754322
114	0x3cef3e78	0.029204592
115	0x3d39718b	0.0452743
116	0x3d263b46	0.04058387
117	0x3d75f2f8	0.060046166
118	0x3d0d2696	0.034460627
119	0x3d421585	0.047383804
120	0x3d89c6e5	0.06727389
121	0x3d453af6	0.048151933
122	0x3d36728a	0.044542827
123	0x3d2f4266	0.04278793
124	0x3d1ee562	0.038792975
125	0x3d1c12e2	0.038103946
126	0x3d35e98d	0.044412185
127	0x3d266aa5	0.040629048
128	0x3d178851	0.036995236
129	0x3d45ca3d	0.048288573
130	0x3d2b130e	0.04176622
131	0x3cbf1526	0.023325514
132	0x3d12d744	0.035849825
133	0x3d180e4c	0.03712301
134	0x3d38b076	0.04509016
135	0x3d33e03d	0.043915022
136	0x3d2e2dc4	0.042524114
137	0x3d2d9afd	0.042384136
138	0x3d241fe5	0.04006948
139	0x3d2ec120	0.042664647
140	0x3d2421fc	0.040071473
141	0x3d5ed103	0.054398548
142	0x3d2bdb4e	0.041957192
143	0x3d32fdbc	0.04369901
144	0x3d509471	0.050922815
145	0x3d4f3513	0.050587725
146	0x3d12c5fe	0.03583335
147	0x3d32a91a	0.0436183
148	0x3d2eb54a	0.04265336
149	0x3d946119	0.072450824
150	0x3d3840ce	0.044983678
151	0x3d1aa01f	0.03775036
152	0x3d3d65e7	0.04623976
153	0x3d679ea2	0.05654777
154	0x3d1e3e2c	0.03863351
155	0x3d43aa97	0.04777011
156	0x3d20e942	0.039284952
157	0x3d2ad8d7	0.0417107
158	0x3d5407dc	0.051765308
159	0x3d2737ef	0.040824827
160	0x3d16f789	0.03685716
161	0x3d183115	0.037156183
162	0x3cfc3572	0.030787203
163	0x3d397e14	0.045286253
164	0x3d4c467d	0.04987191
165	0x3d17db5b	0.037074428
166	0x3d7f32a5	0.062304158
167	0x3d179101	0.03700352
168	0x3d4a9b10	0.049464285
169	0x3d198ecf	0.03748971
170	0x3d11da00	0.03560829
171	0x3d3d6944	0.046242967
172	0x3d2199a5	0.039453167
173	0x3cf8b54e	0.03035989
174	0x3d5ba7d6	0.053626858
175	0x3d8542cf	0.06506883
176	0x3d32184f	0.043480214
177	0x3d283790	0.041068614
178	0x3d45b765	0.0482706
179	0x3d18a11b	0.037263017
180	0x3d474359	0.048648212
181	0x3d1523a9	0.03641096
182	0x3d328c74	0.043590978
183	0x3d053905	0.03252508
184	0x3ce73403	0.028223043
185	0x3d0837d0	0.033256352
186	0x3d231dd9	0.039823387
187	0x3d61f19c	0.055162057
188	0x3d0fa13e	0.035065882
189	0x3d0c19df	0.03420436
190	0x3d609d67	0.05483761
191	0x3d195d8e	0.037442736
192	0x3d48b78d	0.049003173
193	0x3d1befd3	0.03807051
194	0x3d06f408	0.03294757
195	0x3d248a76	0.04017111
196	0x3d4ea025	0.050445694
197	0x3cd26077	0.025680764
198	0x3d434f4e	0.047683053
199	0x3d52eb91	0.051494185
200	0x3d4b4204	0.049623504
201	0x3d5d01f9	0.05395696
202	0x3d2f9b72	0.042872854
203	0x3d5a87e8	0.053352267
204	0x3cf7bab2	0.03024039
205	0x3ccf8a89	0.025334613
206	0x3cdc8277	0.02691768
207	0x3d2198a8	0.039452225
208	0x3d12e6f3	0.03586478
209	0x3d293cfe	0.041317932
210	0x3cc089f7	0.023503287
211	0x3d55ffcb	0.052245896
212	0x3d3bfacb	0.04589347
213	0x3d4772cc	0.048693463
214	0x3d1da1f0	0.038484514
215	0x3d763a9f	0.0601145
216	0x3d49e6b5	0.049292285
217	0x3d467799	0.0484539
218	0x3d2cf10d	0.04222207
219	0x3d3e2324	0.04642023
220	0x3d2a7047	0.041610982
221	0x3d26ec20	0.04075253
222	0x3d3cd53d	0.046101797
223	0x3d3ead79	0.046552155
224	0x3d53ea19	0.051736925
225	0x3d275a82	0.0408578
226	0x3d53ed00	0.051739693
227	0x3cbdfcac	0.023191772
228	0x3d135a4b	0.035974782
229	0x3d3f8bfd	0.046764363
230	0x3d437ee5	0.047728438
231	0x3d6411c7	0.055681016
232	0x3d17f8b0	0.0371024
233	0x3d18f088	0.037338763
234	0x3d455544	0.04817702
235	0x3d440d22	0.047864087
236	0x3d76b6b0	0.060232818
237	0x3d47f072	0.04881329
238	0x3d03719f	0.03209078
239	0x3d329734	0.04360123
240	0x3d3929d9	0.045205925
241	0x3d23f82b	0.040031593
242	0x3cf8c58f	0.03036764
243	0x3d392a4d	0.045206357
244	0x3d59ac9e	0.053143136
245	0x3d0849c3	0.03327347
246	0x3d22f944	0.0397885
247	0x3d46993f	0.04848599
248	0x3d48f278	0.04905936
249	0x3d391609	0.04518703
250	0x3d45038f	0.048099097
251	0x3d19ea1a	0.037576772
252	0x3d3db4a1	0.04631484
253	0x3d3dc05d	0.04632603
254	0x3d24d9b5	0.040246684
255	0x3d472e60	0.04862821

last.weight f4 [8, 256]
0	0x3ce85994	0.028363027
1	0x3cd63b2a	0.026151258
2	0x3d08082f	0.03321093
3	0x39c1c845	0.0003696104
4	0x3bdb3d00	0.0066906214
5	0x3c57fdd0	0.013183072
6	0x3cd54c94	0.026037492
7	0x3cb36640	0.021899343
8	0x3c163aea	0.00916932
9	0x3b8e48a9	0.004342158
10	0xbba7ecf1	-0.005124681
11	0xbce5f6ae	-0.028071728
12	0xbd23f20d	-0.04002576
13	0xbb152ddf	-0.0022762937
14	0x3c710f0a	0.014713058
15	0x3bf26157	0.0073968577
16	0x3c783e70	0.015151605
17	0x3cc47705	0.023982534
18	0x3c65e269	0.014031031
19	0x3bc63abb	0.0060494817
20	0x3c04d2fc	0.008106943
21	0x3cc1a620	0.023638785
22	0x3c8470fb	0.016167155
23	0x3d2af45f	0.041736957
24	0x3b61739c	0.0034401184
25	0x39e5f750	0.00043862546
26	0x3c759992	0.014990227
27	0x3b122bfc	0.0022304049
28	0x3d02368d	0.031790305
29	0x3bb0fdc1	0.0054013436
30	0x3cb8993a	0.022534002
31	0x3c33cd9e	0.010974316
32	0xbc84481d	-0.016147668
33	0x3ca27ed2	0.019835863
34	0x3bdfbcb4	0.006827915
35	0x3cf88659	0.0303375
36	0xbd44f54f	-0.048085507
37	0xbc3a272e	-0.01136188
38	0xbd2d8a09	-0.04236797
39	0x3b552be5	0.0032527384
40	0x3c67b456	0.0141421165
41	0x3c227e3b	0.009917791
42	0xba842418	-0.0010081558
43	0xbc22f1ed	-0.009945375
44	0x3c88e226	0.016709398
45	0x3c21b67f	0.009870171
46	0xbd133295	-0.03593691
47	0xbb107c66	-0.0022046803
48	0x3aa8786e	0.0012853274
49	0xbca04578	-0.019564375
50	0xbc6c5ae5	-0.014425968
51	0x3c64a00c	0.013954174
52	0x3d1e61de	0.038667552
53	0x3ca9b765	0.020717332
54	0x38c2273a	9.2579474e-05
55	0xbb02989c	-0.0019927388
56	0xbcd1e77a	-0.025623072
57	0xbd227abd	-0.039667834
58	0x3c8d445e	0.017244514
59	0x3c07bb82	0.008284451
60	0xbce6b913	-0.028164422
61	0xbd2ae976	-0.041726552
62	0x3c28e1b2	0.010307716
63	0xbc194c41	-0.009356559
64	0xbcbff7d0	-0.023433596
65	0xbcb1d416	-0.021707576
66	0xbd071e2b	-0.032987755
67	0xbb51cd37	-0.0032013187
68	0x3cd72042	0.026260499
69	0x3c9f98bc	0.01948201
70	0x3c3da880	0.011575818
71	0xba9294ab	-0.0011183223
72	0xbc214680	-0.009843469
73	0xbc037a45	-0.008024757
74	0x3c4a2c71	0.012339697
75	0x3bd5efb3	0.0065288185
76	0xbc1eceff	-0.009692906
77	0xbd2b607b	-0.041840058
78	0x3cfb9918	0.03071265
79	0x3c7e2d14	0.015513677
80	0x3cb620fb	0.022232523
81	0xbab28540	-0.0013620034
82	0xbc06e2c9	-0.008232781
83	0xbba0d3c3	-0.0049080565
84	0x3b9f1389	0.0048546237
85	0x3b9a1ed3	0.0047033816
86	0x3bb1c2d4	0.0054248367
87	0xbd28e243	-0.041231405
88	0x3c0f86a5	0.008760129
89	0x3c4b2cf0	0.012400851
90	0x3c4d28b5	0.012521912
91	0x3c119d6d	0.008887631
92	0x3bee5e92	0.0072744573
93	0xbd293d89	-0.04131845
94	0x39aade76	0.00032590673
95	0x3a9e64cb	0.0012084482
96	0x3b96aca1	0.0045982157
97	0x3bc1b83e	0.005911856
98	0x3ba782fa	0.005112049
99	0x3cc725b0	0.024309963
100	0x3b52dfcb	0.0032176848
101	0xbc814bac	-0.015783153
102	0x3d01fdaa	0.031736054
103	0xbcf23dfc	-0.029570572
104	0xbc3388c5	-0.010957901
105	0x3c7eb989	0.015547165
106	0x3c27cd3f	0.010241806
107	0x3c8b241a	0.016984988
108	0x3cc7c1b4	0.024384357
109	0x3cc4ff24	0.024047442
110	0x3c588c1d	0.013216999
111	0xbd189abc	-0.03725694
112	0x3be9d4a6	0.0071359454
113	0x3c91ffc4	0.017822154
114	0x3c657765	0.014005517
115	0x3c272f35	0.010204126
116	0x3cc56486	0.024095785
117	0xbc0d2dfc	-0.008616921
118	0x3bdd8b3c	0.006760983
119	0x3bf21396	0.0073875887
120	0xbc22a33d	-0.009926614
121	0xbd1d1722	-0.03835214
122	0x3b2c0b7f	0.002625197
123	0xbce54078	-0.027984843
124	0xbb2f6570	-0.0026763342
125	0xbaa0b803	-0.0012261871
126	0x3cdc8a2f	0.02692136
127	0xbb9942d6	-0.004677157
128	0x3c5de278	0.013542764
129	0x3cc121a6	0.023575615
130	0xbcf933ee	-0.03042027
131	0x3be1c42d	0.006889841
132	0x3c9e54a0	0.019327462
133	0x3c641c42	0.013922753
134	0x3b87c55c	0.0041434
135	0x3cdac78c	0.02670648
136	0x3c517a4a	0.012785504
137	0x3c8f0e0c	0.017462753
138	0x3c0831f9	0.008312696
139	0x3c1a4f5c	0.009418335
140	0xbb492806	-0.0030694022
141	0xbd27c04d	-0.040954877
142	0x3bdd6fe3	0.0067577227
143	0x3cb7777c	0.022395842
144	0x3d29c9e9	0.041452322
145	0x3ccb9a32	0.0248538
146	0x3b5ca9a6	0.0033670454
147	0x3ce831ba	0.028344024
148	0x3cce00a6	0.025146794
149	0xbd84b1c6	-0.0647922
150	0x3b8ca998	0.004292678
151	0x3ba3c8fc	0.0049983244
152	0xbc098e3d	-0.008395729
153	0x3d2665b2	0.040624328
154	0xbcc730bc	-0.02431523
155	0x3cf85d5a	0.030317951
156	0xbb40acb0	-0.0029399805
157	0x3c62c51a	0.013840938
158	0xbc104c27	-0.008807219
159	0xbc85e580	-0.016344786
160	0x3bbe0fef	0.0058002393
161	0xbcb8fde2	-0.022581998
162	0xb9cd6fc9	-0.00039183933
163	0xb8c3202d	-9.304318e-05
164	0xbd2c0dd9	-0.042005394
165	0x3cbfbd0a	0.02340557
166	0xbd3bfa89	-0.045893226
167	0x3c2a1685	0.010381346
168	0xbbd8f1b4	-0.00662061
169	0x3ca0ea2b	0.01964291
170	0x3ad5c193	0.00163083
171	0x3c9bb189	0.019005554
172	0x3c65ebd2	0.014033275
173	0x3cd075cf	0.0254468
174	0x3d09c3c1	0.03363395
175	0xbc0334fe	-0.00800824
176	0x3aafcfc2	0.0013413357
177	0x3c02e408	0.007988937
178	0x3cd63790	0.026149541
179	0x3cb3429b	0.021882346
180	0x3cce0bf5	0.025152186
181	0xbc4a4829	-0.012346306
182	0x3c9233f8	0.017847046
183	0xb80ac155	-3.308182e-05
184	0x3c845256	0.016152542
185	0xbb902d85	-0.0043999576
186	0x3b5b8572	0.0033496288
187	0xbd2aa78b	-0.041663688
188	0x3bb597b8	0.005541768
189	0x3bbe2e93	0.005803892
190	0x3d044dc8	0.03230074
191	0xbb4fcff1	-0.0031709636
192	0xbcc36a51	-0.023854407
193	0x3c83af59	0.016074823
194	0x3aa0f806	0.0012280948
195	0x3b04b958	0.0020252075
196	0xbb94da83	-0.00454265
197	0x3b88f34f	0.0041793953
198	0x3ce3b402	0.027795795
199	0xbbff2e72	-0.007787519
200	0xbaef4c16	-0.0018256928
201	0xbd35980b	-0.044334453
202	0x3b2de177	0.0026532093
203	0x3cfaddc1	0.030623319
204	0x3c406b2f	0.011744305
205	0x3c2d0547	0.01056034
206	0x3c24184e	0.01001556
207	0xbb30be43	-0.0026968874
208	0xbc23b55c	-0.00999197
209	0x3cfe26c1	0.031024339
210	0x3c465214	0.01210453
211	0x3ce6a643	0.028155452
212	0x3cc68734	0.024234392
213	0x3cc86576	0.024462443
214	0x3c2eee2b	0.010676901
215	0x3ca313f9	0.019906985
216	0x3cb07a6b	0.021542748
217	0xbc6d29be	-0.014475284
218	0xbd0db4e7	-0.03459635
219	0x3b97fe68	0.004638482
220	0xbb7454ec	-0.0037282063
221	0x3c91443d	0.017732734
222	0x3c442dff	0.011973857
223	0x3ca2151e	0.01978546
224	0xbd1fb5d4	-0.038991764
225	0x3c58d768	0.013234951
226	0x3cb78c62	0.022405807
227	0x3a561b0f	0.0008167484
228	0x3ca64728	0.020297602
229	0x3ca32091	0.01991299
230	0xbd10bc57	-0.035335865
231	0xbbe8a1ec	-0.0070993807
232	0xbc39f1fd	-0.011349198
233	0x3c9ce36d	0.019151414
234	0x3a2766e9	0.0006385879
235	0xbba97d27	-0.00517239
236	0xbce6e8ff	-0.028187273
237	0xbd40cf62	-0.047072776
238	0x3b9e463a	0.004830149
239	0xbba84210	-0.0051348284
240	0xbb482ab3	-0.003054303
241	0xbbfad4ca	-0.007654761
242	0x3ca7901c	0.020454459
243	0xbd0d5916	-0.034508787
244	0xbc0cb466	-0.008587932
245	0x3c0c7191	0.008571998
246	0x3bc0445f	0.0058675255
247	0x3b9a0183	0.0046998872
248	0xbcf5840b	-0.02997019
249	0x3c7843dd	0.015152899
250	0xbbd0b1ef	-0.0063688676
251	0xbbcd1033	-0.0062580346
252	0x3cf2e04f	0.029647974
253	0xbd1abcd3	-0.037777733
254	0x3c3238d9	0.010877811
255	0x3d115485	0.035480995

last.bias f4 [8]
0	0xbc8b4eba	-0.017005313
1	0x3cbd434f	0.023103384
2	0x3bfb0a02	0.007661105
3	0xbb47221d	-0.0030385323
4	0xbd933ef4	-0.07189742
5	0xbd9e5c47	-0.07732444
6	0xbdaa8c74	-0.083275706
7	0xbda9b66d	-0.08286748
