Soft-Module-main/log/model50_5/model_vf_best.pth (torch, 280037 bytes, 5 tensors)

base.seq_fcs.0.weight f4 [256, 12]
00000000: 4abb 00bd 8252 efbd 6156 42be ba47 893d
00000010: cef8 0d3d 007b 4f3d 8cda cbbc 9408 603d
00000020: 405e cebc 3962 8a3d 11fe 8b3c f15f 8c3c
00000030: 1051 34bd b7cc 23be a056 19be 8789 f03c
00000040: 77c0 64bd 7c4a 75bd 8695 79bd 9228 3dbd
00000050: b07e 1e3c 6288 623c 9eca 2e3d 95a3 85bb
00000060: 4d5e 89bd dff5 7cbe a24c 7dbe 1ac2 023e
00000070: 30cd 24bc eff0 a63d f20d 673d 8065 bbbc
00000080: 8049 b63b fac8 0f3e c78c 583c c768 583c
00000090: f70a 403c 2034 57be 1878 93be f268 c73c
000000a0: 69c6 013d ecf4 093d 1810 2cbc b0cc c13c
000000b0: 30f2 bbbc a49b 0c3e faca 10bd 71f0 1abc
000000c0: 026a 28bd fdb0 15be a2f2 12be 3f48 a23d
000000d0: c87f 823b f353 793d 4493 2bbd 00c7 1e3c
000000e0: a0b5 183d 176b bd3d 31bb 8c3d ea75 043d
000000f0: 5e0d 4ebd dbf6 13be b8aa 53be 7f96 153c
00000100: 8af8 78bd d91c 1c3d f01b d63c 9a5b 2c3d
00000110: 18ac 813c f98e bc3d 07fa 023d c85a 293d
00000120: f415 b7bc 50e0 c2bd 3e22 81be 90c2 a13d
00000130: e0db 173d 89ca 23bd deaa 4b3d 48c2 62bc
00000140: 6005 1c3d ca34 343d e864 963c 55d8 893c
00000150: 9baa bd3c 987f 1dbe 0c5b 2dbe 83f3 3b3d
00000160: 03d3 13bd 1ce6 22bd 80bd cdbc 9801 76bc
00000170: da6a 673d afe4 383d cd18 08bc f152 48bd
00000180: 887f 0fbe 0414 0ebd 6f6f d4be f69f 3aba
00000190: cb02 313c 5d39 e0ba a0b2 24bc 00c1 8e3c
000001a0: c066 eaba 95eb 653d 19cc a7bc 9d4c 953d
000001b0: f710 5dbd 14cb 61be 1a45 75be a22e c03c
000001c0: b77f 25bd 863d e9bc 1226 383d e46a c93c
000001d0: f488 f53c 870e b73d 71b0 533d 3ef5 143c
000001e0: f87a e43c 17f0 23be 2fbd acbe ba9b 2e3c
000001f0: 2e81 53bb f8cc eebc 800a 773c 681d 8b3c
00000200: ac3a 883c ab58 1c3d 959b 20bb 91c7 103d
00000210: 9a5f a8bc f57d 03be f653 45be 8cbc 933d
00000220: e94a 4c3d 39c7 e03c 80af d1ba 7eab 47bd
00000230: e406 7e3d 0cc3 9e3d 2462 ca3c 6a69 043d
00000240: 8a4a be3d 79bc f5bd ad5b c0bd b43f 473d
00000250: f33e c73c 57bb 1fbd 80cb 75ba 00b4 e5ba
00000260: 3443 3fbd 7e73 353d c498 833d 7bb1 8b3d
00000270: 13f3 10bd 38d7 3cbe 0ca7 51be 757f 5c3c
00000280: 26a1 95ba fdc4 c93c 164d 30bd 9839 aa3c
00000290: 067f 11bd 98fa 3c3c d1a1 19bb 4f6d 14bd
000002a0: b74e 30bd 24da b7bd 6e65 34be 6917 bd3d
000002b0: f15f 643d 3e0c 253c f813 923c ee28 5f3d
000002c0: c01c 15bd 7f4c 1d3d effa 283d 9dc8 313d
000002d0: de44 643d 511e 1abe 983a f5bd 6e19 5c3c
000002e0: 0c23 b83c eb56 3f3d ac15 cdbc 98f0 5c3c
000002f0: e81b b73c a454 9e3d bbd3 253d 387e 0fbd
00000300: be19 043d 1093 2cbe 0609 47be 9bc8 8f3d
00000310: 195e 95bc 7d94 5b3d 208e 633c a669 533d
00000320: 3008 5f3c bcf8 9c3d 7eb9 28bd 483b 5dbd
00000330: 8ccb 5e3d 0a3e f0bd db10 1fbe 107d 153d
00000340: 93ff 873d 595b 033d 402a 8bbb 2613 58bd
00000350: 4cd9 4bbd 426a 823d 5f9c 423d 64b0 613d
00000360: d3b3 7f3a 2831 dbbd ef24 2fbe edb6 a43d
00000370: 384a 163d ba8e 18bd 4275 13bd 1835 0dbd
00000380: e4f5 933c d2ec 213d ed3b b1bc d4e1 0fbd
00000390: 92b8 89bf 9ded 65bc 7c68 61be 2b6a 8b3c
000003a0: e43c 0bbd fefe d03c 5c18 5a3d 5a7f 6e3d
000003b0: 32fb 57bd 5704 abbc eb74 11bd 3192 82bb
000003c0: db11 52bd 2bd9 6fbe 7d38 1abe 7539 203d
000003d0: d41f 343d b4b9 3cbd ee8e 403d 98f5 e73c
000003e0: 748c 94bc cb21 533d aeb1 5ebc 35b9 43bd
000003f0: 708a 0f3c a17e 68be 920e 1cbe 55d1 533d
-0.031428613 -0.11685659 -0.18978263 0.06703134 0.034661107 0.05065441 -0.024884485 0.05469568
-0.025191426 0.06757016 0.017088922 0.017135592 -0.04402262 -0.15996061 -0.14974451 0.029362453
-0.05584761 -0.059885487 -0.060933612 -0.04618127 0.009673759 0.0138264615 0.0426737 -0.0040783384
-0.067074396 -0.24703167 -0.24736264 0.12769356 -0.010058686 0.08151423 0.056409784 -0.022875547
0.005562961 0.1404151 0.013217158 0.013208575 0.011721364 -0.21015978 -0.28802562 0.024342034
0.03168336 0.03368084 -0.010501884 0.023657173 -0.022942632 0.13731247 -0.035349824 -0.00945674
-0.041116722 -0.14618297 -0.1435037 0.07923936 0.003982518 0.060871076 -0.04188849 0.009691
0.037282586 0.092489414 0.068716414 0.032339014 -0.050305717 -0.14449637 -0.20670593 0.009130119
-0.0607839 0.03811345 0.026136369 0.042079546 0.015829131 0.09206957 0.031976726 0.04134634
-0.022349335 -0.095154405 -0.25221437 0.07898438 0.037074924 -0.039988074 0.0497235 -0.013840266
0.038091063 0.043995656 0.018358663 0.016826788 0.02315264 -0.15380704 -0.16929263 0.045886528
-0.03608991 -0.03977023 -0.025114775 -0.015015028 0.056498386 0.045139965 -0.008306694 -0.048907224
-0.14013493 -0.034687057 -0.41491267 -0.0007119173 0.010803889 -0.0017106939 -0.010052353 0.017426014
-0.0017883405 0.05613287 -0.020483064 0.072900034 -0.053971257 -0.22050124 -0.23952141 0.023459736
-0.040405 -0.02847172 0.04495818 0.024587102 0.02997253 0.08938318 0.05168194 0.009091673
0.027890667 -0.16009556 -0.33738086 0.010657245 -0.0032273042 -0.029150471 0.015078187 0.016981795
0.01662954 0.038170498 -0.0024506797 0.03534657 -0.020553399 -0.12841018 -0.1927031 0.07213697
0.049876127 0.027438747 -0.0015997738 -0.048747532 0.06201829 0.07752046 0.024705 0.032327093
0.09291561 -0.11998839 -0.09392486 0.048644736 0.024322009 -0.03899702 -0.0009376332 -0.0017524958
-0.04669495 0.044299595 0.06425622 0.06820961 -0.035388064 -0.18441474 -0.2047388 0.0134581225
-0.0011415824 0.024630064 -0.043042265 0.020779416 -0.03552153 0.011534356 -0.0023442397 -0.036237057
-0.04304382 -0.08977154 -0.17616817 0.09232981 0.05575556 0.01007372 0.017831787 0.054482393
-0.03640437 0.03840303 0.041254934 0.04340421 0.05572974 -0.15050627 -0.119740665 0.013433797
0.02247765 0.04671375 -0.025034748 0.013485096 0.022352174 0.07730988 0.040485125 -0.03503248
0.032251112 -0.16852975 -0.19437036 0.07020684 -0.018233346 0.053608406 0.013888866 0.051614426
0.013612792 0.0766463 -0.041192524 -0.054011613 0.054393336 -0.11730583 -0.15533774 0.036496222
0.06640544 0.032069538 -0.00424698 -0.052752636 -0.049767777 0.06367923 0.04751241 0.05509986
0.0009754274 -0.10702735 -0.17103933 0.08042703 0.036691874 -0.03724549 -0.036000498 -0.034474462
0.018061586 0.03953249 -0.02163502 -0.035127476 -1.0759451 -0.014033702 -0.22012514 0.017018398
-0.033993617 0.025512215 0.053245887 0.05822692 -0.052729793 -0.020876093 -0.035511892 -0.0039847125
-0.05128656 -0.23422687 -0.15060611 0.039117295 0.043975666 -0.046075538 0.04701131 0.02831535
-0.01813338 0.0515459 -0.013592167 -0.04778405 0.008761033 -0.22704555 -0.15239933 0.051713306

base.seq_fcs.0.bias f4 [256]
00000000: 083b da3d febb ce3d 3c48 f83d f9ce dd3d
00000010: f27f da3d 2f4d ba3d b76d e83d a4a7 b73d
00000020: c790 ed3d 4c40 c63d 910e a23d 0f92 d93d
00000030: 934a e33d 6c15 b53d 1bfb e93d 1991 e83d
00000040: 4e76 d13d 23e8 e03d a98b cb3d c74c f43d
00000050: e864 cf3d 003c ca3d 3c11 bf3d 4162 c63d
00000060: 9031 c03d 1d1c bd3d fd01 bc3d 0cf8 d23d
00000070: aa00 c03d 397d b93d f41f cd3d 79ee d13d
00000080: eb97 dc3d f931 e93d 3f90 ad3d 1412 eb3d
00000090: 722f c13d ae7f c23d d47e fe3d 05dc de3d
000000a0: 1d07 c23d 5174 d23d 4959 d83d 78cb 033e
000000b0: 5a4f d73d f231 ec3d 09d3 b53d 35b1 cc3d
000000c0: 2599 b73d cb65 de3d 3f02 b43d 19f7 b73d
000000d0: 0054 df3d ba66 da3d 7ec2 b83d ce14 f33d
000000e0: 2575 c93d 3d9e c83d 52aa ce3d f1ca e33d
000000f0: 08cd ea3d a5e1 e23d 0cd1 043e b2ca f63d
00000100: 6f0f d53d 476c c93d 5fb1 cd3d 0125 c23d
00000110: 30ba dd3d c0ad d23d 401f bd3d a5fd e13d
00000120: e195 ea3d b5cc cd3d 4cf7 ad3d 9845 ba3d
00000130: d7de db3d 7b21 c13d 7884 bd3d 7088 d63d
00000140: 7b2a e43d d2c3 ca3d 5f02 f23d 8ff1 e23d
00000150: 00d6 a83d dd09 e63d 6a01 ba3d c6e5 d53d
00000160: 0751 d63d 9f05 bd3d d5f3 b83d 306f a93d
00000170: 0293 cc3d 55d7 e23d 6521 d93d f4e2 cb3d
00000180: dae6 bc3d d731 023e d9d3 c03d 75cc ba3d
00000190: a2cf cd3d cc6d dc3d fe7b b83d f9dd be3d
000001a0: fdbe ca3d 386e d13d c7c7 cd3d 537b f03d
000001b0: 4460 003e 3de7 c33d f5db db3d 5c66 c53d
000001c0: 3100 f73d d691 c33d 7b7f c83d a4c9 e53d
000001d0: 847b cd3d 9964 e33d d5ed bc3d 58de c53d
000001e0: 7010 ca3d 20c8 e43d 9e3a d43d e8d1 e13d
000001f0: 8afa a23d 4d77 b13d e2f4 e23d 28d4 9e3d
00000200: e5dc c93d 7c43 ea3d 25d2 ca3d 576c c03d
00000210: 8aa4 ad3d c57b d33d 203e fa3d fa72 c13d
00000220: 6d3d c53d e232 ef3d 627c cb3d bcdb bd3d
00000230: 0897 f43d 5c55 bc3d b858 df3d 4855 d43d
00000240: 46f5 c63d 9feb d33d b880 b63d 12ef cd3d
00000250: 5b8e 0a3e 5f6d b33d 66e6 c63d bf36 e63d
00000260: cad6 b63d 53f3 9e3d c52d b23d 60cb c93d
00000270: bfb5 b63d 0748 c93d a633 d03d 80f7 c03d
00000280: 698d d73d bc93 be3d 718f f13d a12e c33d
00000290: 4f76 af3d 51e1 ed3d edaf d73d f88c be3d
000002a0: fbc6 b63d 0c7e 163e 10c4 fe3d 8fd5 ff3d
000002b0: ec29 cc3d 323e b93d c0c5 cb3d 0f37 d13d
000002c0: 6242 e03d c521 e13d 7d85 df3d 762d d13d
000002d0: 70e1 e93d 5d52 b33d a251 c53d 4228 9a3d
000002e0: a34b bf3d c961 bf3d 0db9 d83d 423f db3d
000002f0: ff99 e43d 5fc4 f83d b072 bd3d 54b2 d53d
00000300: 407b e53d 7ba4 e33d 8d44 d23d 50ee f63d
00000310: e1c4 e73d ba15 b53d 6d77 033e 053e e93d
00000320: 41b8 e63d 6bf5 b43d 5dc8 c53d eb8e c93d
00000330: f6a1 e53d 707b e23d 96c4 9a3d 6b27 ee3d
00000340: f12f e73d cfe7 d63d 66a7 f93d c69a a43d
00000350: e932 053e cd38 f43d aa08 e43d 885f c93d
00000360: 6b6b d03d 1db7 f73d bb1f b73d fef1 c03d
00000370: 1b02 aa3d b4bf d03d eda4 f33d e266 dc3d
00000380: a517 e63d 6b54 b23d 5f07 d13d a6eb f03d
00000390: cf6f f73d 48ea b73d da88 b53d 2c55 ce3d
000003a0: 6f00 b13d ec7c e03d a98e b33d bd32 dc3d
000003b0: 5746 c93d 4f71 c13d 5d00 ce3d aeb4 ce3d
000003c0: 677b bd3d e350 c43d 4a1a f63d f606 e73d
000003d0: fb0d df3d b636 9d3d ad54 db3d 9cee c63d
000003e0: c017 cd3d 0bec d53d 8505 c63d fd09 c03d
000003f0: 4e6b bd3d f8cf df3d 1d00 db3d 361f c23d
0.106557906 0.100944504 0.121231526 0.108304925 0.10668935 0.09096753 0.113490514 0.08967522
0.1159988 0.096802324 0.079129346 0.106235616 0.11098208 0.088419765 0.11424848 0.113558
0.10227643 0.109817766 0.099387474 0.119287066 0.10126668 0.09874725 0.09329459 0.09686709
0.09384453 0.09233878 0.09180067 0.103012174 0.09375127 0.090570875 0.1001586 0.10250563
0.107711636 0.11386485 0.084747784 0.114780575 0.094328776 0.09497009 0.12426534 0.10881809
0.09474013 0.10276092 0.10563905 0.12870586 0.10513182 0.11532964 0.088781424 0.09994737
0.08964757 0.10859259 0.08789491 0.08982677 0.109046936 0.10664125 0.090214714 0.118692026
0.09836797 0.097958066 0.1009108 0.111226924 0.11464888 0.110781945 0.1297037 0.1205038
0.10403334 0.098351054 0.100435965 0.09479714 0.10826528 0.102870464 0.09234476 0.11034707
0.114543684 0.100488104 0.08494434 0.09095305 0.10735863 0.09430214 0.09253782 0.10475242
0.11140915 0.09900631 0.118168585 0.1108123 0.08243942 0.1123235 0.09082301 0.104442164
0.104646735 0.09229588 0.09030882 0.082731605 0.09988977 0.110762276 0.106020726 0.09955397
0.09223719 0.12714325 0.09415407 0.09121028 0.100493684 0.107631296 0.09008025 0.09319682
0.098997094 0.10226101 0.1004787 0.11742272 0.12536722 0.095655896 0.10735313 0.09638664
0.120605834 0.095493004 0.0978994 0.112201005 0.10033324 0.11103172 0.0922505 0.09661549
0.098664165 0.11170983 0.10362743 0.110263646 0.07957943 0.08665333 0.11081864 0.07755309
0.098565854 0.11438653 0.09903363 0.09395664 0.08478649 0.103263415 0.12218881 0.09445758
0.09630857 0.11679627 0.099358335 0.09270427 0.119428694 0.091959685 0.10905594 0.103678286
0.09714751 0.103476755 0.0891127 0.10055365 0.13530867 0.08761095 0.09711914 0.11240911
0.089276865 0.07761254 0.08700136 0.09853244 0.08921384 0.09828191 0.10166101 0.09422207
0.10525019 0.09305522 0.117949374 0.09530378 0.085674874 0.11615241 0.10531602 0.093042314
0.08924671 0.1469652 0.1243974 0.12491905 0.099689335 0.09045066 0.09949827 0.1021558
0.109501615 0.10992769 0.10914133 0.10213749 0.11419952 0.08755944 0.09634711 0.0752721
0.093405984 0.09344823 0.10582171 0.10705425 0.11162185 0.1214683 0.092503905 0.10434404
0.11205149 0.111153565 0.10266981 0.12057173 0.113168485 0.08842035 0.12838526 0.113887824
0.112656124 0.08835872 0.09657357 0.098417126 0.11212532 0.110587 0.07557027 0.11628612
0.11288441 0.10493433 0.12190132 0.08037333 0.13007702 0.119248964 0.11134465 0.09832674
0.10176738 0.12095473 0.08941599 0.09421156 0.08301183 0.101928145 0.118966915 0.10761811
0.112349786 0.08707508 0.10206484 0.11763696 0.12081873 0.089802325 0.08863993 0.10074839
0.08642661 0.10961327 0.08767445 0.10751865 0.098278694 0.0944544 0.10058663 0.10093056
0.09252053 0.095857404 0.12016733 0.112806246 0.108913384 0.07676451 0.1070951 0.0971348
0.100142956 0.10445412 0.096690215 0.09376905 0.09248982 0.10928339 0.10693381 0.09478609

base.seq_fcs.2.weight f4 [256, 256]
00000000: e49e 5d3e f5a9 313e b6bf cabb f81d 97be
00000010: 75d1 043e 3d2e 2a3e e480 0d3e c5d5 243e
00000020: 3c7e 1cbf 5219 4c3e 93c9 e1bd 1e3f 0c3e
00000030: 4a19 2b3e 0b8b 433e c860 503e c169 533e
00000040: fbfc a73d ce0a 803e ef9b 113e 09d9 74bf
00000050: cb48 2b3e 2f78 863d 2dc2 4a3e a3a7 173e
00000060: 2d0d 0c3a 86af 483e 87fd 00bf 5413 89bf
00000070: 27e3 da3d f15d e73d 4b45 4b3e 0301 d93d
00000080: f964 5e3e 6724 513e cd00 0c3d 6dfa 2d3e
00000090: 90e8 3b3e 20ed f53d c8d1 f03c 20c1 873e
000000a0: f598 7d3e 9ea1 193e 12db 1b3e 3e6c 90be
000000b0: 92ee d5bd 11a3 28be 90ba e93d e93b 3b3e
000000c0: 03cc 143e 02c3 443e 1fe9 183e d185 bf3d
000000d0: 3059 403e e06f 103e e93a 4a3e 5f82 593e
000000e0: fa45 9a3d 8322 0a3e 39a0 063e a072 1d3e
000000f0: f1e4 b2be e140 0a3e 4a9c ffbe 133a 23bd
00000100: 85b4 843e 786f 743e 08b6 283e 256e 15be
00000110: 3518 703e 08bc 4c3e aa4d 313e 6659 193e
00000120: 9c85 6e3e c3e6 c83d b25a 103e d36c 5d3e
00000130: 48c2 6c3e b621 1f3e 7bc9 4f3e d482 24bf
00000140: 6651 ff3d 725c 463d 20d7 243e 0d1f 213e
00000150: 4f46 7dbe 349e 633e 59ab b43d a491 1e3e
00000160: e78d abbd 4d9e 693e 2498 523e b956 aabe
00000170: cbe9 d5bc 65c0 423e 4840 173e 5b40 3e3e
00000180: 662d 21bf f7c3 25bf 0cc4 2a3e 289e 483e
00000190: 79d5 143e 0b3b 2f3e 5c67 b13d e974 793c
000001a0: 823a 2c3e 9767 d73d 77ec f03d b34a 3b3e
000001b0: 757f 13bf 4d7a 253e 3ec4 f53d c1e6 643e
000001c0: 1728 6dbc 98c4 693e 64db 3e3e 37f2 c7be
000001d0: ad39 39be 5983 0b3e a3de 3d3e 127c 043e
000001e0: eb23 273e 3aa2 12bf 9665 513e 43f5 e1bd
000001f0: 7fad 7c3d 6044 8e3e 9ddc 463e 34c2 91be
00000200: 6681 693e 5e31 883b 1e6c 073e f1b0 dc3d
00000210: 5f28 ce3d 7735 9f3e 0572 2d3e bf63 2b3e
00000220: 386a fcbd e0c8 4f3e e1ac a83e 629a f83d
00000230: fab4 553e 24cb 9a3d 73f4 153e 0ae1 073e
00000240: 3d35 e53d 99df ff3d da8a 073e b6b9 d7bd
00000250: 981d 31bf 6279 fb3d 7e1c 153e d5e4 25bf
00000260: 7fb3 403e 1bbd c23d 291e af3e ef96 0c3e
00000270: b6c7 a13d aba8 0b3e e28c 193e 97d6 ce3d
00000280: f711 633e 99d1 903d 7df9 263e c8c7 953d
00000290: a2ed 613e 63c0 5c3e c0ea 2dbd dac3 c2ba
000002a0: 0e15 ba3d 9af4 76bf c1b2 21bf bfc8 34be
000002b0: 1df1 003e 57e7 033e 6804 233e f430 ca3d
000002c0: 90f3 493e d0f9 553e eda1 8d3e d88a 3c3e
000002d0: cd19 793e 26a9 703e 831b 703e 997d 863d
000002e0: 2a25 263e 535a 94be 01c0 05bf 1fef 3a3e
000002f0: 8bd9 4d3e 85c8 563e c2cc 103e d1b8 4f3e
00000300: 9a77 233d 7f9f 4f3e 1fe1 523e 0a04 8e3d
00000310: b8f2 613e 0111 223d e7e1 1abf 92fe 513e
00000320: c0dc 343e 1f1b 513e e39a c83d 0ca2 253e
00000330: ce29 0b3e ec02 6f3e a985 b13d 7328 4fbe
00000340: 3577 3c3e 5882 fe3d 283e 05bd 8bd7 353e
00000350: 879a fbbd a9c7 663e 02e7 343e 8d23 c83d
00000360: 82eb 1abf 3913 29be b3d1 e8be 36a0 f13d
00000370: 80b7 b73e 499b e9bb 20b1 3e3e 8147 55be
00000380: 0cf3 0d3e 3db3 2dbe 12f8 2f3e baf5 7e3e
00000390: c85b b03d f8c8 063e 8508 f03d d79e 073e
000003a0: 4d1f 903e 0663 703e 44e0 d83d 77f7 693e
000003b0: a736 413e d530 4d3e d1ef 1d3e a082 a33c
000003c0: 7dfb ce3d a1e1 903d 2945 3a3e 4479 72be
000003d0: 064e 54be 6a2f 7b3d 1489 5f3e bea9 c33d
000003e0: 00cf 643e 011b f63d 4919 7d3e d690 1a3e
000003f0: 06d4 36bd a6f9 463e d1fa 1f3e 714e 533e
0.21642643 0.1734999 -0.0061874045 -0.29515052 0.12970527 0.16619201 0.13818699 0.16097172
-0.6113012 0.19931534 -0.11024775 0.13695952 0.16708866 0.1909601 0.20349419 0.2064581
0.08202549 0.25008243 0.1421964 -0.9564367 0.16726987 0.06565892 0.19800635 0.14810042
0.00053425395 0.19598207 -0.5038685 -1.0709023 0.10687857 0.11297215 0.19850652 0.10595896
0.21718206 0.20424043 0.03418045 0.16990061 0.18350434 0.12008119 0.029396906 0.2651453
0.2476538 0.15003058 0.15220287 -0.28207582 -0.10445894 -0.16468455 0.11412537 0.18284573
0.1453095 0.19215015 0.14932679 0.09351695 0.18784022 0.14105177 0.19749035 0.21241139
0.07532878 0.13489728 0.13147058 0.15375757 -0.34940293 0.13501312 -0.49923927 -0.039850306
0.25918975 0.23870647 0.1647569 -0.14592798 0.23446734 0.19993603 0.17314783 0.14975509
0.23293155 0.09809639 0.14097098 0.21623544 0.23120987 0.15540203 0.20291702 -0.6426213
0.124666974 0.048428006 0.16097689 0.15734501 -0.24733852 0.22228318 0.088217445 0.15485245
-0.08376675 0.22814293 0.2056585 -0.3326929 -0.026112458 0.19018705 0.14770615 0.18579237
-0.629599 -0.64752144 0.16676348 0.19591582 0.14534558 0.17112367 0.08662292 0.015225627
0.16819194 0.10517805 0.11763852 0.18290214 -0.5761636 0.16159935 0.12000321 0.2235365
-0.01447489 0.22828901 0.18638378 -0.39051983 -0.18088408 0.13624324 0.1854196 0.12937954
0.16322295 -0.5727879 0.20448908 -0.11033108 0.061688896 0.2778654 0.19420095 -0.28468478
0.22803268 0.0041562757 0.13224837 0.107759364 0.10066294 0.31095478 0.16938026 0.16737269
-0.12324947 0.20291471 0.32944396 0.12138821 0.20869818 0.07558277 0.14644031 0.1326944
0.11191795 0.1249382 0.13236561 -0.105334684 -0.6918578 0.12279011 0.1456165 -0.64802295
0.18818472 0.09508725 0.34202698 0.13729452 0.0789942 0.1363856 0.14995149 0.100995235
0.22174822 0.070712276 0.1630611 0.07313496 0.22063306 0.21557765 -0.042460203 -0.0014859394
0.09086047 -0.9646698 -0.6316338 -0.17654704 0.12591977 0.12881218 0.1591965 0.09872618
0.19721818 0.20896077 0.27662602 0.1841234 0.24326248 0.23502025 0.23447995 0.065669246
0.16225114 -0.28975162 -0.522461 0.1825528 0.20102517 0.2097493 0.14140609 0.20285346
0.039908983 0.20275687 0.2059369 0.06934364 0.22065246 0.039566997 -0.6050095 0.20507267
0.17662334 0.20420502 0.09795167 0.16175097 0.13590166 0.23340958 0.08668072 -0.20230274
0.18404849 0.12427205 -0.03252998 0.17758004 -0.12285333 0.22537102 0.17666247 0.09772406
-0.60515606 -0.16511239 -0.45472488 0.11798136 0.35882187 -0.007129107 0.18622255 -0.20828058
0.13862246 -0.16962905 0.17184475 0.24898425 0.08611256 0.13162601 0.11720375 0.13244186
0.2814888 0.23475274 0.1058965 0.22848307 0.18868504 0.20038159 0.15423514 0.019959748
0.10106561 0.07074285 0.18190445 -0.23679072 -0.20732889 0.061324514 0.21829635 0.0955386
0.22344589 0.12016869 0.24716677 0.15094313 -0.044635795 0.19431171 0.15623023 0.20635392

base.seq_fcs.2.bias f4 [256]
00000000: 258e ac3e 8371 af3e 13bf 243e c694 793d
00000010: faf8 213d bc3b 8c3c 2758 ec3d 2ade c73d
00000020: 10ad 6d3d c1ad 983d 64b8 9e3d 0a35 283d
00000030: 31b2 833d 7714 773d c375 af3d 7001 443d
00000040: dee0 b93d 2b79 093d c383 6b3d f0cc 543e
00000050: 4863 4e3d d739 293d 5a39 ac3d 3831 053e
00000060: 216a 273d 3b16 a93e add9 3f3d af05 513e
00000070: 4909 883d ee64 593d c8a4 4b3e a96e 653e
00000080: 9232 b43d e1e3 b53d dc2d 9c3d c48c 283e
00000090: 90de 893d 70a1 7d3d 3216 603d ef8d a93d
000000a0: 20b4 3e3d f685 be3e f954 883d abe0 6e3d
000000b0: abb4 e23c 0221 5f3e 241d 883d 61f8 1e3e
000000c0: dd38 ad3e 5640 b13d 4e71 453e eb83 b33e
000000d0: e1fb 373d bf9a 863e 0c5d 943d edd4 9d3d
000000e0: 6c7e 723d a7da 1b3d ee59 443e 587b b73e
000000f0: 5e8c d93d e653 8b3d 1d6b 333d d9af e93d
00000100: 4ffa c33d 6d2c 873d 1bcf 073e 0bed 913d
00000110: aae8 a33d 1f25 c33d eeb2 7d3d 5cb2 2a3d
00000120: e813 663d a921 463e 2a53 963d b011 8b3d
00000130: c8ee 493e 8e9e aa3e bd8e 7d3d 3bff 5d3e
00000140: a1da 543d b0f1 763d 4fe8 683e 934e 243d
00000150: 3c7a 353e 913b b33d 1230 883d f142 ae3e
00000160: 91c5 283d 393e 6f3d a5d2 363d 7e46 863d
00000170: 5a77 2c3d 322e 123d e432 173e abcf a83d
00000180: e468 803d c571 023e d551 533d 76a6 b33d
00000190: b087 823d 95d3 ab3e c620 403e f08c 2d3e
000001a0: 4c83 763d 3ab5 2a3d a42b 773d 5195 a63e
000001b0: 7436 9b3d 4cd7 aa3e 3052 6a3d 73d2 ad3d
000001c0: 2768 db3d eade 2e3d 352d 293d 637c 553e
000001d0: fd9f 7e3d 545d 893e 4c45 983c b66f b33d
000001e0: b29e 463e da9b d73e dae8 253e 11f4 183d
000001f0: 6d17 803d f057 d33d ad70 af3e 7ff6 843d
00000200: be9a 113e 66b7 7d3d fbfe cc3d 1837 6e3d
00000210: 3aa0 363d 4fb9 813d dc33 893d 57a1 e73e
00000220: 4152 bb3d 84cf 453e 3b7b 993e 666c c83d
00000230: 9e1c c63d 3848 0b3e 410f 423e a223 183d
00000240: 1c0a eb3d 63d3 393d 0a13 f83d 835a d83d
00000250: aa61 9e3d ba3d 3c3d 2a8a c93d 6c21 ad3d
00000260: 6c2b d23d f0e3 af3c e421 813d 0d5c 803d
00000270: f633 0b3e 0a5d 6f3d dcc1 213d dea9 bb3d
00000280: 6170 2c3d 70b4 063e 0edb 9a3d 9d4d 233e
00000290: abf2 b73d 9a1b aa3e 3d3c b23e 326e 583d
000002a0: 26cf 9d3d ebf0 6a3e 83da 1d3d 5386 8f3e
000002b0: 8344 293d cf1a a93e 08a3 8d3c 25fa 3e3d
000002c0: 04c9 653d 3bd5 a73e 766c 363d a7e8 d53c
000002d0: 9558 2d3d 23bb 043e 9cb2 253e 3060 a93e
000002e0: c8eb af3e 6cf3 7b3d 86e8 be3e 48e6 963c
000002f0: 7fa7 4b3d de87 a03d 4d11 b03e 7612 9e3e
00000300: 2643 b13d 4a8e b93c 92f7 a03d eb53 b13e
00000310: c547 293d d64e 3c3d b10b 7c3d 2c3d a33d
00000320: bcca 1d3e f595 3c3e fb87 213d d869 f93d
00000330: a1ec 1d3e dffe be3d 389a 7d3d 0991 3a3d
00000340: c301 de3d 87df 733d 0dec 663d ca6e bd3d
00000350: 766c e53d eb0f 8f3d d09a 583d 3d14 d43d
00000360: 3f2c 8d3e a581 7e3d 38e3 723d befd ad3d
00000370: 3166 3c3d bf13 b93d 38e6 163e d830 e03e
00000380: dafe bb3e 3e94 2a3d d79a 473d 558a 173e
00000390: 0825 c53d bda0 623e 06fd 3d3e 56fd bd3e
000003a0: 9dc4 1c3e 7bad d53d 6a01 af3e be27 5c3e
000003b0: 842b 883d 16a9 5d3d c924 ad3e 835f 473e
000003c0: 2a9d 433e c88e 303d f901 f83d c3fe 923d
000003d0: 2573 a93c 017d aa3e 96a6 843d 728c 0e3d
000003e0: 7220 373d fcf3 813d b102 c13d 08a3 7b3d
000003f0: 0884 2d3e 801b aa3e 921c e13d 5b55 d33d
0.33702198 0.3426629 0.16088514 0.060932897 0.039544083 0.017118327 0.11540251 0.09759171
0.058026373 0.07455016 0.077500135 0.041066207 0.06430472 0.06032225 0.08567383 0.047852933
0.09076093 0.03356282 0.057498705 0.20781302 0.05038765 0.041314926 0.084093764 0.13007057
0.040872697 0.33024773 0.04683845 0.20412324 0.06642396 0.05307477 0.19887078 0.22405495
0.08798708 0.08881355 0.076259345 0.16459948 0.067319036 0.061921537 0.054708667 0.08279025
0.0465585 0.3721158 0.06656832 0.05831973 0.02767404 0.21789935 0.06646183 0.15524437
0.33832446 0.08654849 0.19281504 0.35061583 0.044917945 0.26289937 0.0724431 0.07706628
0.059202597 0.03805032 0.1917493 0.3583629 0.10622476 0.06803112 0.043803323 0.114104934
0.09569227 0.066002704 0.13262598 0.071252905 0.080033615 0.09528565 0.06193822 0.041674003
0.056171328 0.19348778 0.07340081 0.06790483 0.19719994 0.33324093 0.061903704 0.21679394
0.051966313 0.060289085 0.22744869 0.040113997 0.1772241 0.08751596 0.06649794 0.34035447
0.04120404 0.05840895 0.04463448 0.06556414 0.04210601 0.035688587 0.14765507 0.082427345
0.06270006 0.12738712 0.051591713 0.08771984 0.063735366 0.33559862 0.18762502 0.16948295
0.06018381 0.041676737 0.060344353 0.32535794 0.075787455 0.33367383 0.057207286 0.08487406
0.10713225 0.042693056 0.04130288 0.20848231 0.062164295 0.26829016 0.01858773 0.087615415
0.19396475 0.42111093 0.16202107 0.037342135 0.06254468 0.10319507 0.34265652 0.06492328
0.14219186 0.06194248 0.10009571 0.05815801 0.044586398 0.06334173 0.066993445 0.4524028
0.09146548 0.19317442 0.2997683 0.097863 0.09673427 0.13601768 0.18951131 0.037143357
0.114765376 0.04536761 0.121130064 0.10564139 0.07733472 0.045957305 0.09840806 0.0845364
0.10262188 0.021470994 0.06305292 0.06267557 0.1359404 0.05843834 0.03949152 0.09163259
0.04209936 0.13154769 0.075613126 0.15947576 0.08981832 0.33224183 0.34811583 0.052839465
0.07705526 0.22943465 0.038538467 0.2803217 0.041325103 0.33028266 0.017289653 0.046625275
0.056099907 0.3277987 0.04453703 0.026111914 0.042320807 0.12962012 0.16181415 0.33081198
0.34359574 0.061511442 0.37286776 0.018420354 0.049720284 0.078384146 0.343882 0.3087346
0.08655386 0.022650857 0.0785972 0.34634337 0.04132821 0.04597362 0.061534587 0.07970652
0.15409368 0.18416579 0.03943632 0.12178391 0.15422298 0.093259566 0.061914653 0.045548473
0.1084018 0.059539344 0.05637746 0.09249647 0.11202328 0.06985458 0.052882016 0.10355423
0.2757282 0.062135357 0.059298724 0.08495663 0.045995895 0.090369694 0.14736259 0.43787265
0.36717874 0.04164528 0.04873165 0.14798863 0.09626204 0.2213163 0.18553552 0.37107342
0.15309377 0.104334794 0.34180766 0.21499535 0.06648925 0.05411633 0.33817127 0.19470029
0.19102922 0.043104917 0.12109751 0.07177498 0.020684788 0.33298495 0.06477086 0.034801908
0.044708677 0.063453645 0.094243415 0.061434776 0.16944897 0.33224106 0.109917775 0.10319015

last.weight f4 [1, 256]
00000000: 4ff2 8f3e 9ad0 8c3e ce81 e2be 4e6c 0f3e
00000010: 17c1 d6be 1686 81be 4cef 893e 464a acbe
00000020: 92a9 f03d 5853 113e 6ee9 febc 128d 2b3b
00000030: 5a13 f9ba 9a58 183e 540a 9fbc 3dbd 953d
00000040: 6c39 32be 121e d7be 253c 2b3b 8174 533e
00000050: c945 ba3d c1e0 683d 7362 1c3e 4508 11be
00000060: a997 173e 5d65 ad3e 2fda 65be c702 333e
00000070: a8f3 0c3e da0e 3e3e 1166 fd3d 3102 f83d
00000080: cc06 a63e d098 61bd 092c b0bd a832 dfbe
00000090: fa30 133e 251a 253e 3401 8dbc 4f01 163e
000000a0: 2739 4d3a bbae a33e 6fa6 1e3e 6c0c 0a3e
000000b0: ad2b 62be b291 fd3d 7662 153e 9a8c 8a3e
000000c0: 1f49 8f3e d241 1a3e dcb9 443e 0a4d 8a3e
000000d0: b743 823b 98cd 8d3e c629 40bd 7385 28bd
000000e0: 3999 df3d 94cb 38be 5c0b 1b3e 425f a53e
000000f0: 2760 8e3d b016 223e 4af5 2a3b 4d39 043e
00000100: 2c3c 06be 2e32 093e 020b c23d 3963 b6bc
00000110: 4159 563a d612 2dbe 9f73 b73d 0066 59bb
00000120: 7c8e 6bba 53c6 0f3e 6ef1 2a3c c7b9 8abb
00000130: 7286 633e ded1 ae3e d5db 163e b8bd fe3d
00000140: 724d f1bc d29d 223e 8df2 023e a213 6c3d
00000150: 78fa 0a3e b17d 84be f2f3 55bc ef8e 8e3e
00000160: 0f1d dbbe 380f 53bc 9c37 b5bb 2be0 96be
00000170: 8fa6 cdbe 6fae 05bc 6d15 4cbe f7f3 183e
00000180: 0beb 063e ed4a 073e cf65 a1ba 7621 223e
00000190: 8811 153e 67e0 ad3e 6204 0a3e c97e 3a3e
000001a0: 84a1 55bb cf3c 14bb 13d0 2a3e cd30 a33e
000001b0: bc6a 4c3e 76d5 ab3e b69a f93d ed3d 0c3e
000001c0: f203 fb3d 0f8d 3cbc 0d78 233e 0bbf 0e3e
000001d0: c7be 1b3e 7120 803e 9395 83be 3431 71bd
000001e0: f04d 193e b253 c93e aa36 e7be 9b04 233e
000001f0: 6aa4 843d 6b2e 963d 9edc 8c3e 32c1 f43b
00000200: 0816 ec3d 0749 abbd 0e65 fdbd 3202 f138
00000210: a82c abbb 146c 133e 7ee6 1d3e d618 d93e
00000220: cd72 d4bd a438 183e 731e 993e c592 47be
00000230: 17ce 1e3e 1dca 923d 5fdf 153e 7fd4 e0be
00000240: e2e9 f63d 50d8 7fbb 6fd5 24be 01df 303e
00000250: ae60 dfbc da06 013b 42de 22be 6bfc 56bd
00000260: 7719 41bd e8d3 73be cf88 0a3e b4a0 163e
00000270: 5ee2 013e 961c 003e 9009 983d f521 38bd
00000280: 0243 543d 0ec9 ff3d f6af 0abd e302 253e
00000290: 325a 12bd 3a74 903e 8646 8b3e 9bde 4ebe
000002a0: f21b b23c 6743 0b3e 86a0 d2be 03cf 883e
000002b0: 3c82 0839 f354 ad3e 321c 87be 5af2 b03b
000002c0: fa45 b33b c95b b23e d7e5 853d 5515 59be
000002d0: f65f ccba fdd6 513e 40dc eabe b4bf 9d3e
000002e0: 8bc1 a53e ed4c 103e bb4d 873e c2f9 76be
000002f0: 1192 11be fca9 bf3c c450 8c3e ae1a 9c3e
00000300: 6067 243e 565c 8cbe 21ce 06bd 1cf1 a53e
00000310: 8877 d0be 2ede a5be f907 173e 90f5 28bd
00000320: f183 1a3e 98ba 143e 63c0 d1be c35e 8d3d
00000330: f34a 8a3e 1449 a0be 13af 133e 4f5c 123e
00000340: 2369 4e3e 870c 7dbb e7be c6be a72c 493e
00000350: 124f 2abe 0d96 603c 5900 683d f08c 003e
00000360: 9eb3 843e 7105 de3d 14e7 133e e61e 18bd
00000370: e126 963d 413a 12be 2341 6c3e dd9a c93e
00000380: 3a87 b83e 16f5 c93d c528 ac3d 2132 563e
00000390: 22c9 54bd 58e2 033e 1e29 1e3e 53cf 823e
000003a0: 245d 213e 6da2 813d 6bee 8c3e 43d1 033e
000003b0: 2b89 1b3e a0a3 26bc 5471 983e 932d 3e3e
000003c0: 66d4 603e 3a68 a2bb 51f1 8c3d bd14 eabc
000003d0: 2dc7 5cbe 6d1c 8f3e 7ccb 093e 7e8c 1b3e
000003e0: 36d7 a23d f325 4ebe 9e93 30bd 08ed 0f3e
000003f0: f2ec c63e 9cb0 ab3e f533 0abe 56ea 13be
0.28114554 0.275029 -0.44239658 0.14006159 -0.4194419 -0.25297612 0.26940382 -0.33650416
0.11751093 0.1419195 -0.031117167 0.0026176614 -0.001900296 0.14877549 -0.019414105 0.07311485
-0.17404717 -0.4201513 0.0026128378 0.20649911 0.09095342 0.056854967 0.1527193 -0.14163311
0.14803948 0.33866397 -0.22446512 0.17481528 0.13764822 0.18560353 0.12372983 0.12109793
0.3242706 -0.055077374 -0.08602149 -0.43593335 0.14374152 0.16123255 -0.017212488 0.14648937
0.0007828646 0.31969246 0.15493177 0.13481301 -0.22086973 0.12381305 0.14588341 0.27060395
0.27985474 0.15064171 0.19211525 0.270119 0.0039753574 0.27695918 -0.04691484 -0.041142892
0.10917897 -0.18046409 0.15141052 0.32299238 0.06951933 0.15828967 0.0026086145 0.12912484
-0.13108891 0.13398048 0.09474756 -0.02226411 0.0008176752 -0.16901717 0.089576 -0.003317237
-0.00089857704 0.14040498 0.010433538 -0.004233572 0.22219256 0.3414449 0.14732297 0.1243853
-0.029455874 0.15880516 0.12787838 0.05763591 0.13572109 -0.25877145 -0.013058649 0.27843425
-0.42795607 -0.012882046 -0.005530311 -0.29467902 -0.40166137 -0.008159264 -0.19930048 0.14936815
0.131756 0.13212176 -0.0012313667 0.15833077 0.14557469 0.33960268 0.13478234 0.18212427
-0.0032597492 -0.0022619253 0.16680937 0.3187317 0.19962591 0.33561295 0.12187712 0.13695498
0.12256612 -0.01150824 0.15963764 0.13940065 0.15209495 0.2502475 -0.25700054 -0.058884814
0.14971137 0.39321667 -0.45158893 0.15919726 0.06476672 0.07333072 0.27512068 0.0074693197
0.115276396 -0.08363538 -0.1237279 0.000114921844 -0.0052238293 0.14396697 0.15419957 0.4240176
-0.10373459 0.14865357 0.29906043 -0.19489582 0.15508305 0.07167456 0.1463599 -0.43912122
0.12056328 -0.0039038844 -0.16097043 0.17272569 -0.02726778 0.0019687922 -0.15905097 -0.05248682
-0.047143426 -0.23811305 0.13528751 0.14709741 0.12684008 0.12510905 0.07423699 -0.04495426
0.051821716 0.1248952 -0.033859216 0.16114382 -0.03573055 0.28213674 0.27202243 -0.20202105
0.021741841 0.1359993 -0.41138095 0.26720437 0.00013018487 0.33853874 -0.263887 0.0053999843
0.0054709883 0.34835652 0.06537979 -0.21199544 -0.0015592563 0.20492168 -0.45871162 0.3081032
0.32374224 0.14091845 0.2642649 -0.24118713 -0.14215876 0.023396485 0.2740537 0.30489105
0.1605506 -0.27414197 -0.032911424 0.32410514 -0.40716195 -0.32396072 0.14749135 -0.04124981
0.15089394 0.14524305 -0.40967092 0.0690284 0.27010307 -0.31305754 0.14422254 0.14293025
0.20157294 -0.0038612203 -0.38817522 0.1964594 -0.16631725 0.01370765 0.056640957 0.12553763
0.25918287 0.108408816 0.14443618 -0.037138842 0.07331634 -0.14280035 0.23071723 0.39375964
0.3604067 0.098611996 0.08406214 0.2091756 -0.051949628 0.12879312 0.15445372 0.255488
0.15758187 0.063298084 0.27525648 0.12872796 0.15189044 -0.010170847 0.29773962 0.18572073
0.21956024 -0.0049562724 0.06881965 -0.028574342 -0.21560355 0.27951375 0.1345653 0.15190312
0.079512045 -0.20131664 -0.04310953 0.14055264 0.3885265 0.3353318 -0.13496383 -0.14444861
