Soft-Module-main/log/model50_0/model_vf_best.pth (torch, 280037 bytes, 5 tensors)

base.seq_fcs.0.weight f4 [256, 12]
0.28540435 0.41453612 -0.091338225 -0.049731474 0.22945093 0.5658114 0.004261382 0.047770277
0.06073401 0.18496533 0.31775942 0.27396196 0.37134454 0.35935727 -0.05383773 -0.061830774
0.22459848 0.50104624 0.021427557 0.053456694 -0.04963094 0.18203111 0.3346379 0.3864184
0.23967713 0.3617909 -0.13114752 -0.101934165 0.13290825 0.58700645 0.031109177 0.04205095
0.0436987 0.19140922 0.37278244 0.38751453 0.35933796 0.41116768 -0.048109796 -0.026076559
0.16814457 0.5546372 -0.0066649094 -0.01619523 -0.013702989 0.22798884 0.29249376 0.29535705
0.35965788 0.4653558 -0.1838276 -0.080560595 0.15678354 0.48535872 0.06224232 0.03729996
0.018654346 0.1566 0.2880608 0.28102678 0.28164038 0.34967867 -0.098612994 -0.03905738
0.1319743 0.52568036 0.062084615 -0.047166213 0.039915822 0.23909879 0.3232645 0.35545072
0.35159785 0.40156823 -0.03036564 -0.08220547 0.21333027 0.49663064 -0.018998727 0.061786294
0.023747124 0.18822438 0.2873747 0.35622007 0.3025984 0.3488249 -0.15991129 -0.054563697
0.16806644 0.57912034 -0.05471071 0.027609885 0.0063038543 0.1694352 0.27422735 0.27772462
0.33609468 0.45022175 -0.14817213 -0.052943293 0.16433354 0.50556076 0.052718274 -0.035136484
-0.032916166 0.1912787 0.27957994 0.31765762 0.30852434 0.4064851 -0.08187172 -0.14140895
0.21556103 0.49199486 0.04066413 0.059811696 0.0004852414 0.1507881 0.26862323 0.32298365
0.28199598 0.36438856 -0.10811786 -0.09564375 0.16270599 0.5793996 0.038442828 0.041523464
0.049025103 0.20517872 0.35756335 0.28123263 0.2524255 0.3855735 -0.14766774 -0.098925315
0.20369571 0.47821802 -0.029142648 -0.030089818 -0.053518683 0.22180489 0.26154655 0.3280169
0.34376663 0.42850393 -0.1043755 -0.045999315 0.16882806 0.49065906 -0.02841989 -0.052189983
-0.037357397 0.22990726 0.3183834 0.3525817 0.30755633 0.4466219 -0.18430936 -0.0820584
0.226075 0.50022084 -0.0022974461 -0.038010746 -0.0016603395 0.13947967 0.26835063 0.3037134
0.23502055 0.32135338 -0.09440684 -0.077051885 0.2442109 0.5961779 0.055924445 -0.059875473
-0.0592124 0.23917282 0.28214058 0.2785263 0.34812918 0.34090582 -0.12117766 -0.07758097
0.21550745 0.51499075 0.053376824 0.009597793 0.0034661368 0.18616602 0.33821967 0.29065126
0.24087153 0.32126173 -0.10858125 -0.04617276 0.13322155 0.5102858 -0.011307418 0.03314683
-0.044207 0.14625756 0.32768315 0.26542115 0.29331076 0.4353459 -0.1601145 -0.112828285
0.22401617 0.5092216 0.0028901473 0.028659984 0.047450043 0.19926652 0.31338015 0.30257347
0.24405359 0.41897133 -0.17883806 -0.127957 0.13392244 0.5146263 -0.03207005 0.0015535504
-0.03515251 0.20939875 0.29734963 0.3505232 0.31043422 0.31634384 -0.04666157 -0.06218146
0.1948085 0.5287578 0.044966526 0.05618561 -0.06052865 0.24320897 0.37977833 0.31752422
0.32684827 0.4580092 -0.046264127 -0.07922665 0.13830653 0.49236098 -0.05826258 0.044692285
0.019041173 0.2071768 0.34953305 0.28132156 0.25061944 0.3523147 -0.11946905 -0.062947765
00000000: 8520 923e 143e d43e 890f bbbd 3bb3 4bbd
00000010: 2ff5 6a3e 04d9 103f 10a3 8b3b c4aa 433d
00000020: 3ac4 783d 8d67 3d3e 5db1 a23e be44 8c3e
00000030: df20 be3e adfd b73e f484 5cbd 4442 7dbd
00000040: 25fd 653e 9144 003f d888 af3c 68f5 5a3d
00000050: d049 4bbd 5d66 3a3e a955 ab3e a2d8 c53e
00000060: ec6d 753e a83c b93e 894b 06be dcc2 d0bd
00000070: 1a19 083e 0e46 163f acd8 fe3c 9e3d 2c3d
00000080: 68fd 323d c700 443e 57dd be3e 4e68 c63e
00000090: 25fb b73e 9284 d23e c70e 45bd 829e d5bc
000000a0: 172e 2c3e b4fc 0d3f 5065 dabb dcab 84bc
000000b0: 8082 60bc e875 693e bec1 953e 0a39 973e
000000c0: 1425 b83e 1e43 ee3e 4d3d 3cbe f4fc a4bd
000000d0: dd8b 203e f080 f83e cef1 7e3d d8c7 183d
000000e0: 00d1 983c c05b 203e b57c 933e bee2 8f3e
000000f0: 2b33 903e 1509 b33e 9cf5 c9bd a2fa 1fbd
00000100: 4524 073e fd92 063f 704c 7e3d 5c31 41bd
00000110: c67e 233d 50d6 743e ed82 a53e a3fd b53e
00000120: a204 b43e 5a9a cd3e 5dc1 f8bc 575b a8bd
00000130: 4073 5a3e 5f46 fe3e 38a3 9bbc a013 7d3d
00000140: 5489 c23c e4bd 403e c722 933e 7a62 b63e
00000150: 2dee 9a3e 2d99 b23e c9bf 23be 2f7e 5fbd
00000160: 9c19 2c3e 3b41 143f 5618 60bd 202e e23c
00000170: 9090 ce3b 6c80 2d3e 8767 8c3e ec31 8e3e
00000180: 9a14 ac3e 7783 e63e 6fba 17be 11db 58bd
00000190: 0d47 283e 6e6c 013f 1eef 573d 46eb 0fbd
000001a0: 1ad3 06bd 90de 433e 1a25 8f3e 05a4 a23e
000001b0: e7f6 9d3e d11e d03e 5cac a7bd 82cd 10be
000001c0: 08bc 5c3e c0e6 fb3e 6e8f 263d 1cfd 743d
000001d0: 0068 fe39 3268 1a3e fc88 893e 1d5e a53e
000001e0: c761 903e 2391 ba3e e66c ddbd dfe0 c3bd
000001f0: 669c 263e 8853 143f 3a76 1d3d 8214 2a3d
00000200: 8cce 483d 5f1a 523e 8b12 b73e b9fd 8f3e
00000210: ea3d 813e e469 c53e 3636 17be 5b99 cabd
00000220: 9c95 503e fed8 f43e 90bc eebc ec7e f6bc
00000230: 6836 5bbd d220 633e 6ee9 853e d5f1 a73e
00000240: 2e02 b03e de64 db3e d2c2 d5bd c769 3cbd
00000250: 43e1 2c3e aa37 fb3e d4d0 e8bc 2ac5 55bd
00000260: 1204 19bd cf6c 6b3e 2603 a33e 9785 b43e
00000270: 0678 9d3e a0ab e43e 98bb 3cbe 3c0e a8bd
00000280: 3480 673e 790e 003f c090 16bb 28b1 1bbd
00000290: c09f d9ba c2d3 0e3e 4165 893e 5380 9b3e
000002a0: 3aa9 703e 6e88 a43e 6058 c1bd 61cd 9dbd
000002b0: 6c12 7a3e 1d9f 183f 0811 653d fc3f 75bd
000002c0: b488 72bd b8e9 743e bb74 903e 009b 8e3e
000002d0: fd3d b23e 358b ae3e fe2b f8bd c6e2 9ebd
000002e0: fcad 5c3e 6fd6 033f a8a1 5a3d 1040 1d3c
000002f0: 2028 633b 4ea2 3e3e 212b ad3e 3ed0 943e
00000300: 07a7 763e 6b7c a43e d95f debd a61f 3dbd
00000310: 3b6b 083e 17a2 023f c042 39bc f8c4 073d
00000320: 6612 35bd 8bc4 153e 16c6 a73e 48e5 873e
00000330: d42c 963e a8e5 de3e 0ef5 23be 8412 e7bd
00000340: 7f64 653e 595c 023f a068 3d3b 58c8 ea3c
00000350: fa5a 423d 860c 4c3e 5d73 a03e e9ea 9a3e
00000360: 2fe9 793e 6983 d63e 5321 37be 2907 03be
00000370: f722 093e 8dbe 033f e25b 03bd 80a0 cb3a
00000380: 14fc 0fbd a06c 563e 363e 983e c777 b33e
00000390: 3cf1 9e3e d2f7 a13e 3420 3fbd fdb1 7ebd
000003a0: e17b 473e ac5c 073f d22e 383d e222 663d
000003b0: e4ec 77bd c60b 793e 4e72 c23e 8992 a23e
000003c0: a858 a73e 2f80 ea3e 747f 3dbd 9541 a2bd
000003d0: 3aa0 0d3e bd16 fc3e bea4 6ebd 420f 373d
000003e0: 3cfc 9b3c 2826 543e fff5 b23e 6109 903e
000003f0: 3151 803e 9862 b43e 30ac f4bd c2ea 80bd

base.seq_fcs.0.bias f4 [256]
0.41793707 0.4302912 0.42691845 0.4258079 0.4290258 0.42058316 0.4316644 0.42720258
0.42971593 0.4243545 0.42411014 0.4222135 0.43042144 0.43071067 0.43069586 0.4332429
0.42203432 0.42140368 0.42432943 0.43372393 0.42985317 0.42746338 0.43197167 0.4315967
0.42668298 0.41783604 0.42806095 0.43100035 0.42658648 0.4214144 0.430346 0.42489126
0.42245737 0.4284713 0.43358982 0.4325331 0.43190438 0.42933553 0.43729305 0.4297269
0.43359926 0.43102702 0.42758808 0.41662753 0.42543653 0.43080595 0.42383492 0.4272824
0.4107041 0.43061623 0.4293756 0.42789894 0.42587847 0.42621428 0.42718792 0.43200144
0.4303695 0.432069 0.4128258 0.43159822 0.41808152 0.43336722 0.4358299 0.4361993
0.43082878 0.079615824 0.42742565 0.41884613 0.42653626 0.43171287 0.4287391 0.43717653
0.42954645 0.42946076 0.4287328 0.42490575 0.41622773 0.43320477 0.43093485 0.42985058
0.42898688 0.42273644 0.42878896 0.43023664 0.43128532 0.42433882 0.42738348 0.42849502
0.43160668 0.43249547 0.42910442 0.426961 0.43059275 0.43307233 0.42878562 0.4317829
0.4311423 0.4267129 0.43375358 0.41500753 0.42933035 0.43250334 0.43293634 0.41483355
0.4272863 0.43094394 0.43323657 0.43067488 0.42192477 0.42944673 0.42655298 0.42108804
0.4298264 0.4303068 0.42663446 0.43508607 0.42725354 0.42404014 0.43495852 0.41912103
0.43060303 0.42894936 0.41882074 0.42843693 0.43053254 0.42325172 0.4337254 0.42144787
0.41155142 0.4263553 0.42996314 0.42567202 0.43420687 0.42701072 0.43482092 0.41887188
0.42784643 0.4276491 0.4329278 0.08930039 0.43207416 0.4332157 0.4332943 0.43375194
0.42350718 0.42462415 0.428722 0.4325622 0.42797336 0.09161197 0.4335699 0.42775872
0.4218507 0.42961735 0.42013344 0.41390973 0.42059126 0.42534631 0.42642286 0.43266764
0.42776167 0.43262368 0.42595926 0.4309941 0.42141283 0.4217456 0.4271637 0.4310172
0.42743483 0.42736417 0.43734828 0.4332999 0.4316671 0.41407982 0.42981714 0.4300508
0.42736727 0.42345658 0.42425692 0.43357086 0.4343578 0.4258305 0.43215182 0.4283691
0.4326194 0.43608534 0.43178183 0.42061424 0.43140253 0.4101699 0.4327818 0.43120524
0.43403488 0.43508017 0.42687204 0.43153706 0.42140362 0.43204916 0.42555308 0.4284876
0.42327228 0.432265 0.4318721 0.43062398 0.4295298 0.42749074 0.42777735 0.43230712
0.4318813 0.42033693 0.4313281 0.42973882 0.42873743 0.4319461 0.4256472 0.43108967
0.42776674 0.4332794 0.42932987 0.43409756 0.42933232 0.43418044 0.43569273 0.42926374
0.43015411 0.429792 0.4263215 0.43367946 0.43117344 0.42903838 0.42983675 0.43200144
0.42949256 0.42495647 0.43404883 0.4198053 0.43008557 0.43290555 0.4348236 0.4294466
0.42541724 0.4325155 0.41307124 0.43635958 0.42820966 0.43327996 0.43058696 0.41739237
0.43077928 0.42448434 0.4280968 0.43036386 0.42801726 0.42076242 0.42846376 0.42318025
00000000: d9fb d53e 214f dc3e 0e95 da3e 7e03 da3e
00000010: 45a9 db3e ad56 d73e 1e03 dd3e 4cba da3e
00000020: ba03 dc3e fe44 d93e f724 d93e 5e2c d83e
00000030: 3360 dc3e 1c86 dc3e 2b84 dc3e 03d2 dd3e
00000040: e214 d83e 39c2 d73e b541 d93e 1011 de3e
00000050: b715 dc3e 7bdc da3e 642b dd3e 3efa dc3e
00000060: 3176 da3e 9bee d53e ce2a db3e 14ac dc3e
00000070: 8b69 da3e a1c3 d73e 5056 dc3e 598b d93e
00000080: 554c d83e 9760 db3e 7cff dd3e fa74 dd3e
00000090: 9222 dd3e ded1 db3e e0e4 df3e 2a05 dc3e
000000a0: b900 de3e 93af dc3e d3ec da3e 3450 d53e
000000b0: d1d2 d93e 9992 dc3e e400 d93e c2c4 da3e
000000c0: cf47 d23e bb79 dc3e 1ed7 db3e 9215 db3e
000000d0: be0c da3e c238 da3e 60b8 da3e 4b2f dd3e
000000e0: 6459 dc3e 2638 dd3e e75d d33e 71fa dc3e
000000f0: c80e d63e 4fe2 dd3e 1925 df3e 8455 df3e
00000100: 9795 dc3e 9f0d a33d 89d7 da3e 0073 d63e
00000110: f662 da3e 7809 dd3e b183 db3e 9ad5 df3e
00000120: 83ed db3e 48e2 db3e de82 db3e 3f8d d93e
00000130: cd1b d53e 04cd dd3e 7ea3 dc3e 6015 dc3e
00000140: 2ba4 db3e e970 d83e 3a8a db3e fa47 dc3e
00000150: 6ed1 dc3e f042 d93e 02d2 da3e b363 db3e
00000160: 8dfb dc3e 0c70 dd3e 93b3 db3e a29a da3e
00000170: a776 dc3e a8bb dd3e ca89 db3e a612 dd3e
00000180: afbe dc3e 1d7a da3e f314 de3e de7b d43e
00000190: 30d1 db3e 1471 dd3e d5a9 dd3e 1065 d43e
000001a0: 45c5 da3e afa4 dc3e 2fd1 dd3e 6b81 dc3e
000001b0: 8606 d83e 71e0 db3e 2765 da3e da98 d73e
000001c0: 3512 dc3e 2c51 dc3e d56f da3e 9ac3 de3e
000001d0: fac0 da3e ca1b d93e e2b2 de3e 0897 d63e
000001e0: 0078 dc3e 409f db3e ac6f d63e 165c db3e
000001f0: c36e dc3e 73b4 d83e 4111 de3e 04c8 d73e
00000200: deb6 d23e 3e4b da3e 2124 dc3e aff1 d93e
00000210: 5d50 de3e 26a1 da3e d9a0 de3e 6076 d63e
00000220: b00e db3e d3f4 da3e b6a8 dd3e 1fe3 b63d
00000230: d338 dd3e 73ce dd3e c0d8 dd3e bc14 de3e
00000240: efd5 d83e 5668 d93e 7381 db3e cb78 dd3e
00000250: 531f db3e 0e9f bb3d e0fc dd3e 3103 db3e
00000260: d1fc d73e cef6 db3e bb1b d73e faeb d33e
00000270: bd57 d73e fec6 d93e 1954 da3e 9d86 dd3e
00000280: 9403 db3e da80 dd3e 5517 da3e 42ab dc3e
00000290: 6cc3 d73e 0aef d73e 33b5 da3e 49ae dc3e
000002a0: bdd8 da3e 7acf da3e 1dec df3e 7cd9 dd3e
000002b0: 7803 dd3e 4502 d43e fe10 dc3e 9e2f dc3e
000002c0: e2cf da3e 4dcf d83e 3438 d93e 00fd dd3e
000002d0: 2564 de3e 7506 da3e 0143 dd3e 3253 db3e
000002e0: 4a80 dd3e 9446 df3e 8212 dd3e c05a d73e
000002f0: cbe0 dc3e ca01 d23e 9395 dd3e efc6 dc3e
00000300: d239 de3e d4c2 de3e f98e da3e 6df2 dc3e
00000310: 37c2 d73e 8c35 dd3e 18e2 d93e ba62 db3e
00000320: 25b7 d83e d751 dd3e 571e dd3e bf7a dc3e
00000330: 54eb db3e 11e0 da3e a205 db3e 5c57 dd3e
00000340: 8c1f dd3e 6736 d73e 09d7 dc3e ba06 dc3e
00000350: 7983 db3e 0a28 dd3e 6eee d93e c9b7 dc3e
00000360: 3e04 db3e ccd6 dd3e 20d1 db3e 0942 de3e
00000370: 72d1 db3e e64c de3e 1e13 df3e 75c8 db3e
00000380: 293d dc3e b20d dc3e d046 da3e 3c0b de3e
00000390: c4c2 dc3e ebaa db3e 9013 dc3e 4b2f dd3e
000003a0: 73e6 db3e e593 d93e a63b de3e b8f0 d63e
000003b0: 2d34 dc3e cca5 dd3e 33a1 de3e 6de0 db3e
000003c0: 4ad0 d93e ac72 dd3e 137e d33e 866a df3e
000003d0: 4c3e db3e dfd6 dd3e e575 dc3e 74b4 d53e
000003e0: 1a8f dc3e 0356 d93e 812f db3e a758 dc3e
000003f0: 1425 db3e 2c6e d73e 9a5f db3e 15ab d83e

base.seq_fcs.2.weight f4 [256, 256]
0.47793034 0.4961941 0.50818473 0.44409165 0.4815964 0.52182895 0.52118796 0.53099805
0.5428475 0.5437153 0.5159411 0.5469075 0.48876968 0.5518961 0.4487672 0.4518228
0.46966583 0.49113703 0.56595606 0.5315174 0.4856837 0.48421562 0.50185335 0.52499527
0.5700268 0.47752896 0.4988512 0.5345229 0.57435685 0.4697507 0.46913758 0.4545558
0.45507216 0.42955545 0.54265326 0.48127985 0.46512237 0.50377744 0.48239252 0.5099147
0.46608084 0.464162 0.5638083 0.5623332 0.4722407 0.4272439 0.4894297 0.5237324
0.570361 0.40353537 0.40604505 0.41470528 0.5783507 0.554256 0.48406765 0.4142449
0.5009242 0.57988673 0.46594578 0.4534916 0.421967 0.5063633 0.4027158 0.49300715
0.44500896 -0.058628295 0.49486393 0.4587034 0.4955601 0.5102312 0.5214002 0.46198577
0.5042492 0.5263468 0.56533223 0.491496 0.471829 0.54117364 0.5276823 0.45555055
0.46894968 0.55075353 0.45827702 0.4929329 0.44863468 0.5159048 0.49733096 0.416025
0.4238757 0.44009042 0.5353868 0.47604743 0.5008049 0.4378093 0.5168376 0.4797167
0.4891175 0.47038218 0.49996755 0.48852694 0.47522435 0.47735444 0.44828933 0.5159486
0.4597493 0.43059152 0.44710463 0.4734515 0.5248128 0.4615364 0.48347345 0.5194473
0.5546171 0.5146291 0.52052855 0.46741807 0.4564131 0.5618695 0.41411883 0.5395443
0.5245643 0.48020747 0.49963328 0.509613 0.5413006 0.4277409 0.47203624 0.5326504
0.553998 0.56231904 0.5354814 0.431781 0.4873558 0.47362974 0.5151402 0.5263771
0.4410463 0.5516551 0.424032 -0.024771225 0.46641627 0.41957 0.52805763 0.4516918
0.5128926 0.5303678 0.49873212 0.48638323 0.46303993 0.013441123 0.53658366 0.48757797
0.5554192 0.45198056 0.56343377 0.5157784 0.46903104 0.5004664 0.56116325 0.52534866
0.57480043 0.4910899 0.43146086 0.52428764 0.487098 0.5114857 0.44248405 0.52447873
0.5114697 0.5482405 0.4976607 0.4395255 0.40523413 0.52242917 0.5240927 0.42397505
0.40653077 0.53427726 0.4769632 0.47318572 0.4976048 0.51715994 0.4913868 0.53150445
0.40946144 0.501053 0.5191666 0.4635918 0.5187075 0.5306332 0.42964646 0.47117725
0.5017823 0.47098857 0.41243967 0.5022536 0.5750796 0.4508887 0.47311136 0.52700907
0.43797886 0.51101047 0.53526217 0.5316081 0.53068686 0.46633968 0.55689746 0.48037222
0.44415584 0.5343189 0.4725208 0.5280507 0.5275457 0.39104685 0.5361914 0.5295493
0.5772449 0.4737016 0.5075306 0.5324867 0.5390303 0.49484575 0.48178047 0.50914204
0.53576976 0.56442213 0.473757 0.47157666 0.46611157 0.4794349 0.5709128 0.41710266
0.49658954 0.4607289 0.52117085 0.5490692 0.5392717 0.5163673 0.42235494 0.48197952
0.44966462 0.45751938 0.59211385 0.3892753 0.4561367 0.5095953 0.49900505 0.44465533
0.44601625 0.5316553 0.40593764 0.4975982 0.51249516 0.45051375 0.45062602 0.47388572
00000000: 49b3 f43e 270d fe3e 6518 023f fb5f e33e
00000010: ce93 f63e 9596 053f 936c 053f 7def 073f
00000020: 0ef8 0a3f ed30 0b3f b714 043f 2102 0c3f
00000030: 0540 fa3e 1049 0d3f d0c4 e53e 5155 e73e
00000040: 0a78 f03e 5076 fb3e 7fe2 103f 8611 083f
00000050: 89ab f83e 1ceb f73e 7679 003f 1766 063f
00000060: 47ed 113f ad7e f43e 6d69 ff3e 7ed6 083f
00000070: 0d09 133f 2a83 f03e cd32 f03e 8abb e83e
00000080: 38ff e83e b1ee db3e 53eb 0a3f 506a f63e
00000090: 8524 ee3e 8ff7 003f 27fc f63e c589 023f
000000a0: 26a2 ee3e a4a6 ed3e be55 103f 12f5 0f3f
000000b0: 88c9 f13e b6bf da3e 8896 fa3e 5413 063f
000000c0: 2e03 123f 309c ce3e 23e5 cf3e 4054 d43e
000000d0: cb0e 143f b9e3 0d3f b7d7 f73e e817 d43e
000000e0: 923c 003f 7573 143f 7290 ee3e 0d30 e83e
000000f0: 0f0c d83e 06a1 013f c430 ce3e 6f6b fc3e
00000100: 37d8 e33e 3924 70bd ce5e fd3e 2cdb ea3e
00000110: 0eba fd3e 839e 023f 7c7a 053f 6689 ec3e
00000120: 7a16 013f aabe 063f 9db9 103f 5da5 fb3e
00000130: 9293 f13e 5b8a 0a3f 3016 073f ec3d e93e
00000140: 2c1a f03e 2ffe 0c3f 49a3 ea3e b361 fc3e
00000150: 72b3 e53e 5612 043f 2aa2 fe3e 3b01 d53e
00000160: 3c06 d93e 8853 e13e 1c0f 093f 7dbc f33e
00000170: c034 003f 8a28 e03e 784f 043f 6d9d f53e
00000180: 9c6d fa3e efd5 f03e bffb ff3e 3420 fa3e
00000190: 9b50 f33e cd67 f43e 2e86 e53e 3515 043f
000001a0: 4364 eb3e 7e76 dc3e e6ea e43e 3c68 f23e
000001b0: 225a 063f 804e ec3e d589 f73e 80fa 043f
000001c0: 63fb 0d3f bcbe 033f 5c41 053f 6c51 ef3e
000001d0: faae e93e aed6 0f3f 6207 d43e 931f 0a3f
000001e0: d949 063f c1dd f53e efcf ff3e ff75 023f
000001f0: ad92 0a3f db00 db3e bcae f13e c75b 083f
00000200: d0d2 0d3f 24f4 0f3f 4f15 093f 6612 dd3e
00000210: b386 f93e 997f f23e 3ae0 033f a6c0 063f
00000220: d2d0 e13e 4539 0d3f b91a d93e 06ed cabc
00000230: 1dce ee3e e1d1 d63e c92e 073f 2644 e73e
00000240: ee4c 033f 2fc6 073f d159 ff3e 3907 f93e
00000250: 9213 ed3e 2838 5c3c 8c5d 093f d2a3 f93e
00000260: f42f 0e3f ff69 e73e 323d 103f 0e0a 043f
00000270: d624 f03e 911e 003f 65a8 0f3f 407d 063f
00000280: 1f26 133f 2370 fb3e 70e8 dc3e b737 063f
00000290: e964 f93e baf0 023f 458d e23e 3d44 063f
000002a0: aeef 023f 7d59 0c3f 62cd fe3e 7d09 e13e
000002b0: d97a cf3e ebbd 053f f02a 063f 4213 d93e
000002c0: cd24 d03e 65c6 083f 8534 f43e 6645 f23e
000002d0: 0ec6 fe3e 9864 043f 0d97 fb3e ad10 083f
000002e0: eea4 d13e 0245 003f 1ae8 043f e85b ed3e
000002f0: 04ca 043f 94d7 073f 9ffa db3e 253e f13e
00000300: ce74 003f 6a25 f13e 4b2b d33e b193 003f
00000310: 6b38 133f e2da e63e a73b f23e 11ea 063f
00000320: c43e e03e 95d1 023f f106 093f 7817 083f
00000330: 18db 073f 13c4 ee3e d590 0e3f 59f3 f53e
00000340: 6568 e33e 20c9 083f 3fee f13e 552e 073f
00000350: 3c0d 073f 4b37 c83e d743 093f 8b90 073f
00000360: 52c6 133f 0489 f23e 87ed 013f 0c51 083f
00000370: e4fd 093f 6c5c fd3e eeab f63e 2257 023f
00000380: 3528 093f f87d 103f 4790 f23e 7f72 f13e
00000390: 2da6 ee3e 7e78 f53e 5727 123f 7b8e d53e
000003a0: fc40 fe3e a9e4 eb3e 746b 053f cd8f 0c3f
000003b0: b60d 0a3f a630 043f e83e d83e 05c6 f63e
000003c0: 713a e63e fb3f ea3e c694 173f 184f c73e
000003d0: c08a e93e d674 023f 977d ff3e dda9 e33e
000003e0: 3e5c e43e 901a 083f 0fd7 cf3e 31c5 fe3e
000003f0: e232 033f bda9 e63e 74b8 e63e 26a1 f23e

base.seq_fcs.2.bias f4 [256]
0.42490953 0.42587006 0.42093393 0.1 0.09711281 0.42156628 0.42626208 0.42310536
0.42563814 0.42616394 0.4247769 0.42640698 0.4258918 0.42149055 0.42470145 0.4251695
0.09548925 0.42469424 0.42570263 0.42541453 0.4249272 0.4258783 0.42099226 0.42192778
0.42477652 0.42552412 0.42486268 0.42570594 0.42589134 0.4250433 0.42608246 0.4237361
0.42425886 0.42506412 0.42396903 0.42526653 0.4256963 0.42505658 0.42173728 0.4263363
0.4243725 0.09599052 0.4245276 0.42440215 0.42230314 0.42239293 0.42636174 0.42446613
0.42631897 0.42102313 0.42463094 0.09801392 0.42370838 0.42374966 0.42609066 0.1
0.4252626 0.4257889 0.42627573 0.42194533 0.42525533 0.42550156 0.1 0.096210316
0.42479166 0.42294374 0.09819838 0.42538488 0.4255534 0.4226549 0.095658645 0.42592946
0.095518485 0.42521092 0.42565846 0.4239632 0.4241876 0.42495635 0.42564026 0.4255012
0.42477134 0.42511833 0.42482105 0.42499164 0.42449853 0.4213596 0.42532513 0.1
0.4231491 0.4264527 0.4227699 0.42581415 0.42624006 0.42639413 0.42391104 0.4253774
0.42428985 0.4254203 0.4250658 0.42136765 0.42438033 0.42216852 0.42475447 0.09791877
0.42279005 0.42538732 0.42417234 0.4257475 0.42640418 0.42624423 0.1 0.42423314
0.42522842 0.42631754 0.42473522 0.42630014 0.42452174 0.42531946 0.097913735 0.42647126
0.4243696 0.42095247 0.42498124 0.4257539 0.42513883 0.1 0.42577818 0.42348057
0.1 0.42596227 0.4257162 0.42566955 0.42243135 0.097346425 0.42557502 0.42520952
0.09795916 0.09737899 0.4240473 0.095317915 0.42263475 0.1 0.42471367 0.42457893
0.42270404 0.4248147 0.42405602 0.42634386 0.42141026 0.42563218 0.42639628 0.42615432
0.09579115 0.42043477 0.42183897 0.42451805 0.42499822 0.42528242 0.4250326 0.42627004
0.09502453 0.42499942 0.42410576 0.09733039 0.4211683 0.42439586 0.42580637 0.4249875
0.4257742 0.0951998 0.42426237 0.1 0.42576963 0.42457345 0.42472002 0.09819838
0.4254244 0.42278028 0.42560327 0.4243649 0.09569139 0.1 0.0953089 0.4254641
0.42578328 0.42482445 0.1 0.4252396 0.42476156 0.42567462 0.42352965 0.4253802
0.1 0.42567056 0.4256539 0.1 0.42431873 0.42242497 0.4232916 0.42407012
0.1 0.4226523 0.42613485 0.09819841 0.42015046 0.4245488 0.42410138 0.42433152
0.42409444 0.42610922 0.42617202 0.42639792 0.42505103 0.09652902 0.42472392 0.42361096
0.42428154 0.4214225 0.42182016 0.4234251 0.42291653 0.42622653 0.42292383 0.1
0.42561918 0.42532352 0.42455816 0.4227938 0.42617553 0.4220454 0.09752509 0.42280602
0.4250311 0.1 0.42481634 0.42572504 0.096532926 0.42306718 0.42608595 0.42505315
0.42432487 0.42462423 0.42458206 0.42396984 0.42440778 0.42180043 0.09507758 0.42581907
0.4244981 0.42610416 0.4247505 0.09582282 0.42215535 0.42448986 0.42044118 0.09817353
00000000: be8d d93e a40b da3e a784 d73e cdcc cc3d
00000010: 15e3 c63d 89d7 d73e 063f da3e 44a1 d83e
00000020: 3eed d93e 2932 da3e 5c7c d93e 0452 da3e
00000030: 7d0e da3e 9ccd d73e 7872 d93e d1af d93e
00000040: de8f c33d 8671 d93e b2f5 d93e efcf d93e
00000050: 0f90 d93e b80c da3e 4c8c d73e eb06 d83e
00000060: 4f7c d93e 4cde d93e 9a87 d93e 21f6 d93e
00000070: 6e0e da3e 479f d93e 7b27 da3e f0f3 d83e
00000080: 7538 d93e 01a2 d93e 7812 d93e 89bc d93e
00000090: def4 d93e 04a1 d93e f3ed d73e c048 da3e
000000a0: 5a47 d93e ae96 c43d ae5b d93e 3d4b d93e
000000b0: 1e38 d83e e343 d83e 164c da3e a053 d93e
000000c0: 7b46 da3e 5890 d73e 3a69 d93e 86bb c83d
000000d0: 4ef0 d83e b7f5 d83e 8e28 da3e cdcc cc3d
000000e0: 05bc d93e 0101 da3e d040 da3e 3809 d83e
000000f0: 11bb d93e 57db d93e cdcc cc3d ea09 c53d
00000100: 4b7e d93e 158c d83e 3b1c c93d 0ccc d93e
00000110: 23e2 d93e 3966 d83e aee8 c33d 6d13 da3e
00000120: 329f c33d 3fb5 d93e e8ef d93e b411 d93e
00000130: 1e2f d93e e193 d93e 85ed d93e 4bdb d93e
00000140: a17b d93e 1ca9 d93e 2582 d93e 8198 d93e
00000150: df57 d93e 72bc d73e 37c4 d93e cdcc cc3d
00000160: 00a7 d83e 0258 da3e 4c75 d83e 5004 da3e
00000170: 233c da3e 5550 da3e de0a d93e 11cb d93e
00000180: 853c d93e b1d0 d93e 39a2 d93e 80bd d73e
00000190: 6148 d93e 7926 d83e 6b79 d93e a389 c83d
000001a0: f077 d83e 5ecc d93e 1e2d d93e 94fb d93e
000001b0: a651 da3e af3c da3e cdcc cc3d 1635 d93e
000001c0: 8ab7 d93e 4b46 da3e e576 d93e 0344 da3e
000001d0: ea5a d93e 79c3 d93e ff86 c83d 715a da3e
000001e0: f946 d93e 1587 d73e 2497 d93e 6afc d93e
000001f0: ccab d93e cdcc cc3d 99ff d93e 72d2 d83e
00000200: cdcc cc3d ba17 da3e 79f7 d93e 5cf1 d93e
00000210: ec48 d83e 905d c73d f8e4 d93e 10b5 d93e
00000220: d09e c83d a36e c73d ba1c d93e 0a36 c33d
00000230: 9563 d83e cdcc cc3d 1274 d93e 6962 d93e
00000240: aa6c d83e 5081 d93e df1d d93e be49 da3e
00000250: 16c3 d73e 76ec d93e 9d50 da3e e630 da3e
00000260: 272e c43d 3a43 d73e 47fb d73e 6e5a d93e
00000270: 5e99 d93e 9ebe d93e df9d d93e 1140 da3e
00000280: 399c c23d 8699 d93e 6424 d93e 2855 c73d
00000290: 5fa3 d73e 6a4a d93e 4b03 da3e f697 d93e
000002a0: 13ff d93e 1df8 c23d eb38 d93e cdcc cc3d
000002b0: 7afe d93e b161 d93e e774 d93e 3b1c c93d
000002c0: 3ad1 d93e a876 d83e ace8 d93e 5b46 d93e
000002d0: d9f9 c33d cdcc cc3d 5031 c33d 6ed6 d93e
000002e0: 4400 da3e 9782 d93e cdcc cc3d 01b9 d93e
000002f0: 597a d93e 06f2 d93e e1d8 d83e 6fcb d93e
00000300: cdcc cc3d 7ef1 d93e 4fef d93e cdcc cc3d
00000310: 4e40 d93e 1648 d83e adb9 d83e b81f d93e
00000320: cdcc cc3d e265 d83e 592e da3e 3f1c c93d
00000330: f61d d73e 765e d93e d123 d93e fb41 d93e
00000340: e822 d93e fd2a da3e 3833 da3e d450 da3e
00000350: 4aa0 d93e 02b1 c53d 6a75 d93e 89e3 d83e
00000360: 6e3b d93e b1c4 d73e d0f8 d73e 2dcb d83e
00000370: 8488 d83e 5d3a da3e 7989 d83e cdcc cc3d
00000380: c2ea d93e 01c4 d93e b05f d93e 6e78 d83e
00000390: ae33 da3e 5616 d83e 3cbb c73d 087a d83e
000003a0: ad9d d93e cdcc cc3d 8781 d93e a2f8 d93e
000003b0: 0eb3 c53d 439c d83e f027 da3e 91a0 d93e
000003c0: 1c41 d93e 5968 d93e d262 d93e 9312 d93e
000003d0: fa4b d93e 3af6 d73e 09b8 c23d f504 da3e
000003e0: d157 d93e 532a da3e e678 d93e c13e c43d
000003f0: bf24 d83e bc56 d93e 1144 d73e 340f c93d

last.weight f4 [1, 256]
0.49010494 0.48901704 0.49052092 0.001062129 0.0019268574 0.48954782 0.48950177 0.48965657
0.49124867 0.48737887 0.48869064 0.49079174 0.48866218 0.49009794 0.4921184 0.4873139
0.0017605735 0.49195403 0.48914668 0.48874632 0.48852256 0.4889766 0.4895746 0.4871915
0.4875995 0.48769727 0.48562902 0.4901832 0.48755172 0.48996577 0.49207905 0.48763642
0.49083605 0.49110794 0.48790425 0.48421878 0.48719746 0.48930734 0.49024433 0.48980227
0.48756853 0.001732207 0.4899246 0.4889474 0.49096963 0.49088997 0.48924783 0.49034783
0.48888347 0.49004146 0.48920435 -1.9650251e-06 0.48797506 0.48898786 0.48895285 -0.0018931557
0.48810825 0.49004644 0.48647892 0.48730648 0.49001935 0.4866317 -0.0022755296 0.0012581563
0.48933554 0.49107552 -0.00073549163 0.4897363 0.4899494 0.48701674 0.0010636323 0.48905516
0.0022864067 0.49103352 0.49206498 0.4916956 0.48644182 0.4898755 0.4892384 0.4887606
0.4883679 0.48588327 0.49261174 0.4901508 0.4889056 0.48809883 0.48662692 0.0007816998
0.48894587 0.48956886 0.49083832 0.48810333 0.48951384 0.48943478 0.49042788 0.48847628
0.4888186 0.49047035 0.48865145 0.48950768 0.49040195 0.4868426 0.4894377 -0.0004905384
0.48916706 0.48984587 0.49153936 0.48846802 0.49230686 0.48648208 -0.0008166744 0.48887324
0.4901546 0.48819292 0.48861617 0.48919892 0.4915748 0.48963785 0.002946557 0.4907825
0.48987615 0.49040115 0.48940927 0.49099615 0.49276412 0.0022558137 0.49156973 0.48955524
-0.00026773883 0.48966014 0.48740816 0.48999298 0.4901025 0.0015297518 0.48672155 0.4899263
0.0020150896 0.0011311487 0.4901383 0.0015848681 0.49096352 0.0029743656 0.4907875 0.48977223
0.48727402 0.48977104 0.48956224 0.48942536 0.49048054 0.49290895 0.48918432 0.486921
0.0024920257 0.48976636 0.48995343 0.49212465 0.49068332 0.48544818 0.48972753 0.48918855
0.0020800491 0.49189758 0.48941737 0.0007384091 0.49050286 0.49443674 0.48670712 0.49025726
0.49009985 0.002515272 0.49184412 -0.0023447096 0.49203297 0.48920786 0.4896383 -0.00040862506
0.49010953 0.4906115 0.49143705 0.4912745 0.0017675392 0.00056427455 0.0024167981 0.4873158
0.48927012 0.4914901 0.0011472162 0.48769423 0.489491 0.48909134 0.48725542 0.48843104
-0.0008437332 0.48860854 0.49029827 0.001542645 0.49097383 0.48967904 0.48876843 0.48839003
-0.0002759546 0.4874335 0.4894036 0.0012903248 0.48893958 0.48877808 0.4892245 0.49004635
0.4921341 0.4872202 0.49090412 0.490112 0.48732877 0.0011357805 0.48635563 0.4866025
0.48946896 0.4894167 0.49078152 0.49010897 0.49163237 0.4917638 0.48963833 0.0017587044
0.48510146 0.4872253 0.49082485 0.49118242 0.49036816 0.48641524 0.0017076576 0.4894239
0.492392 4.988444e-05 0.4904589 0.48874664 0.0027974215 0.49155197 0.49062026 0.4903155
0.49037576 0.4942672 0.49057123 0.48766512 0.4882522 0.4877222 0.0022986792 0.48575246
0.49008492 0.4903633 0.4877819 0.002001997 0.49102846 0.4919329 0.4907422 0.0020725648
00000000: 09ef fa3e 7160 fa3e 8f25 fb3e 2337 8b3a
00000010: 9b8e fc3a 03a6 fa3e fa9f fa3e 44b4 fa3e
00000020: f284 fb3e b989 f93e a935 fa3e 0e49 fb3e
00000030: ee31 fa3e 1eee fa3e f1f6 fb3e 3581 f93e
00000040: 0bc3 e63a 66e1 fb3e 6f71 fa3e f53c fa3e
00000050: a11f fa3e 245b fa3e 86a9 fa3e 2a71 f93e
00000060: a4a6 f93e 75b3 f93e 5ea4 f83e 4bf9 fa3e
00000070: 61a0 f93e cbdc fa3e c9f1 fb3e 7bab f93e
00000080: dd4e fb3e 8072 fb3e 96ce f93e 86eb f73e
00000090: f271 f93e 7e86 fa3e 4e01 fb3e 5dc7 fa3e
000000a0: 95a2 f93e 390b e33a 66d7 fa3e 5057 fa3e
000000b0: 5f60 fb3e ee55 fb3e b17e fa3e df0e fb3e
000000c0: ef4e fa3e b7e6 fa3e fe78 fa3e e0de 03b6
000000d0: ded7 f93e 9e5c fa3e 0758 fa3e c423 f8ba
000000e0: 53e9 f93e 5ee7 fa3e c413 f93e 3c80 f93e
000000f0: d1e3 fa3e ca27 f93e 0d21 15bb b8e8 a43a
00000100: 308a fa3e 406e fb3e 02ce 40ba b7be fa3e
00000110: a6da fa3e 425a f93e 9469 8b3a 7065 fa3e
00000120: 8ad7 153b bf68 fb3e f1ef fb3e 87bf fb3e
00000130: e70e f93e f6d0 fa3e 757d fa3e d43e fa3e
00000140: 5b0b fa3e b1c5 f83e 9b37 fc3e 0cf5 fa3e
00000150: d651 fa3e 17e8 f93e 2a27 f93e fcea 4c3a
00000160: 1d57 fa3e c5a8 fa3e 294f fb3e aee8 f93e
00000170: 8fa1 fa3e 3297 fa3e 5d19 fb3e 9019 fa3e
00000180: 6e46 fa3e ee1e fb3e 8630 fa3e c0a0 fa3e
00000190: f715 fb3e 6f43 f93e 9497 fa3e 7a97 00ba
000001a0: 1b74 fa3e 14cd fa3e 0cab fb3e 7b18 fa3e
000001b0: a50f fc3e 2e14 f93e 1716 56ba 984d fa3e
000001c0: 8bf5 fa3e 6cf4 f93e e62b fa3e 4878 fa3e
000001d0: b1af fb3e d0b1 fa3e 061b 413b d847 fb3e
000001e0: 0cd1 fa3e dc15 fb3e da93 fa3e d963 fb3e
000001f0: 944b fc3e 46d6 133b 07af fb3e fca6 fa3e
00000200: 4c5f 8cb9 bcb4 fa3e 908d f93e 5ce0 fa3e
00000210: b7ee fa3e f481 c83a 9133 f93e 9fd7 fa3e
00000220: 980f 043b 0d43 943a 68f3 fa3e 59bb cf3a
00000230: 925f fb3e 93ed 423b 8048 fb3e 6dc3 fa3e
00000240: fb7b f93e 45c3 fa3e e7a7 fa3e f695 fa3e
00000250: 4420 fb3e 905e fc3e 5e76 fa3e b64d f93e
00000260: 4151 233b a8c2 fa3e 2ddb fa3e c3f7 fb3e
00000270: d83a fb3e aa8c f83e 91bd fa3e ec76 fa3e
00000280: 6f51 083b 00da fb3e ea94 fa3e cc91 413a
00000290: 3123 fb3e d026 fd3e ad31 f93e 0003 fb3e
000002a0: 5eee fa3e 43d7 243b fed2 fb3e b3a9 19bb
000002b0: bfeb fb3e 7479 fa3e dfb1 fa3e ba3c d6b9
000002c0: a3ef fa3e 6e31 fb3e a39d fb3e 5588 fb3e
000002d0: c6ac e73a d3eb 133a 2563 1e3b 7581 f93e
000002e0: 9d81 fa3e 97a4 fb3e 305e 963a 0fb3 f93e
000002f0: 909e fa3e 2e6a fa3e 8b79 f93e a213 fa3e
00000300: fa2d 5dba e62a fa3e 6008 fb3e 9432 ca3a
00000310: ec60 fb3e 36b7 fa3e db3f fa3e 420e fa3e
00000320: 00ae 90b9 e290 f93e 1c93 fa3e 1e20 a93a
00000330: 4a56 fa3e 1f41 fa3e a27b fa3e 5be7 fa3e
00000340: 00f9 fb3e ed74 f93e c957 fb3e f6ef fa3e
00000350: 2883 f93e 78de 943a 9b03 f93e f623 f93e
00000360: ad9b fa3e d394 fa3e b747 fb3e 90ef fa3e
00000370: 3db7 fb3e 77c8 fb3e e0b1 fa3e 5484 e63a
00000380: 385f f83e 9875 f93e 654d fb3e 437c fb3e
00000390: 8911 fb3e 6b0b f93e 7bd3 df3a c595 fa3e
000003a0: ce1a fc3e 023b 5138 6e1d fb3e 003d fa3e
000003b0: f254 373b b3ac fb3e 9432 fb3e a20a fb3e
000003c0: 8812 fb3e 9710 fd3e 272c fb3e 3eaf f93e
000003d0: 31fc f93e b9b6 f93e 70a5 163b 8cb4 f83e
000003e0: 69ec fa3e e610 fb3e 8dbe f93e f033 033b
000003f0: 1568 fb3e a1de fb3e 9042 fb3e ded3 073b
