Soft-Module-main/log/model7/model_vf_100.pth (torch, 280037 bytes, 5 tensors)

base.seq_fcs.0.weight f4 [256, 12]
-0.10083426 -0.1967388 0.06967624 0.019553166 0.016427847 0.021247284 0.012252279 0.032538228
-0.056096517 9.343402e-05 0.08423886 -0.030075846 0.032664064 -0.033988547 -0.029954478 -0.041714676
-0.041908972 -0.056261826 -0.040739797 -0.03940759 0.03376901 -0.041160636 -0.06499486 -0.071021535
-0.124940306 -0.05448877 -0.19828044 -0.017354703 -0.042164627 0.020208817 -0.009434253 -0.021504171
-0.024882197 0.047382817 -0.024038136 0.07101221 -0.12565768 -0.17414075 0.12334129 -0.018639544
-0.0024044365 0.011201778 -0.03337338 -0.027009249 -0.012789398 -0.032644883 0.0053477804 0.04121801
-0.15378138 -0.1267487 0.03943748 0.075863555 -0.014426479 -0.0073650405 -0.024216548 0.0411677
0.022459261 -0.02534921 -0.013116714 0.018025665 -0.1474818 -0.20988844 0.04149464 -0.03726306
0.0744341 -0.02486582 -0.062295116 0.05525145 0.014909171 -0.051612116 0.074843235 -0.014702354
0.29921496 -0.09265688 -0.12563004 -0.027083822 0.07239915 0.01919196 -0.03540708 0.044763677
0.009139873 0.01923663 -0.02462334 -0.042106062 -0.5517073 -0.020384219 -0.15659297 0.023988757
0.03652091 0.014904558 0.048393153 -0.008926041 -0.059175283 -0.01989776 -0.07019811 -0.05707199
0.32379526 -0.085967876 0.28729898 0.08431429 0.083407365 0.068104684 0.014663622 0.011884071
0.0059104934 0.016731365 -0.01851555 -0.008568215 0.32538038 0.08358109 0.49028876 0.16505033
0.13661063 0.09282155 0.038378805 -0.045764215 0.05368369 0.06787293 0.16566193 0.14916879
-0.65335613 -0.08258124 -0.0024467085 0.07644105 -0.012482157 -0.031306148 0.025102071 -0.018385112
-0.061222948 -0.057657342 0.035481144 0.025557559 -0.16887258 -0.16427712 0.03598006 -0.016706705
0.060204256 0.0020326904 0.055700324 -0.03640935 0.021889515 0.034265064 -0.021431169 -0.030719118
-0.7092226 -0.054530334 -0.040346377 0.14565805 0.023198523 0.012220992 0.057425097 0.04470837
0.040944986 0.045029856 0.021681538 -0.07137632 -0.17024823 -0.15779167 0.084299795 0.00011810825
-0.02170214 0.04998446 0.038444437 -0.010414556 0.01464799 0.030911492 -0.008684586 0.035300516
-0.24304435 0.05742813 -0.01375296 0.06037566 -0.015220405 0.005094296 -0.005620867 -0.04508335
-0.031550616 0.05081043 -0.037309177 0.06839909 -0.069681264 -0.1831936 0.03211841 0.036011267
-0.018589536 0.029696118 0.05894556 0.030937113 -0.0031138137 0.024857815 0.02407651 0.076211594
-0.28346854 -0.1168779 -0.20862956 -0.00060974155 0.041117266 -0.014763979 0.014273606 -0.0153209865
-0.0009807423 0.08092974 -0.006663929 0.040233783 -0.057348736 -0.08249902 -0.22099946 0.02752152
0.045543108 0.046044722 -0.0055278763 -0.0044085383 0.042460114 0.10869763 0.017163841 -0.025073176
-0.05230775 -0.05064924 0.3197616 0.10173048 0.056657284 0.07751739 0.027013943 0.04693246
-0.004188828 0.07005795 0.1351512 0.038901515 -0.11583737 -0.20870972 0.015014821 0.078852564
-0.015899332 -0.0039041617 -0.04582616 0.03410785 0.011938423 0.04188469 0.033000175 0.0830475
-0.24961095 -0.22274463 0.077437736 -0.0017311753 0.041374505 -0.012567768 -0.036223464 0.008313671
0.007441871 -0.07188774 -0.060527977 -0.0046830685 -0.44621906 0.07655947 0.3020409 -0.03163826
00000000: 3182 cebd e575 49be 6bb2 8e3d f62d a03c
00000010: b193 863c c90e ae3c c8bd 483c ce46 053d
00000020: 76c5 65bd 02f2 c338 6c85 ac3d 9f61 f6bc
00000030: c1ca 053d 9337 0bbd 1863 f5bc 02dd 2abd
00000040: bea8 2bbd cd72 66bd c6de 26bd da69 21bd
00000050: 6051 0a3d 0e98 28bd 061c 85bd bd73 91bd
00000060: b4e0 ffbd 9e2f 5fbd 070a 4bbe 732b 8ebc
00000070: d1b4 2cbd f68c a53c 2092 1abc 8429 b0bc
00000080: c0d5 cbbc 7c14 423d a0eb c4bc d96e 913d
00000090: 68ac 00be f451 32be 5c9a fc3d f5b1 98bc
000000a0: c093 1dbb aa87 373c 86b2 08bd 8042 ddbc
000000b0: a08a 51bc a4b6 05bd 6f3c af3b 37d4 283d
000000c0: de78 1dbe 69ca 01be 3289 213d 5a5e 9b3d
000000d0: 0a5d 6cbc 7056 f1bb c861 c6bc 769f 283d
000000e0: 7cfc b73c 25a9 cfbc 7ce7 56bc 8faa 933c
000000f0: 7805 17be ffec 56be 49f6 293d 27a1 18bd
00000100: e870 983d 67b3 cbbc 2a29 7fbd 584f 623d
00000110: 9845 743c 3a67 53bd 6947 993d 24e2 70bc
00000120: b432 993e e4c2 bdbd 29a5 00be e4de ddbc
00000130: 0146 943d 7538 9d3c 0407 11bd 1e5a 373d
00000140: 68bf 153c 2396 9d3c e3b6 c9bc 6877 2cbd
00000150: b13c 0dbf cefc a6bc e859 20be 1284 c43c
00000160: f396 153d 3f32 743c e637 463d 883e 12bc
00000170: c861 72bd a100 a3bc 07c4 8fbd 52c4 69bd
00000180: 7ec8 a53e ed0f b0bd da18 933e f8ac ac3d
00000190: 7bd1 aa3d 787a 8b3d b03f 703c 68b5 423c
000001a0: d0ac c13b 3710 893c ecad 97bc b361 0cbc
000001b0: 4298 a63e 902c ab3d 2107 fb3e f402 293e
000001c0: a8e3 0b3e 3a19 be3d 1833 1d3d 4273 3bbd
000001d0: 6ee3 5b3d f600 8b3d 48a3 293e b4bf 183e
000001e0: 5942 27bf 5a20 a9bd f558 20bb 208d 9c3d
000001f0: f681 4cbc e03a 00bd dca2 cd3c 609c 96bc
00000200: eac4 7abd 1b2a 6cbd ad54 113d 165e d13c
00000210: efec 2cbe 4338 28be d45f 133d 80dc 88bc
00000220: bd98 763d e336 053b 0626 643d f821 15bd
00000230: a451 b33c 8659 0c3d 6b90 afbc a9a6 fbbc
00000240: 9d8f 35bf 335b 5fbd 3e42 25bd 6227 153e
00000250: d40a be3c 8e3a 483c 9436 6b3d 2020 373d
00000260: eeb5 273d 3a71 383d 7b9d b13c c02d 92bd
00000270: 8d55 2ebe 2494 21be 5fa5 ac3d e2b0 f738
00000280: b0c8 b1bc 81bc 4c3d ea77 1d3d d0a1 2abc
00000290: 20fe 6f3c 193a fd3c cb49 0ebc 4697 103d
000002a0: 9ee0 78be c239 6b3d 1854 61bc 784c 773d
000002b0: 015f 79bc 0dee a63b 402f b8bb 52a9 38bd
000002c0: 383b 01bd 991e 503d 82d1 18bd d214 8c3d
000002d0: 0db5 8ebd 1a97 3bbe 988e 033d 8d80 133d
000002e0: 1549 98bc 4645 f33c e670 713d d46f fd3c
000002f0: 2011 4cbb 9ea2 cb3c 1a3c c53c d314 9c3d
00000300: ca22 91be ae5d efbd fda2 55be 10d7 1fba
00000310: 946a 283d 9ee4 71bc d8db 693c e004 7bbc
00000320: 408c 80ba 7ebe a53d 175d dabb 2ecc 243d
00000330: 82e6 6abd 3ff5 a8bd af4d 62be d074 e13c
00000340: 698b 3a3d 6499 3c3d 3023 b5bb 8075 90bb
00000350: a8ea 2d3d dd9c de3d 2f9b 8c3c 4366 cdbc
00000360: a740 56bd 9475 4fbd cbb7 a33e 1258 d03d
00000370: 7811 683d 70c1 9e3d 584c dd3c 403c 403d
00000380: 7042 89bb 8b7a 8f3d 1465 0a3e 3257 1f3d
00000390: 253c edbd 00b8 55be b900 763c 747d a13d
000003a0: 513f 82bc f7dc 7fbb 36b4 3bbd acb4 0b3d
000003b0: 6099 433c 488f 2b3d 312b 073d cf14 aa3d
000003c0: 039a 7fbe 2b17 64be ad97 9e3d 9be8 e2ba
000003d0: 5078 293d 0ae9 4dbc 0e5f 14bd 1036 083c
000003e0: f0da f33b e139 93bd 2fec 77bd 6d74 99bb
000003f0: d376 e4be 36cb 9c3d 1ba5 9a3e 1f97 01bd

base.seq_fcs.0.bias f4 [256]
0.12949587 0.0905778 0.11382516 0.13483985 0.13280907 0.12973577 0.1124918 0.0805715
0.12790743 0.24455644 0.09186836 0.111182526 0.07483185 0.12142878 0.109268464 0.12843326
0.098278776 0.0906561 0.18110311 0.124960504 0.09878478 0.16808602 0.1869572 0.13871697
0.14644235 0.23023963 0.11203353 0.123858705 0.21560402 0.07493255 0.13558994 0.14363603
0.16106038 0.11106694 0.13516368 0.11698237 0.12011402 0.13343328 0.117109776 0.13215561
0.23546551 0.14646518 0.11330032 0.11222974 0.17863005 0.109644 0.23466974 0.07335368
0.13442312 0.248387 0.13551143 0.14326344 0.14714892 0.18001394 0.11517582 0.13170071
0.14370169 0.1170853 0.09556841 0.10778883 0.18909955 0.22530913 0.08318851 0.117312685
0.19384392 0.09683745 0.11441464 0.14117363 0.093333416 0.09923349 0.119175956 0.13117167
0.09543862 0.10369052 0.10555269 0.13086537 0.12436838 0.121017136 0.121463515 0.13148278
0.12333042 0.2369889 0.13499343 0.098706186 0.16917737 0.09344923 0.14387183 0.13687511
0.23926073 0.09130077 0.098198354 0.112024754 0.13828246 0.13660973 0.14841737 0.13291913
0.13998657 0.22958249 0.10121594 0.115187235 0.122543015 0.1359288 0.11116036 0.119779155
0.18579265 0.0993863 0.10504942 0.11257545 0.08519774 0.13589287 0.20611663 0.16497523
0.09484286 0.11170072 0.1126234 0.122904986 0.14227434 0.2216927 0.16708371 0.13288912
0.12325513 0.08774919 0.0772413 0.11678272 0.15359882 0.120778434 0.13113008 0.095797725
0.2137803 0.122934856 0.080192275 0.21413255 0.12502557 0.12865427 0.12938796 0.111427754
0.09448893 0.1259732 0.25814915 0.20510222 0.12105177 0.09490283 0.11782986 0.10353411
0.0865135 0.11716546 0.17828524 0.13833864 0.25879937 0.11874918 0.1024769 0.1095038
0.19574241 0.25647795 0.08872115 0.11548726 0.1134252 0.19591932 0.1006663 0.105061516
0.19062395 0.19004668 0.13214366 0.1608935 0.11637514 0.12611817 0.13895059 0.19544423
0.1337011 0.2120326 0.098342665 0.1614938 0.265057 0.11276423 0.1027265 0.10042299
0.10454207 0.109873064 0.11683877 0.16784051 0.1283816 0.120945975 0.15991533 0.105181314
0.1203926 0.1191864 0.0703103 0.10203581 0.13847895 0.12446833 0.11848446 0.12379224
0.09861007 0.1367296 0.12870236 0.18168297 0.14063056 0.13903517 0.2550578 0.14094093
0.21952745 0.11218577 0.20290986 0.14572866 0.12659302 0.10521598 0.12434043 0.06562478
0.11175942 0.12329184 0.10744451 0.10970241 0.108985566 0.13856798 0.075753324 0.12942952
0.1238562 0.19381854 0.111774564 0.18918891 0.1328598 0.15765011 0.25144652 0.12967035
0.1213727 0.08724615 0.10866551 0.13455509 0.22270222 0.123357676 0.08833548 0.19055593
0.13632196 0.09553967 0.09257513 0.1449178 0.04499741 0.08190533 0.1181196 0.09363943
0.21318083 0.1058145 0.16216241 0.12278752 0.15045942 0.14715615 0.12842384 0.117658824
0.1869643 0.07394701 0.1157621 0.22587055 0.10187205 0.1926916 0.2751967 0.14289132
00000000: 919a 043e db80 b93d 2a1d e93d 7513 0a3e
00000010: 1aff 073e 74d9 043e 1a62 e63d ac02 a53d
00000020: 2afa 023e 016d 7a3e 7b25 bc3d aab3 e33d
00000030: 7141 993d a7af f83d 25c8 df3d 0284 033e
00000040: 6246 c93d e8a9 b93d 1873 393e 4beb ff3d
00000050: ad4f ca3d be1e 2c3e b571 3f3e d20b 0e3e
00000060: fcf4 153e f0c3 6b3e d671 e53d a2a9 fd3d
00000070: 4dc7 5c3e 3d76 993d 17d8 0a3e 5315 133e
00000080: 03ed 243e 1077 e33d 5968 0a3e 7494 ef3d
00000090: 57fe f53d bca2 083e 40d7 ef3d cd53 073e
000000a0: df1d 713e f8fa 153e 000a e83d b5d8 e53d
000000b0: ccea 363e 098d e03d 444d 703e 743a 963d
000000c0: 37a6 093e 2959 7e3e 82c3 0a3e a7b3 123e
000000d0: 35ae 163e 9355 383e 4de1 eb3d 8ddc 063e
000000e0: 8926 133e 6bca ef3d 5fb9 c33d 64c0 dc3d
000000f0: 50a3 413e 70b7 663e bd5e aa3d a241 f03d
00000100: 057f 463e b752 c63d 3952 ea3d d28f 103e
00000110: 9725 bf3d ee3a cb3d 8612 f43d de51 063e
00000120: 5375 c33d b25b d43d 022c d83d 9201 063e
00000130: d9b4 fe3d d5d7 f73d ddc1 f83d 6ca3 063e
00000140: a994 fc3d 38ad 723e b83b 0a3e 7826 ca3d
00000150: d53c 2d3e 4f62 bf3d 2353 133e fd28 0c3e
00000160: c400 753e e6fb ba3d 381c c93d 3c6d e53d
00000170: eb99 0d3e 6ce3 0b3e b9fa 173e f41b 083e
00000180: a458 0f3e ac17 6b3e 4e4a cf3d 49e7 eb3d
00000190: d5f7 fa3d eb30 0b3e 0ba8 e33d c64e f53d
000001a0: 6e40 3e3e 0b8b cb3d 2624 d73d f58d e63d
000001b0: 277c ae3d 8027 0b3e 3d10 533e 44ef 283e
000001c0: f93c c23d 59c3 e43d 19a7 e63d 9cb5 fb3d
000001d0: 5db0 113e 6903 633e fe17 2b3e 1614 083e
000001e0: 306d fc3d d9b5 b33d b030 9e3d c72b ef3d
000001f0: 0249 1d3e af5a f73d f746 063e 9931 c43d
00000200: 39e9 5a3e 45c5 fb3d d93b a43d 9045 5b3e
00000210: b406 003e f2bd 033e 477e 043e 3c34 e43d
00000220: 6a83 c13d 1eff 003e 202c 843e 5106 523e
00000230: fee9 f73d 6a5c c23d c850 f13d b109 d43d
00000240: fd2d b13d 72f4 ef3d 6890 363e a5a8 0d3e
00000250: 5a81 843e c532 f33d 69df d13d 8743 e03d
00000260: b370 483e 1451 833e 6fb3 b53d 9684 ec3d
00000270: 794b e83d 139f 483e 222a ce3d 7e2a d73d
00000280: ed32 433e 999b 423e ab50 073e 44c1 243e
00000290: 1756 ee3d 1f25 013e 1049 0e3e 8822 483e
000002a0: f1e8 083e 131f 593e e167 c93d a15e 253e
000002b0: 8db5 873e eff0 e63d 4562 d23d 92aa cd3d
000002c0: 271a d63d 2105 e13d 2a49 ef3d 62de 2b3e
000002d0: 7776 033e 86b2 f73d d8c0 233e 4d69 d73d
000002e0: 6590 f63d 0018 f43d d9fe 8f3d 27f8 d03d
000002f0: 6dcd 0d3e 40e9 fe3d fba7 f23d c986 fd3d
00000300: 14f4 c93d d802 0c3e 8dca 033e 1a0b 3a3e
00000310: 7501 103e 3c5f 0e3e f096 823e d252 103e
00000320: cecb 603e a7c1 e53d 9ac7 4f3e e539 153e
00000330: 9aa1 013e 7a7b d73d 32a6 fe3d 4966 863d
00000340: 1fe2 e43d 6f80 fc3d de0b dc3d a8ab e03d
00000350: d333 df3d c4e4 0d3e 8f24 9b3d 2c89 043e
00000360: 52a8 fd3d 5e78 463e 10ea e43d bdba 413e
00000370: 660c 083e 086f 213e 99bd 803e 4ec8 043e
00000380: 4092 f83d 1cae b23d 068c de3d cfc8 093e
00000390: 0d0c 643e f3a2 fc3d 3be9 b43d 1821 433e
000003a0: fc97 0b3e 4daa c33d 0898 bd3d 5565 143e
000003b0: 344f 383d fbbd a73d b0e8 f13d 08c6 bf3d
000003c0: 134c 5a3e 46b5 d83d e70d 263e 0678 fb3d
000003d0: 0912 1a3e 1ab0 163e 8a81 033e 1cf7 f03d
000003e0: 9273 3f3e 8871 973d ae14 ed3d 9c4a 673e
000003f0: 4ba2 d03d f250 453e 95e6 8c3e 1a52 123e

base.seq_fcs.2.weight f4 [256, 256]
-0.035646483 -0.012259372 0.008297235 -0.04161212 0.0038067459 -0.023030756 0.034123436 -0.015092669
-0.026853207 -0.031452358 -0.03701411 0.014544215 0.010893848 -0.027829217 -0.06792561 -0.019739944
-0.0072361324 -0.0037885401 -0.015252235 0.014560546 -0.059124444 -0.032648172 -0.034592602 -0.052373305
-0.025410123 0.044353195 -0.0569518 -0.04373647 -0.032036204 -0.026790254 -0.014123104 -0.038602654
0.032196123 0.006923725 0.041904323 -0.03943996 0.04414883 -0.024447178 -0.009816987 0.053844076
0.028951878 0.026548017 -0.019872382 -0.03572825 -0.016510453 0.0032077094 -0.01819817 -0.05585086
-0.02160575 -0.034185078 -0.0055343457 -0.05834559 0.032840688 -0.0049169385 -0.01237986 0.034159698
-0.0078092134 -0.03283 0.038619105 -0.00095482485 -0.0687709 0.038139887 -0.0070692124 -0.0032217011
0.049561568 -0.013223361 -0.059238136 0.025209993 -0.047484525 0.0033527124 -0.025094718 -0.044365477
0.028583208 0.01236744 0.052421004 -0.030954748 -0.044675693 -0.02934588 0.04898713 0.032306224
-0.0599235 -0.022349665 0.04818051 0.052553374 -0.045782533 -0.02538429 0.04042721 -0.049193233
0.0316672 -0.019856473 -0.0050469083 -0.013025098 -0.06334505 -0.024155831 -0.03332067 0.051749106
0.016229197 0.0029707472 -0.05265848 -0.038112134 -0.029173626 -0.028858032 -0.0687843 0.03400292
-0.013193235 -0.029372672 -0.06574664 0.01628427 -0.017540883 -0.005866535 0.020044118 -0.022291359
-0.030022131 -0.021752251 0.017942173 -0.023490356 -0.018858872 0.022278374 -0.03524871 0.037065297
0.017681215 0.019657608 0.043419775 0.00021545765 -0.007960751 -0.04298003 0.03149599 0.0083534885
-0.028420659 -0.07041395 0.0065610013 -0.012639688 -0.07025329 -0.022868665 -0.025179517 -0.030295169
0.048324484 0.0033969106 0.01899255 -0.00446145 -0.061290625 -0.0548269 0.053275246 -0.056063067
0.0017696291 0.049557403 -0.021606477 0.04086129 -0.0513942 0.015373739 -0.029778177 -0.061066594
0.011750143 0.041936316 -0.061644986 0.045539916 -0.016658613 0.03796192 0.02980648 0.029162088
-0.02321334 -0.07030056 -0.011082607 -0.03302755 -0.06355365 -0.06312271 -0.055339936 -0.065485984
-0.02616953 -0.060640357 -0.05500161 0.02434305 0.030147826 0.041241273 -0.05546054 -0.046398096
0.008028254 -0.0106931785 0.042669687 0.023080273 0.016421199 -0.048989296 0.033838756 -0.004602382
0.03031505 0.01140496 -0.0044793254 -0.03865127 -0.014476488 -0.0669809 -0.057304773 -0.06749239
-0.0461091 -0.01714378 0.0011443077 -0.025594274 0.050585072 0.026181972 -0.030371998 0.03650001
0.052681413 -0.054024003 -0.054981224 0.030847406 -0.02651005 -0.01076096 0.045055043 -0.051266424
0.04611553 0.044267848 -0.06534123 0.048109982 -0.032698542 -0.016101351 -0.008994949 0.053014666
-0.018340847 0.03100688 -0.019330217 -0.049552105 0.024091383 0.042123105 0.015550832 -0.05414928
0.02256493 -0.019441865 -0.024916431 0.04639507 0.0057386686 -0.027601171 -0.019439586 0.020838348
-0.0022918123 -0.062305424 -0.056494802 0.01614175 -0.033806756 -0.06646199 -0.04134034 -0.05637022
-0.068623915 -0.06968379 -0.048573025 0.016350985 0.05414665 0.016984237 0.009745083 0.033669394
-0.055284046 -0.041750886 0.006934802 -0.043970466 -0.07033269 -0.016384654 -0.0019038332 -0.024496514
00000000: 0c02 12bd 88db 48bc 20f1 073c 7871 2abd
00000010: 997a 793b ffaa bcbc 04c5 0b3d 3e47 77bc
00000020: 42fb dbbc 30d4 00bd 1b9c 17bd dc4a 6e3c
00000030: 1c7c 323c 19fa e3bc 951c 8bbd aab5 a1bc
00000040: 141d edbb 2849 78bb 83e4 79bc 5b8f 6e3c
00000050: 792c 72bd 17ba 05bd f9b0 0dbd 6485 56bd
00000060: e428 d0bc b2ab 353d 4a46 69bd 0325 33bd
00000070: 6538 03bd 3c77 dbbc 9764 67bc d11d 1ebd
00000080: 15e0 033d 6ae0 e23b dea3 2b3d cc8b 21bd
00000090: 67d5 343d 7345 c8bc 6ed7 20bc 9b8b 5c3d
000000a0: 7d2c ed3c 3a7b d93c 68cb a2bc c957 12bd
000000b0: ee40 87bc 6f38 523b 5414 95bc dfc3 64bd
000000c0: 8bfe b0bc a705 0cbd 7559 b5bb c9fb 6ebd
000000d0: f583 063d 451e a1bb e5d4 4abc 0aeb 0b3d
000000e0: 6ee4 ffbb c078 06bd 112f 1e3d 364d 7aba
000000f0: c2d7 8cbd 9238 1c3d daa4 e7bb 2d23 53bb
00000100: 1201 4b3d cca6 58bc b0a3 72bd 3085 ce3c
00000110: 227f 42bd 2eb9 5b3b 7093 cdbc 93b8 35bd
00000120: 5527 ea3c cea0 4a3c 68b7 563d d094 fdbc
00000130: dcfd 36bd c566 f0bc bba6 483d 8853 043d
00000140: 5872 75bd a516 b7bc ed58 453d 3542 573d
00000150: 7786 3bbd b7f2 cfbc 0197 253d d87e 49bd
00000160: 77b5 013d 0baa a2bc 8960 a5bb 3867 55bc
00000170: 0dbb 81bd 73e2 c5bc 417b 08bd dff6 533d
00000180: 18f3 843c deb0 423b 6bb0 57bd 781b 1cbd
00000190: 87fd eebc ae67 ecbc c8de 8cbd a546 0b3d
000001a0: 7028 58bc f59e f0bc 2da6 86bd 9766 853c
000001b0: e6b1 8fbc 103c c0bb 9033 a43c 5e9c b6bc
000001c0: f9f0 f5bc c731 b2bc 77fb 923c d96e c0bc
000001d0: ec7d 9abc 2381 b63c f460 10bd c8d1 173d
000001e0: 32d8 903c fe08 a13c efd8 313d 79ec 6139
000001f0: cf6d 02bc d40b 30bd f001 013d 12dd 083c
00000200: 71d2 e8bc 3035 90bd abfd d63b b216 4fbc
00000210: f5e0 8fbd 1157 bbbc 4645 cebc 932d f8bc
00000220: e5ef 453d b49e 5e3b 4496 9b3c 5b31 92bb
00000230: e10b 7bbd 2c92 60bd 2537 5a3d 63a2 65bd
00000240: e6f2 e73a b4fc 4a3d 1100 b1bc 2b5e 273d
00000250: ba82 52bd 23e2 7b3c 5df1 f3bc f720 7abd
00000260: ac83 403c 6ac5 2b3d 747f 7cbd 1088 3a3d
00000270: a577 88bc f57d 1b3d b82c f43c 55e5 ee3c
00000280: e729 bebc bdf9 8fbd d393 35bc e547 07bd
00000290: 6b28 82bd 7b46 81bd 21ac 62bd 841d 86bd
000002a0: 7b61 d6bc 0662 78bd 5e49 61bd 136b c73c
000002b0: 93f8 f63c 9cec 283d 972a 63bd ee0b 3ebd
000002c0: f088 033c 7132 2fbc 69c6 2e3d d712 bd3c
000002d0: c085 863c 00a9 48bd 829a 0a3d 94cf 96bb
000002e0: 4557 f83c dfdb 3a3c 4ec7 92bb cb50 1ebd
000002f0: cb2e 6dbc 482d 89bd 69b8 6abd 7339 8abd
00000300: e5dc 3cbd 1d71 8cbc 98fc 953a 15ab d1bc
00000310: 4b32 4f3d 937b d63c b2ce f8bc 0981 153d
00000320: 77c8 573d 4648 5dbd fe33 61bd b3b3 fc3c
00000330: 9b2b d9bc bd4e 30bc a38b 383d befc 51bd
00000340: a3e3 3c3d 3452 353d 9fd1 85bd f90e 453d
00000350: e8ee 05bd fbe6 83bc 8d5f 13bc e825 593d
00000360: 8b3f 96bc 2402 fe3c 675a 9ebc 26f7 4abd
00000370: 4b5b c53c 4789 2c3d ebc8 7e3c a3cb 5dbd
00000380: 17da b83c 8c44 9fbc 8b1d ccbc c208 3e3d
00000390: 710b bc3b da1b e2bc c43f 9fbc 2fb5 aa3c
000003a0: 3b32 16bb f933 7fbd 1867 67bd b43b 843c
000003b0: f478 0abd 391d 88bd 7d54 29bd 76e4 66bd
000003c0: b28a 8cbd 60b6 8ebd 82f4 46bd 80f2 853c
000003d0: e1c8 5d3d 8722 8b3c d7a9 1f3c ebe8 093d
000003e0: 8671 62bd fa02 2bbd 563d e33b 601a 34bd
000003f0: 960a 90bd 1c39 86bc 0b8a f9ba eaac c8bc

base.seq_fcs.2.bias f4 [256]
0.08543769 0.08700015 0.09103929 0.083398074 0.09239627 0.09352288 0.08214766 0.087433495
0.08960961 0.087790735 0.085327044 0.08690039 0.07750309 0.3829266 0.08449073 0.08948768
0.08780489 0.08570405 0.085327275 0.087885335 0.08960911 0.0872964 0.088008255 0.09340496
0.07774599 0.08410739 0.08245403 0.09171914 0.083422385 0.086647406 0.091473654 0.08702192
0.08646267 0.08474044 0.08731651 0.08171531 0.090495944 0.07957852 0.091145135 0.08996345
0.08723293 0.08865958 0.080095544 0.08501498 0.19034146 0.09005525 0.08621527 0.08972222
0.1 0.09310204 0.087396964 0.08639626 0.08972551 0.08816422 0.08246855 0.08438357
0.08876144 0.08808088 0.080656 0.08032826 0.080048874 0.09408448 0.08555277 0.093931645
0.08573661 0.0846815 0.0849332 0.09304033 0.09137301 0.08865272 0.085467115 0.08290093
0.08016148 0.08083661 0.081230044 0.084316105 0.08858708 0.0876173 0.08272544 0.09030547
0.08720983 0.08667771 0.087726355 0.0846504 0.08312203 0.08442073 0.090238206 0.08374181
0.090367325 0.09106238 0.08887549 0.08785365 0.078205965 0.08576349 0.08721164 0.08854653
0.096693076 0.082795635 0.09388587 0.08741884 0.07858368 0.083087996 0.081080966 0.08502194
0.08466363 0.09088699 0.081485465 0.0820816 0.096367866 0.08692689 0.086479865 0.080972455
0.08364051 0.08696332 0.08757061 0.3821222 0.09013406 0.08680347 0.10252954 0.10113931
0.083387524 0.094015874 0.08472761 0.09542128 0.09141904 0.09319202 0.08942895 0.08699549
0.09140563 0.09525691 0.09111001 0.09553275 0.081885055 0.084347636 0.09046931 0.09060239
0.08740097 0.08568503 0.08732352 0.08032816 0.08129344 0.080813445 0.08252092 0.08705815
0.09550741 0.080662355 0.08708106 0.085779145 0.07774188 0.087789476 0.08133851 0.07693906
0.08934812 0.085283466 0.07927501 0.08667239 0.07631035 0.08722236 0.0886859 0.08884356
0.17990975 0.08748906 0.08470373 0.09030006 0.08610776 0.087034315 0.09635815 0.08179652
0.090928994 0.084871575 0.09630805 0.08668932 0.078221895 0.086734675 0.08637641 0.06922961
0.089496315 0.08832567 0.07945978 0.08721585 0.08694212 0.0857562 0.08145882 0.079658344
0.08807765 0.09236208 0.07735162 0.08314208 0.082359575 0.09750418 0.08839375 0.088749595
0.092609555 0.38480854 0.08664908 0.08589625 0.092077695 0.08619148 0.08247111 0.09068788
0.08447335 0.08547576 0.08397348 0.09016391 0.08716849 0.077157065 0.08869056 0.08190068
0.09270586 0.08712887 0.08584786 0.08416508 0.08387943 0.084825546 0.083163835 0.08403869
0.092291646 0.087099425 0.1 0.08618094 0.09167951 0.08909833 0.08622704 0.08045928
0.083814085 0.08887797 0.08440602 0.08545581 0.081924394 0.08887525 0.21028425 0.08240855
0.08672348 0.07878434 0.091592126 0.08809322 0.08525464 0.077395104 0.0851842 0.08055317
0.08058262 0.09097747 0.08936576 0.08251305 0.090107255 0.08266326 0.087832 0.093890935
0.08387701 0.08613794 0.086230785 0.08278724 0.08198203 0.08380388 0.08764333 0.087909855
00000000: f5f9 ae3d 222d b23d cf72 ba3d 9ccc aa3d
00000010: 413a bd3d ec88 bf3d 083d a83d 5510 b33d
00000020: 3e85 b73d a1cb b33d f2bf ae3d d5f8 b13d
00000030: f1b9 9e3d f50e c43e 7a09 ad3d 5145 b73d
00000040: 0dd3 b33d 9b85 af3d 11c0 ae3d 3afd b33d
00000050: fb84 b73d 74c8 b23d ac3d b43d 1a4b bf3d
00000060: 4a39 9f3d 7f40 ac3d a9dd a83d 3fd7 bb3d
00000070: 5bd9 aa3d 3274 b13d 8a56 bb3d 8c38 b23d
00000080: 5713 b13d 658c ad3d 00d3 b23d 5b5a a73d
00000090: f055 b93d 10fa a23d 4daa ba3d c23e b83d
000000a0: 2ea7 b23d 2793 b53d 2209 a43d 551c ae3d
000000b0: dfe8 423e e36e b83d a291 b03d 49c0 b73d
000000c0: cdcc cc3d 48ac be3d 2efd b23d 86f0 b03d
000000d0: 02c2 b73d 718f b43d 45e5 a83d 4bd1 ac3d
000000e0: 8fc8 b53d c063 b43d f92e a53d 2583 a43d
000000f0: aaf0 a33d 5daf c03d 4a36 af3d 3c5f c03d
00000100: ad96 af3d 7f6d ad3d 75f1 ad3d ee8b be3d
00000110: c621 bb3d 8f8f b53d 6209 af3d f6c7 a93d
00000120: b42b a43d aa8d a53d f05b a63d ecad ac3d
00000130: 256d b53d b370 b33d f56b a93d 13f2 b83d
00000140: 119b b23d 1584 b13d e0a9 b33d 305d ad3d
00000150: e23b aa3d c7e4 ac3d cfce b83d d380 ab3d
00000160: 8112 b93d ea7e ba3d 5a04 b63d 9dec b33d
00000170: 732a a03d c5a4 af3d 049c b23d e257 b53d
00000180: 0507 c63d c290 a93d 3c47 c03d a608 b33d
00000190: 7bf0 a03d 0a2a aa3d c70d a63d fc1f ae3d
000001a0: 2064 ad3d f522 ba3d dae1 a63d 661a a83d
000001b0: 845c c53d ba06 b23d 5b1c b13d e3d4 a53d
000001c0: b74b ab3d d319 b23d 3858 b33d 85a5 c33e
000001d0: 3598 b83d 05c6 b13d 02fb d13d 2022 cf3d
000001e0: 14c7 aa3d 658b c03d ab85 ad3d 3b6c c33d
000001f0: e839 bb3d 75db be3d 8626 b73d b12a b23d
00000200: e032 bb3d 0e16 c33d e397 ba3d ada6 c33d
00000210: 5ab3 a73d 74be ac3d f947 b93d bf8d b93d
00000220: 48ff b23d a27b af3d acd6 b23d 1783 a43d
00000230: 2d7d a63d 8581 a53d ba00 a93d 8b4b b23d
00000240: 6499 c33d 4e32 a53d 8e57 b23d faac af3d
00000250: 2337 9f3d f8ca b33d ce94 a63d 3a92 9d3d
00000260: 26fc b63d 19a9 ae3d f05a a23d 4b81 b13d
00000270: 9a48 9c3d a3a1 b23d f4a0 b53d 9df3 b53d
00000280: 433a 383e 772d b33d 2679 ad3d 3def b83d
00000290: 4459 b03d 0c3f b23d 6c57 c53d ef84 a73d
000002a0: fb38 ba3d 26d1 ad3d 283d c53d 2c8a b13d
000002b0: cd32 a03d f3a1 b13d 1ee6 b03d 41c8 8d3d
000002c0: d849 b73d 17e4 b43d cfbb a23d 399e b23d
000002d0: b60e b23d f2a0 af3d e2d3 a63d ea23 a33d
000002e0: 0e62 b43d 5528 bd3d 876a 9e3d 6546 aa3d
000002f0: 23ac a83d 46b0 c73d c807 b53d 59c2 b53d
00000300: 14aa bd3d a005 c53e 1375 b13d 60ea af3d
00000310: 3b93 bc3d 2985 b03d 9de6 a83d 91ba b93d
00000320: 5d00 ad3d ea0d af3d 4afa ab3d dba7 b83d
00000330: 6585 b23d 8604 9e3d 65a3 b53d 8bbb a73d
00000340: 92dc bd3d 9f70 b23d 01d1 af3d be5e ac3d
00000350: fbc8 ab3d 04b9 ad3d cd51 aa3d 7a1c ac3d
00000360: 6703 bd3d 2f61 b23d cdcc cc3d a27f b03d
00000370: 78c2 bb3d 2f79 b63d cd97 b03d d6c7 a43d
00000380: b8a6 ab3d a705 b63d 10dd ac3d 7503 af3d
00000390: fac7 a73d 3a04 b63d c154 573e d0c5 a83d
000003a0: 149c b13d af59 a13d a794 bb3d 386a b43d
000003b0: fc99 ae3d 5381 9e3d 0e75 ae3d 0ff9 a43d
000003c0: 8008 a53d 6552 ba3d 6505 b73d 9afc a83d
000003d0: 278a b83d 5b4b a93d 43e1 b33d e449 c03d
000003e0: b6c7 ab3d 1769 b03d c499 b03d 5b8c a93d
000003f0: 32e6 a73d 5ea1 ab3d 597e b33d 150a b43d

last.weight f4 [1, 256]
0.0075957575 0.15762214 0.14876314 0.11835344 0.16322893 0.14803094 0.14041355 0.00087252754
0.1410536 0.13953827 0.13122517 0.15420486 0.1359841 -0.35925484 0.14206441 0.14446616
-0.0010434067 0.13123381 0.13613828 -0.006125102 0.13166694 0.15088478 0.14251754 0.13827619
0.13275184 0.14753985 0.12912194 0.15099266 0.1585241 0.13769294 -0.0023575977 0.13916819
0.15113868 0.1171804 0.00045721876 0.12793355 0.13493757 0.11333755 0.12554874 0.15155692
0.14884646 -3.9233204e-05 0.1414724 0.13930221 -0.8932871 0.14217062 0.11266483 0.16664094
-7.262206e-05 0.12316481 0.14977978 0.15586722 0.14223646 0.00065450626 0.12624913 0.14022401
0.15012254 0.16458258 0.14419173 0.13161112 0.1423522 -0.0033600798 0.12559742 0.156763
0.14841126 0.1341312 0.14339912 0.15560322 0.18421434 0.15174708 0.15900649 0.12344717
0.13981448 0.12913153 0.1261867 0.14574978 0.15041801 0.14276187 0.11418273 0.091930605
0.1371074 0.12705374 0.10919916 0.13345262 0.14504917 0.15109967 0.14952469 0.14208202
0.15799117 0.14305216 0.14598791 0.1401868 0.13271746 0.13226861 0.14259095 0.13140754
0.0014668049 0.11824743 0.16722162 0.15075167 0.13728036 0.14075106 0.1375334 0.14599375
0.13694775 0.112836756 0.13566998 0.12735797 0.02009844 -0.0010950553 0.1426995 0.11121688
0.13654962 0.14156026 0.15680504 -0.36406302 0.12582013 0.14188753 0.14069806 0.13331889
0.13921091 0.14972898 0.11468725 0.13372053 -0.0019978727 0.13895743 0.17302416 0.0024274443
0.1512045 0.12187934 0.13702491 0.16032656 0.15661219 0.13451795 0.16459371 0.15105051
0.13595925 0.13727891 0.12956844 0.13980928 0.11298395 0.14020364 0.15023758 0.15837188
0.01023614 0.13829847 0.12118667 0.12732762 0.1452404 0.134848 0.14466576 0.125922
0.16976064 0.124085486 0.14347845 -0.003469862 0.12804955 0.1603276 0.1392599 0.15310672
-0.84030014 0.14245278 0.14494498 0.12905723 0.1602037 0.12737107 0.0019279534 0.13268021
0.14036623 0.13842274 -0.0026383093 0.13796793 0.13282295 0.15118526 0.107856594 1.1526185
0.1624474 0.12355887 0.14320438 0.0025232015 0.14100829 0.1553167 0.13178761 0.10256438
-0.00078694563 0.15428399 0.13554859 -0.002192666 0.14885278 0.00077409565 0.00038405444 -0.0013626684
0.13856156 -0.3565482 0.12891656 0.14405183 0.1347019 0.16215058 0.12752818 -0.005033156
0.12480498 0.144836 0.14902788 0.14773679 0.12649797 0.13078326 0.13650651 0.13749592
0.15142944 0.00044715442 0.16427031 0.12491312 0.14605151 0.12563151 0.1410944 0.13418671
0.13541646 0.14918874 -0.002022818 0.13569266 0.16816574 0.13781139 0.15286663 0.15770912
0.14098367 0.13478138 0.12441887 0.15163755 0.14247404 0.1675211 -1.3043333 0.1303518
0.14059907 0.10050132 0.13569583 -0.005029846 0.12655884 0.12894344 0.1427357 0.14098667
0.13606258 0.14855278 0.14934586 0.13228104 0.14580801 0.12841462 -0.00056870334 0.14005016
0.0069031413 0.14814354 0.16448759 0.13488184 0.1459512 0.15413372 0.00096238236 0.1327678
00000000: d5e5 f83b b367 213e 5d55 183e 4a63 f23d
00000010: 7c25 273e 6c95 173e 92c8 0f3e 55ba 643a
00000020: 5b70 103e 1fe3 0e3e e45f 063e e1e7 1d3e
00000030: 6a3f 0b3e 40f0 b7be 5579 113e f0ee 133e
00000040: ebc2 88ba 2862 063e d567 0b3e 14b5 c8bb
00000050: b3d3 063e 8a81 1a3e 1ef0 113e 4698 0d3e
00000060: 19f0 073e b014 173e 8b38 043e d29d 1a3e
00000070: 2454 223e 61ff 0c3e ed81 1abb 1b82 0e3e
00000080: 19c4 1a3e 47fc ef3d ddb6 ef39 0301 033e
00000090: 132d 0a3e 841d e83d d98f 003e bd31 1b3e
000000a0: 356b 183e 558e 24b8 24de 103e 3da5 0e3e
000000b0: 77ae 64bf 2d95 113e d2bc e63d eca3 2a3e
000000c0: ac4c 98b8 d53d fc3d df5f 193e a89b 1f3e
000000d0: 6fa6 113e 2c93 2b3a 7447 013e e296 0f3e
000000e0: b9b9 193e 5688 283e ffa6 133e 11c5 063e
000000f0: c6c4 113e c934 5cbb 9c9c 003e 7b86 203e
00000100: 1ff9 173e b059 093e 38d7 123e 7356 1f3e
00000110: afa2 3c3e 9663 1b3e 99d2 223e dfd1 fc3d
00000120: 872b 0f3e 0e3b 043e 1637 013e 6e3f 153e
00000130: 2e07 1a3e 2b30 123e a3d8 e93d 1d46 bc3d
00000140: e265 0c3e 601a 023e cfa3 df3d cea7 083e
00000150: c587 143e dfb9 1a3e 001d 193e f37d 113e
00000160: 70c8 213e 447c 123e db7d 153e 218d 0f3e
00000170: 16e7 073e 6c71 073e 5d03 123e b38f 063e
00000180: ce41 c03a b52b f23d 253c 2b3e a55e 1a3e
00000190: 3993 0c3e 0c21 103e 8ed5 0c3e 637f 153e
000001a0: 083c 0c3e f516 e73d 12ed 0a3e 216a 023e
000001b0: 7ca5 a43c f587 8fba d11f 123e adc5 e33d
000001c0: aad3 0b3e 2cf5 103e 8091 203e 7866 babe
000001d0: fed6 003e f74a 113e 2713 103e bf84 083e
000001e0: 4e8d 0e3e 8e52 193e 26e1 ea3d 09ee 083e
000001f0: beee 02bb db4a 0e3e 3f2d 313e c215 1f3b
00000200: 5ad5 1a3e e09b f93d 4250 0c3e a52c 243e
00000210: f25e 203e 13bf 093e 418b 283e fcac 1a3e
00000220: e738 0b3e d892 0c3e 97ad 043e 2a2a 0f3e
00000230: 2164 e73d 8b91 0f3e e1d7 193e 3d2c 223e
00000240: 7cb5 273c 1d9e 0d3e b830 f83d 2c62 023e
00000250: e6b9 143e 9815 0a3e 4323 143e b2f1 003e
00000260: bcd5 2d3e 8820 fe3d 04ec 123e a066 63bb
00000270: 6c1f 033e eb2c 243e 269a 0e3e 02c8 1c3e
00000280: e91d 57bf 24df 113e 756c 143e 9427 043e
00000290: 700c 243e 906d 023e 62b3 fc3a 52dd 073e
000002a0: 2abc 0f3e b1be 0d3e 7ce7 2cbb 7747 0d3e
000002b0: bd02 083e 4fd0 1a3e ebe3 dc3d 0189 933f
000002c0: 9c58 263e 6f0c fd3d 2ba4 123e 4c5c 253b
000002d0: 7a64 103e 570b 1f3e 55f3 063e 460d d23d
000002e0: 074b 4eba 9ffc 1d3e 40cd 0a3e d5b2 0fbb
000002f0: dd6c 183e aeec 4a3a ea5a c939 909b b2ba
00000300: 15e3 0d3e 7c8d b6be b402 043e 5382 133e
00000310: 4bef 093e cd0a 263e bf96 023e 2ced a4bb
00000320: c199 ff3d e34f 143e c49a 183e 5048 173e
00000330: af88 013e 0cec 053e 5dc8 0b3e bbcb 0c3e
00000340: 5210 1b3e 0d70 ea39 7a36 283e 73d2 ff3d
00000350: 878e 153e 8ca5 003e 0d7b 103e 3e68 093e
00000360: 9daa 0a3e efc4 183e 4191 04bb 04f3 0a3e
00000370: a433 2c3e 6e1e 0d3e 1289 1c3e 807e 213e
00000380: 065e 103e 2104 0a3e 52cf fe3d e046 1b3e
00000390: b7e4 113e a78a 2b3e 65f4 a6bf f17a 053e
000003a0: 34f9 0f3e a3d3 cd3d d9f3 0a3e 68d1 a4bb
000003b0: a498 013e c009 043e 4f29 123e cf5e 103e
000003c0: fd53 0b3e 381e 183e 1fee 183e ae74 073e
000003d0: b24e 153e 1f7f 033e 0915 15ba 4f69 0f3e
000003e0: bf33 e23b f1b2 173e 6f6f 283e 771e 0a3e
000003f0: 3b74 153e 3bd5 1d3e 6348 7c3a 48f4 073e
