Soft-Module-main/log/model7/model_pf_best.pth (torch, 287205 bytes, 6 tensors)

base.seq_fcs.0.weight f4 [256, 12]
0.54646546 -0.07493911 -0.052856315 -0.09544847 -0.036514364 -0.11259578 -0.02734834 -0.007493779
0.049913794 -0.045485962 -0.08534969 0.0002731406 -0.013407731 0.02507686 -0.0068589877 -0.013273733
-0.0715805 -0.03789456 0.018084407 -0.051303536 -0.049783573 -0.03967064 -0.038872685 -0.08883023
0.43608555 -0.1524615 0.19927168 -0.096686535 -0.057113722 -0.11005382 -0.009711288 -0.0045092553
-0.023819879 -0.03627451 -0.06481648 -0.051415067 -0.0012915623 -0.02476437 -0.021014454 -0.04618929
-0.045902736 0.021704523 0.024065383 0.008674838 -0.015378453 -0.05237619 -0.0017302025 -0.05277916
-0.8598716 0.22290885 0.3237569 0.01522079 -0.026188057 -0.011567663 0.038142033 -0.04495924
-0.044828467 0.05493157 0.07776933 0.0099341385 2.432694 0.064577885 -0.49854618 -0.037402503
0.072149694 0.03894759 0.032104887 -0.049464904 0.050849877 0.0013777246 0.10020958 -0.018037768
0.0432902 -0.059424747 -6.702477e-05 0.025590362 -0.036870796 -0.021194875 0.01064641 0.052482463
-0.055058926 -0.044083294 -0.01832792 -0.031494066 0.53571934 -0.128351 -0.009400677 -0.09802544
-0.06642272 -0.038614716 0.023475006 -0.052508682 -0.05186046 0.025880596 -0.08155256 -0.065567605
-0.9188275 0.13621387 -0.496682 -0.007235547 -0.08370476 -0.11525912 0.0046571866 -0.03970088
-0.04286114 -0.089211635 -0.14466092 -0.1493134 0.4787651 -0.09681097 0.28167835 -0.12034512
-0.057876766 -0.10844539 0.04685451 -0.035486303 -0.04037284 -0.009012869 -0.029951032 -0.12033329
0.4163846 -0.17381388 -0.27591932 0.03944428 -0.014725299 -0.067546405 -0.022128321 0.061151437
-0.026389651 -0.01979059 0.010170763 0.016732974 0.10155757 -0.027817132 -0.07783875 -0.042535778
-0.033708405 -0.068320304 -0.016597524 0.027667 0.009409666 -0.07473176 -0.05854024 0.0037234297
0.6522965 -0.124504976 -0.002713061 -0.081949726 -0.042033464 -0.03809688 -0.035195433 -0.055548847
0.024068356 -0.040246855 -0.04860992 -0.04779225 0.033418342 -0.024113053 -0.08774403 -0.0148883
0.012015913 -0.06738102 0.0015343428 -0.03335519 -0.005803935 -0.030300746 -0.041726653 -0.08499931
-0.008881042 0.01381071 -0.026841957 -0.008460565 -0.0344365 -0.08150451 -0.007487729 0.051626936
0.055023998 -0.029173749 -0.084021166 -0.05363468 -0.08705505 -0.034670167 0.013210928 -0.0899188
-0.092286766 -0.011295914 -0.01980821 -0.06192454 -0.0030234382 -0.044518203 -0.0034041372 -0.055749875
0.0094554685 -0.029622434 0.0053969193 -0.0055279457 -0.032595005 -0.009933197 -0.005388595 0.022374973
0.054083683 -0.07697654 -0.024842886 -0.058223072 0.33600107 -0.13566996 0.40978786 -0.08517592
-0.090954944 -0.053233754 0.02791147 -0.050596386 -0.023399524 -0.026430516 -0.12421735 -0.07483729
0.4395102 -0.17069505 0.18434083 -0.008539734 -0.12048848 -0.034352444 0.023705363 0.017011076
-0.031136096 -0.0046391133 -0.0067861085 -0.06284865 0.017848669 -0.08612915 0.007938736 -0.030274313
0.013025545 -0.0627687 0.04965827 0.00931938 0.05217333 -0.042935465 -0.055626776 -0.0011273221
0.062858894 -0.055041052 -0.024752257 -0.026338698 -0.015644372 -0.02378864 -0.005215116 -0.048572503
-0.009914428 -0.074733116 -0.0759551 0.00057946105 -0.0047972496 0.008493825 -0.08888958 0.024859257
00000000: 29e5 0b3f ad79 99bd dd7f 58bd 7d7a c3bd
00000010: 1690 15bd 9e98 e6bd a009 e0bc 608e f5bb
00000020: 6872 4c3d 7d4f 3abd d1cb aebd 5034 8f39
00000030: 1aac 5bbc fd6d cd3c 5cc1 e0bb 127a 59bc
00000040: cc98 92bd 5337 1bbd c025 943c a823 52bd
00000050: dce9 4bbd ae7d 22bd f738 1fbd a0ec b5bd
00000060: 9b46 df3e de1e 1cbe e00d 4c3e 9703 c6bd
00000070: 14f0 69bd e663 e1bd 181c 1fbc 60c2 93bb
00000080: e821 c3bc 9594 14bd 81be 84bd 9b98 52bd
00000090: a449 a9ba a6de cabc 8126 acbc fb30 3dbd
000000a0: 8204 3cbd afcd b13c c424 c53c e820 0e3c
000000b0: e8f5 7bbc 6a88 56bd f6c7 e2ba f62e 58bd
000000c0: 8c20 5cbf 3842 643e 77c3 a53e 9f60 793c
000000d0: 5688 d6bc 4c86 3dbc d23a 1c3d 2e27 38bd
000000e0: 0e9e 37bd edff 603d 8745 9f3d ccc2 223c
000000f0: 42b1 1b40 6941 843d 7241 ffbe 5e33 19bd
00000100: 38c3 933d 8287 1f3d 6a80 033d b69b 4abd
00000110: f647 503d c494 b43a ae3a cd3d f1c3 93bc
00000120: 1151 313d 5d67 73bd a68f 8cb8 e1a2 d13c
00000130: d505 17bd e0a0 adbc 486e 2e3c daf7 563d
00000140: 7885 61bd af90 34bd 6f24 96bc ecff 00bd
00000150: e724 093f 726e 03be 4c05 1abc 90c1 c8bd
00000160: a308 88bd 772a 1ebd a84e c03c 5813 57bd
00000170: a26b 54bd 8b03 d43c 0705 a7bd 4f48 86bd
00000180: 4738 6bbf a67b 0b3e 1a4d febe 2b18 edbb
00000190: 676d abbd f90c ecbd 509b 983b 649d 22bd
000001a0: 2a8f 2fbd 97b4 b6bd fe21 14be 9de5 18be
000001b0: b320 f53e d444 c6bd 2538 903e 8177 f6bd
000001c0: 3010 6dbd 9e18 debd 84ea 3f3d 165a 11bd
000001d0: fe5d 25bd b6aa 13bc de5b f5bc 4d71 f6bd
000001e0: 5d30 d53e 44fc 31be 4c45 8dbe 5390 213d
000001f0: 6142 71bc c555 8abd 7446 b5bc ee79 7a3d
00000200: 1c2f d8bc e01f a2bc 46a3 263c 9713 893c
00000210: 6afd cf3d c1e0 e3bc ec69 9fbd ff39 2ebd
00000220: d311 0abd 84eb 8bbd 88f7 87bc e8a5 e23c
00000230: 002b 1a3c f70c 99bd e4c7 6fbd c904 743b
00000240: e7fc 263f 77fc febd 9ccd 31bb 42d5 a7bd
00000250: 482b 2cbd 790b 1cbd 1629 10bd 3087 63bd
00000260: 002b c53c e3d9 24bd 321b 47bd cec1 43bd
00000270: ace1 083d bd88 c5bc 24b3 b3bd 0eee 73bc
00000280: 64de 443c 0fff 89bd 001c c93a 749f 08bd
00000290: f02e bebb 4539 f8bc 91e9 2abd 1e14 aebd
000002a0: ca81 11bc 5146 623c aae3 dbbc 2e9e 0abc
000002b0: 4a0d 0dbd d6eb a6bd a05b f5bb c476 533d
000002c0: d860 613d c9fd eebc 4a13 acbd 0ab0 5bbd
000002d0: eb49 b2bd 4e02 0ebd a672 583c 5927 b8bd
000002e0: d800 bdbd 7f12 39bc d444 a2bc 96a4 7dbd
000002f0: e024 46bb b858 36bd f217 5fbb fb59 64bd
00000300: 1ceb 1a3c bfaa f2bc a4d8 b03b c523 b5bb
00000310: 5782 05bd d9be 22bc d092 b0bb b84b b73c
00000320: da86 5d3d e0a5 9dbd 4f83 cbbc 517b 6ebd
00000330: 5508 ac3e 11ed 0abe b7cf d13e b670 aebd
00000340: 9646 babd a30b 5abd 98a6 e43c 283e 4fbd
00000350: 5cb0 bfbc cf84 d8bc aa65 febd 4b44 99bd
00000360: 7b07 e13e afca 2ebe d8c3 3c3e 3eea 0bbc
00000370: aac2 f6bd 26b5 0cbd c031 c23c d05a 8b3c
00000380: 2011 ffbc b403 98bb 015e debb cbb6 80bd
00000390: 5f37 923c 7b64 b0bd 7911 023c d601 f8bc
000003a0: 1869 553c e08c 80bd 7866 4b3d 50b0 183c
000003b0: b4b3 553d 19dd 2fbd e7d8 63bd a7c2 93ba
000003c0: 2abc 803d ba72 61bd 3fc5 cabc 41c4 d7bc
000003d0: a028 80bc 65e0 c2bc 90e3 aabb f6f3 46bd
000003e0: 2070 22bc ad0d 99bd 598e 9bbd f9e6 173a
000003f0: 3f32 9dbb af29 0b3c bd0b b6bd a4a5 cb3c

base.seq_fcs.0.bias f4 [256]
0.040331718 0.067560315 0.030381966 0.06221372 0.12305438 0.13941585 0.07268207 0.063838944
-0.006541846 0.007900515 0.0722892 0.07797359 0.031301342 0.059488293 0.07391754 0.06629926
0.075372696 0.024445359 0.04056867 0.065097734 0.08088371 0.06848416 0.06745221 0.041581463
0.1929268 0.055363245 0.05323558 0.06862083 0.070253976 0.04741005 0.05982519 0.09167387
0.06492223 0.06542252 0.1 0.036557954 0.060231593 0.029360468 0.06216469 0.05211189
0.04640475 0.08657311 0.06590046 0.06926775 0.03378209 0.073312975 0.073384345 0.049827345
-0.019901857 0.16997181 0.027650224 0.078462236 0.06433147 0.06655824 0.07331581 0.057534806
0.08600911 0.09038219 0.08257237 0.048479624 0.05465243 0.08377003 0.05774467 0.05406228
0.08330478 0.08367416 -0.007001923 0.078430116 0.07688423 0.07101133 0.064795375 0.05721148
0.045920793 0.051722996 -0.025466321 0.07306635 0.08563176 0.0670147 0.08463993 0.056909967
0.20390539 0.047229648 0.069631964 0.028909734 0.08163582 0.092934065 0.03193265 0.019422308
0.050796088 0.06666068 0.07319754 -0.02321859 0.055718735 0.07816117 0.09746273 0.05774446
0.07488927 0.0727244 0.22678365 0.05395786 0.06874129 0.05441974 0.060230564 0.071003854
0.056351468 0.03831685 0.08105114 0.075544 0.07987076 0.07977989 0.019192716 0.08460943
0.08457103 0.06968076 0.014631594 0.057693638 0.08406637 0.07621535 0.07891486 -0.026278233
0.05924564 0.06598402 0.011351033 0.04636126 0.05907884 0.062889524 0.07099 0.05009935
0.10155595 0.07058877 0.030231783 0.06558691 0.059233766 0.044085477 0.014196675 0.05471624
0.06774387 0.18420693 0.07930571 0.05526705 0.061738316 0.07641164 0.08049811 0.06131534
0.059903856 0.07584947 0.0618574 0.037782572 0.010376574 0.08674799 0.08033685 0.08924822
0.17832588 0.07993808 0.063611604 0.06176031 0.031060567 0.04915566 0.057799146 0.08905367
0.06492484 0.032044705 0.061948143 0.18606384 0.07028672 0.028841726 0.028145606 0.025240576
0.058479253 0.0637866 0.067229055 0.058621045 -0.028686356 0.07460789 0.083471864 0.061345372
0.038722135 0.06779981 0.06796397 0.075574264 0.08481169 0.029981053 0.060566682 0.07111225
0.06922881 0.060404763 0.02458237 0.060784943 0.01713805 0.082902595 0.07738364 0.08195163
0.047775656 0.06332757 0.060020965 0.009003976 0.08171487 0.07523413 0.07400253 0.078315385
0.07472987 0.06556718 0.054908726 0.052777566 0.06669519 0.07288598 0.08741862 0.19403212
0.08968817 -0.016690083 0.05287168 0.08239435 0.06448516 -0.06746464 0.021820236 0.046839092
0.06108672 0.04366892 0.08920631 0.07279802 0.093828276 0.032772426 0.07189746 0.054719783
0.0692986 0.07632613 0.0648631 0.05047763 0.06632147 0.07393326 0.008127119 0.058567513
0.068639785 0.08058084 0.02341546 0.20556466 0.058123652 0.054276727 0.086721316 0.046672177
0.11417351 0.07878248 0.06951427 0.062404264 0.062184766 0.077863306 0.13011555 0.059675682
0.15773527 0.02853536 0.07864902 0.07469509 0.06460103 0.25204122 0.08076995 0.0802912
00000000: df32 253d 105d 8a3d 9ae3 f83c d0d3 7e3d
00000010: ef03 fc3d 07c3 0e3e 56da 943d febd 823d
00000020: fb5c d6bb 2971 013c 5c0c 943d 9eb0 9f3d
00000030: d635 003d ffa9 733d 1462 973d e8c7 873d
00000040: 005d 9a3d a241 c83c 552b 263d f651 853d
00000050: 5ca6 a53d 6c41 8c3d 6224 8a3d 5351 2a3d
00000060: 9a8e 453e 92c4 623d 8d0d 5a3d 1489 8c3d
00000070: 51e1 8f3d 0a31 423d 420b 753d 83bf bb3d
00000080: f2f5 843d 3efc 853d cdcc cc3d cbbd 153d
00000090: 67b5 763d 5d85 f03c 67a0 7e3d 4773 553d
000000a0: e812 3e3d 3e4d b13d d2f6 863d 40dc 8d3d
000000b0: 175f 0a3d 1d25 963d 884a 963d c217 4c3d
000000c0: 3809 a3bc 170d 2e3e b982 e23c cfb0 a03d
000000d0: 38c0 833d b04f 883d 9926 963d 9ea9 6b3d
000000e0: 8b25 b03d 4c1a b93d b41b a93d 9292 463d
000000f0: 3adb 5f3d 9f8f ab3d ad85 6c3d 6970 5d3d
00000100: b29b aa3d 5c5d ab3d 6370 e5bb f89f a03d
00000110: 7b75 9d3d 636e 913d 70b3 843d 9656 6a3d
00000120: 7117 3c3d 7edb 533d bf9e d0bc cfa3 953d
00000130: b45f af3d 013f 893d b357 ad3d 6d1a 693d
00000140: 93cc 503e e073 413d 349b 8e3d 1bd4 ec3c
00000150: ae30 a73d 3754 be3d cfcb 023d 881b 9f3c
00000160: 8f0f 503d 6585 883d 98e8 953d ea34 bebc
00000170: 5439 643d f712 a03d 8a9a c73d 7485 6c3d
00000180: 8c5f 993d 88f0 943d f939 683e eb02 5d3d
00000190: 3cc8 8c3d 3ce7 5e3d 53b4 763d 786a 913d
000001a0: ccd0 663d 21f2 1c3d 24fe a53d d0b6 9a3d
000001b0: 4893 a33d a463 a33d 0b3a 9d3c b547 ad3d
000001c0: 9433 ad3d c9b4 8e3d 5ab9 6f3c 2a50 6c3d
000001d0: fd2a ac3d cb16 9c3d 1d9e a13d 7345 d7bc
000001e0: 8eab 723d a122 873d aff9 393c 4ee5 3d3d
000001f0: a7fc 713d 39cc 803d 3563 913d fa34 4d3d
00000200: 91fc cf3d d890 903d a5a8 f73c 6e52 863d
00000210: 1b9f 723d f992 343d 2c99 683c 231e 603d
00000220: 4cbd 8a3d bea0 3c3e 086b a23d b45f 623d
00000230: 51e1 7c3d b57d 9c3d 31dc a43d cb25 7b3d
00000240: bf5d 753d f856 9b3d 2f5e 7d3d e6c1 1a3d
00000250: 8102 2a3c eea8 b13d a587 a43d c5c7 b63d
00000260: 0f9b 363e 93b6 a33d cd46 823d 61f8 7c3d
00000270: bb72 fe3c 7257 493d ccbe 6c3d c561 b63d
00000280: 51f7 843d 4f41 033d 56bd 7d3d 8587 3e3e
00000290: 7cf2 8f3d 7c45 ec3c 9d91 e63c 53c5 ce3c
000002a0: f187 6f3d 8da2 823d 63af 893d 9f1c 703d
000002b0: a6ff eabc 05cc 983d 4cf3 aa3d 4945 7b3d
000002c0: 1a9b 1e3d a0da 8a3d b230 8b3d aec6 9a3d
000002d0: c0b1 ad3d d39a f53c c514 783d 4da3 913d
000002e0: d6c7 8d3d fc6a 773d f760 c93c a2f9 783d
000002f0: 1965 8c3c d6c8 a93d 507b 9e3d 42d6 a73d
00000300: 68b0 433d e3b1 813d 8bd8 753d 6a85 133c
00000310: 205a a73d 5a14 9a3d a38e 973d d163 a03d
00000320: f90b 993d 1648 863d f9e7 603d 4a2d 583d
00000330: 7d97 883d 3f45 953d 8908 b33d 5bb0 463e
00000340: 6eae b73d a4b9 88bc fa8f 583d 5ebe a83d
00000350: cc10 843d e72a 8abd 5ac0 b23c 59da 3f3d
00000360: 1236 7a3d 2ede 323d ccb1 b63d 2117 953d
00000370: 0a29 c03d 613c 063d fa3e 933d da21 603d
00000380: 6dec 8d3d e050 9c3d f2d6 843d a2c1 4e3d
00000390: 8dd3 873d 526a 973d 9c27 053c 7de4 6f3d
000003a0: 0493 8c3d 9107 a53d c7d1 bf3c 8b7f 523e
000003b0: 1113 6e3d 4651 5e3d f29a b13d 532b 3f3d
000003c0: cdd3 e93d b558 a13d 7f5d 8e3d 9d9b 7f3d
000003d0: 74b5 7e3d cc76 9f3d 033d 053e 7d6e 743d
000003e0: 5b85 213e fdc2 e93c bd12 a13d bdf9 983d
000003f0: 8b4d 843d 8c0b 813e b76a a53d b66f a43d

base.seq_fcs.2.weight f4 [256, 256]
-0.13099116 -0.009877427 -0.05755809 -0.064423606 -0.10908098 -0.07619621 0.052506242 -0.14226066
-0.036533806 0.10632543 -0.32617265 -0.08279965 -0.33684075 0.016258297 0.02205087 -0.051895775
-0.05112116 -0.62618506 -0.015935866 0.021273836 -0.06409537 0.017660694 -0.021806657 -0.6793889
-0.073731184 -0.6076479 -0.04166834 -0.06940691 -0.12966192 -0.04612706 0.042142555 0.03505962
0.017417647 -0.07779076 0.024688795 -0.12203243 -0.51704115 -0.07075686 -0.012921943 -0.08883617
-0.09220787 -0.77061343 0.00660218 -0.07950394 -0.070458606 -0.009041997 0.04213171 0.018202566
-0.09929967 -0.009211836 -0.63392484 -0.06644003 0.016173236 0.025737789 0.030050145 -0.028234938
-0.07953952 -0.024820572 -0.008451997 -0.06288545 -0.040396553 -0.7513744 0.048551515 0.030336935
-0.046624795 0.01678655 0.086553715 0.031034056 -0.12799005 -0.04609572 0.03077854 0.04335648
-0.086936325 0.12387341 -0.055762805 -0.042461142 -0.046029143 -0.06373168 -0.05173418 0.037155636
-0.77818865 -0.085373625 0.038272046 -0.017425094 0.04451211 -0.07687871 0.09680451 -0.5515988
-0.15058452 0.01211378 -0.0050980696 -0.15172088 -0.018021334 -0.06518667 -0.39915556 -0.03255105
-0.023113273 -0.019921528 -0.18178664 -0.019536467 -0.030596014 -0.027239298 -0.56641644 0.014284306
-0.0031782114 -0.6424227 -0.054275922 -0.061744094 -0.0442591 -0.03615433 0.083786465 -0.049948644
0.03432805 0.036436632 0.050920468 -0.014476206 -0.018116947 -0.05978035 0.008651167 -0.47991103
-0.13440862 -0.009464577 -0.09368006 -0.060552597 0.016916007 -0.09457538 -0.0015128591 -0.036736824
-0.12527904 -0.0011769335 -0.04034539 0.046785563 -0.20701508 -0.19261098 0.09989533 -0.1480367
0.046211977 -0.565938 -0.015943754 -0.027581172 -0.040615525 -0.017938377 -0.13324098 0.012387595
-0.078849025 -0.08415673 -0.14402588 -0.16372964 -0.009542051 0.030713234 -0.051074337 -0.15873133
-0.6947387 0.023326619 -0.079424575 -0.016686441 -0.19731286 -0.06456135 -0.016858501 0.037559114
0.00013602378 -0.61328995 -0.21810476 -0.027185544 0.021382356 0.10552876 0.015775906 0.09706968
-0.0074528586 -0.002059326 0.015524482 0.04916846 -0.5677442 -0.0090957275 -0.22703369 -0.0027549022
-0.05677416 0.035308827 -0.006289467 -0.0458679 -0.09630185 0.06073322 0.006248219 -0.053803228
-0.045987744 0.0359368 0.27653566 -0.02606634 0.024439158 0.0005648683 0.037713103 0.049193878
0.1203015 0.04975714 0.040378176 -0.52385587 0.014831222 -0.024926929 0.13945897 -0.09724013
0.01918186 0.018409565 0.03510071 -0.066286445 -0.055931274 -0.037945848 -0.04377232 -0.016377963
-0.33898908 0.061360925 -0.07487247 0.0077972007 0.034559257 0.05997497 0.024356147 -0.50903875
-0.029865183 -0.52143294 -0.040966332 -0.60975593 0.045520436 -0.14951867 0.019907612 0.032217115
0.0076308604 0.02807106 -0.55509776 -0.60687363 -0.02860577 -0.027611056 0.025577977 -0.17227077
-0.02913051 0.043552257 -0.00044432937 -0.05931786 -0.041683264 0.02112366 -0.021431375 0.02495745
-0.08790805 -0.028336834 -0.106437236 -0.3970766 -0.04542059 -0.0078001856 -0.62343806 0.016017342
-0.11431439 -0.3571131 -0.04574013 0.0052498905 -0.0045438134 -0.049341474 0.0032473935 0.04985637
00000000: 8c22 06be eed4 21bc 08c2 6bbd 86f0 83bd
00000010: d965 dfbd c20c 9cbd c910 573d c7ac 11be
00000020: 79a4 15bd 26c1 d93d 1a00 a7be dd92 a9bd
00000030: 6476 acbe 1f30 853c 07a4 b43c aa90 54bd
00000040: 6c64 51bd aa4d 20bf ef8b 82bc 7846 ae3c
00000050: 6f44 83bd 29ad 903c e0a3 b2bc 6eec 2dbf
00000060: 6000 97bd d08e 1bbf 6cac 2abd 3625 8ebd
00000070: 18c6 04be baef 3cbd ac9d 2c3d ad9a 0f3d
00000080: 74af 8e3c c350 9fbd 2840 ca3c 23ec f9bd
00000090: cf5c 04bf f9e8 90bd 8fb6 53bc bdef b5bd
000000a0: 7bd7 bcbd ec46 45bf 1a57 d83b f6d2 a2bd
000000b0: 9a4c 90bd e224 14bc 4d92 2c3d 8c1d 953c
000000c0: a05d cbbd 3eed 16bc e648 22bf b611 88bd
000000d0: bc7d 843c 0ed8 d23c b92b f63c f54c e7bc
000000e0: 9ee5 a2bd 8354 cbbc 3f7a 0abc 16ca 80bd
000000f0: db76 25bd 135a 40bf f4dd 463d 2a85 f83c
00000100: a4f9 3ebd f283 893c 1343 b13d 223b fe3c
00000110: d30f 03be dece 3cbd 4723 fc3c 9096 313d
00000120: ac0b b2bd 58b1 fd3d 8a67 64bd bceb 2dbd
00000130: 0e89 3cbd c185 82bd 38e7 53bd 8230 183d
00000140: 5f37 47bf 5ed8 aebd 26c3 1c3d 12bf 8ebc
00000150: 5552 363d 9672 9dbd 7141 c63d 9435 0dbf
00000160: d432 1abe e078 463c b50d a7bb b85c 1bbe
00000170: 7aa1 93bc 9780 85bd 1e5e ccbe 4054 05bd
00000180: 0c58 bdbc 7932 a3bc 4726 3abe f10a a0bc
00000190: 7ea4 fabc f324 dfbc ab00 11bf b908 6a3c
000001a0: 8a49 50bb d075 24bf 6e50 5ebd 60e7 7cbd
000001b0: 0849 35bd 9016 14bd 3d98 ab3d f396 4cbd
000001c0: 929b 0c3d 943e 153d fb91 503d 9c2d 6dbc
000001d0: fe69 94bc 3edc 74bd a0bd 0d3c e6b6 f5be
000001e0: 6aa2 09be 5011 1bbc 55db bfbd 0006 78bd
000001f0: 7093 8a3c bdb0 c1bd 214b c6ba 5a79 16bd
00000200: 2649 00be 5643 9aba 3541 25bd 38a2 3f3d
00000210: c3fb 53be d03b 45be ec95 cc3d ef96 17be
00000220: c548 3d3d 50e1 10bf 7a9c 82bc e9f1 e1bc
00000230: 775c 26bd 81f3 92bc 5370 08be 57f5 4a3c
00000240: 997b a1bd 5d5a acbd 857b 13be bea8 27be
00000250: 4356 1cbc 529a fb3c 5333 51bd 778a 22be
00000260: 65da 31bf 7717 bf3c 5aa9 a2bd 01b2 88bc
00000270: 620c 4abe be38 84bd d71a 8abc 96d7 193d
00000280: 9ba1 0e39 9200 1dbf db56 5fbe 38b4 debc
00000290: 0d2a af3c 761f d83d 793c 813c 78cc c63d
000002a0: 1c37 f4bb c2f5 06bb 665a 7e3c de64 493d
000002b0: af57 11bf 3f06 15bc 857b 68be 978b 34bb
000002c0: 068c 68bd fd9f 103d e017 cebb fbdf 3bbd
000002d0: e839 c5bd 66c3 783d dcbd cc3b c660 5cbd
000002e0: a55d 3cbd 7732 133d 1596 8d3e 1489 d5bc
000002f0: a134 c83c ac13 143a 0e79 1a3d 857f 493d
00000300: a260 f63d 25ce 4b3d 9663 253d 6b1b 06bf
00000310: a7fe 723c 8f33 ccbc 55ce 0e3e d525 c7bd
00000320: 4723 9d3c a8cf 963c c3c5 0f3d 30c1 87bd
00000330: 3118 65bd 1b6d 1bbd 9b4a 33bd 142b 86bc
00000340: fa8f adbe 9855 7b3d bd56 99bd a97f ff3b
00000350: 028e 0d3d 50a8 753d 8b86 c73c 5d50 02bf
00000360: d4a7 f4bc a17c 05bf 50cc 27bd f718 1cbf
00000370: a373 3a3d 6c1b 19be 4a15 a33c 18f6 033d
00000380: 4c0c fa3b 48f5 e53c e31a 0ebf 125c 1bbf
00000390: a656 eabc 9530 e2bc e888 d13c c067 30be
000003a0: 1ba3 eebc da63 323d e1f4 e8b9 49f7 72bd
000003b0: 12bc 2abd 870b ad3c da90 afbc 9173 cc3c
000003c0: 2309 b4bd a622 e8bc c4fb d9bd a04d cbbe
000003d0: f10a 3abd b398 ffbb a399 1fbf cd36 833c
000003e0: aa1d eabd 87d7 b6be 015a 3bbd 4607 ac3b
000003f0: 45e4 94bb 491a 4abd 39d2 543b 3136 4c3d

base.seq_fcs.2.bias f4 [256]
0.07285191 -0.09459994 0.32294264 0.039175253 0.24256442 0.33365604 0.021686265 0.023207491
0.23007527 0.24198599 0.030356698 -0.062967114 0.023306 0.022187512 0.004555276 0.007937885
0.020853836 0.018226637 0.02671247 0.3451691 0.007175365 -0.17693739 0.05268274 0.25098264
0.18506882 -0.047088694 0.0046031186 -0.022155544 0.18115938 0.39285678 0.020725392 0.43079713
0.10554224 0.21997975 0.14147158 0.09730832 0.005059521 0.27804324 0.44257835 0.026468959
0.2824213 0.13485993 0.06648362 0.027793637 0.009751145 0.01069229 -0.12131012 0.0050770966
0.15535012 0.08494869 0.02611791 -0.0030988352 -0.021947507 0.0228646 0.11845715 -0.104739115
0.35863402 0.027729321 0.22900407 -0.0025007694 -0.046736598 0.017184341 0.111116685 -0.09685092
0.019085197 0.17493583 0.33818266 0.1362324 -0.10131463 0.31439 -0.112898 0.080688246
0.09843572 0.07351106 0.17437677 0.4313835 0.34007344 0.07548003 -0.024524808 -0.1490503
-0.034706097 0.015046499 0.18907571 0.029485308 0.036813 0.01825646 0.19718471 -0.080915734
0.33392555 0.019793432 0.35225675 -0.10959699 0.0016592179 0.01394529 -0.12889381 0.16808356
0.04638348 0.07992322 -0.077446364 0.0038116502 0.23813562 0.23209637 0.49911338 0.0055680834
0.008768627 0.19315776 0.11707493 0.0135853505 0.0061819474 0.27073115 0.047746878 0.0071700243
0.30331013 0.13937801 0.27355555 -0.042924136 0.014462478 0.035042267 0.016462294 -0.015692992
0.00528438 -0.0076280604 -0.03926155 0.053996544 0.17717022 0.009698781 0.015680619 0.104552634
0.346333 0.019131824 0.0955581 0.012373959 0.41081774 0.20559862 0.3149336 0.058254864
-0.060782824 0.28377983 0.009874585 -0.0009060609 0.18442795 0.22020866 -0.04780686 0.22945413
0.14079496 0.13411258 -0.046419177 0.3258106 0.15276092 0.313859 0.16607766 0.085491955
-0.001398622 0.009525614 0.019464735 -0.07656331 0.0074649486 0.09860897 0.055787284 0.01999334
0.4578804 0.4468015 0.007466068 0.1799077 0.18193515 0.014997062 -0.088307455 0.2807012
0.14844914 -0.05204361 0.14469346 0.16555081 0.2369958 0.24519102 0.021498919 0.19374667
0.12298307 0.2817182 0.0022049756 0.23403086 0.42672077 0.15133518 0.17106606 0.3359159
0.18321146 0.14257614 0.22388954 0.08653112 0.0129296165 -0.039370485 0.2191917 0.0060087303
0.0010433631 0.42796418 0.21453947 0.1391702 0.014106818 0.42150727 0.07210199 -0.07879458
0.4710015 0.16588381 0.044447955 0.16006963 -0.035649195 -0.0726414 0.006679487 0.0010428602
0.078256235 -0.024480976 0.14158374 0.22736749 -0.0019213232 0.13751492 -0.04552854 0.37504223
0.16802041 0.021636907 -0.06262363 0.28794396 -0.07528867 0.1060593 -0.08950535 -0.11201759
0.013226284 0.0549127 0.01673152 0.030150836 0.17404363 0.22196433 -0.075693265 0.09561012
0.049384035 0.00069690874 -0.050425712 0.043480467 0.008927446 0.09121559 0.027003853 0.0005768874
0.18342368 0.20852916 0.050446093 0.2467063 0.05047344 -0.10650734 0.275692 -0.0055798525
-0.056782484 0.016470864 0.22343102 0.003672555 0.08462853 0.42182988 -0.03549731 0.20010744
00000000: 6233 953d 9dbd c1bd bd58 a53e 3b76 203d
00000010: cf62 783e f7d4 aa3e 65a7 b13c a31d be3c
00000020: da98 6b3e 2dcb 773e 9cae f83c e7f4 80bd
00000030: 39ec be3c 96c2 b53c 6d44 953b e70d 023c
00000040: aad5 aa3c 0750 953c 1cd4 da3c 01ba b03e
00000050: 531f eb3b 132f 35be dbc9 573d cc80 803e
00000060: ae82 3d3e 13e0 40bd c2d5 963b 8b7f b5bc
00000070: d881 393e 8624 c93e 4cc8 a93c 7191 dc3e
00000080: 8826 d83d 5f42 613e eddd 103e 9649 c73d
00000090: 57ca a53b af5b 8e3e a199 e23e 6ed5 d83c
000000a0: 8699 903e b918 0a3e 9028 883d 7baf e33c
000000b0: 44c3 1f3c b72e 2f3c 7171 f8bd c65d a63b
000000c0: 1a14 1f3e 94f9 ad3d 3af5 d53c d415 4bbb
000000d0: 42cb b3bc 8b4e bb3c aa99 f23d 7681 d6bd
000000e0: e19e b73e 9a28 e33c 0b80 6a3e f3e3 23bb
000000f0: e06e 3fbd 2dc6 8c3c 2591 e33d c659 c6bd
00000100: 8f58 9c3c 6122 333e 4726 ad3e 8280 0b3e
00000110: 0b7e cfbd baf7 a03e 1137 e7bd e13f a53d
00000120: ab98 c93d f78c 963d d38f 323e 4cde dc3e
00000130: 1b1e ae3e 4695 9a3d 40e8 c8bc a4a0 18be
00000140: fb27 0ebd 9785 763c 109d 413e 2c8b f13c
00000150: 3ac9 163d 928e 953c caea 493e 26b7 a5bd
00000160: 4af8 aa3e d625 a23c ff5a b43e 6374 e0bd
00000170: 1d7a d93a c97a 643c bdfc 03be 191e 2c3e
00000180: 9bfc 3d3d c9ae a33d 339c 9ebd e1cc 793b
00000190: d3d9 733e acaa 6d3e ca8b ff3e 7874 b63b
000001a0: 4aaa 0f3c 26cb 453e fbc4 ef3d 1795 5e3c
000001b0: ef91 ca3b 469d 8a3e 3b92 433d 86f2 ea3b
000001c0: 774b 9b3e 1cb9 0e3e 790f 8c3e 38d1 2fbd
000001d0: 08f4 6c3c 7b88 0f3d efdb 863c 978e 80bc
000001e0: 9828 ad3b cff4 f9bb b8d0 20bd 7b2b 5d3d
000001f0: 1c6c 353e a3e7 1e3c a474 803c b11f d63d
00000200: 8f52 b13e 58ba 9c3c f7b3 c33d 25bc 4a3c
00000210: b456 d23e 7288 523e fa3e a13e a79c 6e3d
00000220: 69f7 78bd 974b 913e 03c9 213c b884 6dba
00000230: aeda 3c3e 617e 613e 20d1 43bd 06f6 6a3e
00000240: 8e2c 103e cf54 093e 0922 3ebd a6d0 a63e
00000250: 5c6d 1c3e 20b2 a03e 4310 2a3e 6816 af3d
00000260: f751 b7ba 5211 1c3c 8274 9f3c 3acd 9cbd
00000270: 879c f43b 80f3 c93d 3581 643d 13c9 a33c
00000280: 4d6f ea3e 2bc3 e43e eba5 f43b b939 383e
00000290: 354d 3a3e 3db6 753c 8ada b4bd 11b8 8f3e
000002a0: 0d03 183e ae2b 55bd 862a 143e 2786 293e
000002b0: 07af 723e 5b13 7b3e 801e b03c 8765 463e
000002c0: 8cde fb3d 5e3d 903e 5a81 103b c9a5 6f3e
000002d0: 257b da3e 9cf7 1a3e f12b 2f3e 2bfd ab3e
000002e0: c99b 3b3e 7bff 113e 4d43 653e 3a37 b13d
000002f0: bed6 533c f242 21bd ca73 603e e2e4 c43b
00000300: 75c1 883a 1f1e db3e 3cb0 5b3e a282 0e3e
00000310: 4820 673c cdcf d73e 35aa 933d 0e5f a1bd
00000320: 1c27 f13e 72dd 293e 0f0f 363d 4be9 233e
00000330: e404 12bd 04c5 94bd 99df da3b 95b0 883a
00000340: ce44 a03d 548c c8bc 54fb 103e 06d3 683e
00000350: e9d4 fbba b6d0 0c3e 227c 3abd 8905 c03e
00000360: 8b0d 2c3e e23f b13c d140 80bd 646d 933e
00000370: f230 9abd 9e35 d93d 954e b7bd 7a69 e5bd
00000380: 0eb3 583c 24ec 603d 8a10 893c e3fe f63c
00000390: 7e38 323e 9e4a 633e 1205 9bbd 3dcf c33d
000003a0: ea46 4a3d c1b0 363a 318b 4ebd 9318 323d
000003b0: 6c44 123c 3dcf ba3d 2f37 dd3c 423a 173a
000003c0: 6bd3 3b3e ab88 553e 90a0 4e3d 94a0 7c3e
000003d0: 3dbd 4e3d 8520 dabd 8027 8d3e 32d7 b6bb
000003e0: c094 68bd e8ed 863c 1acb 643e 40af 703b
000003f0: b951 ad3d 16fa d73e a165 11bd f7e8 4c3e

last.weight f4 [8, 256]
-0.19262476 1.4694265 -1.8751923 -0.058913894 -2.5279417 -1.2511692 1.3796831 0.5098734
-0.89041054 -1.2507918 0.3551377 1.8114142 0.86407924 0.31708091 0.42471194 0.0051393444
0.33556062 -0.1093659 0.42636302 4.2735224 0.1866166 1.0788568 0.5051865 2.767115
-1.373961 0.7326019 0.12324956 -0.40596518 -0.73332745 -0.26393774 -0.25624856 1.2420591
0.14288136 -0.43081352 0.003648691 -0.03633665 -0.15871441 -1.5869684 1.0032016 1.6827385
0.0012472101 1.9112551 0.16366068 -0.06542808 0.54604256 0.23087342 0.3418348 -0.19988269
-0.27454713 -0.073951446 0.4800868 0.11060782 3.2210133 2.0633242 0.4015261 0.15934336
3.8822925 0.4554398 1.2621765 0.011257626 0.82192725 -0.060483675 2.8313634 -0.96123236
-0.06396787 -0.0147678405 -2.9585094 0.43657672 1.040942 0.55850875 -0.80284846 0.6640671
0.24262235 -0.18837458 -0.5019041 1.3863502 -0.9154014 0.5265943 1.644508 1.0085541
-0.8793575 0.44732043 -1.2528697 0.042907428 -0.08282295 0.4698639 0.30787843 4.167587
1.4041463 0.535691 2.2884903 1.8249387 0.040773638 0.17874724 1.3225335 0.091794915
0.97415864 1.4972037 0.124928065 -0.025027711 -0.14769925 0.20331982 0.81486 0.21925262
-1.2346301 -0.63971317 1.2449462 -0.038855754 -0.05023957 -2.8946714 -0.23641887 -0.8556404
2.8190808 -0.15134373 2.1249735 0.59547484 0.365819 -0.11908002 0.003095629 0.42324343
-0.1369599 0.19320528 -1.1642268 -0.16374607 -0.31285805 1.4685421 -0.09728236 -1.45547
1.5047748 0.2215252 2.7239792 0.21094283 1.3551347 -0.21817662 1.7235609 -0.17325322
2.1942544 -0.21424492 0.2911262 0.3839277 -1.3701094 -1.1212386 -0.5178442 0.4337923
-0.7270748 -0.42448816 0.8195234 0.025285337 -0.13295534 -0.33878198 -1.6479031 0.07868138
0.4214275 -0.004920416 0.40569353 0.79371494 -0.15539156 -0.2799009 0.85774845 0.28838405
-0.7274194 -1.259218 -0.001959407 -0.6927037 -0.5200414 0.08418361 0.46970326 0.8768777
0.663582 -0.65714544 -0.56016296 -1.2207333 0.46936557 -2.685698 0.05815231 -0.5287858
1.7630485 -0.93665516 0.17665164 -1.012904 -0.5821715 2.9781952 3.0263915 2.2039604
-0.3755767 -0.094816335 -0.22951786 0.3677729 0.2702204 4.035221 -2.4144514 -0.002475336
0.40317643 0.010617563 -0.3100405 -0.10937574 -0.09570999 1.4677603 0.8816643 -0.91283923
0.009888583 -0.4410973 0.5929809 -0.49995556 0.5210377 1.5408669 -0.056256488 0.5067561
0.6247629 4.9700117 2.2379196 0.1835437 1.2320131 -0.6162746 0.298289 -1.5342445
-1.0325376 0.1551922 -1.6017537 -1.5467736 1.2537345 -1.2252467 1.757452 -0.1682178
0.032210667 1.8898475 0.16573161 0.1364795 -0.5153331 -0.99606556 0.35430163 -1.0719825
0.017041732 0.4487597 -0.6078002 -0.04899317 0.44372967 1.5577712 -0.15730102 0.15560639
-0.24068272 0.89520794 -0.08844501 2.5449462 0.82109827 0.58588964 1.1524388 -0.011966868
2.174837 0.12319197 0.0026349144 -0.3572504 -0.8535733 1.128807 -0.10867658 -0.84882295
00000000: 6d3f 45be 2b16 bc3f 4d06 f0bf b24f 71bd
00000010: ccc9 21c0 5026 a0bf 7599 b03f 1087 023f
00000020: f2f1 63bf f219 a0bf 9cd4 b53e 6cdc e73f
00000030: 4c34 5d3f 6e58 a23e d873 d93e f267 a83b
00000040: 9ace ab3e 3bfb dfbd 414c da3e b2c0 8840
00000050: 6c18 3f3e fb17 8a3f e753 013f 6a18 3140
00000060: f4dd afbf cc8b 3b3f 446a fc3d abda cfbe
00000070: 59bb 3bbf d922 87be 0333 83be cbfb 9e3f
00000080: 7e4f 123e 9793 dcbe e11e 6f3b bdd5 14bd
00000090: 0886 22be c821 cbbf e968 803f fa63 d73f
000000a0: 6d79 a33a 02a4 f43f aa96 273e 28ff 85bd
000000b0: 72c9 0b3f 156a 6c3e f904 af3e 0cae 4cbe
000000c0: 7191 8cbe db73 97bd f0cd f53e 5a86 e23d
000000d0: 1525 4e40 810d 0440 d494 cd3e e82a 233e
000000e0: 7b77 7840 682f e93e 008f a13f e871 383c
000000f0: d369 523f bbbd 77bd 0f35 3540 5313 76bf
00000100: 9601 83bd d0f4 71bc 3858 3dc0 fc86 df3e
00000110: 963d 853f 6efa 0e3f 7a87 4dbf 4d00 2a3f
00000120: fe71 783e 44e5 40be c97c 00bf ec73 b13f
00000130: bf57 6abf e2ce 063f 3d7f d23f 4d18 813f
00000140: 931d 61bf 2f07 e53e 095e a0bf b3bf 2f3d
00000150: 149f a9bd 0092 f03e 3ea2 9d3e df5c 8540
00000160: 11bb b33f 0c23 093f a076 1240 9797 e93f
00000170: 4202 273d 8409 373e c748 a93f f9fe bb3d
00000180: 7662 793f 5fa4 bf3f 49da ff3d ea06 cdbc
00000190: 793e 17be 1233 503e aa9a 503f c283 603e
000001a0: 5c08 9ebf 3ec4 23bf 665a 9f3f 3627 1fbd
000001b0: 02c8 4dbd 4c42 39c0 ca17 72be 400b 5bbf
000001c0: d26b 3440 daf9 1abe 91ff 0740 0a71 183f
000001d0: a14c bb3e 3ae0 f3bd 09e0 4a3b 5db3 d83e
000001e0: 373f 0cbe 9bd7 453e 6205 95bf 0dad 27be
000001f0: ee2e a0be 30f9 bb3f f93b c7bd d74c babf
00000200: 769c c03f 81d7 623e ad55 2e40 6601 583e
00000210: 0e75 ad3f b169 5fbe a59d dc3f 4b69 31be
00000220: aa6e 0c40 0563 5bbe 7e0e 953e 2c92 c43e
00000230: bf5f afbf bf84 8fbf 7091 04bf 061a de3e
00000240: 9321 3abf 8356 d9be 49cc 513f 3223 cf3c
00000250: 7225 08be d574 adbe 7dee d2bf b423 a13d
00000260: 58c5 d73e 713b a1bb 10b7 cf3e e730 4b3f
00000270: f71e 1fbe 2c4f 8fbe 6795 5b3f 13a7 933e
00000280: 2838 3abf 0e2e a1bf 6569 00bb 0855 31bf
00000290: 6f21 05bf 7568 ac3d f27c f03e 0f7b 603f
000002a0: 83e0 293f af3a 28bf d766 0fbf fd40 9cbf
000002b0: af50 f03e 7ae2 2bc0 1e31 6e3d 825e 07bf
000002c0: 93ab e13f a2c8 6fbf 2be4 343e d7a6 81bf
000002d0: 3109 15bf c09a 3e40 66b0 4140 b00d 0d40
000002e0: 974b c0be 112f c2bd bb06 6bbe bb4c bc3e
000002f0: 545a 8a3e 8820 8140 5f86 1ac0 3f39 22bb
00000300: 246d ce3e 49f5 2d3c a1bd 9ebe 6300 e0bd
00000310: 9903 c4bd 92df bb3f c0b4 613f d5af 69bf
00000320: b903 223c 81d7 e1be 99cd 173f 2dfa ffbe
00000330: ba62 053f 203b c53f 346d 66bd c5ba 013f
00000340: 76f0 1f3f 560a 9f40 133a 0f40 e1f2 3b3e
00000350: 9bb2 9d3f 2cc4 1dbf 56b9 983e 2062 c4bf
00000360: 312a 84bf b4ea 1e3e 4406 cdbf adfc c5bf
00000370: 5f7a a03f e2d4 9cbf 30f4 e03f 4941 2cbe
00000380: 55ef 033d 86e6 f13f 8cb5 293e 48c1 0b3e
00000390: dfec 03bf 27fe 7ebf 0667 b53e b936 89bf
000003a0: 1a9b 8b3c d5c3 e53e cb98 1bbf 10ad 48bd
000003b0: 8930 e33e 0c65 c73f 8513 21be 4857 1f3e
000003c0: 8875 76be 592c 653f a822 b5bd 66e0 2240
000003d0: 7f33 523f ddfc 153f 1d83 933f af10 44bc
000003e0: 8830 0b40 124c fc3d 87ae 2c3b 86e9 b6be
000003f0: c883 5abf bf7c 903f d491 debd 764c 59bf

last.bias f4 [8]
-0.10078128 0.076462746 -0.13987046 0.09199238 -0.27124327 -0.33013746 -0.28883988 -0.29535323
00000000: 6a66 cebd 8098 9c3d 343a 0fbe 8066 bc3d
00000010: 66e0 8abe c707 a9be d2e2 93be 8a38 97be
