Soft-Module-main/log/model50_38/model_vf_best.pth (torch, 280037 bytes, 5 tensors)

base.seq_fcs.0.weight f4 [256, 12]
000000 24 fb 0c 3f 58 27 33 3d a6 24 32 bf 18 26 e4 3e
       0.5507071 0.043738693 -0.6958717 0.44560313
000010 d6 16 81 bd ca 52 85 3d 5a 07 73 bd b0 7e 6a bc
       -0.06303184 0.065099314 -0.059333183 -0.014312431
000020 d4 6e f3 3c 80 c1 f4 bb d8 9e 5d bd 70 31 87 bd
       0.029715933 -0.007469356 -0.054106563 -0.06601226
000030 1c 05 fc 3d c6 0a 9d 3c 94 71 98 be 29 49 a4 3e
       0.12305662 0.019170176 -0.29774153 0.32087067
000040 1a 0a 22 3d c3 6f e5 3c e8 cd 5d 3c 88 77 f6 3c
       0.039560415 0.028007394 0.013537861 0.030086294
000050 e0 ff 6c 3b a0 35 f8 3b 0b 37 41 3d ae aa 8a 3d
       0.0036163256 0.007574752 0.047171634 0.06770836
000060 32 67 93 3e 72 7c 23 bc a8 6b d4 be d5 80 a6 3e
       0.2878967 -0.009978401 -0.41488385 0.32520166
000070 71 e7 36 3c d6 5f d4 ba 4e 31 7b bd 90 05 21 bd
       0.011163578 -0.0016202878 -0.061326317 -0.039311945
000080 7c e4 64 bd 30 4e ca bc 36 11 af bd aa 7e a4 bd
       -0.055881962 -0.024695486 -0.085482046 -0.08031972
000090 ac f3 b2 3d d7 3a 7a 3c 55 47 85 be 32 82 8a 3e
       0.08737883 0.015272818 -0.26030985 0.27052456
0000a0 f9 aa ab 3d b1 d4 8b 3d 58 43 12 bd c4 53 e5 bc
       0.0838222 0.06827677 -0.035708755 -0.027994044
0000b0 80 a4 38 ba 5e 6a 19 3d c1 90 20 3d 91 24 d8 bc
       -0.00070435554 0.037454955 0.039200548 -0.026384624
0000c0 42 ce db 3c 45 33 c6 3d 58 6b 61 be 77 7d 94 3e
       0.02683175 0.09677748 -0.22013605 0.29001972
0000d0 d0 84 b0 3d 19 05 3c 3d ec 48 e6 bc a0 99 4a bb
       0.08619082 0.0459033 -0.028110944 -0.0030914322
0000e0 08 d4 40 3d 40 bb 65 bc b8 56 ae 3d 50 58 34 3c
       0.04707721 -0.014021695 0.08512634 0.0110073835
0000f0 d6 a2 c9 3e 6f 6c 33 bd b3 de ee be 4e 24 ad 3e
       0.39382046 -0.043804582 -0.4665428 0.3381676
000100 60 c8 8e bd 09 4b cd 3d 28 43 79 bd 30 f3 29 bc
       -0.06971812 0.100240774 -0.06085506 -0.010372922
000110 00 45 46 bc ae 2a 61 3d 2b 64 e4 bb 69 8f c0 bd
       -0.012101412 0.054972343 -0.0069699488 -0.09402353
000120 59 80 f6 3e 57 cf 80 3d 24 72 0b bf b6 b5 da 3e
       0.48144796 0.06289547 -0.5447104 0.4271676
000130 f3 2c 28 bd 2d 38 15 3e 4c 36 ae 3c 4c 0e d9 3c
       -0.041058492 0.1457221 0.021266125 0.026496075
000140 72 87 5c bd 12 90 39 3d 53 3e 6f bd bd 05 cd bc
       -0.05384011 0.04530341 -0.058409046 -0.02502715
000150 ad 43 1e 3f 88 c3 83 3d 97 f5 2b bf 70 55 de 3e
       0.61822015 0.06433779 -0.67171615 0.4342456
000160 a1 1b 98 bc b9 4c 14 3e c6 bb 00 bd ca f9 6d bd
       -0.018567862 0.14482392 -0.031429075 -0.058099546
000170 fe eb 47 bd ac 42 65 3d d4 d7 9e bd 06 36 03 bd
       -0.048809044 0.055971786 -0.0775601 -0.032033943
000180 33 f7 2e 3d 55 c8 15 3d ca e5 9b be 55 91 ad 3e
       0.042716216 0.036568005 -0.30448753 0.33899942
000190 1a 79 90 3d 3d 0f 99 3d b4 2c 13 bd 0c f3 2a 3d
       0.07054348 0.074736096 -0.035931304 0.041735694
0001a0 f8 61 70 3d ce 32 55 3d 25 1d d8 3b 08 12 79 3d
       0.05868718 0.052050404 0.006595271 0.06080821
0001b0 58 c1 88 3e c2 16 55 3d 0a dd b4 be a8 27 97 3e
       0.2671001 0.052023657 -0.3532489 0.29522443
0001c0 2f af 0d 3d 49 a8 07 3e 00 9e 5e bb fa f1 0e 3d
       0.034590896 0.1324779 -0.0033968687 0.034898736
0001d0 48 4e 37 3d c2 09 17 3d be bc e6 bc fd 67 d5 bb
       0.04475239 0.03687454 -0.028166171 -0.0065126405
0001e0 5c 4a 12 3f f5 7e 01 3d de 21 15 bf de c7 e9 3e
       0.57144713 0.031615216 -0.582548 0.456603
0001f0 4b 47 90 bd 34 a3 fc 3d 18 0e b5 bc 98 83 5a 3c
       -0.07044848 0.12335816 -0.022101447 0.013337038
000200 2c 7a e5 bc 58 cf 85 3c 14 26 e3 bc 2f 00 a0 3b
       -0.028012358 0.01633422 -0.027728118 0.0048828344
000210 95 6a a2 3e 63 40 1b 3d ff a7 8d be 1c a5 90 3e
       0.3172194 0.0379032 -0.27667233 0.28250968
000220 31 b4 e3 bc 29 bc 8d 3d 00 b0 09 39 e0 c8 68 bb
       -0.027795883 0.06920654 0.00013130903 -0.0035520121
000230 fc a0 4a 3d dc d6 1b bd 2b 2d d9 3b 5e ad 1e 3d
       0.049469933 -0.038046703 0.006627699 0.038739555
000240 9c b6 e4 3d b5 ec 98 3d a7 bf a6 be a0 84 a6 3e
       0.111676425 0.07467023 -0.32568094 0.3252306
000250 d0 f6 28 3b 45 d6 3f 3d 40 d7 c1 3c ce 9e 26 3d
       0.0025781877 0.046835203 0.02366221 0.04067879
000260 f0 2b 33 bc 60 90 3f 3c 4c b6 e3 3b e2 c1 b9 bc
       -0.0109357685 0.0116921365 0.0069492217 -0.022675458
000270 82 90 38 3e e0 1d 11 bd ce 94 f0 be 09 8a 96 3e
       0.18023875 -0.03542888 -0.4698853 0.29402187
000280 a2 63 27 3d e6 44 9b 3d ca bc 45 bd 1a b7 41 bd
       0.0408665 0.07581501 -0.048275746 -0.04729376
000290 04 83 6b bd 2c 71 04 bd 5e dc 89 bb 9a 14 32 3d
       -0.057497993 -0.03233449 -0.004207178 0.04347668
0002a0 fd 05 54 3e 13 a1 90 3d 76 fc ab be ab 51 8b 3e
       0.2070541 0.070619725 -0.3359105 0.27210745
0002b0 28 c4 55 bc 35 aa b7 3d d0 00 d5 3b 88 7b 6d 3c
       -0.013047256 0.08968011 0.006500341 0.014494784
0002c0 e8 30 94 3c d4 13 71 bd 06 77 4f bc f6 48 da 3c
       0.018089727 -0.0588568 -0.012662655 0.026646119
0002d0 88 25 6a 3c 37 84 34 bd 6e f6 c0 bb 8b ee 0e bd
       0.014291175 -0.044071402 -0.0058887517 -0.03489546
0002e0 46 c7 98 bd 34 88 ee 3c 80 c4 c7 bb 3c 3d 3e bd
       -0.074598834 0.029117681 -0.0060964227 -0.046445116
0002f0 e8 d1 7d bd 72 4a 50 3d 8f 3c 3e bd cc ef 32 3d
       -0.06196776 0.050852247 -0.046444472 0.04368572
000300 0b ab 2c 3e 61 8e 4f 3c ba c3 7b be 3b 35 71 3e
       0.16862123 0.012668223 -0.24586383 0.23555462
000310 54 07 46 3d 0d 58 15 3e 54 cf 0f 3d a8 c1 05 3d
       0.048346832 0.1458437 0.035109833 0.032655388
000320 28 8e 97 3c 6c 9a e1 bc fd ef f7 3c fe 7a 98 3d
       0.018500403 -0.027539454 0.030265803 0.07445334
000330 a9 27 9c 3d 97 9c e9 3b 83 68 85 be 92 70 82 3e
       0.07624752 0.0071292627 -0.260563 0.2547651
000340 77 3d a5 3d c2 6b ec 3d 84 c9 d3 3c 20 5f 27 3d
       0.08068364 0.11543991 0.025852926 0.040862203
000350 00 de 6d 3c 58 0d fc 3c 42 b0 39 3d 89 13 04 3c
       0.014518261 0.030768082 0.04533411 0.008061298
000360 b0 4f 37 3e 28 30 0f 3d 26 c3 f5 be 66 f7 b5 3e
       0.17901492 0.034958035 -0.4800045 0.35540313
000370 70 82 86 bd b4 7f 7e 3d 60 83 1a 3b 20 5f 05 bb
       -0.06567848 0.062133506 0.002357684 -0.0020350888
000380 40 da 87 bb 36 75 49 bd 0d 43 92 bc 9a ec b5 bd
       -0.0041458905 -0.049184047 -0.017854238 -0.08883019
000390 9a 2e 0c 3f f1 0f 6c 3c d4 f9 23 bf 16 00 ed 3e
       0.5475861 0.014408098 -0.6405308 0.46289128
0003a0 de ec b1 bb 98 51 1d 3e fc 55 7c bd f6 1f 58 bd
       -0.005429848 0.15363157 -0.06160544 -0.052764855
0003b0 f6 57 7e bd 9c 86 25 bd aa 18 87 bd 8d 37 21 3c
       -0.062095605 -0.040411577 -0.06596501 0.0098399045
0003c0 d3 58 a4 3e d2 0d c7 3c b3 e6 c1 be 71 c0 b2 3e
       0.32099018 0.024298582 -0.37871322 0.34912446
0003d0 61 16 99 3c 8c 27 6b 3d 00 73 ed 39 f8 84 3e 3c
       0.018687429 0.05741076 0.00045289844 0.011628382
0003e0 86 de 7b 3d 9c 7e 7c 3d 77 24 3e bd 74 e0 08 3c
       0.06149151 0.06164418 -0.046421494 0.008354295
0003f0 77 ed 16 3f 6b fd 6f 3d 92 ad 2c bf 75 94 dc 3e
       0.5895609 0.058591288 -0.6745235 0.43082014

base.seq_fcs.0.bias f4 [256]
000000 1d a5 a4 3d 02 14 de 3d a1 38 7a 3d cc 4b f8 3d
       0.08039305 0.1084366 0.06108916 0.12123832
000010 56 82 04 3e 4b b8 69 3d fd 25 8d 3d 4a 53 8a 3d
       0.12940344 0.05706052 0.06892011 0.067541674
000020 d5 cd e7 3d 87 b4 ca 3d 94 dd 9b 3d 3e 84 d6 3d
       0.11318556 0.09897714 0.07610622 0.10474442
000030 fc 85 c5 3d 9b bd a9 3d 98 cc c8 3d 5d 34 a7 3d
       0.09644696 0.082881175 0.09804648 0.081642844
000040 de ee ed 3d 71 9e f1 3d 8f 64 60 3d 82 d6 85 3d
       0.11617826 0.117977984 0.0547834 0.06535055
000050 c0 b5 83 3d 8a 61 9c 3d ba 8b c2 3d 22 64 80 3d
       0.064311504 0.076357916 0.09499307 0.06269099
000060 74 d5 d8 3d f7 e5 be 3d 53 90 09 3e 27 13 65 3d
       0.10587588 0.09321206 0.13433962 0.05592647
000070 48 71 be 3d 16 0b c9 3d eb 37 08 3e 0e 76 40 3d
       0.092989504 0.098165676 0.13302581 0.046987586
000080 47 6c e6 3d aa 5d ee 3d 65 c6 04 3e 7a a1 cc 3d
       0.11251121 0.11638959 0.12966307 0.09991737
000090 9c 0b a8 3d 0b 77 b4 3d 6e 07 92 3d 96 98 5f 3d
       0.08205339 0.08811768 0.07130323 0.054588877
0000a0 7c 27 e7 3d 8f dd d5 3d 17 e4 5e 3d 60 5b 92 3d
       0.11286828 0.104426496 0.054416742 0.07146335
0000b0 11 3f 9e 3d f2 89 03 3e ab 73 84 3d d4 10 94 3d
       0.07726873 0.1284559 0.064673744 0.07229772
0000c0 ca 30 8e 3d 2c b7 8a 3d bd cf 6e 3d 9b 70 d5 3d
       0.069428995 0.067732185 0.058303583 0.104218684
0000d0 bd 94 92 3d b3 13 cc 3d 66 60 d5 3d e5 c5 fd 3d
       0.07157276 0.09964695 0.10418777 0.12391261
0000e0 e4 44 83 3d c6 f6 a4 3d 7e 72 07 3e 88 14 8d 3d
       0.06409624 0.08054881 0.13227269 0.06888682
0000f0 a1 4e 83 3d e3 bf 8d 3d a6 8a c4 3d e6 e2 94 3d
       0.06411482 0.06921365 0.095967576 0.0726984
000100 1a 03 a7 3d f2 97 4e 3d 0c 82 6b 3d 81 dd f6 3d
       0.081548885 0.050437875 0.05749707 0.12053967
000110 48 26 d3 3d e6 62 3c 3d 1f 79 43 3d 64 51 87 3d
       0.10310036 0.045992754 0.047722932 0.06607321
000120 7d 4e c3 3d e8 07 b5 3d 18 ff ac 3d 85 6a 55 3d
       0.09536455 0.088393986 0.08447093 0.052103538
000130 52 f1 86 3d 72 f8 b6 3d 63 61 a7 3d 87 b0 92 3d
       0.06588997 0.08934106 0.08172872 0.07162576
000140 c2 42 86 3d 11 e8 cf 3d 39 01 ae 3d f5 01 74 3d
       0.06555702 0.10151685 0.08496327 0.05957218
000150 bc 99 c8 3d 18 cb af 3d a4 2c 7f 3d 8b 6b ff 3d
       0.097949475 0.08583659 0.062298432 0.12471684
000160 54 65 9b 3d cd 34 8f 3d 36 e5 81 3d fe 66 82 3d
       0.07587686 0.06992493 0.06342547 0.063673005
000170 3d 6d 73 3d f0 f5 e3 3d 04 92 ab 3d bc 39 c3 3d
       0.05943035 0.11130893 0.0837746 0.09532496
000180 e5 8f 92 3d 4b c3 88 3d a7 d7 df 3d 9a 26 85 3d
       0.07156352 0.06677874 0.10929804 0.06501503
000190 ba f9 ea 3d b6 ca 60 3d a5 e5 f0 3d 60 bc b3 3d
       0.11473413 0.05488082 0.11762551 0.08776164
0001a0 e1 73 4d 3d b0 9a 8b 3d ca c3 bb 3d 7f 36 8f 3d
       0.05015934 0.06816614 0.09168203 0.06992816
0001b0 6b 3f d8 3d 3c 02 70 3d 28 3f 80 3d 5e c4 42 3d
       0.10558971 0.05859588 0.06262046 0.04755055
0001c0 73 ae b3 3d f2 4a ad 3d 6d e4 b6 3d 7e 27 68 3d
       0.08773508 0.0846156 0.089302875 0.056678288
0001d0 0c 78 63 3d 10 34 93 3d 04 82 c1 3d 11 7a d6 3d
       0.055534407 0.071876645 0.09448627 0.10472501
0001e0 bf 74 d1 3d ef 83 49 3d 30 e1 62 3d 1c 74 98 3d
       0.10227346 0.049198087 0.055390537 0.07444021
0001f0 99 23 c0 3d 5b 80 b2 3d 0f 22 44 3d 10 9b 7a 3d
       0.0938179 0.08715888 0.047884043 0.061183035
000200 69 f6 86 3d cc 8f 62 3d 9e eb 9d 3d 51 5b 7f 3d
       0.06589968 0.055312917 0.07710956 0.062342945
000210 64 ef 9f 3d 8b 1e 82 3d 82 a2 75 3d c3 d7 d4 3d
       0.07809332 0.06353482 0.059969433 0.10392716
000220 27 89 a3 3d f8 23 99 3d 84 0c b5 3d 21 2b 63 3d
       0.07985144 0.074775636 0.08840278 0.055461053
000230 cd c6 02 3e 56 12 86 3d 80 c2 85 3d b4 35 bc 3d
       0.12771149 0.06546466 0.065312386 0.091899306
000240 2c 83 84 3d 18 cc 79 3d d3 01 af 3d ab 7a a2 3d
       0.064703315 0.060985655 0.0854527 0.07933553
000250 68 25 ad 3d ca d7 a9 3d a7 bf 5e 3d 57 60 ab 3d
       0.084544 0.082931116 0.054381993 0.08367985
000260 04 ff 7f 3d 74 9f ae 3d 97 9c 4a 3d 02 19 8f 3d
       0.06249906 0.08526507 0.049465742 0.06987192
000270 88 ca 4f 3d df 7c 8b 3d 0a e6 7e 3d ca 87 bd 3d
       0.05073026 0.06810927 0.0622311 0.09254415
000280 07 ba ea 3d 8d 5b 80 3d 84 d0 93 3d 6f 01 c2 3d
       0.11461263 0.06267462 0.072175056 0.0947293
000290 2d 5a b0 3d 03 52 98 3d 21 03 02 3e c9 24 ec 3d
       0.0861095 0.074375175 0.12696506 0.11530454
0002a0 98 ed 84 3d 6f ee bf 3d 9b 3b 03 3e b5 9d 9e 3d
       0.0649063 0.093716495 0.12815706 0.07744924
0002b0 71 2c eb 3d 7a 7a af 3d f7 03 67 3d 22 66 d7 3d
       0.11483086 0.085682824 0.056400266 0.10517527
0002c0 02 0b ce 3d bb 17 01 3e fb 26 97 3d 2a d6 e8 3d
       0.10060693 0.12606709 0.07380482 0.113689736
0002d0 f5 a5 98 3d 3e 84 03 3e 0a a8 9f 3d 2c 6e f1 3d
       0.07453529 0.12843415 0.07795723 0.11788592
0002e0 e3 d1 9e 3d 6e 06 af 3d 03 3f 78 3d b3 b6 f3 3d
       0.077548765 0.08546148 0.060606968 0.119000815
0002f0 8d 04 74 3d e6 5a 86 3d df ac a2 3d b7 b3 e9 3d
       0.059574652 0.06560306 0.07943129 0.11411231
000300 c5 5b 6f 3d d9 48 7a 3d 83 70 08 3e f3 a2 92 3d
       0.058437128 0.06110463 0.1332417 0.07159986
000310 1b 77 d4 3d d8 f5 dc 3d 67 a7 a5 3d ce 76 8b 3d
       0.1037428 0.107890785 0.0808857 0.068097696
000320 e1 e3 ed 3d 17 8f 73 3d 3b 46 9a 3d 35 bc e2 3d
       0.1161573 0.059462633 0.07532927 0.11071054
000330 09 e5 59 3d 1d 60 6a 3d b7 e3 98 3d c4 67 b7 3d
       0.05319694 0.057220567 0.07465308 0.089553386
000340 bc 4b 77 3d 3d 85 90 3d ba 21 a2 3d 86 a5 72 3d
       0.06037496 0.07056663 0.07916589 0.059239887
000350 2e b3 c9 3d 12 23 5c 3d fb 98 84 3d 7a 30 55 3d
       0.09848629 0.053744383 0.06474491 0.052048184
000360 27 8c 84 3d f4 14 d6 3d eb d6 74 3d da 45 e5 3d
       0.064720444 0.10453215 0.059775274 0.11194964
000370 40 e0 6a 3d bd ef b6 3d 4c e0 ad 3d 25 74 58 3d
       0.057342768 0.08932445 0.08490047 0.05284514
000380 46 6f df 3d 58 be d8 3d 40 18 82 3d 3c 35 b2 3d
       0.109098956 0.1058318 0.063522816 0.0870156
000390 0a 97 d1 3d 1a ba f6 3d 74 81 a0 3d 08 37 93 3d
       0.102338865 0.12047215 0.07837191 0.07188231
0003a0 f5 d8 8f 3d b8 ee 74 3d bd 16 79 3d b0 0c 85 3d
       0.07023803 0.059797972 0.0608127 0.064965606
0003b0 15 61 74 3d 79 6a 87 3d 78 0b 99 3d b2 87 9a 3d
       0.059662897 0.06612105 0.074728906 0.07545413
0003c0 e4 21 e9 3d f7 af 8a 3d b0 15 cc 3d b0 e5 89 3d
       0.11383417 0.06771844 0.09965074 0.067332625
0003d0 5d 3d a7 3d 64 48 f1 3d 7a ce 82 3d c6 c0 6d 3d
       0.08166001 0.117813855 0.063870385 0.05804517
0003e0 08 08 ba 3d ec dd e2 3d fa 8b 9e 3d cb 34 c8 3d
       0.09083563 0.110774845 0.07741542 0.097756945
0003f0 61 52 61 3d 03 08 9e 3d b2 d5 9f 3d c3 07 c5 3d
       0.055010203 0.07716372 0.07804431 0.09620621

base.seq_fcs.2.weight f4 [256, 256]
000000 b7 6b c2 3e c5 b2 f5 39 cb 19 20 3d 2d 28 25 bc
       0.37972805 0.00046863235 0.039087098 -0.010080379
000010 b8 dd 31 bb 22 ea 85 3d 9f 3b 69 3e e8 eb 72 3e
       -0.0027140211 0.06538798 0.2277665 0.23722804
000020 48 00 03 3a 01 1b 08 3d 07 6f 93 3e ba 1b 28 3d
       0.00049972953 0.033228878 0.28795645 0.041042067
000030 b4 35 95 3d 6c c4 98 3c eb 55 60 3d 3c e0 a9 bb
       0.07285634 0.018648349 0.054769438 -0.0051842015
000040 fd 2c ee 3b 42 07 0d 3d ce 06 d1 3d 7a 2c 8b 3e
       0.0072685466 0.03443075 0.10206376 0.2718237
000050 73 5e 47 3d 09 eb 9d 3e 93 7a 0f 3d 6c b4 bb 3d
       0.04867406 0.3084338 0.035029005 0.09165272
000060 16 1e 5f 3d 2f fe 3e 3c 11 8f 83 3d f0 aa 5f 3e
       0.05447205 0.011657282 0.06423772 0.21842551
000070 ae ef 6d 3d 21 e8 3b 3c a1 b1 64 be 79 1c d7 3d
       0.058089904 0.011468918 -0.22333385 0.105034776
000080 37 fe 88 3d 7d 6f 7f bc e4 79 67 bc dc 9d 10 bc
       0.06689113 -0.015590546 -0.014128182 -0.008826699
000090 2e 8e 1a 3c 60 e6 b3 3e 47 8b ca 3e 03 89 56 3e
       0.009433312 0.351367 0.39559385 0.20950703
0000a0 a6 51 aa 3a 4a 9b c4 bc 2e 5b 7d 3e 2a 5c 89 3e
       0.0012994304 -0.023999829 0.24741814 0.26828128
0000b0 5b f8 79 3e 19 a7 f7 3c 3c f4 54 3e 5d 1b 8a bb
       0.24411146 0.030231046 0.20796293 -0.0042146877
0000c0 29 4c af 3d 96 a0 a8 3d d1 e3 92 3e 13 1f bf bb
       0.08559448 0.08233754 0.28689435 -0.0058325618
0000d0 39 ed 37 3e 54 58 96 3c 15 df 8f 3d 15 2a 04 bd
       0.17961587 0.018352665 0.070249714 -0.032266695
0000e0 69 68 eb 3c 04 30 2a 3e 8f 69 7e 3d e4 c6 03 3e
       0.02873631 0.16619879 0.062112387 0.1286884
0000f0 db a2 d2 3d e7 8d 8e bb d3 95 2a bd 96 37 3b 3e
       0.102849685 -0.004350412 -0.04164679 0.18282923
000100 96 fd 01 3d 00 68 a3 3d 2b f4 06 3e f3 71 19 3d
       0.03173598 0.07978821 0.1317908 0.037462186
000110 a3 34 be 3c c7 57 4e 3e 78 51 8e 3d 10 1f c8 3e
       0.023218459 0.20150672 0.06949133 0.390862
000120 8e bb 69 bb 32 6c c2 3e 8c 81 b1 3e c2 0b 2a 3e
       -0.003566477 0.3797317 0.3466915 0.16606048
000130 13 32 5a 3d df 7c 95 3d 42 30 40 3d ca 78 95 3d
       0.05327041 0.07299208 0.046921022 0.07298429
000140 08 43 72 3e 72 71 52 3d 30 1e 70 bc e4 f0 b7 3c
       0.23658383 0.05137772 -0.014655635 0.022453733
000150 0c 35 b6 3c b9 82 3c 3c 78 15 86 3e e8 a1 9e bc
       0.022242092 0.011505776 0.26188254 -0.019364312
000160 5f d4 02 bc 28 42 a0 3e 39 f4 9e 3e 6d 14 d4 3c
       -0.0079852035 0.31300473 0.31045702 0.025888646
000170 bb c3 62 3e b0 6d 15 3c 4c 3f d2 3e 3b 6a 0f 3d
       0.22144978 0.00912039 0.41063917 0.03501342
000180 72 ab 8c 3e 38 d8 71 3e e0 d5 9c 3d 6b dc 62 3e
       0.27474552 0.23617637 0.07657981 0.22154395
000190 cf bb 5a bc d7 13 8f 3d 63 59 c0 bc 77 0c c6 3e
       -0.013350441 0.06986206 -0.023480123 0.38681385
0001a0 10 5d f1 bb 78 c3 bd 3b 6d 15 98 3e c8 2f ae 3e
       -0.0073658302 0.005791124 0.29703847 0.3402083
0001b0 b3 5e 67 3d 12 be 34 3e 87 2b 30 3e ac ef 6a 3e
       0.056486797 0.17650631 0.17204104 0.2294299
0001c0 85 f5 19 3d ac 03 10 3d 40 60 9a 3d b2 b5 f7 bc
       0.03758766 0.03515975 0.075378895 -0.030238006
0001d0 d3 6f 3a 3e 69 69 99 3e 86 21 42 3d af df 25 bd
       0.1820672 0.29963234 0.04739525 -0.040496524
0001e0 c2 0c ca bb f1 fe 8e 3e 6f 0c 21 3d 11 cb 2f 3d
       -0.0061660716 0.2792888 0.0393185 0.04291827
0001f0 93 7a 5d 3d 36 85 80 3a dc 56 59 3e b7 67 85 3e
       0.054071974 0.0009805325 0.2122454 0.2605569
000200 07 fc 92 3d 28 b8 ae 3d 56 7b 82 3d d6 16 fb 3d
       0.07176977 0.08531219 0.06371181 0.12260215
000210 58 7e 5c 3e ee 52 8b 3d c0 4b 00 3e e1 79 83 3d
       0.21532571 0.06802927 0.12528896 0.06419731
000220 ce 95 ac 3d 47 8f 86 3e 08 93 72 3a b1 34 a3 3d
       0.084270105 0.26281187 0.0009253477 0.079690345
000230 31 d2 2a bc ca a0 24 3e 06 79 20 3e 56 6b da 3c
       -0.01042609 0.16076961 0.15671167 0.02666251
000240 79 fa 6a 3e 45 93 a0 3e 75 23 aa 3d 10 17 2b 3d
       0.2294711 0.31362358 0.08307544 0.04177004
000250 10 23 95 3d 3f 70 f2 3c 5a 3f 84 3c a0 c5 be 3e
       0.07282078 0.029594539 0.01614349 0.3726015
000260 9a f2 17 3e 1f e5 54 3c fe 20 66 3e 0d e9 a1 3e
       0.14838639 0.01299408 0.22473523 0.31623116
000270 59 e9 af 3d dc ce 8f 3e c1 ec 56 3e 95 85 32 3d
       0.085894294 0.2808751 0.20988752 0.043584425
000280 0d 47 cf 3c 0f 5e 59 3e 67 1e 8c 3e 76 f5 d9 3c
       0.025302434 0.21227287 0.27366945 0.026606303
000290 7d 85 d5 3e 9c 53 a6 3e fd 24 fe bc c9 88 53 3d
       0.41703406 0.32485664 -0.031023497 0.05164412
0002a0 bd 1e 47 3e 0f af ac bc 08 70 9d bc 67 73 9d 3e
       0.1944532 -0.021079568 -0.01921846 0.30752108
0002b0 8e 21 b6 3c 8e 1f a4 bc f0 04 1f 3e 64 7c 19 3b
       0.022232797 -0.020034578 0.15529227 0.002342009
0002c0 0d 45 71 3d b3 ce db bc 5d 43 82 3d ba b7 5a 3c
       0.058903743 -0.02683196 0.06360505 0.013349468
0002d0 10 96 bd 3e 1e a4 c3 3c f5 2b c9 3e 43 ae b1 3d
       0.3702855 0.023881968 0.3929135 0.08675816
0002e0 de e4 32 3e be 6d d3 3e 15 2b c5 3d ac c7 a9 3d
       0.17470118 0.41294664 0.09627358 0.082900375
0002f0 ab c4 3a 3e 66 08 a3 3e 76 56 a9 3e dc 90 89 3d
       0.18239085 0.31842345 0.33073777 0.06717083
000300 23 a1 1c 3e d9 0c 49 3e f7 61 da bc d5 33 d4 3e
       0.15295844 0.19633807 -0.026658041 0.41445795
000310 fb fd 9a 3c a9 ef 50 3d 78 e0 23 3d 3b f1 4d bc
       0.018919935 0.051009808 0.040008992 -0.012569721
000320 04 54 63 bc 5b cb b3 3d 5f ae e9 3e 28 fd 35 bc
       -0.013875011 0.08779021 0.45640847 -0.01110772
000330 9b bc f9 3d 19 be 60 3e 3d 14 cb 3e ae 61 ae 3d
       0.12194177 0.21947517 0.39663878 0.08514725
000340 c5 33 57 3e 9b 55 63 3e fc ad ab 3e 51 23 9c 3c
       0.21015842 0.22200625 0.33531177 0.019059809
000350 ca 77 42 3d 67 5b 66 3d d4 de 1a 3d 9e 23 be 3d
       0.04747752 0.05623951 0.03781016 0.09284137
000360 04 9a bd 3d 6c 01 37 3d 1d d3 f2 bb 72 aa 68 3d
       0.09257892 0.04467909 -0.0074104206 0.056803174
000370 23 f0 61 3d ae 1c a9 3e c8 58 72 3d b9 36 4f 3e
       0.055160653 0.33029693 0.0591667 0.20235719
000380 ba cf 08 bd b1 c5 41 3d 07 8d cb 3e 20 f4 8a 3d
       -0.03340123 0.047307674 0.39756033 0.067848444
000390 e2 d7 5d 3d 3b 82 19 3d 1d fe b3 3e 2b c5 8d 3e
       0.05416096 0.037477713 0.3515481 0.2768949
0003a0 db 42 82 3e de 72 25 3e 91 75 8f 3e 38 da a1 3e
       0.25441632 0.161571 0.28019384 0.316118
0003b0 12 2f 77 3e fd 7e b8 3e 23 7b 6d 3e 13 9c c9 3e
       0.2413905 0.36034384 0.23191504 0.39376888
0003c0 35 6d 5b 3d 28 92 a8 3e 0d 7c 5d 3d 24 21 b1 3d
       0.053570945 0.32924008 0.054073382 0.08648899
0003d0 4e 1d 20 bc 84 62 b7 bc 0e 8a ae 3c 3e dd 01 3e
       -0.009772612 -0.022385843 0.021306064 0.12682053
0003e0 ff cb 48 bd df e0 10 bd cb 1b ec 3d 13 8d ea 3c
       -0.04902267 -0.035370704 0.115287386 0.028631723
0003f0 55 c0 8f 3d 04 85 fe 3c 59 72 b8 3e ad c9 33 3d
       0.07019106 0.031069286 0.3602474 0.043893505

base.seq_fcs.2.bias f4 [256]
000000 96 72 d4 3d 27 dd d2 3d 2e 18 d2 3d 8a c8 d5 3d
       0.10373418 0.10296088 0.10258518 0.104386404
000010 16 23 d0 3d f1 3a d3 3d 6b b6 d1 3d 9a 59 d3 3d
       0.10162942 0.103139766 0.102398716 0.103198245
000020 02 bd d5 3d 04 4d d3 3d d1 06 d5 3d e8 d2 a3 3e
       0.10436441 0.10317424 0.10401691 0.31996846
000030 e0 a5 b4 3e 89 65 8b 3d db 30 d2 3d f5 7e d7 3d
       0.35282803 0.06806476 0.10263225 0.10522262
000040 6c 4d a2 3d e6 41 d5 3d ad 22 89 3e b2 aa d3 3d
       0.07924923 0.1041296 0.26784268 0.10335292
000050 de a1 cf 3d 12 39 d4 3d d9 4c ac 3e 33 51 d0 3d
       0.101382956 0.10362448 0.3365238 0.101717375
000060 44 05 fd 3c d1 dc cf 3d 26 e1 d2 3d 8e 81 d3 3d
       0.0308863 0.10149539 0.1029685 0.10327445
000070 de 07 d2 3d fd 9d 18 3e 85 6a d3 3d 6b e4 44 3d
       0.10255407 0.14904018 0.10323051 0.0480694
000080 6f 15 6f 3e f4 89 d2 3d 15 d3 cf 3d 01 e7 d5 3d
       0.2334802 0.10280219 0.101476826 0.10444451
000090 55 32 d2 3d e4 aa d2 3d b6 56 d5 3d be 64 d3 3d
       0.10263506 0.10286501 0.104169294 0.103219494
0000a0 74 c5 d4 3d 35 70 d0 3d 90 da d2 3d da ee dc 3d
       0.10389224 0.10177652 0.10295594 0.10787745
0000b0 99 3b d2 3d e0 a6 ce 3d 18 30 d1 3d 57 fd aa 3e
       0.102652736 0.10090423 0.10214251 0.33396408
0000c0 86 7d d8 3d fa 80 d5 3d ad 98 ce 3d b8 02 85 3d
       0.10570817 0.10424991 0.10087714 0.06494659
0000d0 cf 10 d2 3d e0 47 cf 3d 2d c7 be 3d 6d fc 75 3e
       0.10257112 0.10121131 0.093153335 0.24022074
0000e0 a9 60 86 3e f8 26 d5 3d dc 52 a4 3e b1 9a ce 3d
       0.2624562 0.10407823 0.32094467 0.10088099
0000f0 ca 27 d0 3d 0a fd d2 3d 1f e7 d4 3d 64 e8 81 3e
       0.10163839 0.103021696 0.10395645 0.25372612
000100 85 93 ba 3d d0 30 d3 3d 43 5d d2 3d 97 6f cd 3d
       0.09110168 0.103120446 0.102716945 0.1003105
000110 58 00 d2 3d 8d 48 d2 3d 1d c4 cf 3d 03 2a d3 3d
       0.10253972 0.10267744 0.101448275 0.103107475
000120 8f 83 a6 3d 42 94 d3 3d 45 73 ce 3d 62 72 d7 3d
       0.081305616 0.10331012 0.1008058 0.10519864
000130 67 4e d6 3d f2 cb d0 3d 19 57 9f 3d 40 ce d1 3d
       0.10464173 0.101951495 0.077802844 0.10244417
000140 28 48 cd 3d 97 f5 4b 3d e9 62 d2 3d 99 55 d0 3d
       0.10023528 0.04979476 0.10272772 0.101725765
000150 e8 c2 a5 3d 4e 28 cf 3d bc 0c d2 3d 4b 69 d0 3d
       0.08093816 0.101151094 0.10256335 0.10176333
000160 b8 35 d2 3d 0c 69 d2 3d 40 02 d3 3d 1f 0c bf 3d
       0.10264152 0.10273942 0.103031635 0.09328484
000170 75 2e d4 3d d2 cb d2 3d 51 5a d7 3d d3 a7 d2 3d
       0.103604235 0.10292782 0.10515273 0.10285916
000180 f8 29 d2 3d 7c 70 80 3e e7 e9 d1 3d 93 42 ac 3d
       0.10261911 0.2508582 0.102496915 0.084111355
000190 8e 52 d1 3d 12 16 cc 3d 2c e6 ce 3d 2a 82 d7 3d
       0.10220824 0.09965147 0.101024956 0.10522874
0001a0 ef 6c d1 3d c1 1f e2 3d c4 f6 cd 3d b8 8f cf 3d
       0.102258556 0.11041213 0.100568324 0.10134834
0001b0 18 41 d3 3d d1 8f cf 3d 64 e2 cd 3d 96 a5 a0 3d
       0.1031515 0.10134853 0.10052946 0.07844083
0001c0 4a cf ce 3d b1 4a d6 3d 6f a4 ce 3d e6 f5 d1 3d
       0.10098131 0.10463465 0.10089957 0.102519795
0001d0 a4 e7 df 3d aa 71 d0 3d eb e1 ce 3d 06 90 d3 3d
       0.10932854 0.1017793 0.10101684 0.10330205
0001e0 8e 26 d1 3d d0 33 d2 3d 5d 2b cf 3d 53 55 d4 3d
       0.10212432 0.10263789 0.10115693 0.10367837
0001f0 b3 ff d0 3d 63 fa d1 3d 52 c9 d6 3d 06 9c ce 3d
       0.10205021 0.102528356 0.104876176 0.10088353
000200 f6 8f cc 3d 86 e2 d1 3d 6d 88 81 3d 72 7c cf 3d
       0.09988396 0.10248284 0.06324849 0.10131158
000210 2c 1d d3 3d 03 d7 d5 3d ac 3b b1 3d 3e e5 d0 3d
       0.103082985 0.10441401 0.0865396 0.101999745
000220 17 f0 cd 3d ab 15 d3 3d fa d4 d4 3d d3 bf 86 3e
       0.10055559 0.10306867 0.103921846 0.26318225
000230 f7 e4 d4 3d de ec d2 3d 24 36 d1 3d 86 8c d9 3d
       0.10395234 0.10299085 0.10215405 0.10622506
000240 72 71 ce 3d ac 3d b8 3e 75 38 d0 3d 4c 04 ce 3d
       0.10080232 0.35984552 0.10167018 0.10059413
000250 05 e6 d1 3d b5 c8 d3 3d 50 a4 b5 3e c9 76 d1 3d
       0.10248951 0.10341016 0.35476923 0.102277346
000260 e5 4d d1 3d 66 71 d0 3d ca 9e d3 3d ab 7c 47 3e
       0.10219935 0.10177879 0.10333021 0.19481151
000270 8d c6 cd 3d c7 ab ce 3d 43 0c d2 3d 39 06 d4 3d
       0.10047636 0.10091358 0.10256245 0.103527494
000280 dd 94 d1 3d fc 4c ca 3d 1d 88 d0 3d 27 99 d5 3d
       0.102334715 0.09877965 0.101822115 0.10429602
000290 04 54 d4 3d c1 5a d7 3d e3 8b 83 3d 4c b2 6f 3d
       0.10367587 0.10515357 0.06423166 0.058519647
0002a0 54 ff d3 3d 33 9f cc 3d e9 4c ad 3e 2c fc d4 3d
       0.10351434 0.09991302 0.3384774 0.103996605
0002b0 3e 30 d5 3d df 42 cf 3d ba af d1 3d 4b 7c dc 3d
       0.10409592 0.101201765 0.10238595 0.107658945
0002c0 af eb 8e 3d bc 80 d0 3d b7 49 cf 3d 22 21 ce 3d
       0.06978547 0.10180804 0.10121482 0.10064913
0002d0 48 eb d2 3d 3b 50 d2 3d 8c 04 79 3e 59 16 d6 3d
       0.102987826 0.10269209 0.24318141 0.10453481
0002e0 2e b7 a1 3e ba b6 d0 3d e9 46 ce 3d 72 da 46 3e
       0.31585068 0.10191102 0.10072119 0.19419268
0002f0 21 be d6 3d d1 38 d3 3d 0b e6 a6 3e b6 ed 99 3d
       0.10485483 0.10313571 0.32597384 0.07516043
000300 05 02 d1 3d ce b7 d2 3d 9c 24 85 3e 3a 4b cd 3d
       0.10205463 0.10288964 0.26004493 0.10024114
000310 7e 0e d7 3d 2b 46 cf 3d 39 40 d6 3d ec a2 ce 3d
       0.10500811 0.10120805 0.10461468 0.10089669
000320 21 4c d8 3d 7a a2 d4 3d 29 bd d5 3d 30 f3 91 3e
       0.105613954 0.103825524 0.1043647 0.2850585
000330 2c 22 d7 3d bd 58 d2 3d 84 dd 87 3d d3 3b cd 3d
       0.10504565 0.10270832 0.066340476 0.10021176
000340 05 40 d2 3d 4e cc d0 3d ef ab cf 3d 9f cf ce 3d
       0.10266117 0.10195218 0.101402156 0.10098194
000350 0b 70 d2 3d d0 97 c8 3d 82 71 d1 3d 2a a7 d1 3d
       0.10275277 0.09794581 0.10226728 0.10236962
000360 f2 59 d5 3d 9e f0 d1 3d ca fa cd 3d 45 7a d0 3d
       0.10417546 0.10250972 0.100576 0.10179571
000370 19 74 d1 3d 93 75 6a 3d 33 41 ce 3d 72 98 d3 3d
       0.10227222 0.057241034 0.100710295 0.10331811
000380 a2 3f d0 3d 13 fa de 3d 69 14 b1 3d 57 6a d2 3d
       0.10168387 0.108875416 0.08646471 0.10274189
000390 fa 8e cf 3d 21 8a d4 3d 1b 93 d3 3d fa 8c d2 3d
       0.101346925 0.103779085 0.103307925 0.102807954
0003a0 ff f4 cf 3d 93 43 87 3e 62 51 d2 3d 35 87 d3 3d
       0.10154151 0.26418743 0.10269429 0.10328523
0003b0 3f 0e cd 3d e3 50 d2 3d a7 55 77 3e 88 e3 d3 3d
       0.10012483 0.10269334 0.24153768 0.103461325
0003c0 a6 94 cf 3d 99 fd d2 3d 16 c2 cb 3d 4a e9 d0 3d
       0.10135774 0.10302276 0.09949128 0.10200746
0003d0 71 94 d1 3d f9 32 cf 3d f8 0e d6 3d 55 29 d0 3d
       0.10233391 0.10117144 0.10452074 0.101641335
0003e0 20 d9 d1 3d 57 3b cd 3d f6 27 cd 3d 82 2c d1 3d
       0.102464914 0.10021084 0.100173876 0.10213567
0003f0 cc ce d1 3d 06 32 cf 3d 92 d8 d4 3d 7d af 9e 3d
       0.102445215 0.10116963 0.1039287 0.077483155

last.weight f4 [1, 256]
000000 81 e0 d0 3d db 57 d7 3d 44 a9 ce 3d a8 9e da 3d
       0.10199071 0.10514804 0.100908786 0.106747925
000010 ea 60 db 3d 65 7a dd 3d b7 49 d2 3d 21 4d e2 3d
       0.10711844 0.108143605 0.10267966 0.110498674
000020 e2 d5 e5 3d f4 96 cb 3d 75 3e e4 3d 71 d2 12 3f
       0.112224355 0.099409014 0.11144725 0.5735236
000030 df e1 09 3f dc 00 ad ba c7 03 c4 3d a8 31 dd 3d
       0.53860277 -0.0013199109 0.09571033 0.10800487
000040 58 6a fb ba 7f 57 df 3d 0c bc c9 3e 02 11 e1 3d
       -0.0019181473 0.109053604 0.3940128 0.10989572
000050 df 55 d1 3d ed 55 d7 3d 39 f4 1a 3f 85 d5 cc 3d
       0.10221457 0.10514436 0.60528904 0.10001663
000060 9f 57 59 3e 14 3d c8 3d db ac d6 3d ce 9a e7 3d
       0.21224831 0.09777275 0.10482188 0.113088235
000070 78 81 dc 3d 3b 29 66 3e 04 1c d7 3d 71 5d 7a 3e
       0.10766882 0.22476666 0.105033904 0.24449708
000080 70 ba a3 3e a8 dd c7 3d 01 25 d2 3d 86 7f e3 3d
       0.31978178 0.097590744 0.10260964 0.111083075
000090 07 89 df 3d 7e 4b d0 3d ca b2 e0 3d 15 17 d6 3d
       0.10914808 0.10170649 0.10971601 0.10453621
0000a0 ea f6 da 3d 8d ec d4 3d aa 32 c4 3d ca 10 e7 3d
       0.10691626 0.10396681 0.09579976 0.11282499
0000b0 0a fa c9 3d fd cb ca 3d 0f 8e d6 3d 57 91 22 3f
       0.09862144 0.09902189 0.10476314 0.6350302
0000c0 c5 c0 e7 3d 95 8b e1 3d 47 74 cc 3d 04 a7 61 bb
       0.11316065 0.11012951 0.09983116 -0.0034431824
0000d0 43 32 d6 3d b3 27 b6 3d 0c 29 61 3e 79 78 f8 be
       0.104588054 0.08894291 0.21988314 -0.48529413
0000e0 49 1a 44 3e f4 ca dc 3d d8 64 08 3f c7 cc d5 3d
       0.19150652 0.10780898 0.53278875 0.10439449
0000f0 8c 3a da 3d 46 07 d4 3d 98 5f d5 3d f9 31 34 3e
       0.10655698 0.1035295 0.10418624 0.17597188
000100 27 69 5b 3e 83 a6 db 3d dd 40 cd 3d 36 8f d8 3d
       0.21426831 0.10725119 0.10022137 0.1057419
000110 54 99 c4 3d 73 49 d6 3d 1e 5f d3 3d ea 10 d6 3d
       0.095995575 0.10463228 0.103208765 0.10452445
000120 72 05 58 bb a4 dc da 3d cc 48 d5 3d 58 8a e3 3d
       -0.003296223 0.10686615 0.104142755 0.11110371
000130 2a 0d e5 3d 60 a3 da 3d a1 2b e2 bb 91 f5 e1 3d
       0.111841515 0.106756926 -0.0069021736 0.11033166
000140 8a 8c d8 3d 35 2f 84 3e e8 f5 d2 3d 31 af c9 3d
       0.10573681 0.25817266 0.10300809 0.09847868
000150 fc 14 2e bb c4 95 ca 3d 9b b3 d6 3d 9d 79 c7 3d
       -0.00265628 0.09891847 0.10483476 0.09739993
000160 0a 7c de 3d 59 d8 d5 3d 37 2b c7 3d 85 75 5d 3e
       0.10863502 0.10441656 0.097250395 0.21626861
000170 9a 36 d5 3d 2f 4a d4 3d 74 f2 ea 3d 72 e1 dd 3d
       0.10410805 0.10365712 0.114720255 0.10834016
000180 e8 86 da 3d 2f f2 2c 3e 0e 6d d0 3d b4 73 9b bb
       0.106702626 0.1688926 0.101770505 -0.0047440175
000190 04 9f d0 3d 6c 5e c4 3d 10 1c c8 3d 71 a2 dd 3d
       0.1018658 0.09588322 0.097709775 0.10821999
0001a0 b1 a6 cb 3d 3c e6 54 3e cc 5f d4 3d c0 de c7 3d
       0.09943903 0.20790952 0.10369834 0.09759283
0001b0 e9 b1 d4 3d 5c 4e dd 3d 58 40 d3 3d 88 85 24 ba
       0.10385496 0.108059615 0.10315007 -0.0006276001
0001c0 ca cd cf 3d 99 aa df 3d 05 27 dc 3d 3a a3 d2 3d
       0.10146673 0.10921211 0.1074963 0.10285039
0001d0 54 a0 e6 3d d9 e4 c7 3d 9c 85 da 3d 2a b1 d2 3d
       0.11261049 0.09760446 0.10670015 0.102876976
0001e0 6b 24 dc 3d d8 38 d5 3d 27 92 de 3d 18 c5 dc 3d
       0.10749134 0.10411233 0.1086772 0.1077978
0001f0 cc 9b d0 3d a0 44 d2 3d 0a 6b e2 3d 09 7a cc 3d
       0.10185966 0.102669954 0.11055572 0.09984214
000200 fb 69 c6 3d 44 a4 dc 3d 2a 8a 72 3e 5c 91 d6 3d
       0.09688183 0.10773519 0.23685518 0.10476944
000210 60 aa cb 3d 7b d2 dd 3d 7a 90 1b ba 9b 5a cf 3d
       0.09944606 0.108311616 -0.00059343094 0.101247035
000220 c8 47 c4 3d 4e 97 cc 3d 3f 20 df 3d f9 f5 38 3e
       0.09584004 0.099897966 0.10894822 0.18062581
000230 9b f6 d8 3d 9c e9 d9 3d d6 d2 db 3d c1 21 e2 3d
       0.10593911 0.106402606 0.10733573 0.11041594
000240 55 26 d6 3d 9f 58 07 3f 9a ce d8 3d 45 ab d2 3d
       0.1045653 0.528696 0.10586281 0.10286573
000250 ef cf d6 3d 4e 04 df 3d a7 38 07 3f 47 96 d6 3d
       0.10488879 0.10889493 0.5282082 0.10477882
000260 33 36 d4 3d 2d 98 d2 3d 58 e9 dd 3d b3 a5 26 3e
       0.103619 0.102829315 0.108355224 0.16274147
000270 f2 86 ca 3d 5a 37 cb 3d fb 8d de 3d e5 75 d0 3d
       0.0988902 0.09922667 0.108669244 0.101787366
000280 e6 d6 d5 3d c9 68 d2 3d 8f 65 cc 3d 0e 44 d9 3d
       0.10441379 0.102738924 0.09980308 0.106086835
000290 3d 90 d2 3d 4b c1 d9 3d 23 f2 74 3e 53 49 6e 3e
       0.102814175 0.10632571 0.23920493 0.23270158
0002a0 7e a2 d8 3d 26 1a c2 3d 24 47 17 3f 62 72 d8 3d
       0.10577868 0.09477644 0.59092927 0.10568692
0002b0 1c fc dd 3d d2 32 d4 3d 63 28 e1 3d 1c 1c e9 3d
       0.10839102 0.10361256 0.10994031 0.113823146
0002c0 52 8b 61 3b 85 84 c8 3d f4 76 d5 3d a2 99 c4 3d
       0.0034415317 0.09790901 0.10423079 0.09599616
0002d0 c9 a2 d8 3d 2d 59 c4 3d aa de 36 3e 0b bf e2 3d
       0.10577924 0.095873214 0.17858377 0.11071595
0002e0 5a 27 1b 3f 00 4e da 3d 7c 2f ce 3d be 8b 0c 3e
       0.6060692 0.106594086 0.10067651 0.13725182
0002f0 60 a4 da 3d 2b e5 d4 3d ed 91 0a 3f 9a da 02 bb
       0.10675883 0.10395273 0.54128915 -0.0019966722
000300 9a 0e c2 3d 56 18 dd 3d 3d f7 48 3e d6 6e d2 3d
       0.09475441 0.10795657 0.19625564 0.102750465
000310 bf 96 dd 3d d4 1a d1 3d 29 fd de 3d e8 d5 d3 3d
       0.10819768 0.10210195 0.1088813 0.10343534
000320 5c 4e db 3d 98 c1 d5 3d 8d 77 d6 3d d5 bd 05 3f
       0.10708305 0.10437316 0.10472021 0.52242786
000330 3c fa dc 3d ff 03 d5 3d 9c cc d8 bb ca 70 d0 3d
       0.10789916 0.10401153 -0.006616188 0.10177763
000340 ae 0f c7 3d 20 38 c5 3d 65 fa d1 3d 0b 7d c6 3d
       0.097197875 0.096298456 0.10252837 0.09691819
000350 18 ae d5 3d c8 11 72 3e d2 45 d6 3d 3a ab d6 3d
       0.104335964 0.23639596 0.10462536 0.104818776
000360 d7 d2 dc 3d 74 e3 cd 3d 0e 72 cd 3d e3 61 d8 3d
       0.10782402 0.10053149 0.1003152 0.105655454
000370 bd a1 cd 3d 73 e9 7b 3e c7 11 d7 3d 7e a3 d2 3d
       0.10040615 0.24600773 0.10501438 0.1028509
000380 2a 7f cf 3d 59 8c e2 3d 92 14 ff bc 9b c4 d3 3d
       0.101316765 0.110619254 -0.031137738 0.10340234
000390 28 98 e2 3d bb ae db 3d fb 5a cb 3d d3 c0 d8 3d
       0.11064178 0.107266866 0.099294625 0.10583653
0003a0 a9 99 c8 3d c2 65 4d 3e 4f 43 d3 3d c0 be d4 3d
       0.09794933 0.20058349 0.103155725 0.10387945
0003b0 41 6e d3 3d 5f 87 d6 3d 1f 02 01 bf ce 44 d2 3d
       0.10323764 0.10475039 -0.5039386 0.1026703
0003c0 1d 4f d3 3d 4b 20 da 3d 87 c1 cd 3d 01 41 cb 3d
       0.10317824 0.10650691 0.10046678 0.09924508
0003d0 51 56 cb 3d d7 1f cb 3d b5 79 e9 3d 86 2e de 3d
       0.09928573 0.09918182 0.11400167 0.108487174
0003e0 96 7f c2 3d 7c ab ce 3d cf 29 ca 3d ad 83 d0 3d
       0.09496991 0.10091302 0.098712556 0.10181365
0003f0 66 3e df 3d b4 ef db 3d 69 15 cd 3d 55 45 16 bb
       0.109005734 0.10739079 0.10013849 -0.0022929509
