Soft-Module-main/log/model50_28/model_pf_best.pth (torch, 287205 bytes, 6 tensors)

base.seq_fcs.0.weight f4 [256, 12]
-1.3559318 -0.27260056 -0.3204749 0.072735995 0.1183407 0.09611587 -0.074005246 0.107623994
0.09254873 0.12171865 0.012973602 0.08630103 -0.14131078 0.001301971 -0.24710663 0.12859757
-0.0547937 -0.08974141 0.0055417367 -0.014949131 -0.055213515 -0.05648037 -0.017851945 0.0072297473
0.04862868 0.022423616 -0.06952266 0.07007402 -0.014464607 -0.05733369 -0.0583746 -0.03866572
-0.0052549327 -0.069122516 -0.052614227 0.03509881 -0.00972964 0.0034698106 0.01941446 -0.011948462
-0.013729834 0.032883763 -0.02014834 -0.08497592 -0.03631655 0.030401586 -0.08009026 -0.02993102
-0.0022614507 -0.06944203 0.037003957 -0.016040865 0.03151747 0.018579183 -0.07609502 -0.07686134
-0.07242885 -0.02534837 -0.022406712 -0.026381228 0.022512708 -0.03590002 0.01715604 -0.0013615439
-0.059135612 -0.015150981 -0.034354046 0.002702195 0.038014516 -0.04031469 -0.07247865 0.017387692
0.41989535 -0.123608135 -0.42283955 0.012283275 -0.008573322 0.011158437 -0.036885127 0.08335562
0.059122715 -0.00999318 0.053693186 -0.009165145 0.017264916 0.019430982 0.011966018 0.02282511
-0.097102396 -0.074157886 0.0043060253 -0.05333058 -0.053102404 -0.019558853 -0.0070973653 -0.06634744
-0.00093878986 0.02264408 0.010307207 -0.021146325 -0.024782503 0.002532332 0.028311243 -0.08789387
-0.09374132 -0.017187487 -0.0262673 -0.0072938185 -0.04561715 -0.01858121 0.022170704 0.030917704
-0.0050764456 -0.09017725 -0.047015637 -0.054568995 -0.063710555 -0.009291363 -0.034648977 -0.03009156
0.69806826 -0.043483615 -0.27423513 0.05739743 0.006997512 0.011456086 0.4636262 -0.015365571
0.043084886 -0.018559001 -0.015217038 -0.04606267 1.2119944 -0.06228271 0.112281896 0.061396185
0.029131237 0.02953677 0.24167037 0.016311735 0.05028195 -0.029468164 -0.027456412 -0.03160542
-0.6147631 -0.092972316 -0.24407962 0.092296876 -0.08215443 -0.05134808 -0.004709914 -0.0880021
-0.10909516 -0.014176852 -0.010477782 -0.068542756 0.027888263 -0.08480068 0.01501058 0.041008085
0.022070898 -0.06504033 -0.09206455 -0.018538864 -0.036928944 -0.07559225 0.023522021 -0.06313305
0.010787693 0.027732152 -0.07312527 -0.0061176172 -0.028744707 -0.0385432 -0.07039676 -0.06802427
-0.019909438 0.00028558914 -0.0751204 0.02547636 -1.041383 -0.3093758 -0.3217367 0.115656555
0.05984006 0.02614257 0.062086686 0.10397129 0.103063956 0.06234516 0.014221902 0.092788465
-0.024315743 -0.053325098 0.03365832 0.0680827 -0.0050825 -0.036796264 -0.024537416 -0.06322978
-0.023075216 -0.011667054 -0.040787164 0.04986819 -0.020428719 -0.060169216 -0.08546305 0.027983926
-0.022001322 -0.032142356 -0.05340191 0.0014822495 -0.023398168 -0.020830553 -0.013453694 -0.07919749
-0.05996572 -0.008570144 -0.060308386 -0.019979531 -0.045593254 -0.0618157 0.028106209 -0.027040482
-0.082217135 -0.07995763 -0.03366118 0.03606698 -1.5881722 -0.1895233 -0.15591332 0.15105914
0.024761422 0.016556699 -0.061994385 0.0458589 -0.018973833 0.011863997 0.007696249 0.034628835
0.07228245 -0.048905917 -0.03513218 0.020218138 -0.019830085 -0.009117203 -0.05585138 -0.023977537
-0.00057629595 -0.099879436 0.0066065565 -0.0982942 -0.032858282 -0.055132534 -0.02250765 0.07410189
00000000: 2c8f adbf 4d92 8bbe 4915 a4be 9cf6 943d
00000010: 9c5c f23d 66d8 c43d 1090 97bd f869 dc3d
00000020: 308a bd3d a147 f93d 3b8f 543c 98be b03d
00000030: c6b3 10be e6a6 aa3a 8509 7dbe 15af 033e
00000040: 5c6f 60bd 58ca b7bd 7597 b53b 33ed 74bc
00000050: 9127 62bd f657 67bd 3e3e 92bc 84e7 ec3b
00000060: de2e 473d bbb1 b73c e561 8ebd f882 8f3d
00000070: f6fc 6cbc bbd6 6abd 341a 6fbd f25f 1ebd
00000080: 9231 acbb 1b90 8dbd 0482 57bd c5c3 0f3d
00000090: 1169 1fbc c365 633b 130b 9f3c 7bc3 43bc
000000a0: 19f3 60bc 20b1 063d 220e a5bc db07 aebd
000000b0: aac0 14bd bf0c f93c 5d06 a4bd e631 f5bc
000000c0: d934 14bb 9f37 8ebd 7691 173d 2268 83bc
000000d0: 7618 013d 5f33 983c b5d7 9bbd 7a69 9dbd
000000e0: 9455 94bd 63a7 cfbc 488e b7bc 721d d8bc
000000f0: 926c b83c e60b 13bd d38a 8c3c d575 b2ba
00000100: 2f38 72bd d23b 78bc d4b6 0cbd 4f17 313b
00000110: 1cb5 1b3d 0421 25bd b06f 94bd a270 8e3c
00000120: 86fc d63e 4326 fdbd 6d7e d8be ca3f 493c
00000130: 1e77 0cbc e0d1 363c dc14 17bd 5ab6 aa3d
00000140: a92a 723d 6fba 23bc 63ed 5b3d 6829 16bc
00000150: 276f 8d3c b92d 9f3c 1e0d 443c bafb ba3c
00000160: 9fdd c6bd 17e0 97bd 8f19 8d3b 2b71 5abd
00000170: e881 59bd e339 a0bc 0491 e8bb 2be1 87bd
00000180: 1f19 76ba 1480 b93c 8fdf 283c 0f3b adbc
00000190: ad04 cbbc 7bf5 253b fbec e73c b401 b4bd
000001a0: 73fb bfbd c6cc 8cbc 852e d7bc fc00 efbb
000001b0: 0cd9 3abd 9f37 98bc 569f b53c 2047 fd3c
000001c0: 5058 a6bb daae b8bd 7893 40bd bd83 5fbd
000001d0: ae7a 82bd cd3a 18bc 16ec 0dbd 9382 f6bc
000001e0: 9ab4 323f e01b 32bd 8c68 8cbe 9119 6b3d
000001f0: 634b e53b 4fb2 3b3c 6a60 ed3e e0bf 7bbc
00000200: c779 303d 0c09 98bc e250 79bc 36ac 3cbd
00000210: a222 9b3f 281c 7fbd 0df4 e53d 917a 7b3d
00000220: a2a4 ee3c 19f7 f13c 7078 773e 30a0 853c
00000230: 72f4 4d3d 3867 f1bc 45ec e0bc af74 01bd
00000240: 1d61 1dbf 4568 bebd 02f0 79be 2506 bd3d
00000250: 9540 a8bd 5d52 52bd 9f55 9abb 723a b4bd
00000260: 496d dfbd 0746 68bc 01ab 2bbc 2560 8cbd
00000270: ed75 e43c fbab adbd f0ee 753c 18f8 273d
00000280: 07ce b43c dd33 85bd 578c bcbd d1de 97bc
00000290: ce42 17bd 1cd0 9abd 41b1 c03c e74b 81bd
000002a0: ddbe 303c 8a2e e33c b4c2 95bd 4b76 c8bb
000002b0: 057a ebbc 79df 1dbd 2d2c 90bd 4f50 8bbd
000002c0: 1e19 a3bc 20bb 9539 b9d8 99bd cdb3 d03c
000002d0: 0a4c 85bf 8166 9ebe acba a4be 58dd ec3d
000002e0: da1a 753d f128 d63c 9c4e 7e3d e6ee d43d
000002f0: 3213 d33d a35d 7f3d fb02 693c e107 be3d
00000300: cf31 c7bc 6b6b 5abd 4edd 093d f16e 8b3d
00000310: 1a8b a6bb aeb7 16bd b102 c9bc 9d7e 81bd
00000320: 3c08 bdbc 2c27 3fbc 7110 27bd 9642 4c3d
00000330: 215a a7bc ff73 76bd 4007 afbd 8c3e e53c
00000340: 1e3c b4bc b4a7 03bd f6bb 5abd 0a48 c23a
00000350: 84ad bfbc d6a4 aabc e26c 5cbc 4b32 a2bd
00000360: 9d9e 75bd ca69 0cbc ed05 77bd 1dac a3bc
00000370: febf 3abd 7632 7dbd fe3e e63c 0084 ddbc
00000380: 7561 a8bd d3c0 a3bd 4ee0 09bd f8ba 133d
00000390: 3a49 cbbf 6512 42be bea7 1fbe 3faf 1a3e
000003a0: 77d8 ca3c eaa1 873c d3ed 7dbd 8bd6 3b3d
000003b0: 036f 9bbc 3661 423c d130 fc3b f7d6 0d3d
000003c0: d208 943d 9251 48bd c3e6 0fbd 82a0 a53c
000003d0: b472 a2bc 5260 15bc 6bc4 64bd 8a6c c4bc
000003e0: 9112 17ba 978d ccbd d07b d83b 784e c9bd
000003f0: 6896 06bd a7d2 61bd f761 b8bc bbc2 973d

base.seq_fcs.0.bias f4 [256]
0.16079211 0.06033621 0.06806151 0.07760318 0.07616637 0.079210095 0.13077867 0.059001908
0.06782755 0.0720432 0.109750815 0.094348855 0.044864893 0.06581921 0.06924351 0.15427545
0.09075915 0.067901865 0.07541124 0.10919834 0.058050733 0.07298431 0.114417076 0.07599431
0.03497353 0.074944824 0.07789924 0.05223599 0.084003516 0.07494348 0.055239774 0.031420976
0.06647515 0.1 0.081075676 0.061921958 0.07307236 0.060861308 0.11096789 0.074608184
0.117566176 0.07044836 0.07697894 0.06569173 0.060769126 0.049359545 0.076473325 0.1403749
0.05169838 0.06793679 0.06519825 0.0563641 0.07155484 0.07072224 0.07703458 0.07591194
0.077237785 0.06680612 0.078507766 0.10381959 0.070060395 0.065226234 0.07413955 0.076072365
0.12398342 0.087571576 0.06320581 0.067596845 0.06061242 0.07498713 0.063469514 0.05846719
0.094579645 0.13767797 0.073953874 0.067914255 0.050457906 0.05503251 0.084890485 0.058627933
0.05010083 0.046845965 0.1 0.055868182 0.089004114 0.07497465 0.07910268 0.07392919
0.066416726 0.040437058 0.15685458 0.05003605 0.1490794 0.029149668 0.06846772 0.056962073
0.08218278 0.076001905 0.082144156 0.07860732 0.07466951 0.06316965 0.065873295 0.058920726
0.08768345 0.07991475 0.07178188 0.08817975 0.06189496 0.1745902 0.057357337 0.16885857
0.06968568 -0.004722489 0.06384516 0.080088675 0.07685684 0.0647741 0.068408966 0.11130484
0.06977085 0.07886347 0.036337227 0.1 0.06568651 0.05836846 0.08734468 0.08068172
0.07706581 0.06706532 0.07544172 0.08686236 0.07827217 0.08265777 0.07675414 0.07066969
0.07848918 0.089099236 0.10158171 0.06265207 0.07420173 0.065332524 0.037887346 0.0713842
0.06342812 0.079870135 0.035043783 0.053295966 0.05232477 0.08099682 0.0622272 0.08886093
0.056664355 0.081707895 0.0760922 0.0732977 0.07172855 0.08605207 0.030274762 0.067006014
0.12228784 0.054378543 0.06568628 0.05612648 0.06938669 0.0846873 0.06712666 0.07805083
0.14028433 0.12035509 0.14985529 0.078968436 0.09137941 0.072289005 0.08841019 0.07908095
0.08325889 0.060878467 0.06843533 0.06751285 0.08470035 0.064129554 0.08562179 0.06429736
0.063258745 0.07159585 0.06895695 0.07791158 0.0702783 0.07713138 0.06474491 0.10589077
0.069828205 0.051691245 0.07599255 0.07466795 0.07699214 0.11277421 0.048715904 0.06615466
0.06597132 0.07742716 0.0366712 0.15104249 0.084954835 0.07811514 0.06492809 0.081655554
0.0601263 0.08193609 0.053285215 0.0807584 0.07146595 0.08549751 0.0700442 0.12607493
0.07597481 0.105992846 0.06542593 0.047679722 0.07481821 0.054809406 0.060546707 0.06559925
0.094454266 0.0654118 0.070611395 0.0638997 0.08884642 0.030525591 0.050360695 0.04382786
0.1164171 0.08246338 0.06670687 0.03863102 0.06998748 0.048669953 0.072232604 0.07110751
0.06712116 0.071734175 0.05299532 0.06710425 0.03628637 0.07779486 0.068308264 0.037725676
0.07824732 0.056219645 0.048420146 0.050491452 0.07572749 0.09419337 0.07552987 0.08254379
00000000: b0a6 243e 1a23 773d d563 8b3d 6bee 9e3d
00000010: 1dfd 9b3d e738 a23d d8ea 053e fcab 713d
00000020: 2ce9 8a3d 638b 933d 09c5 e03d f939 c13d
00000030: 40c4 373d 39cc 863d 8bcf 8d3d 62fa 1d3e
00000040: efdf b93d 2210 8b3d 3571 9a3d 61a3 df3d
00000050: 9bc6 6d3d cc78 953d 8053 ea3d e8a2 9b3d
00000060: 6740 0f3d ac7c 993d a389 9f3d 68f5 553d
00000070: 090a ac3d f87b 993d 1a43 623d 48b3 003d
00000080: 2024 883d cdcc cc3d 010b a63d e1a1 7d3d
00000090: f6a6 953d b549 793d 2243 e33d 2dcc 983d
000000a0: 89c6 f03d 3b47 903d 22a7 9d3d 6389 863d
000000b0: 0ce9 783d 3c2d 4a3d 0c9e 9c3d 70be 0f3e
000000c0: aec1 533d 7222 8b3d a986 853d 0bde 663d
000000d0: 588b 923d d2d6 903d 4ec4 9d3d b877 9b3d
000000e0: d82e 9e3d a6d1 883d aec8 a03d 5d9f d43d
000000f0: d37b 8f3d 5595 853d 7ad6 973d d4cb 9b3d
00000100: 05eb fd3d ba58 b33d 0c72 813d 3770 8a3d
00000110: bb44 783d da92 993d 4efc 813d 4b7b 6f3d
00000120: f9b2 c13d 74fb 0c3e 2175 973d a116 8b3d
00000130: f3ac 4e3d c569 613d 10db ad3d d823 703d
00000140: 8736 4d3d 8ee1 3f3d cdcc cc3d 09d6 643d
00000150: ca47 b63d 4f8c 993d 9600 a23d 3068 973d
00000160: 7e05 883d 54a1 253d 7d9e 203e 9af2 4c3d
00000170: 45a8 183e 49cb ee3c ce38 8c3d 1051 693d
00000180: 724f a83d e3a6 9b3d 323b a83d e0fc a03d
00000190: 54ec 983d 175f 813d 94e8 863d dc56 713d
000001a0: 6193 b33d 58aa a33d 6102 933d 9697 b43d
000001b0: 9285 7d3d c6c7 323e 87ef 6a3d 43e9 2c3e
000001c0: 5eb7 8e3d 1cbf 9abb 40c1 823d 8805 a43d
000001d0: 1e67 9d3d 49a8 843d 001a 8c3d cbf3 e33d
000001e0: 05e4 8e3d 2c83 a13d 58d6 143d cdcc cc3d
000001f0: a686 863d c413 6f3d c5e1 b23d 753c a53d
00000200: aed4 9d3d 8b59 893d 3081 9a3d e5e4 b13d
00000210: 294d a03d 7a48 a93d 4631 9d3d 45bb 903d
00000220: efbe a03d a979 b63d 120a d03d ba4f 803d
00000230: 14f7 973d 0fcd 853d c32f 1b3d e131 923d
00000240: 9ae6 813d f492 a33d 128a 0f3d df4c 5a3d
00000250: 7f52 563d a9e1 a53d f3e1 7e3d b8fc b53d
00000260: e218 683d 7856 a73d 3ad6 9b3d 1b1d 963d
00000270: 6be6 923d 113c b03d c702 f83c 733a 893d
00000280: 0c72 fa3d 09bc 5e3d 8786 863d e1e4 653d
00000290: 9c1a 8e3d 8970 ad3d b479 893d 1dd9 9f3d
000002a0: b2a6 0f3e bb7c f63d aa73 193e 34ba a13d
000002b0: 2125 bb3d 420c 943d 6710 b53d 31f5 a13d
000002c0: a383 aa3d b35b 793d d327 8c3d 2d44 8a3d
000002d0: 6177 ad3d 5b56 833d 7a5a af3d 56ae 833d
000002e0: cd8d 813d d8a0 923d 4d39 8d3d 1b90 9f3d
000002f0: 12ee 8f3d 0ff7 9d3d fb98 843d 43dd d83d
00000300: 1702 8f3d 33ba 533d fba1 9b3d 83eb 983d
00000310: 0eae 9d3d 2af6 e63d 548a 473d 187c 873d
00000320: f91b 873d 2292 9e3d 8a34 163d e2aa 1a3e
00000330: cdfc ad3d d5fa 9f3d 05f9 843d 073b a73d
00000340: ff46 763d 1cce a73d 9941 5a3d a964 a53d
00000350: bd5c 923d 5219 af3d 5573 8f3d c919 013e
00000360: ae98 9b3d c712 d93d 08fe 853d d04b 433d
00000370: 4a3a 993d d47f 603d d3ff 773d e658 863d
00000380: 3d71 c13d 9ff6 853d b59c 903d d9dd 823d
00000390: 1df5 b53d ce10 fa3c 0447 4e3d d884 333d
000003a0: 176c ee3d 90e2 a83d 9d9d 883d 8f3b 1e3d
000003b0: 9955 8f3d 255a 473d b0ee 933d d0a0 913d
000003c0: d276 893d 5ee9 923d 9f11 593d f46d 893d
000003d0: 04a1 143d e952 9f3d 34e5 8b3d 3d86 1a3d
000003e0: 2240 a03d 9246 663d 3454 463d 20d0 4e3d
000003f0: 0417 9b3d 74e8 c03d 68af 9a3d b80c a93d

base.seq_fcs.2.weight f4 [256, 256]
0.01417683 -0.007502245 -0.028740508 0.015005061 0.016382782 -0.008665464 0.04657381 0.06126989
-0.003166206 0.037249018 -0.046544366 -0.051181134 -0.06336416 0.0320812 -0.051077742 -0.104482174
-0.044036373 0.0044048033 0.0013057806 -0.0069143595 -0.05514533 -0.020872656 -0.025695497 -0.0037228896
-0.06320885 0.032435145 -0.0006852399 -0.008187767 -0.04651662 0.006640222 0.022800684 0.025738798
-0.05996321 -0.056338012 0.015342055 0.02671438 0.05116738 0.029254831 -0.0095876325 0.0240448
-0.055667557 0.057184868 -0.006534736 0.04797959 -0.038389903 -0.052464012 0.008930156 0.023418615
-0.026258107 -0.026161164 -0.042677876 0.053880677 0.030204149 0.02113058 -0.04854547 0.04902361
0.01844997 -0.015186262 -0.006892177 -0.066518225 0.056967188 -0.057213727 0.060439818 0.023599137
-0.07422376 -0.054735623 0.056015495 0.033052824 -0.046733752 0.009564241 -0.04119259 -0.056077193
0.05316107 0.031802546 0.0009706652 0.009988863 -0.049037863 -0.02323148 0.034918655 0.029956704
-0.081667095 0.015123546 0.054741837 -0.044764347 0.057287987 -0.02781863 -0.02255622 0.008391649
0.02450106 -0.017086504 -0.08031128 0.03458277 0.0061449916 -0.012920564 -0.0006473618 0.060819577
0.047241278 -0.06394748 0.050097644 0.049748775 -0.045574315 0.025294943 0.026003448 -0.069112785
0.048605707 0.051552102 0.052667223 0.047110204 -0.056472227 0.0043352405 0.02447743 -0.08726143
-0.05183522 -0.05532117 0.003792618 -0.0023221206 -0.004444187 0.049136706 -0.005894615 -0.056588482
0.039456744 0.013357456 0.031975634 0.04773005 0.008742269 -0.076465055 -0.014997943 0.0570589
-0.049457252 0.029153503 -0.011439083 0.006789468 -0.049748916 0.013100503 -0.033083238 -0.0026604966
-0.052920718 -0.03477964 -0.10446603 0.023236139 0.0032150222 -0.0463208 -0.07498849 -0.04554077
-0.024033424 0.042932805 -0.09617897 0.04640916 -0.08302254 0.015329543 0.037872896 -3.601007e-05
-0.053217843 -0.04949425 -0.0285652 -0.002849387 -0.0063323537 0.018038925 -0.039420113 -0.0062867734
-0.02481362 -0.048278913 -0.049366947 0.006397706 -0.00076745375 -0.049893796 0.0130143985 -0.010551395
-0.0746585 -0.0017803912 0.02713515 0.05009741 -0.061070886 0.03146097 -0.06006103 -0.0023126786
-0.0110599995 -0.02964351 0.030435648 0.028694848 0.033449527 -0.027561024 0.03562997 0.024043826
0.03325336 0.048445053 -0.051859986 0.0063899476 -0.009380971 -0.05928022 0.048942737 -0.08828372
-0.035197455 -0.03523362 -0.031482633 0.06224567 -0.014993313 -0.08209635 -0.06154282 0.02976763
0.004861112 -0.013548455 -0.051958513 0.024413764 -0.046079703 0.007796811 0.04795928 0.04209079
0.004108686 -0.017812762 0.032015465 -0.003243131 -0.005222979 0.018817605 -0.037920915 0.0040475596
0.041684475 0.024401803 0.02708759 -0.019723319 0.050236344 -0.05010459 -0.039592978 -0.060100537
0.023073897 0.005058109 -0.013974285 0.028941406 -0.09803193 -0.03504825 -0.00627447 0.013117725
0.03679222 -0.053721108 -0.039382234 -0.07538514 -0.052821882 -0.09451614 -0.009598557 -0.0036154683
0.046747167 -0.02842773 -0.07757397 0.036282253 -0.0070014484 -0.020920603 -0.056509253 -0.0063036554
-0.06002679 0.019077947 -0.081524335 0.03173358 0.06075094 -0.046483524 0.03054717 0.013391493
00000000: ef45 683c 64d5 f5bb 3771 ebbc cad7 753c
00000010: 2f35 863c 97f9 0dbc 2ec4 3e3d 23f6 7a3d
00000020: 1f80 4fbb 6d92 183d 4ea5 3ebd 4fa3 51bd
00000030: 12c5 81bd 9467 033d e536 51bd c0fa d5bd
00000040: 7c5f 34bd 2b56 903b ba26 ab3a da91 e2bb
00000050: 12e0 61bd 22fd aabc 5d7f d2bc b9fb 73bb
00000060: a473 81bd b7da 043d aca1 33ba fc25 06bc
00000070: 3688 3ebd 3896 d93b 80c8 ba3c 2cda d23c
00000080: fc9b 75bd b0c2 66bd 3e5d 7b3c 1ed8 da3c
00000090: e394 513d d4a7 ef3c 7215 1dbc 9af9 c43c
000000a0: aa03 64bd ae3a 6a3d 5721 d6bb 3f86 443d
000000b0: bb3e 1dbd 81e4 56bd ca4f 123c 65d8 bf3c
000000c0: 3e1b d7bc f04f d6bc ffce 2ebd fcb1 5c3d
000000d0: b16e f73c 0a1a ad3c 9dd7 46bd fbcc 483d
000000e0: 6424 973c cdcf 78bc c5d7 e1bb b53a 88bd
000000f0: 6d56 693d f158 6abd be8f 773d fa52 c13c
00000100: a002 98bd 7632 60bd 8170 653d 6662 073d
00000110: e46b 3fbd 56b3 1c3c 90b9 28bd 33b1 65bd
00000120: 6cbf 593d 6343 023d 3d74 7e3a 54a8 233c
00000130: eddb 48bd f24f bebc dd06 0f3d c367 f53c
00000140: 1441 a7bd c0c8 773c fa38 603d d25a 37bd
00000150: cfa6 6a3d e5e3 e3bc d2c7 b8bc 217d 093c
00000160: 72b6 c83c fff8 8bbc 3e7a a4bd aaa6 0d3d
00000170: ed5b c93b c6b0 53bc b7b3 29ba f31d 793d
00000180: 1280 413d e5f6 82bd 3033 4d3d 5fc5 4b3d
00000190: 22ac 3abd 5737 cf3c 2f05 d53c 018b 8dbd
000001a0: c716 473d 4c28 533d 96b9 573d a1f6 403d
000001b0: 6c4f 67bd a20e 8e3b e484 c83c 1fb6 b2bd
000001c0: 2b51 54bd 7398 62bd 928d 783b b82e 18bb
000001d0: 8ba0 91bb 9243 493d 9d27 c1bb 53c9 67bd
000001e0: 659d 213d 3bd9 5a3c e2f8 023d 9680 433d
000001f0: bc3b 0f3c b699 9cbd efb9 75bc 98b6 693d
00000200: b093 4abd 54d3 ee3c fe6a 3bbc 307a de3b
00000210: 85c5 4bbd 7ea3 563c 4a82 07bd ba5b 2ebb
00000220: 65c3 58bd 1975 0ebd 49f2 d5bd b759 be3c
00000230: 1fb3 523b e1ba 3dbd 9193 99bd f588 3abd
00000240: bee1 c4bc 4fda 2f3d 7bf9 c4bd 8817 3e3d
00000250: b907 aabd c328 7b3c 9c20 1b3d 8509 17b8
00000260: f4fa 59bd 7cba 4abd 9101 eabc c8bc 3abb
00000270: a27f cfbb 5ec6 933c fc76 21bd 4701 cebb
00000280: ef45 cbbc 1cc0 45bd ff34 4abd d9a3 d13b
00000290: f32e 49ba 705d 4cbd 583a 553c c2df 2cbc
000002a0: 8ee6 98bd 045c e9ba 894a de3c f132 4d3d
000002b0: 7725 7abd 38dd 003d 8e02 76bd 4f90 17bb
000002c0: 0035 35bc f2d6 f2bc 2e54 f93c 7511 eb3c
000002d0: 5f02 093d a8c7 e1bc bbf0 113d 8ff7 c43c
000002e0: ad34 083d 526e 463d 236b 54bd c462 d13b
000002f0: a5b2 19bc d1cf 72bd 2e78 483d 18ce b4bd
00000300: 352b 10bd 2151 10bd eff3 00bd 51f5 7e3d
00000310: 83a6 75bc 2222 a8bd 5314 7cbd 3fdb f33c
00000320: f749 9f3b 57fa 5dbc 73d2 54bd 60ff c73c
00000330: 12be 3cbd 647c ff3b f370 443d 6467 2c3d
00000340: 28a2 863b 12ec 91bc a622 033d b68a 54bb
00000350: 8625 abbb 6127 9a3c f652 1bbd 64a1 843b
00000360: 57bd 2a3d 4ae6 c73c cbe6 dd3c cc92 a1bc
00000370: a0c4 4d3d 783a 4dbd 3f2c 22bd fb2b 76bd
00000380: 7805 bd3c 7ebe a53b 66f4 64bc 8716 ed3c
00000390: f7c4 c8bd c18e 0fbd 129a cdbb baeb 563c
000003a0: 70b3 163d aa0a 5cbd 444f 21bd 8663 9abd
000003b0: c25b 58bd ae91 c1bd 4443 1dbc 7ef1 6cbb
000003c0: f579 3f3d 45e1 e8bc 1adf 9ebd b39c 143d
000003d0: 686c e5bb af61 abbc 3f76 67bd e58e cebb
000003e0: a7de 75bd 5b49 9c3c 3bf6 a6bd 12fb 013d
000003f0: fad5 783d 8265 3ebd 0f3e fa3c fe67 5b3c

base.seq_fcs.2.bias f4 [256]
0.038193844 0.04202576 0.064420894 0.046955895 0.061013848 0.05110374 0.060713004 0.0580975
0.058708794 0.06725534 0.04514264 0.04371441 0.051544152 0.066640876 0.06344425 0.0590179
0.049430512 0.07993116 0.049282916 0.0428473 0.03973969 0.054616503 0.049428567 0.05262014
0.064855084 0.060542807 0.066410564 0.109620646 0.05139228 0.047617685 0.046820942 0.039790347
0.05222934 0.0749175 0.045716565 0.18968703 0.051704727 0.06768355 0.051134665 0.042091224
-0.0050732666 0.042447627 0.06095596 0.059777606 0.059899684 0.043979477 0.065377794 0.059349056
-0.044924505 0.061770007 0.11673237 0.044002492 0.039617885 0.048810255 0.0064392146 0.12963879
0.042900622 0.070434 0.04470341 0.035098433 0.11304637 0.04109356 0.06409894 0.0055064317
0.068414554 0.031634778 0.07615821 0.04402322 0.039576165 0.0496004 0.05829202 0.06463939
0.06468957 0.06410911 0.05051578 0.06376944 0.05425366 0.053716328 0.046321075 0.05124866
0.047443356 0.046460204 0.042615157 0.039916918 0.054200117 0.05904047 0.05890882 0.05462072
0.07235515 0.056819465 0.035623167 0.07606142 0.07307616 0.06349644 0.042475946 0.046021115
0.047697816 0.05211436 0.04361786 0.043610148 0.026861953 0.051041577 0.06337577 0.065232806
0.03970341 0.057368122 0.046756253 0.11195185 0.073020376 0.040592127 0.04994923 0.044360586
0.039711352 0.044904612 0.052115392 0.06334756 0.06583449 0.056151446 0.046526115 0.055667408
0.053726625 0.054324336 0.008037449 0.041509185 0.053425133 0.062400088 -0.016823212 0.045347605
0.05239958 0.043174148 0.06349114 0.04537843 0.058656525 0.05339703 0.050287932 0.08209343
0.05644493 0.05614384 0.04730743 0.036687043 0.063914284 0.033058643 0.055829164 -0.0011754727
0.030949125 0.052801188 0.037152782 0.07050619 0.03256264 0.06443266 0.05072183 0.0702581
0.05106356 0.047685638 0.035937592 0.08478962 0.033192568 0.048928715 0.041708846 0.046822023
0.02843847 0.062148277 0.0511539 0.036657713 0.06330848 0.20218356 0.061938092 0.05640695
0.045853674 0.051701665 0.052186925 0.065325536 0.04392498 0.054049153 0.07568417 0.05298305
0.050649542 0.052751068 0.047100697 0.1357904 0.04217698 0.047989875 0.1730506 0.044102486
0.036850996 0.0032124894 0.055511124 0.03272095 0.06596608 0.09963806 0.068428725 0.029977236
0.07008258 0.04877708 0.064059556 0.058185004 0.04594829 0.034841254 0.05406762 0.04579162
0.038717296 0.034813274 0.033829343 0.05135891 0.056674946 0.05457852 0.1622354 0.066452675
0.050664145 0.052190207 0.031196639 0.057768036 0.049155284 0.036524136 0.18724552 0.046225052
0.049963303 0.0647978 0.038980376 0.05373922 0.18255559 0.05707594 0.03637561 0.04087153
0.057990804 0.050661743 0.06950956 0.049442954 0.046830907 0.04770655 0.062358413 0.06491573
0.11935053 0.0581977 0.05349376 0.04799968 0.061062925 0.048345886 0.051092383 0.03894169
0.0103121 0.058445267 0.05097283 0.057942167 0.047415696 0.044661086 0.13225031 0.057204824
0.061609235 0.051161207 0.046127766 0.04082425 0.043642707 0.045203894 0.054092895 0.040874764
00000000: 2671 1c3d 3423 2c3d 1aef 833d d354 403d
00000010: a8e9 793d 2852 513d 33ae 783d a5f7 6d3d
00000020: a278 703d 2bbd 893d 7de7 383d e20d 333d
00000030: f61f 533d 037b 883d 0fef 813d c1bc 713d
00000040: a677 4a3d f3b2 a33d e2dc 493d a780 2f3d
00000050: 16c6 223d 8eb5 5f3d 9c75 4a3d 3788 573d
00000060: bed2 843d bcfb 773d 4302 883d ca80 e03d
00000070: b680 523d c30a 433d 51c7 3f3d 34fb 223d
00000080: 6fee 553d 596e 993d 4b41 3b3d 513d 423e
00000090: 56c8 533d ac9d 8a3d 9572 513d d967 2c3d
000000a0: a53d a6bb 90dd 2d3d f5ac 793d 5dd9 743d
000000b0: 5f59 753d d323 343d cbe4 853d ff17 733d
000000c0: c202 38bd 8c02 7d3d 6111 ef3d f53b 343d
000000d0: 5d46 223d 43ed 473d 0c00 d33b 08c0 043e
000000e0: 90b8 2f3d b33f 903d ec1a 373d 60c3 0f3d
000000f0: db84 e73d b951 283d 4e46 833d 4c6f b43b
00000100: ee1c 8c3d 7893 013d d6f8 9b3d b151 343d
00000110: 9e1a 223d ca29 4b3d 9dc3 6e3d a861 843d
00000120: f77b 843d a34b 833d a2e9 4e3d 8d99 823d
00000130: 1639 5e3d a705 5c3d 2bbb 3d3d 1dea 513d
00000140: f753 423d 0e4d 3e3d 3b8d 2e3d ec7f 233d
00000150: f100 5e3d 6bd4 713d 604a 713d fab9 5f3d
00000160: f02e 943d 87bb 683d 99e9 113d 17c6 9b3d
00000170: f4a8 953d 6c0a 823d 42fb 2d3d a380 3c3d
00000180: c95e 433d de75 553d a4a8 323d 8ea0 323d
00000190: 990d dc3c f910 513d 28cb 813d c798 853d
000001a0: 0ba0 223d d6fa 6a3d 7c83 3f3d 0347 e53d
000001b0: b58b 953d ee43 263d 9097 4c3d 72b3 353d
000001c0: 5fa8 223d e6ed 373d f376 553d 5ebc 813d
000001d0: 3cd4 863d 0fff 653d 2b92 3e3d 8203 643d
000001e0: 7310 5c3d 3283 5e3d 81af 033c 8905 2a3d
000001f0: 50d4 5a3d 3c97 7f3d d5d0 89bc 69be 393d
00000200: f1a0 563d 60d7 303d a507 823d bcde 393d
00000210: d341 703d d8b6 5a3d b8fa 4d3d 9a20 a83d
00000220: cd32 673d 15f7 653d 70c5 413d 2745 163d
00000230: 7ee5 823d 8068 073d 1fad 643d 5212 9aba
00000240: 0589 fd3c 0f46 583d 842d 183d 8d65 903d
00000250: 6760 053d 45f5 833d b2c1 4f3d 7be3 8f3d
00000260: 0628 513d 0452 433d 4c33 133d 2ea6 ad3d
00000270: eef4 073d 7a69 483d e5d6 2a3d 73c8 3f3d
00000280: cbf7 e83c 318f 7e3d c086 513d 6626 163d
00000290: e0a7 813d 3509 4f3e ccb2 7d3d f90a 673d
000002a0: 10d1 3b3d 20c5 533d f5c1 553d 65c9 853d
000002b0: aeea 333d a562 5d3d 4d00 9b3d c104 593d
000002c0: e575 4f3d 8111 583d a9ec 403d a30c 0b3e
000002d0: c5c1 2c3d 0891 443d 2d34 313e cfa4 343d
000002e0: 12f1 163d a188 523b a25f 633d 6706 063d
000002f0: 3919 873d 0a0f cc3d 5c24 8c3d d292 f53c
00000300: 7587 8f3d 7aca 473d a831 833d 6653 6e3d
00000310: 4634 3c3d b4b5 0e3d 0276 5d3d fe8f 3b3d
00000320: 0796 1e3d 5d98 0e3d a390 0a3d b85d 523d
00000330: fd23 683d ba8d 5f3d 0921 263e 5718 883d
00000340: 3585 4f3d 66c5 553d 1890 ff3c 2d9e 6c3d
00000350: 0d57 493d 559a 153d 4abd 3f3e 7b56 3d3d
00000360: 52a6 4c3d b5b4 843d e3a9 1f3d a81d 5c3d
00000370: daef 3a3e 76c8 693d 97fe 143d e868 273d
00000380: c487 6d3d b082 4f3d 075b 8e3d b284 4a3d
00000390: c4d1 3f3d f267 433d 896b 7f3d 8af2 843d
000003a0: 0d6e f43d b660 6e3d 461c 5b3d 509b 443d
000003b0: 1e1d 7a3d 5606 463d 3f46 513d 5281 1f3d
000003c0: 15f4 283c 4e64 6f3d e3c8 503d c454 6d3d
000003d0: f636 423d 8bee 363d a06c 073e 9b4f 6a3d
000003e0: f759 7c3d 6a8e 513d 78f0 3c3d 5437 273d
000003f0: b2c2 323d b827 393d 8390 5d3d 4c6c 273d

last.weight f4 [8, 256]
-0.011386815 0.002908081 -0.029178526 0.00273465 -0.015264869 0.006101859 -0.01407174 -0.024551425
-0.018822426 -0.018496428 0.007505604 -0.009640863 -0.0060457415 -0.018456107 -0.03398293 -0.0019352945
-8.5410145e-05 -0.10224519 -0.00029471316 -0.0015560874 0.0058860327 -0.0018796441 -0.0048682806 -0.021702573
-0.0039452612 -0.030242944 -0.28469637 -0.22242577 -0.0063764094 0.0007317177 0.0026947663 0.00068337144
0.019058865 -0.076550856 -0.0051682605 -0.13820979 -0.004206453 -0.023557631 0.0045901337 2.0931925e-06
0.9800544 0.0052212863 -0.028640388 0.015337666 -0.020380545 -0.17073566 0.61155576 -0.023397915
0.14637361 -0.027368344 0.40485302 0.0073459577 0.0021362323 0.004649543 0.019114848 -0.16503662
0.009164439 -0.04783549 -0.0054460783 -0.0016538587 -0.14605123 0.0070237406 -0.038454425 -0.11150043
-0.028722383 0.00010111247 -0.028521268 -0.027654028 -0.000841459 -0.0017834146 0.00380488 -0.00091331644
-0.009818869 -0.030960493 -0.027985262 -0.018067898 0.0016149099 -0.0140638575 0.01159705 -0.001404151
-0.0379983 -0.006436781 0.0058439253 -0.016578397 0.003348631 -0.038597688 -0.0064778305 0.009425245
-0.045367997 -0.012114385 0.051039755 -0.05481772 -0.035813138 -0.007697977 0.0053419904 0.006719014
0.0055112247 0.0018986295 0.00089186284 -0.0018975557 0.0039750277 -0.003561529 -0.01289174 0.0035734584
-0.009375479 0.0025080082 0.0037953125 0.5298853 -0.034633975 -0.003604356 -0.003397971 -0.0014079125
-0.003788604 -0.002554035 0.0025372037 -0.020457383 -0.038910173 0.0012488696 0.006537988 0.008585173
-0.00026714205 -0.011051786 0.11361786 -0.0010348695 0.015574922 -0.03197027 0.0063821883 0.0005209701
-0.0029328563 0.015235561 -0.02550499 0.005286379 -0.037374236 -0.0043748077 -0.018415743 -0.07149317
-0.020187957 -0.005579504 -0.010986961 0.0031590569 -0.028456995 -0.010037186 0.003522732 -0.060229268
-0.005369278 -0.001886127 0.008832086 -0.046227522 0.005684856 0.0013381476 -0.0064904327 -0.032164264
0.005374982 0.0008049669 -0.0042031566 -0.37363744 0.006356518 0.0005199353 0.00548946 0.01167807
0.011790571 -0.0017145518 0.0074410015 0.006653937 0.004844782 -0.082434945 -0.07455002 -0.121436514
0.00256301 -0.00021025023 -0.005128204 -0.0025690263 0.0039612413 -0.008943425 -0.16207479 0.0035947894
0.0006225867 0.0077951215 0.0044626924 0.32336873 0.0040278384 -0.002422361 -0.18857138 -0.004869873
0.002388221 0.10222408 0.016163489 0.00080492 -0.014156475 -0.073806986 -0.038069353 0.004587917
-0.023049792 0.003960689 -0.023207184 0.00818283 -0.010818491 0.0041911956 -0.025497375 0.004481683
0.03995586 -0.19244866 -0.0077528134 -0.0009959798 0.0018056569 -0.004436819 -0.0978191 -0.02022203
-0.00046737894 0.010525716 0.14094388 0.0057696323 -0.0024710686 0.005393461 -0.096510544 -0.008486298
0.031327166 -0.01734127 0.008677526 -0.18413241 0.30195713 -0.011723209 0.02756782 -0.014203241
0.007949013 -0.0021893508 -0.026924862 0.00095175864 -0.001220261 0.008142501 -0.0018003534 -0.007062026
-0.08181144 -0.015280256 1.7029877e-05 0.0017435105 -0.030164642 -0.013777667 -0.24939394 -0.003387989
0.006740351 -0.0062523806 -0.004232373 -0.030150242 0.004699795 0.00075665 -0.26016343 -0.0022064403
0.0029341418 0.4743266 0.007845969 0.0064403354 -0.017967388 0.0056836116 -0.018203128 0.00566621
00000000: c48f 3abc 8195 3e3b ce07 efbc d037 333b
00000010: 8019 7abc 1af2 c73b 288d 66bc 1220 c9bc
00000020: 7d31 9abc d285 97bc 92f1 f53b b6f4 1dbc
00000030: 5b1b c6bb 4331 97bc af31 0bbd b5a9 fdba
00000040: 391e b3b8 ed65 d1bd bb83 9ab9 a1f5 cbba
00000050: 9fdf c03b 645e f6ba 1986 9fbb 98c9 b1bc
00000060: 4047 81bb 0dc0 f7bc b9c3 91be 95c3 63be
00000070: 33f1 d0bb bed0 3f3a ad9a 303b 4824 333a
00000080: 5621 9c3c b2c6 9cbd 835a a9bb de86 0dbe
00000090: 49d6 89bb effb c0bc d568 963b c678 0c36
000000a0: d8e4 7a3f 5317 ab3b 3f9f eabc d54a 7b3c
000000b0: 1af5 a6bc 54d5 2ebe eb8e 1c3f fcac bfbc
000000c0: f7e2 153e 9433 e0bc e548 cf3e 5cb6 f03b
000000d0: 0800 0c3b 325b 983b be96 9c3c 5cff 28be
000000e0: 7126 163c 26ef 43bd 0475 b2bb 4ac6 d8ba
000000f0: 748e 15be 6827 e63b 6382 1dbd 565a e4bd
00000100: 344b ebbc 580c d438 6fa5 e9bc b38a e2bc
00000110: 5c95 5cba 77c1 e9ba 4b5b 793b a16b 6fba
00000120: 52df 20bc dca0 fdbc 5941 e5bc 2103 94bc
00000130: 62ab d33a 186c 66bc 8e01 3e3c 7d0b b8ba
00000140: 1ba4 1bbd a2eb d2bb 667e bf3b 6bcf 87bc
00000150: b574 5b3b 9c18 1ebd fb43 d4bb 586c 1a3c
00000160: cbd3 39bd 6a7b 46bc 100f 513d 8c88 60bd
00000170: ccb0 12bd 503f fcbb dd0b af3b 2d2b dc3b
00000180: 8197 b43b 6fdb f83a e7cb 693a 67b7 f8ba
00000190: f340 823b 8b68 69bb e037 53bc af30 6a3b
000001a0: 9c9b 19bc 655d 243b c7ba 783b 90a6 073f
000001b0: 5bdc 0dbd 0f37 6cbb 7eb0 5ebb b489 b8ba
000001c0: 3a4a 78bb 9961 27bb 3747 263b 3e96 a7bc
000001d0: 4660 1fbd 1cb1 a33a 9e3c d63b d3a8 0c3c
000001e0: 330f 8cb9 8d12 35bc 7bb0 e83d 75a4 87ba
000001f0: f52d 7f3c 42f3 02bd ad21 d13b b691 083a
00000200: 2a35 40bb 939e 793c d7ef d0bc 5c39 ad3b
00000210: ba15 19bd 8c5a 8fbb 9ddc 96bc 036b 92bd
00000220: 3761 a5bc 46d4 b6bb a802 34bc 2e08 4f3b
00000230: a51e e9bc 0273 24bc a3dd 663b f7b2 76bd
00000240: c5f0 afbb ec37 f7ba 74b4 103c 1259 3dbd
00000250: 0748 ba3b c864 af3a b2ad d4bb adbe 03bd
00000260: 9e20 b03b 6a04 533a a2ba 89bb 684d bfbe
00000270: 564a d03b 444c 083a eee0 b33b 6055 3f3c
00000280: 3d2d 413c d0ba e0ba a5d3 f33b 4509 da3b
00000290: fac0 9e3b a7d3 a8bd aead 98bd b5b3 f8bd
000002a0: 2cf8 273b 9e76 5cb9 7e0a a8bb 1c5d 28bb
000002b0: 4dcd 813b 7187 12bc eff6 25be 8f96 6b3b
000002c0: 1635 233a 386e ff3b c73b 923b 9690 a53e
000002d0: f5fb 833b 79c0 1ebb db18 41be 7593 9fbb
000002e0: b383 1c3b dc5a d13d 4b69 843c 4401 533a
000002f0: 8ff0 67bc 1e28 97bd 9cee 1bbd 3d56 963b
00000300: ebd2 bcbc abc8 813b fe1c bebc 4711 063c
00000310: 0a40 31bc 4c56 893b dfdf d0bc 15db 923b
00000320: c1a8 233d 4311 45be 500b febb 898b 82ba
00000330: cbab ec3a bc62 91bb 6155 c8bd aca8 a5bc
00000340: 8a0a f5b9 0d74 2c3c 9853 103e 2f0f bd3b
00000350: a7f1 21bb a1bb b03b 52a7 c5bd 1d0a 0bbc
00000360: ea50 003d 470f 8ebc 2f2c 0e3c 358d 3cbe
00000370: 209a 9a3e b412 40bc e9d5 e13c b6b4 68bc
00000380: 943c 023c 367b 0fbb 8791 dcbc 717f 793a
00000390: 2af1 9fba 2068 053c d6f9 ebba 9168 e7bb
000003a0: c28c a7bd 0a5a 7abc 62db 8e37 8186 e43a
000003b0: d71b f7bc b9bb 61bc 2061 7fbe 0609 5ebb
000003c0: 2ade dc3b c5e0 ccbb b8af 8abb a4fd f6bc
000003d0: bd00 9a3b ec59 463a 2434 85be ed99 10bb
000003e0: bb4a 403b f0da f23e 618c 003c 7309 d33b
000003f0: 5830 93bc 973d ba3b ba1e 95bc 9dab b93b

last.bias f4 [8]
-0.044017132 -0.050685614 -0.068617 0.08244478 -0.063965246 -0.0970379 -0.07723426 -0.1243574
00000000: 4f4b 34bd b89b 4fbd 1287 8cbd cfd8 a83d
00000010: 3600 83bd cebb c6bd ff2c 9ebd 18af febd
