Soft-Module-main/log/model6/model_qf_100.pth (torch, 284133 bytes, 5 tensors)

base.seq_fcs.0.weight f4 [256, 16]
000000 0f 9c 0a bf ba 0c b1 3e 15 b5 99 3e c8 8d fa 3e
       -0.54144377 0.34580022 0.30020967 0.48936296
000010 d3 96 87 3e df c5 b9 bd e6 ca 59 bd 38 de 64 bc
       0.26482257 -0.09070944 -0.053172015 -0.013968997
000020 90 88 b3 3c 98 1f c4 3e 1d 82 4e 3e 17 2e 4e 3e
       0.021915704 0.38305354 0.20166822 0.2013477
000030 40 96 ac 3c f7 d2 bf 3d cf c6 84 bc 14 db bc bc
       0.021067739 0.0936641 -0.01620808 -0.023053683
000040 b7 51 32 bf 4b 8c 95 3e 93 f1 69 3e f2 f1 d3 3e
       -0.69655937 0.29208598 0.2284606 0.41395527
000050 eb 75 88 3e f8 48 44 bb 10 41 44 bc 20 69 ad 3b
       0.26652464 -0.002995072 -0.011978403 0.005292073
000060 70 03 f1 3c 56 b5 01 3f 2f 65 81 3e dd b9 9a 3e
       0.029420584 0.5066732 0.2527251 0.30219927
000070 cd 96 8d bd 98 f9 3d 3e 77 00 be bd f9 4a 21 bd
       -0.069135286 0.18552244 -0.092774324 -0.03937814
000080 1b 39 06 be e0 df f8 bf 69 61 3f c0 0b e2 3a 3f
       -0.13107722 -1.9443321 -2.9903204 0.73001164
000090 42 87 48 3e d9 3d eb 3e 7e 99 53 3d 42 27 06 bd
       0.19582847 0.45945624 0.051660053 -0.032752283
0000a0 ca 8a 6e bd 55 da 3b 3f fb f6 77 3e 68 1a 83 3e
       -0.05823783 0.73380023 0.2421531 0.25606084
0000b0 c4 1a 05 3d 02 50 d7 3c c4 4e 5b 3d 9e 4b c8 bd
       0.03249623 0.026283268 0.053541914 -0.09780048
0000c0 de 15 49 bf fe a7 c1 3e 39 f3 ae 3e f9 17 dd 3e
       -0.7854899 0.3782348 0.3416994 0.43182352
0000d0 8b 32 9e 3e 4e d2 16 bd 16 69 48 3d 48 6e 2d bc
       0.30897936 -0.036821656 0.048928343 -0.010585375
0000e0 5a e1 2e 3d 5b d2 ed 3e a9 0a 81 3e 68 db 86 3e
       0.04269538 0.4644955 0.25203446 0.2633927
0000f0 d2 5b 81 39 a0 45 87 3d 5d d0 c4 bc 66 dc ec bc
       0.0002467321 0.06605077 -0.024025137 -0.028913688
000100 41 b9 20 bf 57 7a ea 3e b6 1e d3 3e a5 e9 1d 3f
       -0.62782675 0.45796463 0.41234368 0.6168464
000110 8c 5b e0 3e 0e cf fd 3d a0 4d 0a bb 00 41 3c bb
       0.43819845 0.12393008 -0.0021103397 -0.0028725266
000120 68 5e 4b 3d 99 2c 30 3f aa ea e7 3e e2 34 e9 3e
       0.04965058 0.6881805 0.45296222 0.4554816
000130 52 25 75 3d 13 86 90 3e d6 7d 70 bc c1 82 ef bd
       0.059850045 0.2822729 -0.014678439 -0.11694861
000140 4b 16 cc bd 02 8d 8c 3d 59 fd 6a bd 05 93 01 3f
       -0.099651895 0.068628326 -0.057370517 0.5061496
000150 e1 ed 9e 3e 04 a9 fb 3d a2 7d 4a bd a8 93 9c 3c
       0.31040862 0.122880965 -0.04943622 0.019113377
000160 62 f9 23 bd 43 92 12 3f 91 be a0 3e 4a fc a2 3e
       -0.04003275 0.5725443 0.3139539 0.31833106
000170 64 0f 5a 3d bd b0 9d 3e 4c ee 84 3c 5f 14 d9 3d
       0.053237334 0.30798903 0.01622691 0.105995886
000180 01 a1 4e bf 85 f3 aa 3e c9 65 9a 3e e8 53 be 3e
       -0.8071442 0.33388916 0.3015578 0.3717339
000190 45 22 b7 3d 58 e1 58 be 4a 84 46 3d 08 2f db 3c
       0.08942083 -0.21179712 0.048466004 0.026755825
0001a0 20 27 41 bc 82 2b b7 3e 1a ea 0c 3e 9d 15 fa 3d
       -0.011789113 0.3577538 0.13761178 0.12211154
0001b0 b0 11 66 bc e5 e2 f9 bc ba 45 39 3d 42 f8 06 3d
       -0.014042303 -0.0305037 0.045232512 0.0329516
0001c0 11 28 54 bf b9 4f 95 3e f4 f8 63 3e 4e 6d ae 3e
       -0.82873636 0.29162386 0.22262937 0.34067768
0001d0 04 4e 0d 3e ae 15 7d be 60 8b 3d bb 1c 76 51 3d
       0.13799292 -0.24715301 -0.0028922185 0.05113803
0001e0 90 8b b4 bc 36 5f 95 3e 04 af 58 3d 5d 01 9a 3d
       -0.022039205 0.29174203 0.052901283 0.07519791
0001f0 96 f5 9f bc 09 84 e2 bd f2 30 12 3d 03 3f 0e bd
       -0.019526284 -0.1106034 0.03569121 -0.03472806
000200 e2 35 51 bf c3 ce a6 3e a0 fd 41 3e 6b dd b8 3e
       -0.81722844 0.32579622 0.18944407 0.36106429
000210 d4 e2 11 3e 9e 26 56 be 80 79 f6 3b e8 70 05 3c
       0.14246684 -0.20913169 0.007521808 0.008144595
000220 70 54 04 bd eb 6a be 3e 68 55 d2 3d 6e ec b1 3d
       -0.03230709 0.37190947 0.10270196 0.086876735
000230 8e 92 4e bd a0 ee a4 bd d1 11 1a bb d0 3b 32 bb
       -0.050432734 -0.080533266 -0.0023509155 -0.0027196296
000240 e7 7e 43 bf 8c 05 b1 3e 8f 8f 9b 3e 2e 91 c6 3e
       -0.7636551 0.34574544 0.30382964 0.38782638
000250 0b 4c 15 3e be 3a 8d be 46 76 1c bd b0 3a af bb
       0.1457979 -0.2758388 -0.03819873 -0.0053475723
000260 54 c7 fd bc bc 2b 8c 3e 54 03 d8 3d 15 2a 21 3e
       -0.030978836 0.27377117 0.1054751 0.1573871
000270 f0 85 50 3d 4a d2 ce bd 97 2f 84 3d f4 f4 c7 3c
       0.050908983 -0.10098703 0.064543895 0.024408795
000280 4c da 7a 3d d8 a2 f3 3e aa 18 d8 bc 38 91 55 3d
       0.06124334 0.47585177 -0.026378948 0.052140445
000290 67 b9 d8 bd d9 9a c0 be c8 c8 ba 3c 54 6c ad bc
       -0.10582238 -0.3761814 0.022800818 -0.021169819
0002a0 80 b2 c3 bc 65 31 08 3e e1 ba 5a bd 85 4a 61 bd
       -0.023888826 0.13300093 -0.053400878 -0.055002708
0002b0 21 56 ca bd cc 7b 20 bd e5 89 cf ba 50 5e 9f 3c
       -0.09879709 -0.039180562 -0.0015833942 0.019454151
0002c0 b8 13 6a bd fa 5a d8 3e 21 5b 20 3e c0 c0 00 3f
       -0.05714771 0.4225691 0.15659763 0.50294113
0002d0 36 5a c8 3e 5c b5 05 3d 24 1f 6f 3d 08 ea 68 bd
       0.39131325 0.03264366 0.058379307 -0.056863815
0002e0 88 e7 6c 3c b8 d2 01 3f 7c 76 b3 3e 28 16 aa 3e
       0.014459498 0.50712156 0.35051334 0.3322003
0002f0 c7 93 8a 3d 13 c5 cf 3e c3 30 b4 bd 05 90 ae bd
       0.067664675 0.40580043 -0.08798363 -0.08523563
000300 92 9d 0b bf c0 63 e6 3d 3a 91 8b 3f c1 bd c2 3d
       -0.5453731 0.112494946 1.0903695 0.09508849
000310 22 77 5e 3e b0 b3 2d 3f 40 a3 5f 3b 3c 0c 53 3d
       0.21725133 0.67852306 0.0034124404 0.05152534
000320 b0 8e 06 bc 01 cb 94 3c e2 dc 4a 3e d2 81 62 3e
       -0.00821273 0.018163206 0.19810823 0.22119835
000330 07 6b c6 bc 3e 2d ce bd db 0d 25 3d 79 ae a1 3d
       -0.024220956 -0.10067223 0.040296417 0.07894606
000340 55 58 42 bf 39 59 a2 3e 13 42 83 3e 9b 20 c2 3e
       -0.75916034 0.31708696 0.25636348 0.379155
000350 81 54 01 3e b3 99 6e be 0e 0d 2d 3d 00 88 01 bd
       0.12629892 -0.23300819 0.042248778 -0.03162384
000360 9c 21 71 bd e5 00 b6 3e 59 c5 cb 3d d7 62 1b 3e
       -0.058869943 0.35547557 0.099497505 0.15174423
000370 94 b3 5b bd 1e fd 8c bd e2 4e 5e 3d 77 79 9c ba
       -0.053638056 -0.06884216 0.054274447 -0.0011938055
000380 86 79 0f c0 2f 77 a7 3f 40 49 d8 3f 47 fd 12 bf
       -2.2417922 1.3083247 1.6897354 -0.5741772
000390 d6 fa 20 be 3a 25 a2 3d 88 8c bc 3c 44 a8 ed 3c
       -0.15720686 0.07917257 0.02301623 0.0290109
0003a0 88 f8 da 3c 61 39 26 bf 94 77 2e be cc 14 39 be
       0.026729837 -0.64931303 -0.17037803 -0.1807434
0003b0 2b fd 0b 3b 89 27 f2 3c 41 18 77 3b 04 47 61 bb
       0.0021360617 0.029559867 0.0037703665 -0.0034374604
0003c0 46 16 4b bf da 9c 9d 3e 51 61 62 3e b7 b6 c7 3e
       -0.7933086 0.3078373 0.22107436 0.39006588
0003d0 13 e8 e2 3d 46 84 71 be ee 1f 03 bd b0 6d 36 3d
       0.11079421 -0.23585615 -0.032012872 0.0445382
0003e0 68 05 6a 3c c7 0e c1 3e 35 56 fa 3d fd 35 d0 3d
       0.0142835155 0.37706587 0.12223474 0.101665474
0003f0 ae e5 49 bd 03 da 33 bd 0c f9 8c 3c 45 4c 50 bc
       -0.049291305 -0.043909084 0.017208599 -0.012713497

base.seq_fcs.0.bias f4 [256]
000000 64 b1 a3 3e ac 52 b7 3e b9 02 a0 3e 99 6e b5 3e
       0.31971276 0.3580526 0.31252077 0.35435942
000010 b6 f5 00 3f e1 3a bf 3e 58 e8 66 3e d4 27 59 3e
       0.50374925 0.3734961 0.2254957 0.212066
000020 d7 4e 71 3e ab 1e 65 3e f5 ae 5e 3d a2 80 dc 3e
       0.23565231 0.2237498 0.05436607 0.4306689
000030 59 cf ad 3e 5d 58 68 3e ad 49 c2 bd 12 bd 78 3e
       0.33947256 0.22689958 -0.09486709 0.24290875
000040 ba 68 bc 3e 97 bf 9f 3e 2c 5c 60 3e e6 e4 ab 3e
       0.3679865 0.3120086 0.21910161 0.33573073
000050 72 20 fb 3e 84 96 da 3e 54 b9 92 3e 5d ab ad 3e
       0.4904819 0.4269296 0.2865702 0.33919802
000060 58 4a e8 bc 58 41 e6 3e ad 84 c9 3e 5b 42 7e 3e
       -0.028355762 0.44971728 0.39359036 0.2483
000070 80 4f 0f be 2c b9 6c 3e a9 e7 b8 3d db d1 91 3e
       -0.1399517 0.23117512 0.09028561 0.2848042
000080 1d 5b a4 3e a8 17 ea 3e 79 1f 78 3e 0b cc c3 3e
       0.32100764 0.45721173 0.24230756 0.3824161
000090 86 e1 6f 3e 35 cd 79 3e 01 91 9c 3e 3c 0f d2 3e
       0.23425874 0.24394687 0.3057938 0.41027248
0000a0 b5 49 82 3e e0 0b 99 3e 9c 73 0d 3e 4c 20 06 be
       0.2544686 0.29891872 0.13813633 -0.13098258
0000b0 41 79 52 3e f1 c6 3f 3e 31 b6 80 3e ee 4c 5f 3e
       0.20554067 0.18728234 0.25139 0.2180669
0000c0 57 66 95 3e 5b 01 0a 3f e7 b9 96 3e 7a 1a 8b 3e
       0.29179642 0.5390832 0.29438707 0.27168638
0000d0 d9 2b 68 3e af d9 72 3e c1 92 61 3d df 6c 7f 3e
       0.22672977 0.23715852 0.055071596 0.24943875
0000e0 42 21 7a 3e 3e 1c c5 3e b2 e6 ea 3d ac cb 2a bd
       0.2442675 0.3849811 0.11469783 -0.041698143
0000f0 21 92 bf 3e c9 9a ab 3e 59 48 5e 3e 85 1e 2c 3f
       0.37416175 0.3351653 0.21707286 0.6723407
000100 da 92 b3 3e 01 1f 78 3e df d4 1a 3f 12 58 41 3e
       0.35072976 0.24230577 0.60481066 0.18881252
000110 e2 38 c1 3d 47 67 f5 3e 31 d4 42 3e be cc 04 3f
       0.09434678 0.47930357 0.19026257 0.5187491
000120 16 89 81 3e 5e 67 4b 3e 6d 28 6e 3e 09 10 c9 3e
       0.252999 0.1986365 0.23257609 0.39270046
000130 64 4e 87 3e 05 15 6f be 95 5c 2c 3f 10 57 c9 3e
       0.26426995 -0.23347862 0.6732877 0.39324236
000140 d5 60 7e 3e 68 d1 48 be 46 48 23 3f 7f d4 be 3e
       0.24841626 -0.19611132 0.63782156 0.37271497
000150 4e b0 47 3e c6 48 66 3e e0 44 68 3e c9 dc 93 3e
       0.19500849 0.22488698 0.22682524 0.28879383
000160 37 a6 51 3e b5 9e 8d 3e 43 23 5e 3e 4b e7 21 3f
       0.20473562 0.27660146 0.21693139 0.6324355
000170 44 a6 be 3e b9 e6 0b be 25 5b f1 3e 36 89 5d 3f
       0.37236226 -0.13662232 0.4713985 0.8653749
000180 4c 77 d9 bd 8a be 71 3e 4f ee a2 3e f7 90 ef 3e
       -0.10618457 0.23607841 0.3182244 0.46790287
000190 91 5e 80 3e 03 f7 7f 3d ef 0f 61 3e de 4d 75 3e
       0.25072148 0.062491428 0.21978734 0.23955485
0001a0 3e 30 6a 3e d1 43 d5 3e 9a 54 64 3e 95 dc 99 3e
       0.22869965 0.41653302 0.22297898 0.30051103
0001b0 dc 67 97 3e 5d c5 83 3e 5f c8 59 3e d5 f2 51 3e
       0.29571426 0.25736514 0.21267842 0.2050279
0001c0 ec d2 ad 3d b8 c5 72 3e 3c 5d c7 3e d1 7d 52 3e
       0.08487496 0.23708236 0.3893832 0.20555808
0001d0 2d b4 d5 3e 86 98 fb 3e 6e 95 86 3e 07 e4 69 3e
       0.41739026 0.49139804 0.2628588 0.22840892
0001e0 27 a6 8f 3e 0c 6f 54 3e c5 cf a3 3e 19 4a a0 3e
       0.28056452 0.20745486 0.31994453 0.31306532
0001f0 20 91 80 3e cf 80 58 3e 13 b9 e0 3e c3 5a d7 3e
       0.25110722 0.21142887 0.438912 0.42061433
000200 96 d9 e1 3e a2 bc f8 3e 54 d9 d6 3e 9c 74 83 3e
       0.44111317 0.48581415 0.41962683 0.25674903
000210 9a b8 07 3f 23 63 e1 3e 61 5d 6d 3e 8c 94 66 be
       0.53016055 0.44020948 0.23180152 -0.22517604
000220 49 1c c3 3e 1d b2 73 3e 83 1c a8 3e 56 ee b0 3d
       0.38107517 0.23798414 0.32834253 0.08639209
000230 e6 d1 8d 3e 43 24 78 3e 9e dc ee 3e f9 f4 aa 3e
       0.27699202 0.24232583 0.46652693 0.33390024
000240 70 19 9a 3e c5 af b3 3e 4a 6d 78 3e f7 09 f1 3e
       0.30097532 0.3509504 0.2426044 0.47077915
000250 8a 58 98 3e ab 14 69 3e 27 9d ed 3d 39 9d 2d 3e
       0.2975505 0.2276179 0.1160224 0.16954507
000260 3d 97 da 3c 6c 90 a6 3e b1 69 a1 3e 43 82 ef 3e
       0.026683444 0.3253206 0.3152595 0.4677907
000270 65 06 38 be 70 7e 9d 3e 53 e0 9e 3e b9 41 8d 3e
       -0.1797119 0.30760527 0.3103052 0.27589205
000280 9b b6 5a 3e 2b 90 67 3e 57 e4 f8 3d 87 29 16 3f
       0.21358721 0.2261359 0.12152927 0.58657116
000290 b7 b2 8f 3e 76 cf 80 3e 90 5f 6f 3e bf 11 cb 3e
       0.28066036 0.2515828 0.23376298 0.39661977
0002a0 bd 21 da 3e 1f f9 96 3e 5f b1 4d 3e 72 8e b3 3e
       0.42603865 0.2948694 0.20087193 0.35069615
0002b0 fd 86 80 3e ba e0 8d 3e d1 ef c6 3e fe 42 7d 3e
       0.25102988 0.27710515 0.3885484 0.24732587
0002c0 f6 6b d1 3e a8 51 e4 3e 3e 57 69 3e b8 29 d4 3e
       0.4090268 0.4459355 0.22787187 0.4143808
0002d0 e7 f0 5e 3e 83 94 be 3e d0 9b d2 3e 9c 2c c1 3e
       0.21771584 0.3722268 0.411345 0.37729347
0002e0 f2 2e 89 3e fa 25 ed 3e 58 d8 b0 3e 6a f1 e5 3e
       0.2679363 0.46318036 0.34540057 0.44910747
0002f0 14 e6 d1 3e 11 0e ac 3e af 31 20 3f d6 f1 d2 3e
       0.40995848 0.33604482 0.6257581 0.4120013
000300 cd f1 6a 3e 80 6f 73 3e 22 0f 78 3e d5 e9 79 3e
       0.22943802 0.23773003 0.24224523 0.24405606
000310 d2 5f 87 3e 99 2f 81 be fd b3 b4 3e 6d 79 a2 3e
       0.26440293 -0.25231627 0.3529357 0.31733266
000320 11 20 87 3e e9 26 71 bd db 57 80 3e db 15 5e be
       0.26391652 -0.058875 0.25067028 -0.21688025
000330 a1 0d f5 bd 0f 78 e8 3e b5 c6 92 3e 7e 4e be 3e
       -0.1196549 0.45404097 0.28667226 0.3716926
000340 04 5b fe 3d 13 2e 2d 3e f1 73 8e 3e be dd 59 3e
       0.124197036 0.16912107 0.2782283 0.21275994
000350 aa 53 a9 3e bb dc b3 3e 17 0d c6 3e 43 24 be 3e
       0.33071643 0.3512934 0.38681862 0.3713704
000360 7c 7d 25 be 83 02 a1 3e 3f 23 28 3e d0 f4 42 be
       -0.1616115 0.3144723 0.16419695 -0.19038701
000370 e2 96 e1 3e 44 1f c7 3e 6f 94 e4 3e 01 48 cd 3e
       0.44060427 0.3889104 0.44644496 0.40093997
000380 92 2b e2 3e e0 80 05 3e 4c 22 53 3e 9a 29 ce 3e
       0.44173867 0.13037443 0.20618552 0.40266114
000390 4f f7 dd 3e 80 40 8d 3e 88 fc 06 bf 6d 00 cc 3e
       0.43352744 0.27588272 -0.5272908 0.39844075
0003a0 57 7d b7 3e 8e 67 8a 3e d2 be a3 3e 0e 10 b1 3e
       0.35837814 0.2703213 0.31981522 0.3458256
0003b0 76 6f 67 3e 30 73 6d be 9c 47 0d 3f 64 34 86 3e
       0.22601113 -0.23188472 0.5518739 0.26211846
0003c0 22 67 85 3e 59 bf 58 3e e9 f4 55 3e 60 3f 7a 3e
       0.26055247 0.21166743 0.20894207 0.24438238
0003d0 45 d1 b8 3e ca b7 8b 3e 7d ae e8 3e f0 fc 91 3e
       0.3609716 0.27288657 0.45445624 0.28513288
0003e0 ea 23 57 3e 05 8f 69 3e a7 1a fd be 41 61 73 3e
       0.21009794 0.22808464 -0.49434397 0.23767568
0003f0 26 4a f6 3e 8c d5 d0 3e 4d 6b 4e 3e 6e 87 92 3e
       0.48103446 0.40787923 0.2015812 0.2861895

base.seq_fcs.2.weight f4 [256, 256]
000000 8c 3f 82 3e 1d f7 4f 3e 28 d5 e1 c0 9d 00 45 3e
       0.25439107 0.2030911 -7.05727 0.19238515
000010 94 f8 86 3e e5 5d 3f 3e 3d ff 0c 3e 87 44 82 3e
       0.26361525 0.18688162 0.1376924 0.25442907
000020 e4 69 89 3e d1 42 53 3e d3 19 e4 3d 26 b9 86 3e
       0.268386 0.20630957 0.11137738 0.26313132
000030 a9 6c 00 c0 73 aa ff 3d be 44 7c c0 dd 4a 81 3e
       -2.006632 0.124836825 -3.9416957 0.2525243
000040 b0 4c 43 3e 5a b5 11 3e 0f f2 71 3e e1 d4 35 3e
       0.19072223 0.14229336 0.23627494 0.17756988
000050 30 03 69 3e 70 76 56 3e 45 63 3c 3e 38 89 d8 3d
       0.22755122 0.20943618 0.18397243 0.105730474
000060 b2 1a 66 c0 a4 6e f7 3d 88 d3 4d 3e c3 7e 8a 3e
       -3.5953794 0.1208165 0.20100224 0.27049837
000070 72 9a 15 40 70 df 4d 3e 85 c1 36 c0 aa 0f 51 3e
       2.3375516 0.20104766 -2.8555615 0.20416132
000080 bf a7 b9 3d f2 02 80 3e 6c 9c 5b 3e fc 81 a9 3e
       0.09065198 0.25002247 0.21446389 0.33106983
000090 1e 85 86 3e 2a 79 76 3e 74 31 96 3e 5f 0e 29 3e
       0.26273435 0.24069658 0.29334605 0.16509388
0000a0 46 39 80 3e e7 cf 38 3e 8d 31 45 3e d6 c4 80 3f
       0.25043696 0.18048058 0.19257183 1.006007
0000b0 3e eb 5c 3e 59 46 4a 3e ca 12 17 3e 3e 2d 28 3e
       0.21574113 0.19753398 0.14753261 0.16423509
0000c0 2c 00 69 3e da 3e 21 3e 6d 02 75 3e 2e 08 21 3e
       0.22753972 0.15746632 0.23926707 0.15725777
0000d0 24 1d 3c 3e 59 b4 4a 3e 98 af 66 c0 74 a4 4b 3e
       0.18370491 0.1979536 -3.6044674 0.19886953
0000e0 f2 58 2d 3e 48 6f 95 3e fb 9c 39 3e 17 72 18 be
       0.16928461 0.29186463 0.1812629 -0.14887272
0000f0 6c d8 57 3e 47 25 4c 3e 43 0d 16 3e bc 73 33 3e
       0.21078652 0.19936095 0.14653496 0.17524618
000100 7a b2 01 c0 87 89 28 3e fc 0f de 3d af ea c9 bf
       -2.0265183 0.16458713 0.108428925 -1.5774745
000110 45 41 03 3e 6c 14 07 3e fe 9c 4b 3e 7e f2 de 3d
       0.12817867 0.13191384 0.19884107 0.108860955
000120 fc ea 30 bc 97 9b 9a 3e 00 85 30 3e f7 ec e0 3d
       -0.010798212 0.3019683 0.17238235 0.109826975
000130 26 26 81 3e e7 be 73 40 3e 8e ea 3d bc 36 61 3e
       0.25224417 3.8085268 0.11452912 0.21993536
000140 42 27 5d 3e f7 f2 68 40 d7 30 45 3e 97 b1 e7 3d
       0.21597007 3.6398294 0.19256912 0.113131694
000150 b6 68 76 3e 99 d6 7f be d4 b1 7d 3e 2e 59 ea 3d
       0.24063382 -0.24984206 0.24774867 0.11442791
000160 bf 12 6f 3e 69 02 1e 3e a0 4a 88 3e b8 c4 0e 3e
       0.23346995 0.15430607 0.26619434 0.1394223
000170 13 cc 1c 3e d8 7e 10 40 46 8f 86 3e f6 1c ed c0
       0.15312223 2.257742 0.26281184 -7.4097853
000180 ab 8f 54 c0 f8 2c 80 3e b8 8e ce c0 68 64 8c 3e
       -3.3212688 0.25034308 -6.4549217 0.27420354
000190 72 8f 5e 3e ae ef a9 3d 80 a7 36 3e 12 1d 44 3e
       0.21734408 0.082976684 0.17837334 0.19151714
0001a0 c1 75 67 3e 49 e8 84 3e 1f 55 6e 3e d0 3c 65 3e
       0.22603513 0.2595847 0.23274659 0.2238648
0001b0 7d f6 35 3e 44 55 3e 3e a7 83 23 3e 83 2d 76 3e
       0.17769809 0.18587214 0.1596819 0.24040799
0001c0 2c 8c 02 40 e1 12 fa 3d 64 74 e1 3d 95 1d 0b 3e
       2.0398054 0.12210632 0.11008528 0.13585503
0001d0 53 78 4f 3e 6c d4 37 3e 0b 86 6e 3e d7 1d 5c 3e
       0.20260744 0.17952126 0.23293321 0.21495758
0001e0 9a eb 7d 3e d6 42 1d 3e 6e d2 69 3e fd 3d d2 c0
       0.24796906 0.15357527 0.22834179 -6.570067
0001f0 e4 73 56 3e 74 1d 08 3e 13 7e 71 3e a2 c7 03 3e
       0.20942646 0.13292485 0.2358325 0.12869123
000200 08 90 15 3e 16 54 2a 3e 2e 9c e9 3d 8d 7d 0b 3e
       0.14605725 0.16633639 0.11406742 0.13622113
000210 38 1f 1e 3e 0d 9a 77 3e 3a 5f 5d 3e 31 6e 9f 40
       0.15441597 0.2417986 0.21618357 4.982201
000220 2a e4 15 3e f9 5b fd 3d 57 7b 65 3e a7 6e 1b 3d
       0.14637819 0.12371058 0.22410332 0.037947323
000230 70 57 6b 3e 4d d8 ec 3d 1f de a4 3d 7a 86 86 3e
       0.22982574 0.115646936 0.08050179 0.26274472
000240 7e 14 23 3e 76 9b 51 3e 69 f1 49 3e fe d9 39 3e
       0.15925786 0.2046946 0.19720997 0.18149564
000250 22 c2 54 3e c6 11 3a 3e f5 90 8d 3e 8e b4 24 40
       0.20777181 0.18170843 0.27649656 2.5735202
000260 aa 60 b3 3f 40 91 45 3e 2c 1e 61 3e 06 76 94 3e
       1.4013875 0.1929369 0.21984166 0.28996295
000270 b3 3e b4 3f 9e 63 b8 c0 1e 1e 5e 3e 78 a6 23 3e
       1.4081634 -5.7621603 0.21691176 0.15981472
000280 f7 b7 6f 3e 81 b3 2b 3e 5c d8 41 3f 58 2c 44 3e
       0.23410021 0.16767694 0.75720763 0.19157541
000290 6c 73 01 3e 61 8b 7f 3e ad 56 1f 3e 63 69 69 3e
       0.12641686 0.24955513 0.15560408 0.22794108
0002a0 51 ef 3b 3e 7b 9a 18 3e 8c 6b 27 3e 73 29 d1 3d
       0.1835301 0.1490268 0.1634962 0.10212984
0002b0 7a 68 1b 3e 1d a7 68 3e ca 6b 7f 3e cc bd 64 3e
       0.15176573 0.22719999 0.24943462 0.22338027
0002c0 1e 29 49 3e 36 ad 9f 3e e4 67 5a 3e c8 80 93 3e
       0.19644591 0.31186837 0.21328694 0.2880919
0002d0 79 34 06 3e 2c 0c 68 3e d9 f7 3d 3e 6f 20 11 3e
       0.13105954 0.22660893 0.18551578 0.14172529
0002e0 58 52 5e 3e cc c2 91 3e 1a 2d 0e 3e 4b fe 87 3e
       0.21711099 0.2846893 0.13884392 0.26561198
0002f0 93 92 f9 3d 67 b8 5a 3e 2b 75 12 3e 84 d1 73 3e
       0.1218616 0.21359406 0.14302509 0.23810393
000300 88 df 19 3e 6f 61 86 3e 95 54 7f 3e 44 f9 fc 3d
       0.15026677 0.2624621 0.24934609 0.12352231
000310 2b 2e 53 3e 1f 63 63 40 c7 db 8a 3e d7 cd 50 3e
       0.2062308 3.5529249 0.27120802 0.20391022
000320 9c 4b 2b 3e 51 26 06 3f 0a 09 26 3e 2c 1a 6b 40
       0.16728061 0.52402216 0.16214386 3.6734724
000330 23 7b 7f 3f ee 35 a7 3e af c9 3e 3e c0 c9 6c 3e
       0.99797267 0.32658333 0.18631624 0.23123837
000340 8c 1d e3 3e 6c 7b 0b 40 63 27 7f 3e 8e 47 39 3e
       0.4435848 2.179408 0.24917369 0.18093702
000350 d9 a0 d7 3d 6c 3b 32 3e e3 e4 cc 3d b5 e4 0f c1
       0.10528726 0.1740548 0.10004594 -8.993337
000360 d8 95 f1 be d5 2f 32 3e 62 3d a3 3e bd f6 6f 40
       -0.47184634 0.17401059 0.3188277 3.7494347
000370 9b 4b 3f 3e c3 45 aa 3f f5 51 b6 3e 70 de 55 3e
       0.18681185 1.330254 0.35609403 0.20885634
000380 e8 d0 7c 3e aa b1 87 3e 91 4b 4d 3e 93 88 64 3e
       0.24689066 0.26502734 0.20048358 0.22317724
000390 6e 3b 80 3e 07 57 6f 3e 68 9a ef bf 04 be a6 3e
       0.2504534 0.23373042 -1.8718996 0.32566845
0003a0 32 05 64 3e 4f 29 1c 3e 05 9f 41 3e bc be ee c0
       0.22267607 0.15250133 0.18908317 -7.460783
0003b0 d7 32 1d 3e 56 98 82 40 2c 7a 3a 3e a8 50 7e 3e
       0.15351425 4.0810957 0.18210667 0.24835455
0003c0 9e ca 48 3e b2 b9 45 3e b5 fc 84 3e 95 fb 28 3e
       0.19608542 0.19309118 0.2597405 0.16502221
0003d0 9e 6d 42 3e a1 0a 07 c0 38 a5 a3 3e 65 33 0f 3e
       0.18987128 -2.1100237 0.3196199 0.13984449
0003e0 1a ff 66 3e ff 31 71 3e 7f bf 89 c0 15 fc 65 3e
       0.22558251 0.23554228 -4.304626 0.22459443
0003f0 a2 c9 84 3e ec b9 1a 3e 01 06 77 3e fc 21 87 3e
       0.25935084 0.15109986 0.24123384 0.26393116

base.seq_fcs.2.bias f4 [256]
000000 52 c3 6e 3e 18 ee 7f 3e 27 b2 16 3e 65 56 86 3d
       0.23316696 0.2499317 0.14716397 0.06559447
000010 22 36 66 3e 63 00 aa 3d 82 2f c5 3d 92 74 75 3e
       0.22481588 0.08300855 0.09628202 0.2397025
000020 5c 7d 0e 3e 00 12 d3 3e a4 bf 0e 3e 85 40 73 3e
       0.13915008 0.4122467 0.13940293 0.23755081
000030 15 de c4 3d 9c 4d c6 3d 92 d7 6b 3e 02 97 be 3d
       0.09612671 0.096827716 0.23031452 0.09306146
000040 48 23 1a 3e 4a 64 74 3e 95 7b 19 3e 14 ef a7 3d
       0.15052521 0.23866382 0.14988549 0.081998974
000050 44 a3 0d 3e aa 16 be 3d ba 76 bc 3d bd e6 78 3e
       0.13831812 0.092816666 0.09202333 0.2430677
000060 e6 74 12 3e 8f af bf 3d 13 0a 41 3e 78 bf 16 3e
       0.14302406 0.09359657 0.188515 0.14721477
000070 cb 18 1a 3e e9 27 af 3d 98 1a b0 3d ec d1 c6 3e
       0.1504852 0.08552534 0.08598822 0.38832033
000080 94 eb c2 3d 3e 92 b3 3d a7 6e b8 3d 58 85 7c 3e
       0.09517589 0.08768128 0.0900548 0.24660242
000090 3e 0e 81 3e 4c ac a2 3d 5b d8 c1 3d ea c1 7d 3e
       0.25206178 0.07943019 0.09465095 0.24781004
0000a0 ed b1 56 3e f2 09 81 3e 16 c4 11 3e 4d e1 b4 3d
       0.20966311 0.252029 0.14234957 0.08832035
0000b0 1c da bc 3d 3d 65 c0 3d 24 15 be 3d 5b ad 80 3e
       0.092212886 0.0939431 0.09281376 0.2513226
0000c0 37 1d bf 3d 84 4c 70 3e 90 ac 11 3e c5 18 1c 3e
       0.09331744 0.23466688 0.14225984 0.15243824
0000d0 08 ce 17 3e 3e cd bf 3d 9b 45 c3 3d 74 61 72 3e
       0.14824688 0.09365319 0.095347606 0.23669988
0000e0 1a cd 10 3e a0 58 71 3e 09 c8 af 3d 2e 6b bc 3d
       0.1414074 0.23568964 0.085830756 0.092001304
0000f0 f6 b2 c2 3d c5 84 bc 3d 12 47 b7 3d 88 bf 17 3e
       0.0950679 0.09205011 0.089491025 0.14819157
000100 5a 7a c8 3d 57 e3 7c 3e b1 20 c9 3d ff 10 15 3e
       0.09788962 0.24696098 0.098206885 0.14557265
000110 84 52 0a 3e c6 00 04 3e 3a 45 78 3e 2c 01 0c 3e
       0.1350804 0.1289092 0.24245158 0.13672322
000120 9c e9 7d 3e 45 69 d6 3e e9 ba 0e 3e de e2 80 3e
       0.24796146 0.4187719 0.13938488 0.25173086
000130 c0 b4 ba 3d ec 75 7f 3e 65 64 ab 3d f1 02 09 3e
       0.091165066 0.24947327 0.08368758 0.13380028
000140 f3 72 7c 3e 54 95 30 3e 9f 13 77 3e d7 c0 b6 3d
       0.24653225 0.17244464 0.24128579 0.089235
000150 be 99 04 3e fd 41 d5 3d 41 0d 10 3e 05 be c2 3d
       0.12949273 0.10412977 0.14067556 0.095088996
000160 c2 09 80 3e d5 cb 7d 3e 50 88 c7 3d 4b 19 ac 3d
       0.25007445 0.24784787 0.097427964 0.08403262
000170 2b 0e 1d 3e 4f c4 c6 3d 22 37 c1 3d 22 09 c8 3d
       0.15337436 0.09705412 0.09434344 0.09767367
000180 2d 12 80 3e 14 d2 c2 3d 34 58 72 3e c2 aa c4 3d
       0.25013867 0.095127255 0.2366646 0.09602882
000190 0a bf be 3d 58 24 07 3e 0f 20 7b 3e 6f 32 71 3e
       0.093137816 0.13197458 0.24523948 0.23554395
0001a0 ad 7c c4 3d 5d b6 c0 3d 31 64 17 3e db 8f ba 3d
       0.095940925 0.09409783 0.14784314 0.091094695
0001b0 3a e8 60 3e 2d b9 71 3e 35 c8 c4 3d 33 7e c2 3d
       0.21963587 0.23605795 0.09608499 0.09496727
0001c0 43 85 c2 3d 12 4d 79 3e 24 f5 c3 3d f6 17 c2 3d
       0.09498074 0.24345806 0.09568241 0.094772264
0001d0 ef 34 c8 3d 09 cf c5 3d 14 ae c6 3d a9 83 7e 3e
       0.09775721 0.096586294 0.097011715 0.24854912
0001e0 f7 a2 7b 3e ad 16 80 3e ff 57 bb 3d 17 72 76 3e
       0.24573885 0.250173 0.09147643 0.2406696
0001f0 58 a6 c3 3d 27 39 c2 3d fb 91 7e 3e a4 aa ba 3d
       0.09553212 0.09483557 0.24860375 0.09114578
000200 2b 3f 0c 3e ca 99 9f 3d 8d e9 10 3e 40 e9 a1 3d
       0.13695972 0.07793005 0.14151593 0.07905817
000210 db 77 0a 3e 36 20 0f 3e 4e 08 17 3e 81 2e a8 3d
       0.13522284 0.13977131 0.14749262 0.08211995
000220 c2 81 0e 3e f6 e4 6e 3e ab ad 10 3e 81 2b 70 3e
       0.13916686 0.23329529 0.14128749 0.23454095
000230 15 3e 6c 3e 0e b5 b8 3d a6 19 0b 3e e3 11 7b 3e
       0.23070557 0.090189084 0.13584003 0.24518542
000240 5c 44 80 3e a9 13 bd 3d 22 7c 80 3e 08 d7 80 3e
       0.25052154 0.092322655 0.25094706 0.25164056
000250 ad 29 c1 3d 96 5c c9 3d d9 a5 45 3e 5d af 68 3e
       0.09431777 0.098321125 0.19301547 0.22723146
000260 f9 52 bf 3d af 69 c3 3d cd cc cc 3d c1 33 12 3e
       0.09341998 0.09541642 0.1 0.14277555
000270 e3 97 bb 3d 9d 03 c1 3d 56 5d b4 3d 75 9f cc 3d
       0.091598295 0.09424517 0.08806865 0.099913515
000280 82 e2 7f 3e c8 c3 7f 3e 96 b2 68 3e 72 06 0b 3e
       0.2498875 0.24977028 0.22724375 0.13576677
000290 4d 63 8b 3d 15 63 b9 3d 0e 40 c2 3d ac 1c 83 3e
       0.068060495 0.090521015 0.09484874 0.25607812
0002a0 d9 c1 b9 3d 95 0a bc 3d 1d 29 bc 3d 59 89 04 3e
       0.09070177 0.09181706 0.09187529 0.12943019
0002b0 11 2c c7 3d 50 f0 08 3e 6b 50 b3 3d e6 cd 06 3d
       0.09725202 0.13372922 0.08755573 0.032911204
0002c0 f0 04 0f 3e b9 d1 bf 3d b6 db 68 3e 23 cd c5 3d
       0.13966727 0.09366173 0.22740063 0.09658267
0002d0 7e c4 c7 3d 56 40 7e 3e 77 e6 c7 3d 38 4e 78 3e
       0.09754275 0.2482923 0.097607546 0.24248588
0002e0 ee bf b9 3d a3 05 bc 3d c8 0f 1a 3e 1c c9 c2 3d
       0.09069811 0.091807626 0.15045083 0.09511015
0002f0 26 bd bc 3d 98 84 15 3e 32 74 39 3e cc 44 b4 3d
       0.09215765 0.14601362 0.18110731 0.088021845
000300 03 48 0c 3e 31 60 bf 3d 40 07 c4 3d 4a 4e bc 3d
       0.13699345 0.09344519 0.09571695 0.0919462
000310 9e 09 14 3e 85 b6 08 3e 2f 2d 7a 3e c5 d6 72 3e
       0.14456794 0.13350876 0.24431299 0.2371474
000320 29 b0 6d 3e ae c8 d4 3e 1c 45 7f 3e 7f 1a 62 3e
       0.23211731 0.41559356 0.24928707 0.2208042
000330 c7 03 c3 3d 73 23 c0 3d 4c 13 7f 3e 92 91 b6 3d
       0.09522205 0.093817614 0.24909705 0.08914484
000340 b6 b3 c0 3d e2 07 74 3e 1d 3d 09 3e 69 65 be 3d
       0.09409277 0.23831132 0.13402219 0.09296686
000350 1a 78 18 3e f6 6c 7e 3e f9 0c af 3d 47 9e 0b 3e
       0.14889565 0.24846253 0.08547396 0.13634597
000360 37 19 c4 3d be a2 1e 3e d3 9d 14 3e b4 1f 1c 3e
       0.09575122 0.15491769 0.1451333 0.15246469
000370 30 86 c2 3d c5 86 bb 3d 89 dd a2 bc a4 52 16 3e
       0.094982505 0.091565646 -0.019881027 0.14679962
000380 2b 0b 16 3e b0 4d 80 3e 01 ef 9b 3d a2 ba bb 3d
       0.14652698 0.2505927 0.07613946 0.09166457
000390 c1 4a a8 3d 5f c8 c3 3d 14 06 81 3e ed cd 7e 3e
       0.08217383 0.09559702 0.2519995 0.24883242
0003a0 7d 0d 7f 3e 92 91 74 3e 9b f8 b6 3d c8 dd c6 3d
       0.24907489 0.23883656 0.089341365 0.0971027
0003b0 92 a0 72 3e 61 a7 7c 3e 51 7f c4 3d 34 a9 76 3e
       0.23694065 0.24673225 0.09594596 0.24087983
0003c0 f0 e7 0e 3e af 0c bb 3d 53 6e bc 3d 92 7d a2 3d
       0.13955665 0.091332786 0.0920073 0.07934107
0003d0 d3 ac c1 3d db 35 32 be 89 e4 7f 3e 08 5d 82 3e
       0.09456792 -0.17403357 0.24989523 0.25461602
0003e0 0e d0 c7 3d 40 ab 65 3e fe b0 b5 3d 33 88 b5 3d
       0.0975648 0.22428608 0.08871649 0.088638686
0003f0 2b e9 19 3e b8 75 a6 3d 4a fe 76 3e bc 10 c7 3d
       0.15030353 0.08127922 0.24120441 0.09719989

last.weight f4 [1, 256]
000000 ee 4e 5b 3f 32 82 47 3f 5f 10 fb 3f c3 57 f1 3f
       0.8566731 0.7793304 1.9614371 1.8854908
000010 9f e5 4e 3f 02 5c dd 3b 05 8b 0e ba d1 3e 4a 3f
       0.80819124 0.006755353 -0.00054375856 0.790021
000020 de 3e 91 3f 87 df 80 c0 8d 7d 7d 3f 63 09 4c 3f
       1.134731 -4.027286 0.990197 0.79701823
000030 04 02 72 3a 4a c6 3c ba af 67 50 3f dd 13 69 b9
       0.0009231868 -0.0007201178 0.8140821 -0.00022228011
000040 98 8f 84 3f 53 11 4c 3f f7 bc 74 3f e1 9f f9 3b
       1.0356321 0.79713935 0.9560084 0.007617936
000050 5d ed 8f 3f 46 31 fe 38 dc 16 27 bb 4a f7 50 3f
       1.1244313 0.00012120842 -0.0025495803 0.81627333
000060 bb 9b 0f 40 c9 a4 15 bb b2 90 17 40 b4 ef 84 3f
       2.24388 -0.0022833815 2.3682065 1.0385652
000070 a1 09 83 3f dc ef f0 3b 2a f7 b3 3b 03 58 91 c0
       1.0237314 0.007352812 0.0054921107 -4.5419936
000080 f6 33 51 bb a0 a0 54 3a 5d f7 09 b8 5c 6e 4e 3f
       -0.003192184 0.0008111093 -3.289372e-05 0.80637145
000090 b1 13 48 3f 51 98 e8 3f d8 d1 25 bb 40 39 47 3f
       0.78155047 1.8171483 -0.0025302079 0.7782173
0000a0 20 d4 89 3f 24 c6 4a 3f 50 3e 7c 3f 1b c3 06 3c
       1.076786 0.7920859 0.9853258 0.008225228
0000b0 fa 4e 87 ba 15 b2 0f bb 82 5f 2b bb fe d8 49 3f
       -0.001032322 -0.0021926214 -0.0026149456 0.7884673
0000c0 15 80 21 ba e7 c4 49 3f 4f 49 81 3f 94 2f 7a 3f
       -0.00061607483 0.78816074 1.0100497 0.9772885
0000d0 b7 ff 7f 3f 4f 6d be ba b9 04 f1 ba 23 8d 4a 3f
       0.99999565 -0.0014528426 -0.0018388248 0.7912161
0000e0 c0 ac 82 3f 6e 02 4f 3f f9 e7 3c bb 95 f3 cc ba
       1.0208969 0.8086308 -0.002882479 -0.0015636558
0000f0 f4 c2 5f ba 7c 28 40 bb ae b8 16 ba 3b 14 84 3f
       -0.0008535825 -0.0029321006 -0.00057495653 1.0318674
000100 a7 db ea ba 2c 66 47 3f da 0c fd 38 d6 45 80 3f
       -0.0017918245 0.77890277 0.00012066374 1.0021312
000110 30 79 91 3f ec d4 8b 3f 76 b3 49 3f 88 a6 89 3f
       1.1365108 1.0924354 0.7878946 1.0753946
000120 46 18 46 3f f6 34 87 c0 a2 18 93 3f 14 80 49 3f
       0.7738079 -4.225215 1.1491892 0.78711057
000130 af 4c 3c bb ba 2c 50 3f 94 1b 07 40 df a8 92 3f
       -0.002873223 0.8131825 2.1110582 1.1457785
000140 72 5a 49 3f 3b e5 4d 40 80 63 4a 3f 54 e1 ac 3a
       0.78653634 3.217116 0.79058075 0.0013189712
000150 d7 aa 91 3f cf af 90 3f 8d d6 81 3f 0d 94 4c 3a
       1.1380261 1.1303653 1.0143601 0.00078040437
000160 a8 eb 49 3f 3e 49 4d 3f e6 13 c7 ba d0 c9 1b bb
       0.7887521 0.80189884 -0.0015188425 -0.0023771413
000170 85 f1 83 3f ec 33 f2 3a 9a 8f 11 bb 7c bc c6 3a
       1.0308081 0.0018478609 -0.0022210837 0.0015162374
000180 fe 0b 4c 3f 15 75 35 bb be 99 5d 3f 3f 14 c7 ba
       0.797058 -0.0027688195 0.86562717 -0.0015188529
000190 71 a6 22 bb fd 97 91 3f 07 64 46 3f 60 81 4b 3f
       -0.0024818445 1.1374508 0.7749638 0.79494286
0001a0 32 ae 2a bb 7a 51 51 bb 11 0e 78 3f 88 93 20 3b
       -0.002604377 -0.0031939433 0.96896464 0.0024501998
0001b0 aa 2c 53 3f 87 1c 50 3f 32 23 17 bb 3c 77 42 bb
       0.82490027 0.8129353 -0.002306175 -0.002967312
0001c0 07 c7 09 bb ad bc 47 3f 45 ff b7 ba 5c 5b ff ba
       -0.002102317 0.7802227 -0.0014037868 -0.0019482183
0001d0 9e 30 ed ba 33 36 2a bb 6e bb ad 38 b0 ea 51 3f
       -0.0018096154 -0.0025972247 8.284194e-05 0.8199873
0001e0 09 39 49 3f c1 ed 4b 3f ec 0e 34 b9 74 5f 5e 3f
       0.78602654 0.7965966 -0.00017171697 0.868644
0001f0 f3 e3 93 ba 14 5a 53 bb c1 19 51 3f ee c5 32 bb
       -0.0011283144 -0.0032249736 0.8167992 -0.002727862
000200 d5 65 8f 3f b8 89 db 3f bb 5a 88 3f 5f 2f 94 3f
       1.1202952 1.7151403 1.0652689 1.1576957
000210 b2 bb 8e 3f ed a3 28 40 7d e3 76 3f a5 be ab 3f
       1.115103 2.6350052 0.9644087 1.3417555
000220 ec 97 85 3f 33 31 5e 3f a7 4e 78 3f ec ee 4b 3f
       1.0436988 0.8679382 0.96995014 0.7966144
000230 b4 e9 4f 3f 6b 5d 29 bb 08 d3 82 3f bf 3c 49 3f
       0.8121598 -0.0025843035 1.0220652 0.78608316
000240 b3 58 4b 3f 43 6e 44 bb 50 e7 4b 3f 6b eb 47 3f
       0.7943222 -0.0029972948 0.7964983 0.78093594
000250 fd bd 0a bb 45 57 3d ba f6 1e 64 3f 6f 0b 54 3f
       -0.002117037 -0.0007222782 0.8910974 0.82829946
000260 ef c3 4a bb 38 ae 95 ba 2d 33 88 ba 01 1a 8b 3f
       -0.003093954 -0.0011419719 -0.0010391228 1.0867311
000270 29 43 65 3b 55 62 21 bb 1f 30 bc 3b 0e 69 e0 b9
       0.0034982658 -0.002462526 0.005743041 -0.0004280288
000280 76 55 4f 3f 99 31 48 3f 4d a2 57 3f 73 25 86 3f
       0.8098978 0.7820068 0.84232026 1.0480179
000290 57 87 be 3f 21 81 35 bb 7b b8 1b bb 35 63 49 3f
       1.4885052 -0.0027695375 -0.0023761082 0.78667
0002a0 47 fd 97 b9 8a 74 48 bb 5a 7c 44 bb 4f 34 92 3f
       -0.0002898967 -0.003058704 -0.0029981346 1.1422213
0002b0 28 84 06 bb b9 9e 92 3f 0d e8 d1 3b 7f ea 3c 40
       -0.0020525549 1.1454688 0.0064058364 2.9518125
0002c0 16 3f 91 3f 54 26 4d bb d2 12 54 3f a4 78 8a ba
       1.1347377 -0.0031303363 0.8284122 -0.0010564518
0002d0 03 4a bb 3a 0a 7f 47 3f 8a 28 16 bb 82 a7 49 3f
       0.0014289025 0.7792822 -0.0022912347 0.7877122
0002e0 b2 e8 4f ba d2 dc 42 bb 58 6c 7d 3f 4e bd ff ba
       -0.00079310976 -0.002973367 0.98993444 -0.0019511373
0002f0 84 d9 3f bb 68 92 7a 3f 4a 3e 1f 40 80 1c f7 ba
       -0.0029273937 0.9787965 2.4881768 -0.0018853098
000300 1b 21 88 3f 67 16 2f bb 69 24 be ba b3 cc 47 bb
       1.0635103 -0.0026716234 -0.0014506701 -0.0030487
000310 72 61 79 3f d0 05 8c 3f 1d ee 4c 3f 79 69 4d 3f
       0.97414315 1.0939274 0.8005083 0.80239064
000320 2f 89 51 3f 10 e9 81 c0 58 ac 48 3f 6c a0 50 3f
       0.8184995 -4.0597 0.78387976 0.81494784
000330 5c 22 52 ba 66 98 32 bb f3 01 4b 3f dc 20 27 bb
       -0.0008015984 -0.002725148 0.7929985 -0.0025501763
000340 c1 ee 45 bb 90 ec 4e 3f 78 1b 7c 3f 86 06 c1 ba
       -0.0030202123 0.80829716 0.98479414 -0.0014726676
000350 c4 ab 81 3f 9a 9b 4b 3f a0 a8 fe 3b d8 3a 87 3f
       1.0130544 0.79534304 0.0077715665 1.0564833
000360 7c a1 41 bb 24 21 7d 3f e1 9c 70 3f 5e 1d 79 3f
       -0.0029545715 0.98878694 0.9398938 0.97310436
000370 ec 63 39 bb 19 b2 30 bb 94 00 e6 3f 5c c9 7a 3f
       -0.0028288318 -0.0026961623 1.7968926 0.979635
000380 57 9e 83 3f e7 8e 47 3f 3e c2 de 3f c6 e6 32 bb
       1.0282696 0.77952427 1.7403028 -0.0027298196
000390 d3 83 df 3b 26 21 aa 38 3a d9 48 3f 35 99 47 3f
       0.0068211346 8.112406e-05 0.7845646 0.7796815
0003a0 9a 81 47 3f 1d a5 4e 3f 5c 60 ed ba 2a 44 7b b9
       0.7793213 0.8072069 -0.0018110382 -0.00023962618
0003b0 dc 2b 51 3f ad 4a 50 3f 34 de c8 ba 01 82 59 3f
       0.8170755 0.81363946 -0.0015325011 0.84963995
0003c0 bd 7f 88 3f 40 ce 32 bb 49 90 2d bb 64 bd a1 3f
       1.0663983 -0.002728358 -0.0026483706 1.2635922
0003d0 f9 3a 38 bb e4 aa 9e 40 ac 09 45 3f 3c 74 4a 3f
       -0.0028111322 4.9583607 0.76967883 0.7908361
0003e0 9b a7 36 b7 b7 43 51 3f ce 6f 27 bb 06 d4 01 3b
       -1.0887069e-05 0.8174395 -0.0025548819 0.0019810214
0003f0 f1 86 77 3f e7 2d d6 3b bb 5a 50 3f 32 f6 28 bb
       0.9669028 0.0065362337 0.81388444 -0.002578151
